scripts/python/deep-learning/experiments/cnn3d/002/model-cnn3d-epoch-3.pth (torch_old, 7127 bytes, 21 tensors)

conv1.weight f4 [5, 40, 1, 1, 1]
00000000: 513d 1f3e 9880 9ebc 7156 683e 2996 343e
00000010: 81a7 1f3e b23d 653e 810a 163c 33cc b13d
00000020: 4930 043e 9ea9 1a3d 75aa 133e dd59 843e
00000030: dc29 783e f49d 823e 8dc4 463d a179 de3c
00000040: d628 7c3c d6a1 10bd f56c 813e abf5 a83d
00000050: 986e 613b daa8 a93d 025d 243e 6a66 7dbc
00000060: 281a 20bd c4c8 823e b5ef 493d bbcb 3f3e
00000070: ba40 853d 35b7 de3c 3f7c ec3d d478 073e
00000080: 89d3 773e 6fab 063e 7963 32bc 3839 3b3e
00000090: f828 3cbd 48b5 ea3d cd6c 1dbb ca67 663d
000000a0: 210c 19be c416 b3bd 8411 473d 85a7 b13d
000000b0: 8afb a7bd b411 acbb c787 083e 2d01 c3bd
000000c0: 0d87 61bd e4ef ed3d e92f e43d 2eda e03c
000000d0: a0ae 65bd 83b5 fe3d 8695 573c 47ec 8abd
000000e0: 8a51 d6bd aafb d63d 2c17 9fbd 2e48 be3c
000000f0: 2c34 003e a90b 9a3c 7ed2 c33d f745 08bd
00000100: 2c06 163d 59b7 dbbd ee9c 06be 8913 97bd
00000110: 38a6 16be 0064 86bd 662d 2f3c eda5 dbbd
00000120: 9ac0 103e 1ba5 d4bc 7b0a 91bd 57ec f03d
00000130: 38ae 07be 5937 d13d e7ac 9bbd 9fcc 9ebb
00000140: cdec 42bd 6e79 6dbd fc80 d9bd 9a81 debd
00000150: e61d 23be 9326 023c 9e3a 07be ca2c 09be
00000160: f939 33be 7907 653d 19ae 063e c0cc 8dbd
00000170: 12f4 b23b 0bf8 b0bd 1728 b03d e63d 9a3d
00000180: 9d13 3f3d 20e6 18be 93ef 51bd 5dd1 f8bd
00000190: 7d69 b6bd 35cb 193d fa30 31be 4135 2cbe
000001a0: 6de3 ad3d 18b7 10be a921 fa3d 679e b93d
000001b0: d175 d73d ea42 1ebe 7bf3 453d c107 03be
000001c0: 56e8 b9bd 8d9a f6bd f3be 1cbe aef8 2d3c
000001d0: 8acb e93c ee96 90bc 0d48 a6bd 2d6b 57bc
000001e0: 3f52 243e 71a5 a9bc 41db 25b9 3343 113e
000001f0: 4305 ad3c 6bac c9bd ded0 f1bc 9307 023e
00000200: 905a 31bd 4641 b9bc 01c9 b33d 1bea fdbc
00000210: be4b 3fbc 3a26 a5bd 86e3 033d 0f28 f83d
00000220: 4a86 1f3c c7e5 3bbd 11a9 94bc 7855 7c3c
00000230: 43d1 0b3e 5c9f 38bd ec43 5b3d 9788 0e3b
00000240: 9c9b 143e 7542 303e e8b4 193e 1bf7 203e
00000250: 9af3 8ebc 6976 88bb 7916 143c 6d0a 8f3d
00000260: 2809 bcbd a558 293e d823 60b9 14e0 4a3e
00000270: 987e aa3d e34f a7bd d2ca 7fbd 0c75 983d
00000280: 8ed9 3dbe faf5 35be ac0f 3bbe 8705 82be
00000290: 0b9c fabd 58e7 09be 9e32 6fbe d19e b9bd
000002a0: 7a20 40be e9b1 7abe 6810 edbd 9fe5 87bd
000002b0: 4329 9abd 4b60 a43c 2889 babd babe 75be
000002c0: a67d 7cbe b34d 2dbe de00 b3bd 6a2e 64be
000002d0: 126e febd 13d8 49be 5233 32be b98e 83be
000002e0: e3c0 9b3c 8926 88bd 98d4 ccbd 02a3 4dbe
000002f0: d616 83bc 329f c4bb e484 10be 39d2 5dbe
00000300: f70d f7ba 181e 87bd 84a5 c9bd 20bd 81be
00000310: 6fa4 89be 111b 93be f3f0 88be 140b 5fbe
0.15550734 -0.019348428 0.22689225 0.17635407 0.15591241 0.22386816 0.009157778 0.08681526
0.12909044 0.037759416 0.14420493 0.2584981 0.24234718 0.25511134 0.04852729 0.027157607
0.015390595 -0.03531059 0.2527844 0.082499824 0.0034398194 0.08284159 0.16051105 -0.015466312
-0.039087445 0.25543797 0.049300868 0.18730061 0.06506486 0.02718697 0.115471356 0.13229686
0.24201788 0.13151334 -0.010887974 0.18283546 -0.04593751 0.11460358 -0.002402115 0.056251325
-0.14946033 -0.087445766 0.04860069 0.0867453 -0.08202274 -0.005251134 0.13333045 -0.09521709
-0.055060435 0.11618021 0.11141951 0.027447786 -0.05607474 0.12436964 0.013158208 -0.067833476
-0.10464771 0.1049722 -0.077680916 0.023227777 0.12519902 0.018804388 0.095616326 -0.03326985
0.03662698 -0.1072833 -0.13145801 -0.07376773 -0.14711845 -0.06562042 0.010691976 -0.10725007
0.14135972 -0.025957635 -0.07082077 0.11763828 -0.13250053 0.10215635 -0.07601338 -0.00484617
-0.047589112 -0.057977132 -0.10620305 -0.10864563 -0.15929374 0.007943767 -0.13205954 -0.13395992
-0.17502584 0.05591533 0.1315235 -0.069238186 0.0054612244 -0.086410604 0.086013965 0.075313374
0.046649564 -0.14931536 -0.051253866 -0.12149308 -0.08906839 0.03754731 -0.1730384 -0.1681719
0.08490644 -0.14132345 0.122134514 0.09063416 0.105205186 -0.15455213 0.048327904 -0.12795927
-0.09077518 -0.12041197 -0.15307216 0.010618372 0.028539438 -0.017650094 -0.08119211 -0.013148111
0.16047 -0.020708771 -0.00015817305 0.1418579 0.021120673 -0.09847339 -0.029518541 0.12698202
-0.043299258 -0.022614133 0.08778573 -0.03099542 -0.011675773 -0.08063932 0.032199405 0.121170156
0.009736607 -0.04587343 -0.018147023 0.015401237 0.13654046 -0.045073852 0.053531572 0.0021748894
0.14512485 0.17212851 0.15010417 0.15719263 -0.017450143 -0.004164506 0.009038561 0.069844104
-0.09181434 0.16537721 -0.00021375658 0.19812042 0.08324927 -0.08169534 -0.062449284 0.074442
-0.18540022 -0.17769614 -0.18267697 -0.25394842 -0.12236794 -0.13467157 -0.23359153 -0.09063495
-0.18762389 -0.2448193 -0.11575395 -0.066355936 -0.07527401 0.020065447 -0.09108192 -0.23998538
-0.24657306 -0.16924171 -0.087404 -0.2228333 -0.12423338 -0.19711332 -0.1740239 -0.25694826
0.019012874 -0.06647975 -0.100014865 -0.20081714 -0.0160021 -0.006000423 -0.14113194 -0.21662225
-0.0018848766 -0.06597537 -0.09846023 -0.25339603 -0.26883265 -0.28731588 -0.2674633 -0.2178157

conv1.bias f4 [5]
00000000: 3548 283f 612c 57bf 151e 333f 2e1e 04bf
00000010: b036 153f
0.6573518 -0.8405209 0.69967777 -0.5160855 0.5828657

conv2.weight f4 [2, 5, 1, 1, 1]
00000000: 3a29 f13e eeba eabe 3ff5 ef3e 9568 973d
00000010: 3714 8bbe 2757 033f 7353 05bf aa55 0b3f
00000020: e71f eabe de33 7f3e
0.47101766 -0.4584574 0.46866795 0.07392994 -0.2716386 0.5130486 -0.5208046 0.5442759
-0.45727465 0.2492213

conv2.bias f4 [2]
00000000: 4a43 813f 5988 293f
1.009866 0.66223675

conv3.weight f4 [1, 2, 1, 1, 1]
00000000: 707d 2abf 10a0 55bf
-0.6659765 -0.8344736

fc1.weight f4 [12, 5]
00000000: 0703 0d3e 91e2 813e bf6d f6bd 8ae8 cdbe
00000010: 05f5 e7be bcae 053f b6a7 f6bd 64cb b03e
00000020: 049c c33d 7014 cc3e ac8b f73a 22fc cdbb
00000030: 56bf b73d 8cba a93e 08f3 013f d40b 9bbe
00000040: 7e6b 533c 0ed3 abbd 151e d3bd 43e8 01bf
00000050: 00c8 8fbd 14f9 ab3e 268d f73e 3a44 1d3e
00000060: d460 2a3f 8e44 f63e 8ebe d13e 8546 853e
00000070: f491 c03e 2c01 c03e f87d 4dbe b860 4c3e
00000080: 75a9 bbbe 1388 e33d 2bae 0c3e 7f0c 303e
00000090: 3fab 033f 7cfb 343b 4048 b23e bd2b f13d
000000a0: e15d b23e 5615 053f e5b5 efbd 73c7 b73d
000000b0: 5907 0a3f 6802 f0be 2159 a6be a4ff 98be
000000c0: 0e55 efbe e9e3 fcbe b631 1a3f cb34 6f3e
000000d0: 71c6 aa3e 10b8 f23d 6ca5 b2bd c18e 95bd
000000e0: e73f 9d3d 2ed7 0a3f c08f da3e 3bb9 b23e
0.13770686 0.2536817 -0.12032651 -0.40216476 -0.45304123 0.5221975 -0.12043707 0.34530175
0.09551242 0.39859343 0.001888623 -0.00628616 0.08972041 0.33150136 0.5076146 -0.30282462
0.012904046 -0.08389865 -0.10308472 -0.5074503 -0.07020569 0.3358847 0.48349875 0.15358058
0.66554 0.48099178 0.40965694 0.26030365 0.37611353 0.37500894 -0.20067585 0.1995877
-0.36652723 0.111099385 0.13738315 0.17192267 0.51433176 0.0027615717 0.34820747 0.117759205
0.3483725 0.5198568 -0.117046155 0.08973589 0.5391746 -0.46876836 -0.32489875 -0.29882538
-0.4674458 -0.49392632 0.602321 0.23359983 0.33354524 0.118515134 -0.08722958 -0.07302619
0.07678204 0.5423459 0.42687798 0.34906945

fc1.bias f4 [12]
00000000: 4bf9 023e 0eb4 c6bd 16a1 23bf ecbc 093f
00000010: 3364 fbbe b0a8 cabe 59a6 643e 5372 f1be
00000020: c27d bbbb 8dee 25be 91c5 4c3d 070b a6be
0.1279041 -0.097023115 -0.6391767 0.53803897 -0.49099883 -0.39581823 0.22329082 -0.47157535
-0.0057217786 -0.16204281 0.0499931 -0.32430288

exp_avg f4 [5, 40, 1, 1, 1]
00000000: 8812 43b8 ce8a 49b8 c37a 4fb8 30da 54b8
00000010: 1da3 59b8 61cc 5db8 d24b 61b8 2d25 64b8
00000020: fa4d 66b8 15c8 67b8 1c96 68b8 8fc4 68b8
00000030: fc51 68b8 924b 67b8 c0b8 65b8 81a0 63b8
00000040: fe0e 61b8 2914 5eb8 90b3 5ab8 6901 57b8
00000050: 810b 53b8 77de 4eb8 7286 4ab8 9b17 46b8
00000060: c29d 41b8 9121 3db8 c4b7 38b8 fb6a 34b8
00000070: 6c3a 30b8 af38 2cb8 046f 28b8 b5ea 24b8
00000080: 13a4 21b8 a9a6 1eb8 17f0 1bb8 fb8d 19b8
00000090: 5875 17b8 6baf 15b8 5a31 14b8 0aff 12b8
000000a0: f081 3d39 98cc 3e39 b604 4039 b328 4139
000000b0: 8437 4239 5030 4339 dc10 4439 32d8 4439
000000c0: 0e86 4539 331a 4639 4694 4639 93f3 4639
000000d0: 813a 4739 d968 4739 8980 4739 0182 4739
000000e0: d36e 4739 1146 4739 e10a 4739 15bd 4639
000000f0: 935f 4639 0af2 4539 d974 4539 8de9 4439
00000100: 114f 4439 c8a4 4339 6de8 4239 d11c 4239
00000110: 0a40 4139 8750 4039 a44c 3f39 9c35 3e39
00000120: 570a 3d39 0acb 3b39 1d76 3a39 b20c 3939
00000130: bc8c 3739 1ef8 3539 694f 3439 fb92 3239
00000140: 3676 44b9 7bc2 45b9 75fb 46b9 f81f 48b9
00000150: 2e2f 49b9 4b28 4ab9 6209 4bb9 98d1 4bb9
00000160: cf80 4cb9 ec16 4db9 a393 4db9 19f6 4db9
00000170: 1341 4eb9 2374 4eb9 6991 4eb9 1899 4eb9
00000180: e88c 4eb9 fa6b 4eb9 4d39 4eb9 dbf4 4db9
00000190: b0a1 4db9 633f 4db9 2ace 4cb9 da4f 4cb9
000001a0: 03c3 4bb9 4e27 4bb9 5a7a 4ab9 f5be 49b9
000001b0: 1df3 48b9 2b15 48b9 3f23 47b9 9a1e 46b9
000001c0: 0d06 45b9 86d9 43b9 2a97 42b9 1c40 41b9
000001d0: e5d1 3fb9 144e 3eb9 1eb5 3cb9 df06 3bb9
000001e0: b206 8138 c9f2 7f38 cd9a 7d38 d408 7b38
000001f0: 4c40 7838 1645 7538 721b 7238 2cca 6e38
00000200: 8452 6b38 68ba 6738 5d06 6438 613a 6038
00000210: 7f59 5c38 dd6b 5838 e873 5438 e073 5038
00000220: 956d 4c38 c768 4838 5e64 4438 2b64 4038
00000230: 8869 3c38 8279 3838 f193 3438 56be 3038
00000240: bdf8 2c38 d546 2938 b2a9 2538 3f23 2238
00000250: 87b3 1e38 bb5d 1b38 2421 1838 4300 1538
00000260: 90f8 1138 080c 0f38 5e3c 0c38 758a 0938
00000270: cbf0 0638 6778 0438 d71e 0238 9dc8 ff37
00000280: a1a6 bcb7 276d beb7 0ff9 bfb7 244b c1b7
00000290: 2e63 c2b7 0936 c3b7 46c2 c3b7 630a c4b7
000002a0: d50c c4b7 94c8 c3b7 643b c3b7 3e6b c2b7
000002b0: 3958 c1b7 6505 c0b7 0c7c beb7 e8b8 bcb7
000002c0: b1c3 bab7 5d95 b8b7 3138 b6b7 30ad b3b7
000002d0: ceff b0b7 eb2e aeb7 0338 abb7 3828 a8b7
000002e0: eaf5 a4b7 f7a8 a1b7 dd32 9eb7 049d 9ab7
000002f0: d3e2 96b7 b8fc 92b7 6be7 8eb7 90a2 8ab7
00000300: 7f26 86b7 6b77 81b7 3712 79b7 d1bf 6eb7
00000310: f4e1 63b7 8f7b 58b7 5b92 4cb7 8f1c 40b7
-4.650888e-05 -4.8051406e-05 -4.9466977e-05 -5.074794e-05 -5.1888743e-05 -5.288085e-05 -5.3714793e-05 -5.439406e-05
-5.4908895e-05 -5.5261033e-05 -5.545291e-05 -5.549617e-05 -5.5389464e-05 -5.5145072e-05 -5.4769916e-05 -5.42705e-05
-5.3658143e-05 -5.29477e-05 -5.214248e-05 -5.1261308e-05 -5.0317034e-05 -4.9321414e-05 -4.8285765e-05 -4.7228863e-05
-4.616171e-05 -4.5092373e-05 -4.4040164e-05 -4.3014978e-05 -4.201608e-05 -4.1060786e-05 -4.0157713e-05 -3.9319235e-05
-3.8538197e-05 -3.782535e-05 -3.717848e-05 -3.6610272e-05 -3.611049e-05 -3.568774e-05 -3.5331912e-05 -3.5046636e-05
0.0001807285 0.00018196029 0.00018312302 0.00018421076 0.00018521963 0.00018614647 0.00018698297 0.00018772556
0.00018837323 0.00018892511 0.00018937988 0.0001897349 0.00018999913 0.00019017178 0.00019026002 0.00019026549
0.00019019404 0.0001900422 0.00018982172 0.0001895319 0.00018918356 0.0001887755 0.00018830913 0.00018779021
0.00018721471 0.00018658035 0.00018587867 0.00018512017 0.0001842977 0.00018340546 0.0001824373 0.00018139783
0.00018028296 0.00017909348 0.00017782343 0.00017647704 0.00017504668 0.00017353936 0.0001719572 0.00017030157
-0.00018736054 -0.00018859834 -0.00018976427 -0.00019085396 -0.0001918643 -0.00019279231 -0.00019363084 -0.00019437668
-0.00019502941 -0.00019558863 -0.00019605322 -0.00019642002 -0.00019669933 -0.00019688955 -0.0001969986 -0.00019702723
-0.00019698183 -0.00019685915 -0.00019667037 -0.00019641539 -0.00019610557 -0.00019573937 -0.00019531758 -0.00019484703
-0.00019432236 -0.00019374231 -0.000193098 -0.00019239991 -0.00019164053 -0.00019081372 -0.00018991249 -0.00018894151
-0.00018789638 -0.00018677683 -0.00018557595 -0.00018429797 -0.00018293371 -0.00018148898 -0.00017996549 -0.0001783627
6.1524464e-05 6.102285e-05 6.046407e-05 5.9851285e-05 5.918769e-05 5.8476893e-05 5.7722857e-05 5.693191e-05
5.6105215e-05 5.5248296e-05 5.4365362e-05 5.346013e-05 5.2535437e-05 5.159887e-05 5.0652685e-05 4.969898e-05
4.8739446e-05 4.7781297e-05 4.6823516e-05 4.5869656e-05 4.4920977e-05 4.398218e-05 4.3053125e-05 4.2138934e-05
4.123965e-05 4.0358707e-05 3.9497107e-05 3.8656635e-05 3.7837333e-05 3.7042173e-05 3.627049e-05 3.5524612e-05
3.4802186e-05 3.410506e-05 3.3434822e-05 3.2792293e-05 3.2172346e-05 3.1583386e-05 3.1023137e-05 3.0491787e-05
-2.2488939e-05 -2.2700593e-05 -2.2884951e-05 -2.3042383e-05 -2.3172786e-05 -2.3270974e-05 -2.3336277e-05 -2.3369857e-05
-2.3370996e-05 -2.3339213e-05 -2.3273467e-05 -2.317654e-05 -2.3048475e-05 -2.2890696e-05 -2.2707529e-05 -2.249745e-05
-2.2264054e-05 -2.2004062e-05 -2.1722257e-05 -2.141911e-05 -2.1099953e-05 -2.0764264e-05 -2.0410871e-05 -2.0045889e-05
-1.9664836e-05 -1.9271376e-05 -1.8858753e-05 -1.8431347e-05 -1.7987017e-05 -1.7522238e-05 -1.7035482e-05 -1.6526581e-05
-1.5991971e-05 -1.5433607e-05 -1.48457975e-05 -1.4230566e-05 -1.3582863e-05 -1.29033715e-05 -1.2193424e-05 -1.1450741e-05

exp_avg_sq f4 [5, 40, 1, 1, 1]
00000000: be78 d136 834d d136 6d20 d136 1df1 d036
00000010: bcbf d036 a08d d036 585a d036 8526 d036
00000020: fdf2 cf36 83c0 cf36 1390 cf36 9062 cf36
00000030: 7a38 cf36 1513 cf36 def2 ce36 6bd8 ce36
00000040: 82c4 ce36 fbb7 ce36 5ab2 ce36 81b4 ce36
00000050: 3bbe ce36 91cf ce36 6ae8 ce36 2a08 cf36
00000060: 5e2e cf36 fd59 cf36 3a8a cf36 53be cf36
00000070: 55f5 cf36 772d d036 cf66 d036 c29f d036
00000080: 89d7 d036 0b0e d136 8041 d136 c271 d136
00000090: 669f d136 93c9 d136 9ef0 d136 d714 d236
000000a0: 3d94 a336 eca8 a336 40b8 a336 33c2 a336
000000b0: 97c6 a336 fcc5 a336 07c0 a336 e4b4 a336
000000c0: cca4 a336 8690 a336 d177 a336 f75a a336
000000d0: 2c3a a336 dc15 a336 24ee a236 5bc3 a236
000000e0: 4e95 a236 4164 a236 3830 a236 07f9 a136
000000f0: d5be a136 e081 a136 e841 a136 cafe a036
00000100: b3b8 a036 e36f a036 7f24 a036 c8d6 9f36
00000110: eb86 9f36 5735 9f36 73e2 9e36 c68e 9e36
00000120: d93a 9e36 e0e6 9d36 8b93 9d36 7341 9d36
00000130: f4f0 9c36 84a2 9c36 df56 9c36 fd0d 9c36
00000140: 9d12 8936 d6ef 8836 8fd0 8836 c2b4 8836
00000150: 739c 8836 1288 8836 3d77 8836 bf69 8836
00000160: f15f 8836 af59 8836 8456 8836 3056 8836
00000170: da58 8836 0b5e 8836 a965 8836 726f 8836
00000180: 087b 8836 4788 8836 bc96 8836 16a6 8836
00000190: 1eb6 8836 bcc6 8836 acd7 8836 7de8 8836
000001a0: 54f9 8836 080a 8936 5f1a 8936 002a 8936
000001b0: 8939 8936 8748 8936 ee56 8936 0765 8936
000001c0: c572 8936 6480 8936 338e 8936 f79b 8936
000001d0: aaa9 8936 0bb8 8936 14c7 8936 c4d6 8936
000001e0: ceae ff35 823f ff35 84d5 fe35 5b70 fe35
000001f0: 3810 fe35 52b6 fd35 7e62 fd35 d914 fd35
00000200: 98cd fc35 658e fc35 e156 fc35 f027 fc35
00000210: f901 fc35 56e5 fb35 86d1 fb35 5fc7 fb35
00000220: 8bc6 fb35 3dcf fb35 2be0 fb35 10fa fb35
00000230: 981b fc35 b244 fc35 c174 fc35 7eaa fc35
00000240: 3fe5 fc35 4b24 fd35 f265 fd35 01aa fd35
00000250: 71ef fd35 0835 fe35 447a fe35 e5bd fe35
00000260: 32ff fe35 583e ff35 b179 ff35 aab0 ff35
00000270: 65e4 ff35 ee09 0036 f71f 0036 4434 0036
00000280: d9f4 1b35 67af 1b35 7268 1b35 f320 1b35
00000290: 3fda 1a35 e394 1a35 6751 1a35 9f10 1a35
000002a0: 79d3 1935 d49a 1935 a866 1935 3037 1935
000002b0: 130d 1935 b7e8 1835 dcc9 1835 22b0 1835
000002c0: a29b 1835 678b 1835 d57e 1835 2575 1835
000002d0: 646d 1835 6666 1835 e05e 1835 eb55 1835
000002e0: 8d4a 1835 713c 1835 ef2a 1835 9d15 1835
000002f0: 0ffc 1735 9ade 1735 87bd 1735 1a99 1735
00000300: d071 1735 ca47 1735 701b 1735 baed 1635
00000310: b3be 1635 ca8e 1635 d25e 1635 642e 1635
6.2427416e-06 6.237709e-06 6.2324602e-06 6.2269523e-06 6.221204e-06 6.2153704e-06 6.2094005e-06 6.2033673e-06
6.1973683e-06 6.191492e-06 6.185853e-06 6.180555e-06 6.1756555e-06 6.171302e-06 6.167552e-06 6.164473e-06
6.162155e-06 6.1606966e-06 6.1600413e-06 6.160292e-06 6.161424e-06 6.1634423e-06 6.166335e-06 6.170031e-06
6.1744786e-06 6.1795567e-06 6.1851724e-06 6.1912374e-06 6.197641e-06 6.204176e-06 6.2108516e-06 6.2174813e-06
6.2239747e-06 6.23032e-06 6.2363106e-06 6.2419285e-06 6.247242e-06 6.2521517e-06 6.256697e-06 6.260914e-06
4.8750358e-06 4.8774436e-06 4.879228e-06 4.8803863e-06 4.8808974e-06 4.880827e-06 4.8801335e-06 4.878837e-06
4.8769634e-06 4.8746033e-06 4.871727e-06 4.8683683e-06 4.8645506e-06 4.8603233e-06 4.8556994e-06 4.8507186e-06
4.8453576e-06 4.8396473e-06 4.8335896e-06 4.8271645e-06 4.8203897e-06 4.8132933e-06 4.8058464e-06 4.798033e-06
4.7898734e-06 4.781397e-06 4.7726203e-06 4.763573e-06 4.754276e-06 4.744779e-06 4.735129e-06 4.725388e-06
4.7156177e-06 4.705842e-06 4.696141e-06 4.686584e-06 4.677213e-06 4.6680816e-06 4.6592754e-06 4.6507907e-06
4.085085e-06 4.0810364e-06 4.0773953e-06 4.074159e-06 4.071329e-06 4.0689565e-06 4.066997e-06 4.0654263e-06
4.064285e-06 4.0635564e-06 4.0631876e-06 4.0631494e-06 4.0634595e-06 4.064064e-06 4.0649506e-06 4.06609e-06
4.0674386e-06 4.0689806e-06 4.0706636e-06 4.072451e-06 4.074317e-06 4.0762516e-06 4.0782234e-06 4.080181e-06
4.0821415e-06 4.084086e-06 4.085988e-06 4.0878076e-06 4.089616e-06 4.0913615e-06 4.093038e-06 4.0946793e-06
4.096279e-06 4.097865e-06 4.0994723e-06 4.101075e-06 4.1026697e-06 4.1043436e-06 4.106094e-06 4.10792e-06
1.9049855e-06 1.9017464e-06 1.8986616e-06 1.8957174e-06 1.8929195e-06 1.8903031e-06 1.8878634e-06 1.8856036e-06
1.8835299e-06 1.8816905e-06 1.8800748e-06 1.8787086e-06 1.8776037e-06 1.8767703e-06 1.8761937e-06 1.8758982e-06
1.8758741e-06 1.8761272e-06 1.8766199e-06 1.8773735e-06 1.8783494e-06 1.8795456e-06 1.8809443e-06 1.8825083e-06
1.8842182e-06 1.8860532e-06 1.8879639e-06 1.8899447e-06 1.8919656e-06 1.8939909e-06 1.8960059e-06 1.8979741e-06
1.8998746e-06 1.9017125e-06 1.9034397e-06 1.9050397e-06 1.9065452e-06 1.9079266e-06 1.9092092e-06 1.910391e-06
5.80983e-07 5.7997244e-07 5.789399e-07 5.7789947e-07 5.768706e-07 5.758613e-07 5.7487927e-07 5.739366e-07
5.7304675e-07 5.7222246e-07 5.7146326e-07 5.707725e-07 5.7015967e-07 5.696306e-07 5.6918157e-07 5.688072e-07
5.685089e-07 5.682727e-07 5.680898e-07 5.679488e-07 5.6783597e-07 5.677342e-07 5.6762474e-07 5.674944e-07
5.67329e-07 5.6712366e-07 5.668689e-07 5.6655864e-07 5.6618677e-07 5.657581e-07 5.652768e-07 5.6474676e-07
5.64175e-07 5.635635e-07 5.629181e-07 5.622529e-07 5.615686e-07 5.608714e-07 5.6017336e-07 5.594686e-07

exp_avg f4 [2, 5, 1, 1, 1]
00000000: f9e1 1738 4d93 0738 8a7c 8b39 c7df 6936
00000010: df15 5e3a d5b9 d6b9 7cbc 5138 d27f e139
00000020: c21c 1fb9 fc55 b63a
3.621166e-05 3.2323693e-05 0.00026604935 3.4849961e-06 0.0008471887 -0.00040955716 5.0005023e-05 0.00043010578
-0.00015174135 0.0013911123

exp_avg_sq f4 [2, 5, 1, 1, 1]
00000000: e394 9338 930c 8336 6f86 b537 1366 f636
00000010: c195 a838 63f0 4a39 b841 1c37 670f 8538
00000020: d52c 9637 2d9b 8639
7.0372385e-05 3.905568e-06 2.1639482e-05 7.3432543e-06 8.038758e-05 0.00019353772 9.313626e-06 6.344803e-05
1.790227e-05 0.00025674087

exp_avg f4 [2]
00000000: 8a1b fe35 73cb 1b36
1.893249e-06 2.3215223e-06

exp_avg_sq f4 [2]
00000000: dd72 7f36 f170 1737
3.806482e-06 9.026598e-06

exp_avg f4 [1, 2, 1, 1, 1]
00000000: 3d57 1839 3438 04ba
0.00014528348 -0.00050437753

exp_avg_sq f4 [1, 2, 1, 1, 1]
00000000: 4a72 8438 a331 9538
6.3155385e-05 7.114119e-05

exp_avg f4 [5]
00000000: 94ed 0b36 af56 0fb6 86fa 0f36 a73e 7eb5
00000010: f996 0f33
2.0850903e-06 -2.1359117e-06 2.1454484e-06 -9.4713545e-07 3.343209e-08

exp_avg_sq f4 [5]
00000000: a9bc ac36 cd19 4036 2d5d c436 2a62 2135
00000010: 5e90 8033
5.1479624e-06 2.8625248e-06 5.8521023e-06 6.012002e-07 5.986725e-08

exp_avg f4 [12, 5]
00000000: 5c15 9fba d9f0 01ba 199b 9bba 4d40 c5b9
00000010: 2ae7 e4b9 2987 adb7 3e78 adb7 f48e adb7
00000020: ff7a adb7 097a adb7 f78d 9db8 c880 63b8
00000030: 57d1 a9b8 bad4 63b8 51ff 64b8 0f77 b537
00000040: 5fef ab37 13c5 b737 ba6e ad37 7cbe ab37
00000050: 8013 84b6 9d02 83b6 4fce 83b6 4756 83b6
00000060: bbea 82b6 18d6 9ab5 65ce 9ab5 34de 9ab5
00000070: afcd 9ab5 3dd0 9ab5 8b2f afbb bf5f 0fbc
00000080: 2e34 adbb c710 b8bb b160 8bbb 5d41 ceb7
00000090: 3a82 b5b7 613f d5b7 cf54 b6b7 a284 b5b7
000000a0: a3eb 4fb7 f080 58b7 323a 49b7 f856 59b7
000000b0: f62d 58b7 9930 0835 532d 0835 7a36 0835
000000c0: aa2c 0835 bf2e 0835 c42d d8b7 c311 d8b7
000000d0: 414d d8b7 f80f d8b7 8719 d8b7 9fdf 4cb7
000000e0: c410 4bb7 6472 4cb7 a7e9 4ab7 e7ff 4ab7
-0.0012137103 -0.00049568486 -0.0011871784 -0.00037622676 -0.0004365978 -2.0686146e-05 -2.06792e-05 -2.0689775e-05
-2.0680482e-05 -2.0680034e-05 -7.5127864e-05 -5.4240954e-05 -8.0975406e-05 -5.4319135e-05 -5.4597218e-05 2.1632322e-05
2.0496254e-05 2.190707e-05 2.0674768e-05 2.047349e-05 -3.9361767e-06 -3.9044085e-06 -3.9281217e-06 -3.9141482e-06
-3.901628e-06 -1.1536204e-06 -1.1533963e-06 -1.1538564e-06 -1.1533756e-06 -1.15345e-06 -0.0053462437 -0.008750855
-0.0052857613 -0.0056172344 -0.00425347 -2.458755e-05 -2.1637523e-05 -2.5421092e-05 -2.1735583e-05 -2.1638643e-05
-1.2393025e-05 -1.2904624e-05 -1.1994083e-05 -1.2954457e-05 -1.2885304e-05 5.0734667e-07 5.0729903e-07 5.074322e-07
5.072894e-07 5.073197e-07 -2.5770518e-05 -2.5757477e-05 -2.578518e-05 -2.5756643e-05 -2.5761094e-05 -1.2211413e-05
-1.2103646e-05 -1.2185981e-05 -1.209454e-05 -1.209972e-05

exp_avg_sq f4 [12, 5]
00000000: 40f1 583b adcd 053b ae5f 0b3b 9abe 253a
00000010: 2913 353a ac1e 8937 46e0 b537 db4d 8437
00000020: 8350 4737 bdd4 0037 202b d938 ce27 2f38
00000030: 3ea9 bd38 6a85 eb37 3018 a637 5699 e737
00000040: a5c9 9737 ecf7 f837 0af4 5337 5305 f836
00000050: afa7 e336 6383 b735 cdc3 8536 e589 bc35
00000060: 993b 9535 e0c0 5435 37db 9e34 7b1f 4b35
00000070: 7bb8 aa34 4583 9d34 694c 0e3b 5673 b83b
00000080: dea6 073b 44e9 fc3a ac03 d23a a38a 0338
00000090: 404a d836 4a3a 0a38 5416 fc36 8e1e df36
000000a0: 1ef2 e037 6f84 fc36 069a 2538 9580 1037
000000b0: 7eb9 cb36 8fd1 8434 e685 ff33 d425 7b34
000000c0: edc5 0934 628d 0634 3abd 9437 6cfd 4437
000000d0: d75a 9937 fcf1 1e37 b765 1b37 0230 0138
000000e0: 1de5 0037 1a79 8a37 5dba bf36 1942 a536
0.003310278 0.0020416782 0.0021266746 0.00063226523 0.0006907457 1.6345955e-05 2.1681317e-05 1.577188e-05
1.188007e-05 7.6789265e-06 0.00010355399 4.1760322e-05 9.043746e-05 2.8076309e-05 1.9800005e-05 2.7608748e-05
1.80945e-05 2.9679351e-05 1.26334e-05 7.391596e-06 6.784648e-06 1.3672801e-06 3.986503e-06 1.4047224e-06
1.111871e-06 7.9256824e-07 2.9589293e-07 7.5669203e-07 3.1799195e-07 2.933904e-07 0.0021713024 0.0056289835
0.0020698826 0.0019295593 0.0016022823 3.136195e-05 6.4459455e-06 3.295605e-05 7.5127846e-06 6.649475e-06
2.6815625e-05 7.5256025e-06 3.948251e-05 8.613007e-06 6.0714656e-06 2.473939e-07 1.1898719e-07 2.3389958e-07
1.2831124e-07 1.2531157e-07 1.773109e-05 1.1741515e-05 1.8281322e-05 9.473875e-06 9.262402e-06 3.0800707e-05
7.682739e-06 1.6507274e-05 5.713939e-06 4.925078e-06

exp_avg f4 [12]
00000000: 7b3f 4438 4219 b136 39b1 4837 7481 abb6
00000010: 045b 8535 3110 9e34 0fdd 1c39 bd12 b236
00000020: e819 5e36 61f3 0ab4 f87d dc36 ff7a 4e36
4.6789162e-05 5.2779515e-06 1.1962192e-05 -5.1112675e-06 9.935761e-07 2.9441574e-07 0.0001495967 5.306995e-06
3.3095657e-06 -1.2940792e-07 6.5711756e-06 3.0767985e-06

exp_avg_sq f4 [12]
00000000: e0b9 2237 f6c0 0836 2679 3736 5358 9335
00000010: ba87 6b35 45c0 b334 cb94 4837 0efd 0436
00000020: b868 0d36 2acd 1534 2d1f 2536 f7b2 0736
9.69923e-06 2.0377897e-06 2.7339643e-06 1.0978059e-06 8.774183e-07 3.3481243e-07 1.19555725e-05 1.981683e-06
2.1071592e-06 1.3951345e-07 2.4605063e-06 2.0220739e-06
