scripts/python/deep-learning/experiments/cnn3d/002/model-cnn3d-epoch-25.pth (torch_old, 7127 bytes, 21 tensors)

conv1.weight f4 [5, 40, 1, 1, 1]
0.002649979 -0.17010252 0.07826424 0.029881744 0.011579088 0.08165041 -0.13103333 -0.05144234
-0.0073471586 -0.09700485 0.0109328525 0.12654129 0.11151189 0.12519614 -0.0806726 -0.101535074
-0.11300574 -0.1636207 0.12436311 -0.046207555 -0.1257424 -0.047004804 0.02980609 -0.14720978
-0.17204297 0.12107092 -0.08666103 0.04955773 -0.074655086 -0.114699535 -0.028758952 -0.014432723
0.09261321 -0.020702282 -0.16602872 0.024677025 -0.20718734 -0.049802225 -0.17003599 -0.11462524
-0.1677216 -0.10735414 0.027105553 0.06370875 -0.10650455 -0.031097908 0.10621084 -0.123501636
-0.08442108 0.08585869 0.08025804 -0.004445517 -0.088573135 0.09141011 -0.02011647 -0.10127862
-0.13806069 0.07177044 -0.11046436 -0.008927417 0.09389335 -0.01141509 0.06671575 -0.060641125
0.010992055 -0.13097508 -0.15297985 -0.09296993 -0.1638355 -0.07971549 -0.00067609455 -0.11581793
0.13567229 -0.028753648 -0.07076483 0.1204889 -0.1269435 0.11032171 -0.065382786 0.008070533
0.019244734 0.011036398 -0.03512108 -0.03558798 -0.084415354 0.08450995 -0.053961605 -0.054505136
-0.094369754 0.1375829 0.21400796 0.013877513 0.08900478 -0.002659904 0.16974974 0.15881951
0.12964942 -0.067066245 0.029978225 -0.04154493 -0.010679087 0.11409263 -0.09861822 -0.09612793
0.15433128 -0.07475672 0.18559092 0.15080753 0.16191058 -0.10146526 0.09768239 -0.082408026
-0.049103316 -0.08261741 -0.119094744 0.040862042 0.05516831 0.0054944977 -0.061355077 0.0036008728
0.31838736 0.13280207 0.14871569 0.28589177 0.1601501 0.03540187 0.09910755 0.2503014
0.07467434 0.09002147 0.19515394 0.07120163 0.085467905 0.011614003 0.119775236 0.20429239
0.08864932 0.02910203 0.053165685 0.08330916 0.20134027 0.016909366 0.112980984 0.059338395
0.20025207 0.22546385 0.20186646 0.20757402 0.031714987 0.043955095 0.05623426 0.11620725
-0.046160556 0.21038106 0.044169728 0.24190487 0.12643777 -0.039088927 -0.020400686 0.1159331
-0.10766507 -0.09765717 -0.10055891 -0.16999157 -0.03683607 -0.047838937 -0.14573553 -0.0020501725
-0.09857139 -0.1555763 -0.026607947 0.022434726 0.012894714 0.10735653 -0.0049098777 -0.15517174
-0.16337828 -0.08789188 -0.008117131 -0.14583749 -0.04973677 -0.12531798 -0.10511645 -0.19108967
0.081675306 -0.007153976 -0.04419204 -0.14859176 0.032508787 0.03869424 -0.10034413 -0.17981441
0.030849546 -0.037366033 -0.07397921 -0.23305507 -0.25261998 -0.27522102 -0.2594188 -0.21372145
00000000: 45ab 2d3b 5b2f 2ebe 0049 a03d 8fca f43c
00000010: 37b6 3d3c 5538 a73d 9a2d 06be 34b5 52bd
00000020: 6fc0 f0bb 7baa c6bd b51f 333c 0a94 013e
00000030: 5960 e43d 6b33 003e ad37 a5bd 9ff1 cfbd
00000040: 8e6f e7bd 2f8c 27be 16b2 fe3d 2244 3dbd
00000050: 9ec2 00be 1c88 40bd e72b f43c 29be 16be
00000060: 082c 30be 08f4 f73d 577b b1bd 0cfd 4a3d
00000070: c4e4 98bd 97e7 eabd e597 ebbc 3a77 6cbc
00000080: ffab bd3d d597 a9bc 6f03 2abe 7927 ca3c
00000090: eb28 54be 6bfd 4bbd ea1d 2ebe a3c0 eabd
000000a0: 36bf 2bbe 7ddc dbbd 770c de3c bc79 823d
000000b0: 0f1f dabd 0ac1 febc 1285 d93d 6dee fcbd
000000c0: f6e4 acbd aed6 af3d 545e a43d b3ab 91bb
000000d0: d565 b5bd 3935 bb3d 4ccb a4bc 2a6b cfbd
000000e0: c85f 0dbe 61fc 923d 233b e2bd 4d44 12bc
000000f0: 284b c03d 5c06 3bbc 44a2 883d d462 78bd
00000100: 0518 343c 551e 06be c0a6 1cbe 0567 bebd
00000110: 7ec4 27be e041 a3bd f03b 31ba f331 edbd
00000120: aded 0a3e c58c ebbc 27ed 90bd e2c2 f63d
00000130: 7afd 01be 59f0 e13d 69e7 85bd 453a 043c
00000140: 22a7 9d3c 02d2 343c 1fdb 0fbd b4c4 11bd
00000150: f5e1 acbd 8d13 ad3d d806 5dbd c740 5fbd
00000160: ee44 c1bd 88e2 0c3e e724 5b3e 825e 633c
00000170: 2348 b63d c951 2ebb e0d2 2d3e 95a1 223e
00000180: d1c2 043e 075a 89bd e594 f53c 042b 2abd
00000190: 56f7 2ebc 66a9 e93d 59f8 c9bd b8de c4bd
000001a0: 0509 1e3e 0d1a 99bd 8c0b 3e3e 4a6d 1a3e
000001b0: e3cb 253e 05cd cfbd b40d c83d 8ac5 a8bd
000001c0: 8f20 49bd 5133 a9bd f2e7 f3bd f55e 273d
000001d0: 2af8 613d 300b b43b 764f 7bbd 9ffc 6b3b
000001e0: ab03 a33e 44fd 073e ed48 183e 6860 923e
000001f0: 63fe 233e 8d01 113d e6f8 ca3d 8127 803e
00000200: dcee 983d 2d5d b83d 6fd6 473e 29d2 913d
00000210: cc09 af3d a948 3e3c b84c f53d 0632 513e
00000220: c68d b53d 6167 ee3c 43c4 593d fe9d aa3d
00000230: 252c 4e3e 8385 8a3c 9362 e73d d10c 733d
00000240: e10e 4d3e ffdf 663e 15b6 4e3e 498e 543e
00000250: 93e7 013d 420a 343d e555 663d 11fe ed3d
00000260: da12 3dbd 226e 573e 51eb 343d e9b5 773e
00000270: e778 013e b61b 20bd 571f a7bc 556e ed3d
00000280: 817f dcbd 7b00 c8bd d4f1 cdbd 4512 2ebe
00000290: 6be1 16bd c3f2 43bd b23b 15be 305c 06bb
000002a0: ccdf c9bd 654f 1fbe e9f8 d9bc 08c9 b73c
000002b0: 5a44 533c bedd db3d 0ae3 a0bb 57e5 1ebe
000002c0: a34c 27be a800 b4bd b7fd 04bc 6c56 15be
000002d0: c9b8 4bbd 5b53 00be 4b47 d7bd 03ad 43be
000002e0: 6245 a73d e66b eabb b602 35bd 7028 18be
000002f0: ef27 053d da7d 1e3d 3981 cdbd 4521 38be
00000300: 30b8 fc3c 200d 19bd 6982 97bd fda5 6ebe
00000310: 6857 81be c5e9 8cbe 8ad2 84be ccd9 5abe

conv1.bias f4 [5]
0.7536635 -0.96540725 0.7929694 -0.6485688 0.5400613
00000000: 17f0 403f ee24 77bf 0b00 4b3f 9b08 26bf
00000010: 7541 0a3f

conv2.weight f4 [2, 5, 1, 1, 1]
0.4024075 -0.3665726 0.44431707 -0.003137128 -0.21691537 0.40266496 -0.42631194 0.39033043
-0.5510271 0.19783713
00000000: 5b08 ce3e 67af bbbe 877d e33e 4698 4dbb
00000010: 101f 5ebe 1a2a ce3e 8f45 dabe 64d9 c73e
00000020: 1d10 0dbf d195 4a3e

conv2.bias f4 [2]
1.1140078 0.7523882
00000000: cf97 8e3f 839c 403f

conv3.weight f4 [1, 2, 1, 1, 1]
-0.5601646 -0.6620813
00000000: f266 0fbf 297e 29bf

fc1.weight f4 [12, 5]
0.12685743 0.25864333 -0.13516651 -0.24792612 -0.39234197 0.8837433 0.21026367 0.6641057
0.49535745 0.80996263 0.23999916 0.3460592 0.357267 0.7388678 0.9766844 -0.58563566
-0.34801403 -0.37016037 -0.52100486 -1.0441269 0.13267994 0.77834207 0.7413159 0.59071386
1.125039 0.7469587 0.7951958 0.5004574 0.74712545 0.70626104 -0.21862498 0.14494745
-0.45770022 0.043229967 0.057546336 0.39236292 0.9373338 0.2117999 0.8101171 0.525358
0.5605808 0.9259027 0.06424582 0.53595823 1.0370481 -0.71398026 -0.63455075 -0.5134889
-0.754198 -0.7509815 0.930113 0.5777804 0.5652139 0.47989506 0.26951084 0.14725609
0.49977013 0.81387585 0.8927792 0.7786232
00000000: eae6 013e e66c 843e 1769 0abe 58e0 7dbe
00000010: 0ce1 c8be 003d 623f 5c4f 573e d502 2a3f
00000020: 7e9f fd3e b659 4f3f 57c2 753e ac2e b13e
00000030: b3eb b63e 7126 3d3f fd07 7a3f 38ec 15bf
00000040: e52e b2be a985 bdbe 9360 05bf f3a5 85bf
00000050: 40dd 073e 6d41 473f e1c6 3d3f 0639 173f
00000060: 4701 903f af38 3f3f f491 4b3f fa1d 003f
00000070: 9d43 3f3f 86cd 343f 3adf 5fbe 1b6d 143e
00000080: af57 eabe e811 313d b5b5 6b3d cbe3 c83e
00000090: 1cf5 6f3f 13e2 583e d663 4f3f dd7d 063f
000000a0: 3982 0f3f f607 6d3f 5093 833d 8f34 093f
000000b0: febd 843f 69c7 36bf eb71 22bf 0274 03bf
000000c0: 1f13 41bf 5340 40bf e31b 6e3f 6be9 133f
000000d0: dcb1 103f ceb4 f53e 53fd 893e 4dca 163e
000000e0: dfe1 ff3e 2b5a 503f 2d8d 643f da53 473f

fc1.bias f4 [12]
-0.018815976 -0.35565662 -0.97376037 0.8952083 -0.6384467 -0.531856 0.39929888 -0.7140098
-0.25333256 -0.023978598 -0.15831935 -0.5457008
00000000: f623 9abc a018 b6be 5c48 79bf 5f2c 653f
00000010: 3e71 23bf b727 08bf e770 cc3e 59c9 36bf
00000020: ceb4 81be c46e c4bc 781e 22be 0cb3 0bbf

exp_avg f4 [5, 40, 1, 1, 1]
0.00023504984 0.00023411578 0.00023316576 0.00023219154 0.00023120739 0.0002302194 0.00022923958 0.00022828091
0.00022734313 0.0002264586 0.00022562826 0.0002248719 0.00022420858 0.00022363997 0.00022316824 0.00022281085
0.00022256744 0.0002224338 0.00022241718 0.00022250618 0.00022268812 0.00022296187 0.00022333357 0.00022379185
0.00022433318 0.00022495275 0.00022567247 0.00022650434 0.0002274443 0.00022850004 0.00022970789 0.00023106985
0.00023258416 0.00023426909 0.00023611827 0.00023812892 0.00024029872 0.00024259587 0.00024502282 0.0002475483
-0.00024539008 -0.00024417473 -0.00024294163 -0.00024168286 -0.00024041338 -0.00023913992 -0.00023787582 -0.00023663497
-0.0002354179 -0.0002342599 -0.00023316231 -0.00023214715 -0.00023123524 -0.00023043001 -0.00022973387 -0.00022916723
-0.00022872826 -0.00022841441 -0.00022823321 -0.00022817266 -0.00022821967 -0.0002283731 -0.00022863931 -0.00022900703
-0.00022947138 -0.00023002764 -0.00023069791 -0.00023149529 -0.00023241396 -0.0002334623 -0.00023467843 -0.00023606436
-0.0002376182 -0.00023935831 -0.00024127784 -0.00024337386 -0.00024564244 -0.0002480516 -0.00025060217 -0.00025326153
-0.0008419769 -0.00084304484 -0.0008441045 -0.0008451475 -0.0008461631 -0.00084713835 -0.00084804895 -0.0008488804
-0.00084962987 -0.0008502735 -0.0008508101 -0.00085123506 -0.0008515409 -0.0008517218 -0.0008517695 -0.00085167936
-0.0008514461 -0.000851082 -0.000850556 -0.0008498748 -0.0008490239 -0.00084800296 -0.00084680686 -0.00084542454
-0.00084385637 -0.0008420927 -0.00084013067 -0.0008379675 -0.00083561125 -0.0008330554 -0.000830307 -0.0008273794
-0.0008242777 -0.00082101265 -0.0008176045 -0.00081405946 -0.0008103806 -0.00080659403 -0.00080270506 -0.00079871085
3.1554962e-05 3.1932148e-05 3.2322147e-05 3.2720687e-05 3.3121254e-05 3.351265e-05 3.3889497e-05 3.423614e-05
3.45468e-05 3.4807737e-05 3.501746e-05 3.5160578e-05 3.5238463e-05 3.5234283e-05 3.5138288e-05 3.4947632e-05
3.4656594e-05 3.4264558e-05 3.375815e-05 3.3145825e-05 3.2424396e-05 3.159972e-05 3.0672632e-05 2.9660729e-05
2.8562981e-05 2.7392085e-05 2.6155398e-05 2.4862324e-05 2.3532828e-05 2.2172137e-05 2.0794601e-05 1.9406507e-05
1.8026552e-05 1.665699e-05 1.5318867e-05 1.40135635e-05 1.2751177e-05 1.15338435e-05 1.0370216e-05 9.25612e-06
5.237665e-05 5.0642844e-05 4.891581e-05 4.719664e-05 4.5495395e-05 4.381835e-05 4.2180774e-05 4.0585604e-05
3.9041235e-05 3.756851e-05 3.6165995e-05 3.4852153e-05 3.363082e-05 3.2511613e-05 3.1495274e-05 3.0590978e-05
2.9791632e-05 2.9099458e-05 2.851464e-05 2.8030438e-05 2.764076e-05 2.733914e-05 2.7130405e-05 2.700844e-05
2.6970352e-05 2.7012316e-05 2.7135702e-05 2.7349786e-05 2.764504e-05 2.8022137e-05 2.8496977e-05 2.9074801e-05
2.975203e-05 3.0532687e-05 3.1415722e-05 3.2402077e-05 3.3482494e-05 3.4655972e-05 3.591374e-05 3.7246686e-05
00000000: b677 7639 fa7c 7539 f57d 7439 7178 7339
00000010: 4370 7239 0d67 7139 0860 7039 b15e 6f39
00000020: f562 6e39 8475 6d39 a096 6c39 97cb 6b39
00000030: 8819 6b39 e680 6a39 4502 6a39 55a2 6939
00000040: fe60 6939 1e3d 6939 a838 6939 8c50 6939
00000050: 6381 6939 dfca 6939 a62e 6a39 aba9 6a39
00000060: fb3a 6b39 4be1 6b39 7ea2 6c39 cc81 6d39
00000070: 1d7e 6e39 8399 6f39 bedd 7039 574b 7239
00000080: d6e1 7339 21a6 7539 8496 7739 3fb2 7939
00000090: b2f8 7b39 5561 7e39 6876 8039 5fc9 8139
000000a0: b3a7 80b9 9404 80b9 26be 7eb9 406c 7db9
000000b0: 7a17 7cb9 a2c1 7ab9 4e6e 79b9 3721 78b9
000000c0: 83da 76b9 aaa3 75b9 087d 74b9 876c 73b9
000000d0: bd77 72b9 969f 71b9 b7e4 70b9 9c4c 70b9
000000e0: c6d6 6fb9 8782 6fb9 e351 6fb9 a241 6fb9
000000f0: 404e 6fb9 7077 6fb9 e6be 6fb9 9b21 70b9
00000100: 419e 70b9 9333 71b9 80e7 71b9 8bbd 72b9
00000110: 26b4 73b9 8fcd 74b9 0314 76b9 0b88 77b9
00000120: 2629 79b9 42fc 7ab9 87ff 7cb9 2c32 7fb9
00000130: 92c9 80b9 ec0c 82b9 4163 83b9 30c8 84b9
00000140: 1db8 5cba c8ff 5cba e546 5dba e38c 5dba
00000150: 0bd1 5dba 7e12 5eba 9a4f 5eba 6687 5eba
00000160: b2b9 5eba e4e4 5eba e608 5fba 6b25 5fba
00000170: f139 5fba 1546 5fba 4949 5fba 3c43 5fba
00000180: 9533 5fba 251b 5fba d9f7 5eba 22ca 5eba
00000190: 0891 5eba 844c 5eba 3ffc 5dba 7b9f 5dba
000001a0: 3e36 5dba e2bf 5cba 373c 5cba 0cab 5bba
000001b0: ec0c 5bba 6761 5aba f6a8 59ba 7ee4 58ba
000001c0: 5714 58ba 3a39 57ba 8254 56ba 9b66 55ba
000001d0: b96f 54ba 9c71 53ba a06c 52ba 9460 51ba
000001e0: e259 0438 e2ee 0538 a491 0738 923d 0938
000001f0: adeb 0a38 ef8f 0c38 9224 0e38 c798 0f38
00000200: 58e6 1038 86fe 1138 b6df 1238 6279 1338
00000210: 03cd 1338 86c8 1338 7361 1338 bc94 1238
00000220: 3c5c 1138 4ab7 0f38 8a97 0d38 0f06 0b38
00000230: 6eff 0738 f189 0438 7da6 0038 eecf f837
00000240: 899a ef37 0ec8 e537 4a68 db37 6f8f d037
00000250: 5d68 c537 4dfe b937 1170 ae37 28cb a237
00000260: ba37 9737 9dba 8b37 0481 8037 cc1b 6b37
00000270: e3ed 5537 7b81 4137 bdfb 2d37 bc4a 1b37
00000280: 00af 5b38 5769 5438 f32a 4d38 02f5 4538
00000290: 4fd2 3e38 98c9 3738 43eb 3038 763a 2a38
000002a0: 35c0 2338 e192 1d38 f1b0 1738 372e 1238
000002b0: d10e 0d38 145d 0838 cb19 0438 d04e 0038
000002c0: 0be9 f937 9c1a f437 b932 ef37 e822 eb37
000002d0: 15de e737 5b56 e537 1a96 e337 2f90 e237
000002e0: 643e e237 8298 e237 7aa1 e337 386d e537
000002f0: 45e7 e737 1511 eb37 cb0c ef37 a9e5 f337
00000300: ff93 f937 3910 0038 60c4 0338 77e7 0738
00000310: 8e6f 0c38 915b 1138 16a2 1638 5339 1c38

exp_avg_sq f4 [5, 40, 1, 1, 1]
2.1759133e-06 2.175123e-06 2.1748424e-06 2.1750511e-06 2.175745e-06 2.1768935e-06 2.1784815e-06 2.1804576e-06
2.1828405e-06 2.185581e-06 2.188685e-06 2.1921169e-06 2.195849e-06 2.1998846e-06 2.2041934e-06 2.2087495e-06
2.2135118e-06 2.2184822e-06 2.2235924e-06 2.2288195e-06 2.2341171e-06 2.2394634e-06 2.2448435e-06 2.2502077e-06
2.255567e-06 2.260872e-06 2.2661268e-06 2.2713496e-06 2.2765487e-06 2.2817392e-06 2.286925e-06 2.2921417e-06
2.2973645e-06 2.3026496e-06 2.3079895e-06 2.313381e-06 2.318829e-06 2.3243108e-06 2.3298387e-06 2.335375e-06
4.836314e-06 4.8297866e-06 4.8239986e-06 4.8189486e-06 4.814677e-06 4.811155e-06 4.8083925e-06 4.806328e-06
4.805014e-06 4.804381e-06 4.8044076e-06 4.805076e-06 4.806298e-06 4.8080333e-06 4.810235e-06 4.812793e-06
4.815646e-06 4.818763e-06 4.822033e-06 4.825425e-06 4.828869e-06 4.8323627e-06 4.8359e-06 4.839426e-06
4.8429865e-06 4.8465677e-06 4.850141e-06 4.853786e-06 4.8575e-06 4.861321e-06 4.8652555e-06 4.869326e-06
4.8735133e-06 4.877868e-06 4.8824063e-06 4.887134e-06 4.8920388e-06 4.8971397e-06 4.902432e-06 4.907909e-06
3.1449263e-06 3.1382206e-06 3.1314476e-06 3.1246163e-06 3.1177904e-06 3.1110012e-06 3.104308e-06 3.0977126e-06
3.0912765e-06 3.084992e-06 3.0788888e-06 3.0729923e-06 3.0673018e-06 3.0618094e-06 3.0565225e-06 3.0513972e-06
3.0464685e-06 3.0417198e-06 3.037141e-06 3.0327317e-06 3.0285e-06 3.0244732e-06 3.020654e-06 3.0170747e-06
3.0137464e-06 3.0106935e-06 3.0079095e-06 3.0054296e-06 3.003249e-06 3.001366e-06 2.9997657e-06 2.9984542e-06
2.9974094e-06 2.9966093e-06 2.9960684e-06 2.9957573e-06 2.9956745e-06 2.995808e-06 2.9961411e-06 2.9966575e-06
2.751001e-07 2.7511877e-07 2.7513752e-07 2.7516583e-07 2.752084e-07 2.7527406e-07 2.7536956e-07 2.7549606e-07
2.7566222e-07 2.758661e-07 2.7611156e-07 2.764014e-07 2.767343e-07 2.7710658e-07 2.775213e-07 2.7797552e-07
2.78464e-07 2.7898736e-07 2.7953814e-07 2.8011382e-07 2.807109e-07 2.8132447e-07 2.819495e-07 2.825878e-07
2.8323095e-07 2.8387652e-07 2.8452482e-07 2.8517098e-07 2.8581104e-07 2.8644325e-07 2.8706552e-07 2.87674e-07
2.8826616e-07 2.8883784e-07 2.8938595e-07 2.899083e-07 2.904022e-07 2.9086294e-07 2.9128384e-07 2.9166247e-07
5.895479e-07 5.893749e-07 5.8925247e-07 5.8917715e-07 5.8915293e-07 5.8917396e-07 5.892331e-07 5.893202e-07
5.894471e-07 5.895965e-07 5.897631e-07 5.899476e-07 5.90138e-07 5.903326e-07 5.9052456e-07 5.9070516e-07
5.90871e-07 5.910191e-07 5.911473e-07 5.9125205e-07 5.9133276e-07 5.913877e-07 5.9142434e-07 5.914382e-07
5.914381e-07 5.9142707e-07 5.9140024e-07 5.9137074e-07 5.913378e-07 5.913062e-07 5.9127467e-07 5.9124943e-07
5.91223e-07 5.912083e-07 5.9120276e-07 5.912091e-07 5.912308e-07 5.912695e-07 5.9133185e-07 5.914188e-07
00000000: e805 1236 54f8 1136 82f3 1136 18f7 1136
00000010: 0403 1236 bf16 1236 0732 1236 fa53 1236
00000020: ea7c 1236 ffab 1236 52e1 1236 481c 1336
00000030: 665c 1336 bba1 1336 c1eb 1336 073a 1436
00000040: d88b 1436 3ce1 1436 0739 1536 d492 1536
00000050: d7ed 1536 b049 1636 1ea6 1636 4602 1736
00000060: 595e 1736 7cb9 1736 c313 1836 7d6d 1836
00000070: cfc6 1836 fb1f 1936 1379 1936 b2d2 1936
00000080: 6c2c 1a36 3887 1a36 f5e2 1a36 953f 1b36
00000090: 2e9d 1b36 5bfb 1b36 535a 1c36 70b9 1c36
000000a0: 9f47 a236 8d0f a236 d5dd a136 74b2 a136
000000b0: c38d a136 826f a136 c757 a136 0b46 a136
000000c0: c23a a136 5235 a136 8c35 a136 4a3b a136
000000d0: c945 a136 b154 a136 9b67 a136 947d a136
000000e0: 1696 a136 dcb0 a136 f3cc a136 16ea a136
000000f0: ab07 a236 ae25 a236 1144 a236 5a62 a236
00000100: f080 a236 b39f a236 65be a236 b4dd a236
00000110: 9bfd a236 6e1e a336 3a40 a336 3163 a336
00000120: 2987 a336 91ac a336 8dd3 a336 29fc a336
00000130: 4b26 a436 1c52 a436 927f a436 9eae a436
00000140: 6c0d 5336 389a 5236 dc25 5236 80b0 5136
00000150: 3b3b 5136 98c6 5036 9b53 5036 4ce2 4f36
00000160: ba73 4f36 c207 4f36 e89e 4e36 9b39 4e36
00000170: d8d7 4d36 7c79 4d36 a81e 4d36 9bc6 4c36
00000180: ee71 4c36 5920 4c36 afd1 4b36 ef85 4b36
00000190: 3c3d 4b36 0ef8 4a36 71b6 4a36 f378 4a36
000001a0: c53f 4a36 520b 4a36 7edb 4936 e3b0 4936
000001b0: 6d8b 4936 136b 4936 954f 4936 0d39 4936
000001c0: 1a27 4936 5b19 4936 1010 4936 b80a 4936
000001d0: 4c09 4936 970b 4936 5011 4936 2f1a 4936
000001e0: 78b1 9334 09b4 9334 9db6 9334 81ba 9334
000001f0: 5bc0 9334 61c9 9334 81d6 9334 e4e7 9334
00000200: bafe 9334 c01a 9434 7c3c 9434 5264 9434
00000210: 1392 9434 3dc5 9434 3dfe 9434 aa3c 9534
00000220: cd7f 9534 bbc7 9534 6e13 9634 8d62 9634
00000230: 9db4 9634 f108 9734 d85e 9734 92b6 9734
00000240: f70e 9834 b167 9834 cbc0 9834 9a19 9934
00000250: 9271 9934 76c8 9934 fc1d 9a34 9d71 9a34
00000260: 00c3 9a34 9211 9b34 e75c 9b34 b1a4 9b34
00000270: 93e8 9b34 e627 9c34 bf61 9c34 c995 9c34
00000280: 6c41 1e35 8935 1e35 1f2d 1e35 f227 1e35
00000290: 4826 1e35 ba27 1e35 ca2b 1e35 c731 1e35
000002a0: 7f3a 1e35 c344 1e35 3650 1e35 e45c 1e35
000002b0: f969 1e35 5977 1e35 8a84 1e35 f390 1e35
000002c0: 599c 1e35 86a6 1e35 55af 1e35 88b6 1e35
000002d0: 14bc 1e35 dabf 1e35 5fc2 1e35 53c3 1e35
000002e0: 51c3 1e35 8fc2 1e35 b7c0 1e35 b0be 1e35
000002f0: 6dbc 1e35 41ba 1e35 16b8 1e35 5ab6 1e35
00000300: 89b4 1e35 86b3 1e35 25b3 1e35 94b3 1e35
00000310: 12b5 1e35 bbb7 1e35 04bc 1e35 fec1 1e35

exp_avg f4 [2, 5, 1, 1, 1]
-0.00072667125 0.0003681702 -0.0016156832 -0.008534267 -0.0009986375 -0.0010463562 0.00021578668 -0.00059526117
0.00041004425 -0.0017559109
00000000: 157e 3eba f806 c139 55c5 d3ba 4fd3 0bbc
00000010: b7e4 82ba e325 89ba cc44 6239 4d0b 1cba
00000020: 35fb d639 9826 e6ba

exp_avg_sq f4 [2, 5, 1, 1, 1]
1.5199109e-05 2.2682661e-06 3.3240592e-06 0.000118375996 3.0921678e-05 1.128422e-05 2.5055637e-05 7.194665e-06
1.404301e-05 0.00026213969
00000000: adff 7e37 8438 1836 e712 5f36 a140 f838
00000010: e6b1 0138 5b51 3d37 922e d237 b469 f136
00000020: 459a 6b37 cb6f 8939

exp_avg f4 [2]
-0.000622269 -0.0007368698
00000000: c41f 23ba 7f2a 41ba

exp_avg_sq f4 [2]
1.3078447e-06 1.794656e-06
00000000: 3489 af35 e9df f035

exp_avg f4 [1, 2, 1, 1, 1]
0.0026998196 0.002816263
00000000: 75ef 303b 0d91 383b

exp_avg_sq f4 [1, 2, 1, 1, 1]
2.950814e-05 4.899598e-05
00000000: 4088 f737 0881 4d38

exp_avg f4 [5]
-0.00054498593 0.00054150494 -0.000559264 0.00041166125 -9.39256e-06
00000000: 63dd 0eba c8f3 0d3a 929b 12ba 3dd4 d739
00000010: bd94 1db7

exp_avg_sq f4 [5]
1.0555804e-06 1.0511445e-06 1.1646174e-06 4.4556958e-07 2.838925e-09
00000000: 77ad 8d35 0d15 8d35 f34f 9c35 9e36 ef34
00000010: e616 4331

exp_avg f4 [12, 5]
0.015525807 0.008409036 0.012596335 0.009154484 0.0090782065 -2.6889558e-07 -2.62963e-07 -2.6712513e-07
-2.7245434e-07 -2.676021e-07 -7.099713e-07 -6.3956065e-07 -6.945532e-07 -6.658601e-07 -6.508135e-07 1.7997681e-07
1.7211212e-07 1.7994456e-07 1.8002127e-07 1.7371885e-07 -8.158126e-08 -7.287262e-08 -7.636302e-08 -8.016886e-08
-7.6837175e-08 -4.995896e-08 -4.8078565e-08 -4.915013e-08 -5.0074224e-08 -4.9551872e-08 0.0030789878 0.002866039
0.0028128529 0.0032334775 0.0033722469 -3.8529384e-07 -3.6541095e-07 -3.723001e-07 -3.8362188e-07 -3.836338e-07
-3.0230177e-07 -2.6938008e-07 -3.0697717e-07 -2.9353907e-07 -2.7908325e-07 6.833495e-08 6.648233e-08 6.729014e-08
6.869964e-08 6.815006e-08 -7.969135e-07 -7.619657e-07 -7.7814013e-07 -8.068763e-07 -8.0159026e-07 -1.9516447e-07
-1.8020783e-07 -1.8492906e-07 -1.875421e-07 -1.881926e-07
00000000: f45f 7e3c 0ec6 093c dc60 4e3c b0fc 153c
00000010: c2bc 143c ba5c 90b4 5c2d 8db4 6669 8fb4
00000020: d745 92b4 f4aa 8fb4 db94 3eb5 46ae 2bb5
00000030: 5571 3ab5 8fbd 32b5 90b3 2eb5 a63f 4134
00000040: d2cd 3834 c936 4134 df4b 4134 7987 3a34
00000050: c631 afb3 267e 9cb3 04fd a3b3 4c29 acb3
00000060: af01 a5b3 7592 56b3 f17e 4eb3 2419 53b3
00000070: 3111 57b3 dcd2 54b3 d8c8 493b 28d4 3b3b
00000080: d757 383b c0e8 533b ea00 5d3b 62da ceb4
00000090: b32d c4b4 89e0 c7b4 97f4 cdb4 3af6 cdb4
000000a0: 0a4c a2b4 519f 90b4 9fce a4b4 b497 9db4
000000b0: e9d4 95b4 89bf 9233 0cc5 8e33 2581 9033
000000c0: 0788 9333 e459 9233 7beb 55b5 e289 4cb5
000000d0: 62e1 50b5 1e98 58b5 dd2c 57b5 678e 51b4
000000e0: 277f 41b4 ea90 46b4 2e5f 49b4 fd11 4ab4

exp_avg_sq f4 [12, 5]
0.0011295367 0.00074509316 0.00092303904 0.00046898148 0.0004480984 4.7346932e-11 1.4035523e-10 9.494411e-11
8.890326e-11 4.5588297e-10 2.2425607e-10 1.3618687e-10 2.2046501e-10 9.145403e-11 8.093619e-11 5.4093112e-11
4.0995794e-11 6.1001e-11 2.7974111e-11 2.0393819e-11 1.2895763e-11 3.794766e-12 8.064608e-12 3.562908e-12
4.3997137e-12 1.9340707e-12 3.979925e-12 4.0207416e-12 2.8315547e-12 1.7961866e-11 7.539284e-05 8.207306e-05
6.596257e-05 8.183784e-05 8.891073e-05 1.209589e-10 3.9316262e-11 2.101863e-10 2.8811863e-11 6.7595506e-11
1.2387123e-10 3.233444e-11 2.516867e-10 2.5234962e-11 2.4619924e-11 1.5963582e-12 4.980113e-12 3.6632117e-12
3.1334514e-12 1.7687504e-11 1.705123e-10 2.9137464e-09 2.4898628e-09 2.4776894e-09 2.0824423e-08 5.9982276e-11
3.2209183e-11 4.1329225e-11 2.4292467e-11 9.340629e-11
00000000: f60c 943a 5b52 433a 1af8 713a a1e1 f539
00000010: c0ee ea39 e83b 502e 7c52 1a2f c8c8 d02e
00000020: 1680 c32e d39f fa2f 7992 762f 32bd 152f
00000030: 6267 722f 0b1c c92e 06fb b12e 6ee7 6d2e
00000040: 294d 342e 8324 862e 1910 f62d cc62 b32d
00000050: 5add 622d 3784 852c c4df 0d2d a5b7 7a2c
00000060: 19cd 9a2c 1f19 082c fa07 8c2c 9f77 8d2c
00000070: c140 472c 87fe 9d2d 391c 9e38 a31e ac38
00000080: 6355 8a38 5ba0 ab38 9675 ba38 e7fe 042f
00000090: 2dea 2c2e 2f1a 672f 8c6e fd2d e3a4 942e
000000a0: a732 082f 5835 0e2e c15d 8a2f 15f8 dd2d
000000b0: 248f d82d deaa e02b df38 af2c 47e3 802c
000000c0: 3e7f 5c2c b894 9b2d f27a 3b2f 2b3b 4831
000000d0: 211a 2b31 f943 2a31 64e1 b232 05e7 832e
000000e0: 51a8 0d2e 92c4 352e c6ad d52d 1167 cd2e

exp_avg f4 [12]
-0.0021642335 7.477389e-08 1.8009075e-07 -4.869686e-08 2.1289086e-08 1.3772522e-08 -0.00072019175 1.0438365e-07
7.7201236e-08 -1.9000533e-08 2.1848008e-07 5.1415643e-08
00000000: d0d5 0dbb 6193 a033 f85e 4134 c426 51b3
00000010: 32df b632 319c 6c32 40cb 3cba 8529 e033
00000020: d4c9 a533 9d36 a3b2 5997 6a34 19d4 5c33

exp_avg_sq f4 [12]
1.8291666e-05 1.8527131e-11 9.2029865e-12 2.610449e-12 1.7093693e-12 1.1482996e-12 4.222452e-06 6.21713e-12
5.209898e-12 8.8053685e-13 5.8624317e-10 6.427751e-12
00000000: 0e71 9937 64f7 a22d 91e6 212d abb1 372c
00000010: 8592 f02b da9b a12b 96ae 8d36 eebe da2c
00000020: 974e b72c 5ed9 772b 3225 2130 0928 e22c
