scripts/python/deep-learning/experiments/cnn3d/003/model-cnn3d-epoch-7.pth (torch_old, 8330 bytes, 21 tensors)

conv1.weight f4 [5, 60, 1, 1, 1]
00000000: 9907 003e 10bf 743e cae5 923d 1a5f 1c3e
00000010: 8c37 e73d d565 a63d 272b 743e debe 153e
00000020: eee6 413e 5beb 873e eaa4 8b3e 5da6 473e
00000030: 3791 8b3e 7ed5 4a3e 4faf 653e fca7 713e
00000040: eb63 213e 8ada d23d 2307 6b3e ba02 073e
00000050: 90b9 fc3d 8ff6 933e ce71 153e b0f4 033e
00000060: 2bdc 4a3e 45fa ed3d eafd d63d 9339 5b3e
00000070: 09eb 433e 42b6 573d 44a0 563e e9e0 7a3e
00000080: 6876 583e 8662 073d ad09 1e3e 2d4d 513e
00000090: 5d4b 783e 5907 373e 8e42 223d 8828 e33c
000000a0: e3ce 8e3d aa5c 4e3e 3987 6a3a 9207 2c3d
000000b0: 76db f63d 7fc5 9b3c 6611 603e de64 0b3e
000000c0: 7331 713d 8f54 2f3e a820 a8bb 9adb 183d
000000d0: 3ec9 823d 6a5e 733c 7636 163e 8b72 703e
000000e0: 147c 1a3e 7383 643e fa27 a8bb 445f af3c
000000f0: 5e9f 3abd dfd1 e6bc 49fa de3d 0113 443e
00000100: 69ee 823c 9081 253e 5e25 493e b590 3a3e
00000110: 0fba ec3a 81ab 473d 8e1f 623e 2a22 313e
00000120: 1527 503e 1a3d 673e 23ab a63d 9ef0 903d
00000130: 4e3a 5e3e 6148 9f3d 929d 1d3e ac29 34bc
00000140: c0ac 603c 0229 443e 4fbd 913d eb37 4e3e
00000150: 4680 263e 3c8b 7b3d 85ef f13d ce2a 373e
00000160: 418d 3c3e ae82 f23d a9a4 1d3d 331c 0e3e
00000170: 9f6c 1e3e 9079 c33c dd3e fe3d f780 1c3d
00000180: c73a b43c a741 3b3e 42b8 71bd 061f ef3d
00000190: c412 1c3e 3318 8e3d 12fb 073e b96a 2b3c
000001a0: a0b7 fdbc 2ebb f83d 4680 7dbd e6a2 113e
000001b0: 55d0 71bc 4c73 3b3e 081c 3e3d bbd6 1e3e
000001c0: 018f 663d e343 32bd cafc e23c 2a76 cb3a
000001d0: a36d 60bd ce58 da3d 6a06 ee3d c4c3 2a3e
000001e0: af3b 873e 24a3 703e 14c0 243e b8eb 493e
000001f0: b3be 803e 3228 8f3d c000 753e ca5f 573e
00000200: 5aa7 883e 9538 323e 7957 2c3e d747 1b3e
00000210: 2625 6c3e 31b4 843e 3842 a53d 0461 023e
00000220: b1de 643e 481a 743e d9c0 6f3e 4131 773e
00000230: 4f63 8c3e 293e 443e 2611 1f3e c3f9 633d
00000240: 9196 193e 2add bb3d 4ca4 763d 23d8 683e
00000250: 891c 803e 935a f23d 9116 123e b4a5 353e
00000260: 0d65 6d3d 7e6e 6c3e 0127 273d 3c2c d63d
00000270: d442 193c d45d 0b3e 0026 f33d 8050 4b3e
00000280: 0f82 80bc a288 5b3e f1dd abbc 0a0a 073e
00000290: 9000 d73d 98f9 0a3e bcbe 6d3d 5bc8 553d
000002a0: ffe1 793d 76fd 603d a872 0a3e 4889 323e
000002b0: e4cf 113e 27cf df3d 9c5b 003e 6626 0b3e
000002c0: 69a7 ec3d ddd9 d83c a3f2 383e d0d1 c7bb
000002d0: 5366 72bc 1ca9 8b3c ab30 873d 04c6 a7bd
000002e0: 4078 7e3d f203 bdbd cd96 f4bb 82cc 713d
000002f0: a071 7f3d 4dcc e43d 642c a9bd 1b19 b7bd
00000300: 762d d3bd ecb4 983d e83d d73c ce95 c93d
00000310: a69a 4ebd 30e4 fe3d f7ff fbbd b530 133d
00000320: 2faf a43c 81ed c53d b35e 0b3c 655f e63d
00000330: 5682 ebbd c88c c6bd f053 32bc 4c14 2a3d
00000340: 3f7a 9dbd eac1 dc3d 5e8c d03c 24da ad3d
00000350: a364 b0bd 2210 77bd 4dc2 2c3d 36f9 dcbc
00000360: ff6e 1bb8 45a1 d03d 98dd 973c 8901 a4bd
00000370: 9e23 dc3c a933 e3bc 08eb 1b3e 3c13 a8bd
00000380: 17f1 bcbd 2a63 33bd b5f4 24bd 2851 02bd
00000390: b26e 8e3c 7663 903b 9832 0e3e 775a 07b9
000003a0: 0e4a 153e 21b0 cf3c d0bf 623d 3b6c 8dbd
000003b0: beb5 52bc 42e3 be3d 869b 4bbc 1b2c a53d
000003c0: 1f61 eabc 0421 34bd 8a6b 073d f738 233e
000003d0: 48cd 1b3e d029 383e a6ad 233e 32f2 2ebd
000003e0: 2543 8f3b dda7 0f3e f331 af3a e6df ad3d
000003f0: 72dc 1b3e 0496 f03c a720 ed3d cfbf aa3c
0.12502898 0.2390101 0.07172735 0.15270653 0.112898916 0.08124892 0.23844586 0.14623591
0.18935749 0.2654675 0.27274257 0.19497056 0.27259228 0.19808003 0.22430156 0.23599237
0.15760772 0.10295589 0.22951941 0.13184634 0.12340081 0.28899047 0.14594194 0.1288631
0.1981055 0.11620001 0.10497649 0.21408682 0.19132628 0.05266405 0.20959574 0.24499859
0.21138918 0.033052944 0.15433379 0.20439596 0.24247499 0.17873897 0.039614253 0.027729288
0.06973054 0.20152536 0.00089465413 0.041999407 0.120535776 0.019015072 0.21881637 0.13612697
0.05888505 0.171221 -0.005130846 0.037318803 0.0638604 0.014854053 0.14669213 0.23481195
0.15086395 0.22315769 -0.0051317187 0.02140773 -0.04556214 -0.028176246 0.10887582 0.19147874
0.015982823 0.16162705 0.1964316 0.18219264 0.0018060821 0.048747543 0.2208235 0.17298189
0.20327409 0.22581902 0.081381105 0.07077144 0.21701929 0.07777477 0.1539214 -0.0109962635
0.013713062 0.19156268 0.07116186 0.20138519 0.1625987 0.06141208 0.11813263 0.17887422
0.18413259 0.118413314 0.03848711 0.13877945 0.15471123 0.023861676 0.12414334 0.038208928
0.022000683 0.18286763 -0.059013613 0.11675839 0.15241534 0.069382094 0.1327937 0.010462456
-0.030971348 0.12145077 -0.06188991 0.14222297 -0.014759143 0.18305701 0.04641345 0.155116
0.056288723 -0.043521773 0.02770843 0.0015522887 -0.054792058 0.106614694 0.11622317 0.16676241
0.26412722 0.23499733 0.16088897 0.19718826 0.25145492 0.069900885 0.23926067 0.21032634
0.2669018 0.17404397 0.16830243 0.15164123 0.23061046 0.25918725 0.08069271 0.12732321
0.22350575 0.2383815 0.2341341 0.24139883 0.27419516 0.19164337 0.15533885 0.055658113
0.14998843 0.09173043 0.06021528 0.227387 0.2502177 0.11833682 0.14266421 0.17738992
0.057957698 0.23089024 0.04080868 0.10457656 0.009354312 0.13610011 0.11872482 0.19854927
-0.015687017 0.2143884 -0.020979853 0.13187423 0.10498154 0.13571775 0.058043227 0.052193027
0.061006542 0.05492922 0.135203 0.17435181 0.1423946 0.10928183 0.12534946 0.13588867
0.115553685 0.026471073 0.18061309 -0.0060980096 -0.014794904 0.017048411 0.066010796 -0.08192065
0.062126398 -0.09229268 -0.007464266 0.059032924 0.06236422 0.1117178 -0.0826042 -0.08940335
-0.10311405 0.07456383 0.026274636 0.09843026 -0.050440453 0.12445867 -0.12304681 0.035935123
0.020103065 0.09664441 0.008506465 0.11248664 -0.11499469 -0.09694821 -0.01088427 0.041523263
-0.07689332 0.10779174 0.025457557 0.08488873 -0.08612945 -0.06031812 0.042177487 -0.026974302
-3.7058253e-05 0.1018701 0.018538281 -0.08008105 0.026872452 -0.027734594 0.15226376 -0.08206794
-0.09225672 -0.043795742 -0.040272433 -0.031815678 0.017386768 0.004406388 0.13886487 -0.00012908304
0.14579031 0.02535254 0.055358708 -0.06905409 -0.0128607135 0.0932069 -0.012427216 0.08065053
-0.028610764 -0.0439768 0.03306154 0.15939699 0.15215027 0.179847 0.1598421 -0.042711444
0.004372018 0.14028879 0.0013366326 0.08489971 0.15220812 0.029368408 0.115784936 0.020843415

conv1.bias f4 [5]
00000000: da77 253f a413 f53e e081 273f 38c4 4cbf
00000010: 6d46 3e3f
0.64636004 0.47866547 0.6543255 -0.79986906 0.7432621

conv2.weight f4 [2, 5, 1, 1, 1]
00000000: d5c0 103f db46 203f 1c83 bb3e c4cd a2be
00000010: d26b ee3e f3f5 0b3e 84be bbbe f84a ce3d
00000020: 10e8 3c3f 3ef5 e0be
0.5654424 0.62608117 0.36623466 -0.31797612 0.46566635 0.13668041 -0.3666879 0.10072893
0.737916 -0.43937105

conv2.bias f4 [2]
00000000: 8d95 8e3e b227 73bf
0.27848473 -0.94982445

conv3.weight f4 [1, 2, 1, 1, 1]
00000000: 020e 4d3f 13ff 72bf
0.800995 -0.9492046

fc1.weight f4 [12, 5]
00000000: 250c a8bd c7be ca3e da80 28bd 0bb9 cc3d
00000010: a780 503e 49d9 30bf 884e d4be 3063 1bbf
00000020: d309 2bba 5e98 66be 30cb 00bc 07dd b3be
00000030: d6f0 49bf 5fce 81bd e5bf 323d 3687 a83d
00000040: b9ca 2e3f a6d0 033d 6cd8 813e 1381 d63e
00000050: ae5b edbe 60b0 4ebe 56e6 b7bc a3a4 38bf
00000060: 6032 f3be 2437 f2bd 6869 94be fce9 0bbe
00000070: 6f45 07bf 6a38 fdbe ffe5 93be d113 ce3e
00000080: f697 973e 9573 2abe 165c 963e ed7a 2bbf
00000090: 8bbb f9be 2196 123d 2b19 11bf e2a3 ec3d
000000a0: 9c2c b8be 6dc9 77be cc07 c2be 257b bebe
000000b0: b753 d8be ced8 263e 773f 823e d84b 063e
000000c0: 4774 433e 2152 5e3e 3e38 163d f1de 13bd
000000d0: e71f 2bbf 318c f3bc 4b2b 32bf f66d 0fbf
000000e0: 9012 d4be f625 e2be bb56 2c3e 86fc 21bf
-0.082054414 0.39598677 -0.041138507 0.09996232 0.20361577 -0.6908155 -0.41466165 -0.60698223
-0.0006524596 -0.22519061 -0.007860944 -0.35129568 -0.7888311 -0.0633819 0.043640036 0.082289144
0.6827808 0.032181405 0.2536043 0.4189535 -0.4635901 -0.20184469 -0.0224487 -0.72126216
-0.4749937 -0.118269235 -0.2898667 -0.13663477 -0.5284032 -0.49457103 -0.2888641 0.40249494
0.29608124 -0.16645654 0.2936713 -0.66984445 -0.48775896 0.035787705 -0.5667903 0.11554696
-0.35971534 -0.24197932 -0.37896574 -0.37203327 -0.4225137 0.16293642 0.25439045 0.1311487
0.19087325 0.21711017 0.03667473 -0.036101285 -0.66845554 -0.029729934 -0.6959731 -0.5602716
-0.41420412 -0.44169587 0.1682996 -0.63275945

fc1.bias f4 [12]
00000000: 20f8 23be b778 543e 70bd e6be d5c8 953e
00000010: f99c 17bf 8965 c8bc 1350 8cbe 57b5 0fbf
00000020: ab0a 00bf 0c3b 353f ec29 d3be 51c1 98be
-0.16012621 0.20749174 -0.45066404 0.29254785 -0.59223896 -0.024462478 -0.27404842 -0.5613608
-0.5001628 0.70793223 -0.4124292 -0.2983499

exp_avg_sq f4 [5, 60, 1, 1, 1]
00000000: 103f c932 1398 c932 13d8 c932 18fc c932
00000010: affe c932 5ddd c932 2498 c932 242c c932
00000020: ab97 c832 cddc c732 9bff c632 9f01 c632
00000030: e6e8 c432 20ba c332 f37b c232 7c37 c132
00000040: dff4 bf32 f5bc be32 2799 bd32 5b90 bc32
00000050: beab bb32 e9f3 ba32 426e ba32 4c21 ba32
00000060: a312 ba32 0347 ba32 97bf ba32 827f bb32
00000070: 0b8a bc32 7edc bd32 2778 bf32 545a c132
00000080: b281 c332 05eb c532 c392 c832 f26f cb32
00000090: 287d ce32 bab4 d132 420d d532 3c80 d832
000000a0: 9a03 dc32 ab8d df32 e318 e332 699e e632
000000b0: 0f18 ea32 3c82 ed32 8bd8 f032 bf18 f432
000000c0: 4040 f732 f84d fa32 f340 fd32 a20c 0033
000000d0: 196c 0133 07be 0233 6104 0433 6e3d 0533
000000e0: b868 0633 5886 0733 6496 0833 5098 0933
000000f0: 90a0 5e34 751c 5f34 5b79 5f34 a0b2 5f34
00000100: a4c3 5f34 8fa9 5f34 bc62 5f34 b8ed 5e34
00000110: ef49 5e34 5b78 5d34 da7b 5c34 2c57 5b34
00000120: 700f 5a34 d2a8 5834 3d2a 5734 4f9b 5534
00000130: 1703 5434 6c69 5234 b7d6 5034 3851 4f34
00000140: c2df 4d34 c389 4c34 3c54 4b34 b043 4a34
00000150: 175d 4934 1ba3 4834 4c16 4834 b9b7 4734
00000160: 058a 4734 4e89 4734 43b5 4734 d40b 4834
00000170: a48a 4834 7e2f 4934 5cf7 4934 16db 4a34
00000180: ffd7 4b34 9eea 4c34 110c 4e34 793a 4f34
00000190: 836e 5034 8da3 5134 54d7 5234 1c07 5434
000001a0: c72e 5534 524e 5634 3c64 5734 8a6f 5834
000001b0: 3c70 5934 6c66 5a34 c750 5b34 2531 5c34
000001c0: 0608 5d34 bfd3 5d34 1596 5e34 954c 5f34
000001d0: caf4 5f34 288e 6034 0519 6134 6992 6134
000001e0: ca8e fc31 e1dd fc31 0b10 fd31 8b21 fd31
000001f0: c90a fd31 35c7 fc31 7856 fc31 ceb4 fb31
00000200: 95de fa31 f8d5 f931 70a0 f831 283f f731
00000210: bcb9 f531 8616 f431 ef5c f231 2199 f031
00000220: 29d6 ee31 861f ed31 9a81 eb31 2306 ea31
00000230: f3b8 e831 a4a6 e731 d7d6 e631 8e52 e631
00000240: db21 e631 e94c e631 35d5 e631 f6c0 e731
00000250: b214 e931 87cf ea31 d0f3 ec31 f97e ef31
00000260: 3170 f231 4ac4 f531 9476 f931 587c fd31
00000270: b8e6 0032 8131 0332 0198 0532 6d15 0832
00000280: 9ba2 0a32 b138 0d32 69d3 0f32 7e6d 1232
00000290: 6502 1532 e88e 1732 d10f 1a32 a382 1c32
000002a0: ade5 1e32 0f37 2132 7676 2332 2ba3 2532
000002b0: 26be 2732 58c6 2932 38be 2b32 cca3 2d32
000002c0: c476 2f32 f136 3132 6be5 3232 1381 3432
000002d0: 4276 9834 2c97 9834 eea3 9834 ae98 9834
000002e0: 0f71 9834 352b 9834 23c5 9734 ea3d 9734
000002f0: 3495 9634 75cb 9534 23e2 9434 c3db 9334
00000300: 99bb 9234 a584 9134 2d3c 9034 c9e6 8e34
00000310: 0c8a 8d34 1e2b 8c34 5ed0 8a34 8c7d 8934
00000320: 7e38 8834 7406 8734 b3ea 8534 c8e8 8434
00000330: 5004 8434 7b3f 8334 bc9a 8234 0317 8234
00000340: fbb5 8134 5375 8134 5054 8134 dc51 8134
00000350: cc6b 8134 01a1 8134 20ef 8134 f950 8234
00000360: d5c4 8234 0748 8334 8dd5 8334 2c6c 8434
00000370: 2807 8534 f7a2 8534 4c3e 8634 03d7 8634
00000380: 586a 8734 69f8 8734 ff7f 8834 2400 8934
00000390: 1879 8934 46ea 8934 1953 8a34 0db4 8a34
000003a0: 9f0d 8b34 a95e 8b34 0ea8 8b34 1de8 8b34
000003b0: 6c1d 8c34 3247 8c34 ec65 8c34 a377 8c34
000003c0: faaa cf33 e7e3 d033 f2fb d133 5aec d233
000003d0: 60ad d333 e73b d433 4695 d433 6cb7 d433
000003e0: a4a2 d433 1259 d433 37df d333 d639 d333
000003f0: a271 d233 ac8c d133 b495 d033 e197 cf33
2.3428157e-08 2.3468635e-08 2.3497739e-08 2.3514119e-08 2.3515296e-08 2.3500144e-08 2.3468665e-08 2.3419553e-08
2.3352035e-08 2.3267058e-08 2.316647e-08 2.3050971e-08 2.2923313e-08 2.2785628e-08 2.2640938e-08 2.2493388e-08
2.2346681e-08 2.2204839e-08 2.2072141e-08 2.1951726e-08 2.1847764e-08 2.1764167e-08 2.170339e-08 2.1668392e-08
2.1661725e-08 2.1685542e-08 2.1740375e-08 2.1827649e-08 2.1948855e-08 2.2102764e-08 2.2289965e-08 2.2509234e-08
2.2759966e-08 2.3040693e-08 2.3349804e-08 2.3683217e-08 2.403847e-08 2.4412987e-08 2.4802493e-08 2.5204024e-08
2.5613009e-08 2.602504e-08 2.6437595e-08 2.684756e-08 2.7252126e-08 2.7649655e-08 2.803815e-08 2.8416592e-08
2.8783802e-08 2.9139287e-08 2.9482612e-08 2.9813812e-08 3.0133467e-08 3.0440813e-08 3.0737628e-08 3.1022346e-08
3.1294547e-08 3.1554322e-08 3.1801747e-08 3.2036326e-08 2.0733773e-07 2.0778846e-07 2.0812642e-07 2.0833477e-07
2.0839667e-07 2.0830178e-07 2.0804413e-07 2.0761843e-07 2.0702258e-07 2.0626014e-07 2.0534154e-07 2.0427677e-07
2.0308448e-07 2.0177984e-07 2.0038802e-07 1.9893672e-07 1.9745163e-07 1.9596126e-07 1.9449622e-07 1.9307925e-07
1.9173515e-07 1.9049098e-07 1.8936493e-07 1.883734e-07 1.875345e-07 1.8685789e-07 1.8634563e-07 1.8600157e-07
1.858353e-07 1.858327e-07 1.8599262e-07 1.8630755e-07 1.8676889e-07 1.8736861e-07 1.8809573e-07 1.8892419e-07
1.8984427e-07 1.9084334e-07 1.9189635e-07 1.929965e-07 1.9411713e-07 1.9524141e-07 1.963611e-07 1.9746625e-07
1.9854188e-07 1.9958796e-07 2.00599e-07 2.0157145e-07 2.025053e-07 2.0340093e-07 2.0425351e-07 2.0506975e-07
2.0585148e-07 2.0659262e-07 2.072996e-07 2.0796354e-07 2.0857547e-07 2.0913342e-07 2.096386e-07 2.1008022e-07
7.3503985e-09 7.35939e-09 7.365093e-09 7.3670825e-09 7.3644952e-09 7.3568125e-09 7.3439956e-09 7.3256166e-09
7.3012623e-09 7.271179e-09 7.2359896e-09 7.195826e-09 7.151554e-09 7.1038952e-09 7.0536923e-09 7.002328e-09
6.951059e-09 6.9011916e-09 6.854134e-09 6.810994e-09 6.773115e-09 6.7419297e-09 6.7183055e-09 6.7032664e-09
6.69773e-09 6.7026247e-09 6.71812e-09 6.744922e-09 6.7835453e-09 6.8338895e-09 6.8962223e-09 6.9702506e-09
7.0558817e-09 7.152754e-09 7.2603346e-09 7.3774054e-09 7.50304e-09 7.6364595e-09 7.776181e-09 7.9211135e-09
8.069629e-09 8.22017e-09 8.371765e-09 8.523214e-09 8.673486e-09 8.82185e-09 8.967576e-09 9.1100985e-09
9.249033e-09 9.383952e-09 9.514784e-09 9.641364e-09 9.763914e-09 9.882193e-09 9.996761e-09 1.0107168e-08
1.0213345e-08 1.0315248e-08 1.0413127e-08 1.0506727e-08 2.839825e-07 2.8422198e-07 2.843148e-07 2.8423295e-07
2.8394467e-07 2.8343644e-07 2.8269378e-07 2.817099e-07 2.8048237e-07 2.7901447e-07 2.7731684e-07 2.754078e-07
2.7331114e-07 2.7104866e-07 2.6865874e-07 2.661748e-07 2.636374e-07 2.6108404e-07 2.585611e-07 2.5609586e-07
2.5373078e-07 2.5150405e-07 2.4943947e-07 2.4756287e-07 2.4590054e-07 2.444684e-07 2.432697e-07 2.423113e-07
2.416053e-07 2.4113487e-07 2.4089468e-07 2.4087683e-07 2.4106555e-07 2.4145268e-07 2.420211e-07 2.4273302e-07
2.43576e-07 2.4453058e-07 2.455603e-07 2.466562e-07 2.4778387e-07 2.4891753e-07 2.5004772e-07 2.5115887e-07
2.5223085e-07 2.5326452e-07 2.5425103e-07 2.551834e-07 2.5606346e-07 2.5688695e-07 2.5764965e-07 2.5835507e-07
2.5900678e-07 2.5959642e-07 2.6013043e-07 2.6059652e-07 2.609844e-07 2.6128833e-07 2.615119e-07 2.616408e-07
9.670289e-08 9.72721e-08 9.7781495e-08 9.821879e-08 9.85699e-08 9.8829155e-08 9.899172e-08 9.9053835e-08
9.9016034e-08 9.888221e-08 9.866056e-08 9.8359735e-08 9.799557e-08 9.757909e-08 9.7129856e-08 9.666815e-08

exp_avg f4 [5, 60, 1, 1, 1]
00000000: 9e5e c5b7 e0b5 c0b7 7f30 bcb7 76ca b7b7
00000010: 2f68 b3b7 cc15 afb7 1cb6 aab7 8843 a6b7
00000020: 0dba a1b7 b113 9db7 4e60 98b7 f682 93b7
00000030: 018a 8eb7 5774 89b7 0651 84b7 1834 7eb7
00000040: 5acf 73b7 846c 69b7 7a2e 5fb7 2b10 55b7
00000050: 163e 4bb7 10c3 41b7 a4b0 38b7 6519 30b7
00000060: 0803 28b7 0172 20b7 bb67 19b7 f508 13b7
00000070: 0841 0db7 160c 08b7 6884 03b7 9a1c ffb6
00000080: 0c83 f8b6 340b f3b6 a0ca eeb6 23a6 ebb6
00000090: 0777 e9b6 ff40 e8b6 cf00 e8b6 0a4c e8b6
000000a0: 1c0b e9b6 863a eab6 3d93 ebb6 2cfc ecb6
000000b0: e55b eeb6 f495 efb6 928d f0b6 ae12 f1b6
000000c0: 2449 f1b6 9937 f1b6 1eec f0b6 7b4a f0b6
000000d0: adb3 efb6 e3d5 eeb6 70ff edb6 d937 edb6
000000e0: fc6b ecb6 5f86 ebb6 358d eab6 397c e9b6
000000f0: 497e f936 eac2 0637 c57a 1037 46ef 1937
00000100: b65e 2337 84ad 2c37 551f 3637 b8be 3f37
00000110: 6f99 4937 34b8 5337 befb 5d37 b6a3 6837
00000120: 9a91 7337 c6c8 7e37 0f14 8537 5cdf 8a37
00000130: 07ab 9037 af7c 9637 7840 9c37 d9f9 a137
00000140: 6a8f a737 c8fb ac37 0235 b237 dc30 b737
00000150: 45eb bb37 0f61 c037 7991 c437 2366 c837
00000160: 76ea cb37 d91e cf37 0df4 d137 9377 d437
00000170: 5b9c d637 db6c d837 c1e2 d937 9104 db37
00000180: a2db db37 1c66 dc37 d6a3 dc37 97b1 dc37
00000190: b694 dc37 d44e dc37 d7f1 db37 5a85 db37
000001a0: 5510 db37 5f9a da37 eb2b da37 a1d2 d937
000001b0: 4585 d937 9d42 d937 b607 d937 8bdc d837
000001c0: f9a7 d837 8c80 d837 ab52 d837 cb1b d837
000001d0: 85e2 d737 21ad d737 327a d737 0d4c d737
000001e0: 0708 86b7 7304 83b7 d317 80b7 107f 7ab7
000001f0: 65d3 74b7 4f3c 6fb7 0694 69b7 34d3 63b7
00000200: c3f4 5db7 c3f0 57b7 dedb 51b7 7f90 4bb7
00000210: 4821 45b7 c38c 3eb7 78e6 37b7 9c26 31b7
00000220: 976c 2ab7 bfb3 23b7 a012 1db7 0086 16b7
00000230: a62a 10b7 a507 0ab7 5128 04b7 5e31 fdb6
00000240: 07b9 f2b6 29ed e8b6 d6cf dfb6 7090 d7b6
00000250: 4914 d0b6 5456 c9b6 9978 c3b6 1c57 beb6
00000260: c010 bab6 9485 b6b6 acc3 b3b6 5ab9 b1b6
00000270: 864d b0b6 9182 afb6 5656 afb6 e683 afb6
00000280: fefb afb6 66bc b0b6 0a97 b1b6 cc7b b2b6
00000290: 265a b3b6 b21f b4b6 d4b9 b4b6 7209 b5b6
000002a0: d625 b5b6 4e13 b5b6 0adb b4b6 b76a b4b6
000002b0: 4f01 b4b6 af69 b3b6 d7d6 b2b6 764d b2b6
000002c0: 53c1 b1b6 7b24 b1b6 f57a b0b6 0fc2 afb6
000002d0: 3969 1db8 3f04 1fb8 ff99 20b8 e329 22b8
000002e0: c7bb 23b8 c94a 25b8 25df 26b8 7d79 28b8
000002f0: 3a1c 2ab8 71c6 2bb8 f275 2db8 0931 2fb8
00000300: 62f4 30b8 a4c0 32b8 9791 34b8 2869 36b8
00000310: 963f 38b8 d917 3ab8 c4eb 3bb8 55bc 3db8
00000320: 6d82 3fb8 6d3c 41b8 c2e7 42b8 e480 44b8
00000330: 0007 46b8 1c78 47b8 d0d3 48b8 ae13 4ab8
00000340: 0a3a 4bb8 be45 4cb8 8633 4db8 0005 4eb8
00000350: 60b7 4eb8 5a4c 4fb8 33c2 4fb8 5d1b 50b8
00000360: b659 50b8 9d7d 50b8 5887 50b8 057f 50b8
00000370: 7666 50b8 d83f 50b8 af0f 50b8 c2d8 4fb8
00000380: 519e 4fb8 e861 4fb8 7025 4fb8 0ced 4eb8
00000390: b9b5 4eb8 b17f 4eb8 304a 4eb8 f815 4eb8
000003a0: 66dd 4db8 b3a5 4db8 ea69 4db8 9828 4db8
000003b0: aae3 4cb8 469c 4cb8 5e52 4cb8 8706 4cb8
000003c0: b4a3 8937 793d 8d37 2fbb 9037 2120 9437
000003d0: a983 9737 a7db 9a37 d041 9e37 f4b9 a137
000003e0: fe49 a537 b1f4 a837 f7ae ac37 b890 b037
000003f0: c18e b437 96aa b837 05d8 bc37 041d c137
-2.352829e-05 -2.2972876e-05 -2.243393e-05 -2.1909578e-05 -2.1386977e-05 -2.0871776e-05 -2.035038e-05 -1.9820189e-05
-1.9279332e-05 -1.8725028e-05 -1.8164657e-05 -1.7584749e-05 -1.6991982e-05 -1.6385848e-05 -1.5773356e-05 -1.5151709e-05
-1.45322065e-05 -1.3913148e-05 -1.3302657e-05 -1.2699554e-05 -1.2114198e-05 -1.1549113e-05 -1.1008382e-05 -1.049633e-05
-1.0014286e-05 -9.563287e-06 -9.143662e-06 -8.763968e-06 -8.419396e-06 -8.109046e-06 -7.839037e-06 -7.602922e-06
-7.406232e-06 -7.2432686e-06 -7.1165414e-06 -7.0228866e-06 -6.9577977e-06 -6.9217053e-06 -6.914233e-06 -6.922991e-06
-6.9452344e-06 -6.9805565e-06 -7.0206866e-06 -7.0627048e-06 -7.1036507e-06 -7.140212e-06 -7.1690383e-06 -7.1845343e-06
-7.1908744e-06 -7.188832e-06 -7.180045e-06 -7.161228e-06 -7.143672e-06 -7.1178524e-06 -7.0928872e-06 -7.069652e-06
-7.045919e-06 -7.0191886e-06 -6.990182e-06 -6.9584025e-06 7.43548e-06 8.032404e-06 8.611653e-06 9.175221e-06
9.737609e-06 1.0292399e-05 1.085534e-05 1.1428892e-05 1.2016258e-05 1.2619468e-05 1.323124e-05 1.38663945e-05
1.4517829e-05 1.5186326e-05 1.5864176e-05 1.6554892e-05 1.7245779e-05 1.7939454e-05 1.862667e-05 1.930904e-05
1.9974734e-05 2.0621243e-05 2.1243937e-05 2.1838052e-05 2.2401693e-05 2.293338e-05 2.3432762e-05 2.3889419e-05
2.4308665e-05 2.4690687e-05 2.5028387e-05 2.532805e-05 2.5583597e-05 2.5799896e-05 2.5974006e-05 2.610896e-05
2.6209109e-05 2.6273592e-05 2.6302336e-05 2.630874e-05 2.6295293e-05 2.626275e-05 2.621945e-05 2.6168931e-05
2.611444e-05 2.605951e-05 2.6008076e-05 2.5966498e-05 2.5930474e-05 2.5899435e-05 2.5872007e-05 2.5851905e-05
2.5827425e-05 2.5809066e-05 2.5787702e-05 2.5762149e-05 2.5735479e-05 2.5710617e-05 2.5686899e-05 2.5665411e-05
-1.5977783e-05 -1.5618489e-05 -1.5269883e-05 -1.4930745e-05 -1.4592752e-05 -1.4259552e-05 -1.3922347e-05 -1.3579429e-05
-1.32296145e-05 -1.2871055e-05 -1.2508563e-05 -1.2133386e-05 -1.1749864e-05 -1.1357656e-05 -1.096131e-05 -1.0559012e-05
-1.0158073e-05 -9.7574075e-06 -9.362266e-06 -8.971896e-06 -8.592999e-06 -8.227221e-06 -7.8772e-06 -7.5457347e-06
-7.233702e-06 -6.941748e-06 -6.670113e-06 -6.424314e-06 -6.2012446e-06 -6.0003167e-06 -5.8254923e-06 -5.672582e-06
-5.545182e-06 -5.439573e-06 -5.357395e-06 -5.296589e-06 -5.2542337e-06 -5.2306063e-06 -5.2254572e-06 -5.2307614e-06
-5.244742e-06 -5.267141e-06 -5.2925943e-06 -5.3192252e-06 -5.3451104e-06 -5.368108e-06 -5.3860513e-06 -5.39532e-06
-5.398625e-06 -5.3964677e-06 -5.3899175e-06 -5.3768413e-06 -5.3645704e-06 -5.346919e-06 -5.329824e-06 -5.313831e-06
-5.297517e-06 -5.279258e-06 -5.259523e-06 -5.237998e-06 -3.7529713e-05 -3.791251e-05 -3.8290393e-05 -3.866282e-05
-3.903711e-05 -3.9408715e-05 -3.9785304e-05 -4.0167466e-05 -4.0557446e-05 -4.095439e-05 -4.135626e-05 -4.176892e-05
-4.218927e-05 -4.2617918e-05 -4.3050935e-05 -4.3490116e-05 -4.3928238e-05 -4.4368066e-05 -4.4803848e-05 -4.523651e-05
-4.5659417e-05 -4.607106e-05 -4.6469046e-05 -4.685008e-05 -4.7213398e-05 -4.7557158e-05 -4.788098e-05 -4.817888e-05
-4.8453025e-05 -4.8702343e-05 -4.8923794e-05 -4.9118884e-05 -4.928501e-05 -4.9423754e-05 -4.9533508e-05 -4.961655e-05
-4.9674614e-05 -4.970805e-05 -4.9717113e-05 -4.970936e-05 -4.968649e-05 -4.9650524e-05 -4.960567e-05 -4.9554517e-05
-4.950009e-05 -4.9443828e-05 -4.9387512e-05 -4.9334994e-05 -4.928347e-05 -4.923315e-05 -4.918332e-05 -4.9134687e-05
-4.9082002e-05 -4.9030128e-05 -4.897445e-05 -4.8913615e-05 -4.884942e-05 -4.878293e-05 -4.87141e-05 -4.864347e-05
1.6407903e-05 1.6837135e-05 1.7253302e-05 1.7657936e-05 1.8061912e-05 1.8460514e-05 1.8865714e-05 1.9279287e-05
1.9703988e-05 2.0141104e-05 2.0585472e-05 2.1048225e-05 2.1524147e-05 2.2013945e-05 2.2511938e-05 2.3020904e-05

exp_avg_sq f4 [2, 5, 1, 1, 1]
00000000: e6a1 b936 141a 4f36 de9d c336 b9b5 d735
00000010: caa0 8135 2b04 1137 dd29 8536 37b3 1437
00000020: a0f5 1736 dfb5 bc35
5.532277e-06 3.0860583e-06 5.829831e-06 1.6071637e-06 9.658045e-07 8.643644e-06 3.9685824e-06 8.863214e-06
2.2643726e-06 1.4060023e-06

exp_avg f4 [2, 5, 1, 1, 1]
00000000: baa1 e8b8 bd46 9bb8 91d6 fcb8 0964 9238
00000010: 7dc2 b9b8 f07b 01ba 9994 a5b9 370d 02ba
00000020: fc01 f1b8 8cb6 acb8
-0.00011092746 -7.404152e-05 -0.000120562625 6.9804555e-05 -8.857714e-05 -0.00049394276 -0.00031581966 -0.00049610756
-0.00011492145 -8.235601e-05

exp_avg_sq f4 [2]
00000000: a53b 2836 419c 5336
2.5068668e-06 3.1532402e-06

exp_avg f4 [2]
00000000: 7bf4 bbb8 26cb de38
-8.962393e-05 0.00010623624

exp_avg_sq f4 [1, 2, 1, 1, 1]
00000000: 2422 9637 627c 3537
1.7897291e-05 1.0817401e-05

exp_avg f4 [1, 2, 1, 1, 1]
00000000: eb01 9eb9 d1de 2339
-0.00030137537 0.00015627897

exp_avg_sq f4 [5]
00000000: 09b2 6a34 5de3 1536 f099 7e33 810c 2036
00000010: 7cab c935
2.1857717e-07 2.2335073e-06 5.927899e-08 2.3849136e-06 1.5025576e-06

exp_avg f4 [5]
00000000: a792 17b8 bc53 c7b8 ae6a b9b7 f9e3 df38
00000010: 0926 b9b8
-3.6137786e-05 -9.504656e-05 -2.2103395e-05 0.00010675932 -8.828572e-05

exp_avg_sq f4 [12, 5]
00000000: b05c 053b 7977 7838 6378 e939 382a 0a3a
00000010: ef76 7f38 deb6 4134 fcca a534 59c5 9d34
00000020: 8e24 f334 0e07 c734 1804 5f38 00d1 c436
00000030: 4322 3436 3a29 8437 a076 2a37 c912 2c36
00000040: e5ae 4635 59c4 5e36 beab b435 a513 8635
00000050: 4c27 2934 82f1 8a34 25d4 bd35 6f05 f333
00000060: ccdd 8a34 39eb a936 c1fa 4036 6a72 bc36
00000070: 8ea1 e535 2717 2836 8eae 843a d381 5939
00000080: 3b97 3139 bb9c 003a 5af0 6d39 083f 0a35
00000090: 21e3 8a35 06cb 5937 7041 9035 4d13 9136
000000a0: 939f 1f34 8a6e 6834 7e3e 5834 9f08 3834
000000b0: bbd9 5934 1de5 9136 e3d3 af36 4546 d036
000000c0: 4967 6c36 b3c1 6c36 cdf9 b638 8a02 c136
000000d0: fc1d 0a36 5f0f c737 fe99 5d36 3e98 3334
000000e0: 8d20 6734 0b68 9b34 0a7b 0a35 0f8d 7434
0.0020349436 5.9239075e-05 0.00044530918 0.00052705733 6.0907503e-05 1.8041052e-07 3.0881336e-07 2.9387118e-07
4.5288874e-07 3.7071771e-07 5.3171156e-05 5.865586e-06 2.6842033e-06 1.5754824e-05 1.0160409e-05 2.5640932e-06
7.4015253e-07 3.3194867e-06 1.3461029e-06 9.989495e-07 1.5753648e-07 2.5880223e-07 1.414334e-06 1.1316558e-07
2.5865882e-07 5.063976e-06 2.8756187e-06 5.616156e-06 1.7108848e-06 2.5047427e-06 0.0010122822 0.00020743096
0.00016936373 0.0004906167 0.00022691619 5.150073e-07 1.0347904e-06 1.2981478e-05 1.0747881e-06 4.3235837e-06
1.4866082e-07 2.1646898e-07 2.0139302e-07 1.7139472e-07 2.028891e-07 4.348009e-06 5.2400733e-06 6.2070635e-06
3.522686e-06 3.5279488e-06 8.724965e-05 5.752144e-06 2.0581056e-06 2.3729806e-05 3.3021201e-06 1.672606e-07
2.1525393e-07 2.89467e-07 5.158805e-07 2.2775588e-07

exp_avg f4 [12, 5]
00000000: ac6a 1a3b 2643 2fba 82ef 85bb 83bf 1c3b
00000010: 6e8c ebb9 57d5 1f35 53d5 1f35 36d6 1f35
00000020: 72d6 1f35 bbd5 1f35 7755 bab6 7fcb b9b6
00000030: c9a4 b9b6 f45c bab6 70d2 b9b6 6d92 eeb5
00000040: 8b8f edb5 a5f4 29b6 e6d1 dcb5 f1f0 ecb5
00000050: bbf2 1b35 e38d 1c35 bf3a e535 09ff da34
00000060: daa2 1c35 b909 3236 dea6 2f36 3cf3 3836
00000070: 3a37 2c36 0e73 2e36 52e0 45bb d521 baba
00000080: 5cf4 c6ba d22c b4ba e27d dcba f035 0637
00000090: 0ba3 0737 a1b0 3038 489e 3b36 70fb 0737
000000a0: 357e 2035 ff7d 2035 f980 2035 1a7e 2035
000000b0: 557d 2035 d5da 9537 8727 9737 82fe 9137
000000c0: 6f8c 9837 0ef2 9737 eda3 15b3 c6fe 01b6
000000d0: 56de 07b6 dc7b 70b5 c761 03b6 d2f1 0435
000000e0: 00f3 0435 1213 0535 a120 0535 a0ef 0435
0.0023562117 -0.0006685726 -0.0040873894 0.002391786 -0.0004492732 5.9542566e-07 5.9542543e-07 5.9543834e-07
5.9544175e-07 5.9543135e-07 -5.5531814e-06 -5.5371197e-06 -5.532613e-06 -5.554053e-06 -5.537928e-06 -1.7774997e-06
-1.7699653e-06 -2.5325364e-06 -1.6452366e-06 -1.7653493e-06 5.809522e-07 5.8321e-07 1.7078927e-06 4.0791227e-07
5.835151e-07 2.6529726e-06 2.6174162e-06 2.7559718e-06 2.5662143e-06 2.599499e-06 -0.003019352 -0.0014200757
-0.0015179026 -0.0013746268 -0.0016822184 7.999581e-06 8.084588e-06 4.212617e-05 2.7957303e-06 8.105169e-06
5.97883e-07 5.9787993e-07 5.9792325e-07 5.9788147e-07 5.9787027e-07 1.7864086e-05 1.8019009e-05 1.7403861e-05
1.8185206e-05 1.8113318e-05 -3.4840856e-08 -1.9370796e-06 -2.0245984e-06 -8.9587206e-07 -1.9577435e-06 4.9525727e-07
4.9527443e-07 4.957411e-07 4.959384e-07 4.952253e-07

exp_avg_sq f4 [12]
00000000: 177d 1136 afe9 2734 cefd aa34 b873 0a34
00000010: 41fc de33 c3b0 b634 40f9 5136 2018 4334
00000020: 97ca d733 05d9 5434 2ff7 a634 48c1 ff33
2.1679496e-06 1.56381e-07 3.1849635e-07 1.289435e-07 1.0383565e-07 3.4028753e-07 3.128851e-06 1.8169567e-07
1.00485686e-07 1.982299e-07 3.109976e-07 1.19095205e-07

exp_avg f4 [12]
00000000: f93e 80b8 19c4 1234 04a8 aab5 d726 d2b4
00000010: a9e2 f733 61d7 1e35 4f07 1cb9 93d7 ae35
00000020: 1a5d 1334 46c2 8c36 0dff 00b5 3906 f433
-6.115245e-05 1.366865e-07 -1.2714886e-06 -3.9143808e-07 1.1543063e-07 5.9173004e-07 -0.00014880042 1.3026751e-06
1.3724312e-07 4.1949415e-06 -4.8054864e-07 1.1363267e-07
