scripts/python/deep-learning/experiments/cnn3d/003/model-cnn3d-epoch-27.pth (torch_old, 8330 bytes, 21 tensors)

conv1.weight f4 [5, 60, 1, 1, 1]
00000000: d322 433e 0597 9c3e a814 0f3e b50b 633e
00000010: 0327 3b3e 066f 1b3e 8674 9e3e 3ec4 5e3e
00000020: 6d79 853e 2051 ac3e bdc5 af3e 8f85 873e
00000030: f3ab ae3e ebbd 873e d233 943e e006 993e
00000040: d218 5f3e b40a 243e 1c12 913e 3a38 3a3e
00000050: a74d 2d3e 811f a93e 1bcd 3a3e 6507 243e
00000060: 2f66 653e cec4 0b3e b5ab f43d f4fa 633e
00000070: e185 463e 5a63 493d d7e6 4c3e e417 6b3e
00000080: 53c5 423e 97de ce3b 0b7a fa3d ae66 2b3e
00000090: 6ba6 4d3e 4b09 083e 0c7c 25bc 60b2 cfbc
000000a0: b2c6 603c df78 123e 7325 74bd 946a a4bc
000000b0: 72bf 6a3d da2b 38bd 0f2c 1e3e 98f2 923d
000000c0: 9b9f aabb df4e dc3d 1641 8bbd 760f c9bc
000000d0: 3890 4f3b b277 36bd 6d9d b53d c785 363e
000000e0: 3827 c43d 6fa1 2d3e 2381 6abd bed3 efbc
000000f0: d106 11bd 59d2 6dbc 15dc 003e 1f96 583e
00000100: 8b09 1f3d fc81 3f3e e477 653e 13e5 583e
00000110: ce5f 073d e06f a63d 802f 823e 3df0 533e
00000120: 0f22 733e 5ffd 843e e0db ea3d 2507 d33d
00000130: b2d6 7d3e bcdb da3d a132 393e a50c 5c3c
00000140: 8cac 103d 9019 573e 50af b03d d5f9 593e
00000150: e35b 2e3e 615b 853d f621 f13d 9779 323e
00000160: 9387 333e 30bb d73d 8166 ad3c f81e f03d
00000170: 7521 043e ceca bfbb 6b64 b93d 5505 5b3a
00000180: 8b45 9bbc ecd8 0d3e e830 dabd 71c5 873d
00000190: 8a40 cb3d 5e41 613c e486 993d 5aef 49bd
000001a0: 203f bdbd 5410 703d 52e3 00be d56c 9e3d
000001b0: 3b63 a4bd 63b3 ef3d 4f3b a2bc 4712 b63d
000001c0: 54ab 1fbc 02b7 dfbd 3ee0 19bd 0c6f 81bd
000001d0: 9ba0 f3bd cb65 303d a64d 5a3d 37df d53d
000001e0: 38d7 a13e 1637 933e 5b10 5b3e 6f55 803e
000001f0: 9449 9c3e 06cd fd3d 903b 963e 706b 873e
00000200: bd4c a43e 9624 693e 12b0 623e 4dcd 503e
00000210: 504c 903e 843d 9e3e 5504 043e 94bd 313e
00000220: 93f1 883e 4635 8f3e c87d 8b3e 837a 8d3e
00000230: f95c 9c3e 7209 603e 4b5d 363e 31ed 963d
00000240: 3af9 263e b5fb cb3d ba65 803d c3b1 653e
00000250: 204d 773e b2db d43d f215 fb3d 0660 1b3e
00000260: ed03 dc3c 243a 473e 210e fbb9 623f 703d
00000270: 8f41 27bd 5d0d a83d 8dfe 7a3d 0780 0d3e
00000280: 71c8 a0bd 7f2e 193e dcba b2bd 8130 843d
00000290: e2ab 173d 9152 8a3d 77b3 23bc 25c0 7bbc
000002a0: 0d08 bebb b962 34bc 9644 903d 9b3a e33d
000002b0: abcf a43d 6160 483d c366 883d c752 a13d
000002c0: 0f08 763d 7d8a e0bc 5f61 033e ab13 69bd
000002d0: ee24 6bbb 559e ca3c 9524 903d 7a1b a5bd
000002e0: de44 783d ec53 c5bd fdac 61bc 8202 503d
000002f0: 1e17 573d d20f ce3d c7be c1bd 2fba d0bd
00000300: 8a1b edbd a595 7e3d 1c81 6d3c c087 b33d
00000310: 6a29 75bd b618 ef3d 82d1 03be 8179 053d
00000320: 7482 9e3c fa2a ca3d c215 5f3c 986c f73d
00000330: 19a4 d3bd 9baa a7bd b1c6 fb3b 5744 823d
00000340: 5431 52bd 8e1f 0c3e d833 6d3d 5e20 f73d
00000350: da07 41bd b04c 95bc 3b9d b23d efc6 aa3c
00000360: 9a6f 4e3d ec72 1e3e 4cd5 963d 76ea bbbc
00000370: 3dd4 af3d d0b0 063d 0a72 5b3e 4024 9abc
00000380: 4b5c e5bc a03f ae3c dbfe cf3c 4850 0c3d
00000390: e65d ab3d 900d 913d 6d18 523e 85fe 863d
000003a0: 0985 583e 7664 b93d 9db4 f53d 3659 a5bb
000003b0: d3e9 4e3d b4b2 1f3e a3a6 4b3d 82ab 113e
000003c0: d6d1 abbc de4b 1abd dbbb 1a3d 6727 263e
000003d0: e293 1c3e 2286 363e e55e 1f3e 16d6 4bbd
000003e0: da95 bcbb 16ea 013e 7c74 7fbc 3d9c 833d
000003f0: 0fbf 023e bef1 4c3a dcfb a93d 3933 85bc
0.19056253 0.3058397 0.13972723 0.22172435 0.182766 0.15179071 0.30948275 0.21754548
0.26069203 0.33655643 0.3433055 0.26469085 0.34115562 0.26512083 0.28945786 0.29888058
0.21786812 0.16019708 0.2833413 0.18185511 0.16924153 0.33031848 0.18242304 0.16018446
0.22402261 0.13649294 0.11946813 0.222637 0.19387008 0.049167015 0.20009933 0.22958332
0.19020586 0.006313156 0.12230309 0.16738388 0.20083015 0.13284795 -0.010100376 -0.02535361
0.013719248 0.14303921 -0.059606027 -0.020070352 0.057311483 -0.044963695 0.15446495 0.07175177
-0.0052070147 0.10757231 -0.067995235 -0.024543505 0.0031671654 -0.044547744 0.08867917 0.1782447
0.09577793 0.16956113 -0.05725206 -0.029275771 -0.03540689 -0.014515483 0.12583955 0.21151017
0.03882746 0.18701929 0.22409016 0.21181135 0.03305035 0.08126807 0.25426865 0.20697112
0.23743461 0.25974557 0.11467719 0.10304097 0.24788931 0.10686442 0.1808572 0.013430749
0.035320804 0.21005845 0.08627188 0.2128671 0.1702724 0.0651157 0.11774056 0.17429195
0.17532186 0.1053375 0.021167042 0.11724657 0.12903388 -0.0058530336 0.09052356 0.00083549815
-0.01895406 0.1385228 -0.106538594 0.06629456 0.09924419 0.013748495 0.074964315 -0.04930053
-0.09240556 0.05860932 -0.12586716 0.07735602 -0.08026739 0.11704137 -0.019803671 0.08890205
-0.009745438 -0.10923578 -0.03756737 -0.06320009 -0.118958674 0.043065827 0.053296708 0.104429655
0.3160951 0.28752965 0.21392958 0.2506518 0.30524886 0.12392621 0.29342318 0.26449156
0.32089797 0.22767863 0.22137478 0.20390816 0.28183222 0.30906308 0.12892278 0.17357475
0.26746807 0.27970332 0.272444 0.27632532 0.30539683 0.21878603 0.17809026 0.073694594
0.1630601 0.09960119 0.06269403 0.22431092 0.24150515 0.10393466 0.12260045 0.15173349
0.02685734 0.19455773 -0.00047884978 0.058654197 -0.040834006 0.08205674 0.061277915 0.1381837
-0.07850731 0.14959143 -0.08727047 0.06454564 0.037029155 0.067540295 -0.009991518 -0.015365635
-0.0057992996 -0.011009865 0.07044332 0.110951625 0.08047422 0.04892004 0.06660225 0.07877117
0.06006628 -0.027409786 0.12830113 -0.056903522 -0.0035880166 0.024733702 0.070382275 -0.08061881
0.060612552 -0.096351475 -0.013774154 0.05078364 0.05251228 0.10061611 -0.09460216 -0.10191762
-0.11577518 0.06215443 0.014496114 0.08766127 -0.05985395 0.11674635 -0.1287289 0.03258658
0.019349314 0.098714784 0.013616027 0.120812595 -0.103340335 -0.08186837 0.007683598 0.06360691
-0.051316574 0.13683912 0.05791077 0.120667204 -0.04712663 -0.018225044 0.087213956 0.020846812
0.0503994 0.15473527 0.07364902 -0.022938948 0.08585403 0.032883465 0.21430221 -0.018816113
-0.02799811 0.021270573 0.02539008 0.03425625 0.08367519 0.07082665 0.2051713 0.065915145
0.21144499 0.090523645 0.1199734 -0.005046035 0.05051596 0.15595514 0.049719464 0.14225581
-0.020974081 -0.03767001 0.03777681 0.16225968 0.15290788 0.17824605 0.15563543 -0.049764715
-0.0057551684 0.12686953 -0.015591737 0.064262845 0.12768196 0.0007818005 0.082999915 -0.016259776

conv1.bias f4 [5]
00000000: 2f25 453f 4f61 1c3f fb74 443f 8b71 70bf
00000010: e82d 613f
0.7700986 0.6108598 0.76741 -0.9392325 0.8796067

conv2.weight f4 [2, 5, 1, 1, 1]
00000000: 02f3 113f a013 1c3f 61f8 be3e 3725 96be
00000010: 6879 833e cc4f 3d3e daa7 9cbe 1c98 183e
00000020: 1709 3b3f bf24 25bf
0.57011425 0.60967445 0.37298873 -0.29325268 0.25678563 0.18487471 -0.3059681 0.14901775
0.73060745 -0.64509195

conv2.bias f4 [2]
00000000: 4914 d33e bf21 8bbf
0.41226414 -1.0869673

conv3.weight f4 [1, 2, 1, 1, 1]
00000000: b8af 443f e6e3 71bf
0.76830626 -0.9448837

fc1.weight f4 [12, 5]
00000000: 10c5 36bd fd1c 8d3e 7a90 45bd 14a8 f73d
00000010: f9ce 9cbb 4a8a 65bf df6f 9ebe 7c70 36bf
00000020: 1454 063d a6e4 97be e1f4 63be 5d6b 95be
00000030: 9f2e 82bf 4d0b fabd 8fc3 ffbd c4ab 843e
00000040: 57a0 413f 03e2 e83d 4069 cc3e 6eb0 233f
00000050: cf1d 0ebf e1f8 4ebe 1c3f 2fbe 99a1 3cbf
00000060: 05d0 18bf 4011 8abe c33c adbe c2fa 99be
00000070: bdf5 35bf 3839 2ebf 3336 a4be 3ed5 d73e
00000080: 374e 4b3e b330 46be 65fe ab3e dba3 56bf
00000090: 4d78 1cbf 1743 01be 07e2 1ebf 4a5f 87bd
000000a0: ff05 0ebf 3e2e 07be 85c2 0bbf 9407 abbe
000000b0: c115 f9be 5892 cb3e ebaf 733e 227e 853e
000000c0: d874 bb3e 76cb bd3e db5e 0ebe 4c59 593d
000000d0: 97f9 4cbf 94fe 06be 6007 48bf 4910 45bf
000000e0: fc26 9abe bc41 0dbf c981 3a3e 368e 29bf
-0.044621527 0.2756118 -0.048233487 0.12092605 -0.0047854153 -0.8966414 -0.30944726 -0.7126539
0.032795027 -0.29666632 -0.22261383 -0.29183474 -1.0170478 -0.12209187 -0.12488472 0.25912297
0.75635284 0.11371233 0.3992405 0.63941085 -0.55514234 -0.20212127 -0.17113918 -0.7368408
-0.5969241 -0.26966286 -0.3383542 -0.30074126 -0.7107809 -0.6805606 -0.320726 0.42154878
0.19854055 -0.19354515 0.33592525 -0.83843774 -0.61121064 -0.12623249 -0.6206364 -0.06609972
-0.554779 -0.13201234 -0.5459369 -0.3340422 -0.4864941 0.3976009 0.23797576 0.26072794
0.36612582 0.3706929 -0.13903372 0.053063676 -0.80068344 -0.13183051 -0.78136253 -0.76977974
-0.30107868 -0.5517843 0.18213572 -0.6623262

fc1.bias f4 [12]
00000000: caaf a4be a8d2 843c 7192 3bbf 90e7 e63e
00000010: 7865 39bf ba21 5abe 8f1f 80be 79c7 42bf
00000020: e88f 2abf 0123 693f b3e6 27bf 0601 fcbe
-0.32165366 0.01621373 -0.73270327 0.45098543 -0.72420454 -0.21301928 -0.25024077 -0.7608562
-0.66625834 0.91069037 -0.65586394 -0.4921953

exp_avg_sq f4 [5, 60, 1, 1, 1]
00000000: 46d2 e835 fe40 e835 90b3 e735 c42a e735
00000010: 1fa8 e635 f92c e635 adba e535 9751 e535
00000020: 25f4 e435 dea2 e435 0260 e435 ee2b e435
00000030: c607 e435 78f4 e335 e3f3 e335 f804 e435
00000040: 7b28 e435 175e e435 2ba6 e435 81ff e435
00000050: c069 e535 c9e3 e535 5f6c e635 9c01 e735
00000060: 43a3 e735 cd4e e835 c402 e935 e2bd e935
00000070: 907e ea35 b642 eb35 3309 ec35 d7d0 ec35
00000080: 2898 ed35 c75d ee35 4b21 ef35 c4e1 ef35
00000090: ff9e f035 d757 f135 6a0c f235 9abc f235
000000a0: d067 f335 6a0e f435 2bb0 f435 a04d f535
000000b0: 56e6 f535 a17a f635 b70a f735 5f96 f735
000000c0: a61d f835 53a1 f835 2521 f935 229d f935
000000d0: c315 fa35 9e8a fa35 bdfc fa35 8e6b fb35
000000e0: 4ad7 fb35 2441 fc35 3aa8 fc35 b90c fd35
000000f0: 766d b137 2307 b137 baa1 b037 f73d b037
00000100: b5dc af37 597f af37 7326 af37 e5d2 ae37
00000110: ee85 ae37 3740 ae37 2b03 ae37 45cf ad37
00000120: 64a5 ad37 5786 ad37 3173 ad37 766b ad37
00000130: a06f ad37 a37f ad37 b69b ad37 40c3 ad37
00000140: f0f5 ad37 7633 ae37 987a ae37 beca ae37
00000150: 2823 af37 ad82 af37 42e8 af37 3053 b037
00000160: 4cc2 b037 6e34 b137 5da8 b137 be1d b237
00000170: 6093 b237 3908 b337 f67b b337 1fee b337
00000180: 415e b437 bccb b437 8a36 b537 379e b537
00000190: db02 b637 6864 b637 8cc2 b637 ab1d b737
000001a0: c575 b737 4cca b737 bd1b b837 196a b837
000001b0: edb4 b837 cbfc b837 ac41 b937 ea82 b937
000001c0: 82c1 b937 b2fc b937 4135 ba37 e46a ba37
000001d0: ac9d ba37 2fce ba37 3cfc ba37 9527 bb37
000001e0: a661 c834 fdc8 c734 e435 c734 34a9 c634
000001f0: a123 c634 c5a6 c534 7333 c534 43ca c434
00000200: fa6c c434 2d1c c434 13da c334 c7a6 c334
00000210: c983 c334 9f71 c334 2272 c334 bd84 c334
00000220: 39aa c334 79e2 c334 9f2d c434 618b c434
00000230: cdfa c434 927b c534 1e0c c634 50ab c634
00000240: 8158 c734 d411 c834 9fd5 c834 46a3 c934
00000250: 7b78 ca34 f853 cb34 5434 cc34 8e18 cd34
00000260: 45ff cd34 13e7 ce34 2ccf cf34 72b6 d034
00000270: de9c d134 0f81 d234 a762 d334 8a41 d434
00000280: b41c d534 42f4 d534 76c7 d634 8696 d734
00000290: 4761 d834 d826 d934 8fe7 d934 2fa3 da34
000002a0: f758 db34 8709 dc34 aeb4 dc34 135a dd34
000002b0: 01fa dd34 3594 de34 2f29 df34 e5b8 df34
000002c0: 9843 e034 f1c9 e034 c14b e134 c8c8 e134
000002d0: 1732 2138 0d18 2138 9102 2138 f8f1 2038
000002e0: 58e6 2038 7fe0 2038 a5e0 2038 94e7 2038
000002f0: 72f5 2038 b20a 2138 3c28 2138 e94d 2138
00000300: 6c7c 2138 0fb4 2138 4bf5 2138 a73f 2238
00000310: e692 2238 a9ee 2238 0b53 2338 49bf 2338
00000320: fc32 2438 36ad 2438 9f2d 2538 80b2 2538
00000330: c33b 2638 2dc8 2638 7f56 2738 53e6 2738
00000340: 5c76 2838 8705 2938 da92 2938 721d 2a38
00000350: 44a4 2a38 a226 2b38 dfa3 2b38 511b 2c38
00000360: 9a8c 2c38 d4f6 2c38 e859 2d38 ddb5 2d38
00000370: 7b0a 2e38 ab57 2e38 b69d 2e38 b7dc 2e38
00000380: 0c15 2f38 e846 2f38 3573 2f38 8899 2f38
00000390: f6ba 2f38 10d8 2f38 cff0 2f38 f605 3038
000003a0: 3118 3038 a727 3038 1935 3038 bc40 3038
000003b0: a64a 3038 6b53 3038 0d5b 3038 ad61 3038
000003c0: 609d 8b37 218e 8b37 2980 8b37 c972 8b37
000003d0: a065 8b37 3d58 8b37 344a 8b37 ab3a 8b37
000003e0: 7729 8b37 2a16 8b37 d000 8b37 13e9 8a37
000003f0: a8ce 8a37 56b1 8a37 7391 8a37 e16e 8a37
1.7346545e-06 1.7304262e-06 1.7263101e-06 1.7223288e-06 1.7185265e-06 1.7149424e-06 1.7116159e-06 1.7085575e-06
1.7058379e-06 1.7034724e-06 1.7015266e-06 1.7000109e-06 1.6989586e-06 1.6983968e-06 1.6983798e-06 1.698877e-06
1.6999105e-06 1.7014708e-06 1.7035685e-06 1.7061685e-06 1.7092607e-06 1.7128124e-06 1.7167876e-06 1.721131e-06
1.7258357e-06 1.7308281e-06 1.7360658e-06 1.7415116e-06 1.7471193e-06 1.752828e-06 1.7586048e-06 1.7644151e-06
1.7702159e-06 1.7759675e-06 1.7816577e-06 1.7872594e-06 1.7927667e-06 1.7981464e-06 1.8034018e-06 1.8085295e-06
1.8135124e-06 1.8183612e-06 1.8230688e-06 1.8276514e-06 1.8320959e-06 1.8364118e-06 1.8406053e-06 1.8446698e-06
1.8486069e-06 1.8524391e-06 1.8561592e-06 1.8597677e-06 1.8632785e-06 1.8666794e-06 1.8700008e-06 1.873226e-06
1.8763615e-06 1.8794422e-06 1.8824423e-06 1.8853672e-06 2.1151016e-05 2.1103368e-05 2.1056145e-05 2.100969e-05
2.09644e-05 2.0920927e-05 2.087953e-05 2.0840622e-05 2.0804782e-05 2.0772319e-05 2.0743892e-05 2.0719724e-05
2.0700223e-05 2.0685764e-05 2.0676847e-05 2.0673247e-05 2.0675187e-05 2.0682643e-05 2.0695716e-05 2.0714127e-05
2.073773e-05 2.076638e-05 2.0799504e-05 2.0836826e-05 2.0877997e-05 2.0922476e-05 2.096978e-05 2.1019572e-05
2.1071311e-05 2.1124459e-05 2.1178445e-05 2.1233103e-05 2.128788e-05 2.1342292e-05 2.1396187e-05 2.1449347e-05
2.1501563e-05 2.1552543e-05 2.1602278e-05 2.1650556e-05 2.169742e-05 2.1742846e-05 2.1786684e-05 2.1829115e-05
2.187014e-05 2.1909502e-05 2.1947426e-05 2.1983915e-05 2.201876e-05 2.2052225e-05 2.20843e-05 2.211468e-05
2.2143828e-05 2.2171389e-05 2.2197726e-05 2.2222703e-05 2.224635e-05 2.226894e-05 2.2290384e-05 2.2310569e-05
3.7323952e-07 3.7212877e-07 3.710585e-07 3.7003485e-07 3.6906297e-07 3.681545e-07 3.6731544e-07 3.665501e-07
3.6587136e-07 3.6528346e-07 3.648025e-07 3.6442927e-07 3.6417467e-07 3.640425e-07 3.6404623e-07 3.641816e-07
3.6445434e-07 3.648636e-07 3.654104e-07 3.6609256e-07 3.6690327e-07 3.678402e-07 3.688919e-07 3.700502e-07
3.7131034e-07 3.7265875e-07 3.7408333e-07 3.7557965e-07 3.7713093e-07 3.7872792e-07 3.8036035e-07 3.8202091e-07
3.836996e-07 3.853862e-07 3.8707492e-07 3.8875766e-07 3.904342e-07 3.920945e-07 3.9373592e-07 3.9535763e-07
3.9695226e-07 3.9852063e-07 4.0005733e-07 4.015639e-07 4.0303914e-07 4.0447662e-07 4.058788e-07 4.0724396e-07
4.085666e-07 4.0985125e-07 4.1109655e-07 4.1229995e-07 4.134636e-07 4.1458557e-07 4.1566952e-07 4.1671515e-07
4.1772432e-07 4.1870183e-07 4.1964634e-07 4.2055603e-07 3.843204e-05 3.840779e-05 3.838778e-05 3.8372324e-05
3.8361497e-05 3.835605e-05 3.835619e-05 3.8362647e-05 3.837556e-05 3.8395352e-05 3.8422862e-05 3.845795e-05
3.8501268e-05 3.8553084e-05 3.8613838e-05 3.868309e-05 3.876062e-05 3.884608e-05 3.893957e-05 3.9040377e-05
3.914813e-05 3.9261962e-05 3.9381554e-05 3.9505307e-05 3.963314e-05 3.9763912e-05 3.989646e-05 4.003041e-05
4.0164552e-05 4.0297888e-05 4.0429506e-05 4.055858e-05 4.0684143e-05 4.0805557e-05 4.0922194e-05 4.1033436e-05
4.113894e-05 4.1237872e-05 4.1330146e-05 4.1415788e-05 4.1494593e-05 4.156648e-05 4.1631713e-05 4.169039e-05
4.1742853e-05 4.1789288e-05 4.1830546e-05 4.186624e-05 4.1897372e-05 4.1924475e-05 4.1947522e-05 4.196722e-05
4.19842e-05 4.19986e-05 4.201112e-05 4.202196e-05 4.203119e-05 4.203936e-05 4.2046468e-05 4.2052638e-05
1.6643375e-05 1.6636275e-05 1.662977e-05 1.6623542e-05 1.6617414e-05 1.661118e-05 1.6604645e-05 1.659741e-05
1.65894e-05 1.6580412e-05 1.657047e-05 1.6559416e-05 1.6547114e-05 1.653346e-05 1.6518612e-05 1.6502514e-05

exp_avg f4 [5, 60, 1, 1, 1]
00000000: 8f1e d8b6 4599 c6b6 b318 b4b6 5336 a0b6
00000010: 9325 8bb6 e9cb 69b6 ac55 3bb6 f2da 0ab6
00000020: 4110 b1b5 3cd7 11b5 2885 8b34 dd9e 9135
00000030: 5b39 0136 36d6 3a36 a276 7536 6283 9836
00000040: 9851 b636 7c86 d436 65da f236 3378 0837
00000050: 8a72 1737 db7a 2637 e967 3537 f640 4437
00000060: 1109 5337 cdc8 6137 9572 7037 0c0e 7f37
00000070: b9bc 8637 e0f3 8d37 7624 9537 c13f 9c37
00000080: bb42 a337 182c aa37 46f1 b037 8d8e b737
00000090: 19fe bd37 dd31 c437 5e32 ca37 5ae9 cf37
000000a0: 855a d537 d072 da37 593b df37 2eab e337
000000b0: a6af e737 373d eb37 3a70 ee37 303e f137
000000c0: 5697 f337 7a7e f537 6f00 f737 8720 f837
000000d0: 89d9 f837 2f36 f937 e238 f937 20d6 f837
000000e0: 0915 f837 0ff8 f637 0e8a f537 cac2 f337
000000f0: c205 46b7 155b 33b7 67bd 20b7 3e5b 0db7
00000100: dd0a f3b6 8818 cab6 e623 a0b6 0722 69b6
00000110: 5099 0eb6 da7e 40b5 663f 4c35 99df 1a36
00000120: 0a94 8336 225e bc36 4a94 f736 c9da 1a37
00000130: 70cd 3a37 0a36 5c37 afb1 7e37 04f6 9037
00000140: 7dfe a237 489e b537 689b c837 efee db37
00000150: d493 ef37 96cc 0138 cfed 0b38 ea29 1638
00000160: a767 2038 63c7 2a38 de32 3538 2892 3f38
00000170: 39e0 4938 a814 5438 5521 5e38 23f8 6738
00000180: 8a91 7138 e9dd 7a38 53f0 8138 113f 8638
00000190: 205d 8a38 cd3e 8e38 aaeb 9138 005b 9538
000001a0: 2081 9838 1256 9b38 ddf1 9d38 9749 a038
000001b0: 2258 a238 061b a438 4ba0 a538 3de7 a638
000001c0: 10f0 a738 cac6 a838 6771 a938 6ce6 a938
000001d0: 6130 aa38 7f52 aa38 d055 aa38 1d37 aa38
000001e0: 5f70 79b6 b146 65b6 64bd 4fb6 f271 38b6
000001f0: b49c 1fb6 ff48 05b6 9471 d3b5 2aea 99b5
00000200: bb7e 3cb5 1c6c 82b4 fc55 7834 596c 4035
00000210: dd54 a235 fa8e e535 71d9 1436 4947 3736
00000220: 2793 5936 a327 7c36 955b 8f36 1c69 a036
00000230: 1e4f b136 6730 c236 52df d236 ee68 e336
00000240: 32d3 f336 7113 0237 6a2c 0a37 e53a 1237
00000250: 712c 1a37 641e 2237 be09 2a37 0bdf 3137
00000260: e99a 3937 293d 4137 a7b9 4837 d80d 5037
00000270: 6133 5737 b218 5e37 fec8 6437 932a 6b37
00000280: 4b41 7137 fdf6 7637 df54 7c37 e9a8 8037
00000290: 20ec 8237 66ed 8437 7dbb 8637 2651 8837
000002a0: 53a4 8937 66b7 8a37 6890 8b37 ab31 8c37
000002b0: 5397 8c37 5bc6 8c37 e4be 8c37 e17a 8c37
000002c0: f7fc 8b37 fc45 8b37 7e5b 8a37 3538 8937
000002d0: 8f4e b0b7 2b6c b8b7 972f c0b7 3523 c8b7
000002e0: 9e09 d0b7 5d01 d8b7 06f3 dfb7 5512 e8b7
000002f0: ff5d f0b7 f6eb f8b7 dbe5 00b8 e382 05b8
00000300: 7445 0ab8 4a36 0fb8 603b 14b8 026d 19b8
00000310: baac 1eb8 b20d 24b8 f775 29b8 6dd4 2eb8
00000320: a529 34b8 2382 39b8 45c1 3eb8 b0e9 43b8
00000330: b1ef 48b8 98e5 4db8 67b5 52b8 7a60 57b8
00000340: fccd 5bb8 ac30 60b8 1a75 64b8 cb91 68b8
00000350: 438b 6cb8 6a67 70b8 821e 74b8 b5b6 77b8
00000360: de2b 7bb8 ff82 7eb8 34e1 80b8 df6a 82b8
00000370: dde4 83b8 bb47 85b8 709d 86b8 a7e0 87b8
00000380: 1306 89b8 1808 8ab8 f705 8bb8 c5f0 8bb8
00000390: 1dcb 8cb8 0a8e 8db8 344b 8eb8 ca02 8fb8
000003a0: 6fb5 8fb8 bf6e 90b8 1337 91b8 e4fc 91b8
000003b0: b8ce 92b8 bea9 93b8 5895 94b8 3b87 95b8
000003c0: e03f 76b8 d481 73b8 4dd4 70b8 c636 6eb8
000003d0: 5ea8 6bb8 b027 69b8 abab 66b8 e933 64b8
000003e0: f0b5 61b8 502f 5fb8 f88f 5cb8 24da 59b8
000003f0: 12fb 56b8 88e8 53b8 1c97 50b8 5ffe 4cb8
-6.440859e-06 -5.9187028e-06 -5.3672934e-06 -4.7746958e-06 -4.146897e-06 -3.4838397e-06 -2.791504e-06 -2.0691045e-06
-1.3192258e-06 -5.4329917e-07 2.5987651e-07 1.0849577e-06 1.9255883e-06 2.7840847e-06 3.6576898e-06 4.545248e-06
5.4335214e-06 6.3337484e-06 7.2375865e-06 8.134218e-06 9.02697e-06 9.922976e-06 1.0812634e-05 1.1697635e-05
1.2578691e-05 1.3457798e-05 1.4331793e-05 1.5202455e-05 1.6061926e-05 1.6922073e-05 1.7779163e-05 1.8626337e-05
1.9462188e-05 2.0286112e-05 2.1093187e-05 2.188168e-05 2.264888e-05 2.338824e-05 2.410373e-05 2.4784986e-05
2.543373e-05 2.6041089e-05 2.6611307e-05 2.714022e-05 2.7619139e-05 2.8042688e-05 2.842407e-05 2.8758397e-05
2.9038329e-05 2.9265171e-05 2.9444896e-05 2.957905e-05 2.9665202e-05 2.9708344e-05 2.9709601e-05 2.9663614e-05
2.9573699e-05 2.9440997e-05 2.9270563e-05 2.9058563e-05 -1.180306e-05 -1.0690438e-05 -9.580842e-06 -8.425499e-06
-7.243229e-06 -6.022925e-06 -4.7725507e-06 -3.4739512e-06 -2.1248889e-06 -7.1710167e-07 7.608818e-07 2.307794e-06
3.9213382e-06 5.613795e-06 7.3784367e-06 9.230055e-06 1.1134296e-05 1.3125604e-05 1.518095e-05 1.7280698e-05
1.943041e-05 2.1650587e-05 2.3914225e-05 2.6218097e-05 2.8559858e-05 3.0946532e-05 3.336166e-05 3.5801822e-05
3.8243506e-05 4.071685e-05 4.3201137e-05 4.5674067e-05 4.8130958e-05 5.0563976e-05 5.2959967e-05 5.5305787e-05
5.759442e-05 5.9811315e-05 6.195963e-05 6.401365e-05 6.597699e-05 6.782785e-05 6.958035e-05 7.121824e-05
7.271976e-05 7.407008e-05 7.531394e-05 7.643102e-05 7.741178e-05 7.825163e-05 7.89767e-05 7.958568e-05
8.007896e-05 8.0478916e-05 8.079671e-05 8.1014674e-05 8.115243e-05 8.121598e-05 8.1222155e-05 8.116497e-05
-3.71693e-06 -3.4164807e-06 -3.0955644e-06 -2.7484461e-06 -2.378406e-06 -1.9861034e-06 -1.5753781e-06 -1.1467539e-06
-7.0219875e-07 -2.4293047e-07 2.3128081e-07 7.168324e-07 1.2094639e-06 1.7103441e-06 2.2180286e-06 2.7310618e-06
3.2421174e-06 3.7573998e-06 4.2723937e-06 4.780608e-06 5.2842215e-06 5.7872853e-06 6.2844856e-06 6.7773426e-06
7.2665507e-06 7.75313e-06 8.235782e-06 8.715991e-06 9.189463e-06 9.663028e-06 1.0135058e-05 1.0601953e-05
1.1062927e-05 1.1517936e-05 1.19641545e-05 1.2400989e-05 1.2826961e-05 1.3237981e-05 1.3636656e-05 1.4017004e-05
1.4379922e-05 1.4720249e-05 1.5040131e-05 1.5337444e-05 1.5607162e-05 1.5846173e-05 1.606135e-05 1.6250251e-05
1.6408192e-05 1.6536284e-05 1.6637336e-05 1.6712429e-05 1.6759766e-05 1.6781667e-05 1.6778191e-05 1.674652e-05
1.6687887e-05 1.660268e-05 1.6493486e-05 1.6357846e-05 -2.1017417e-05 -2.1984879e-05 -2.2910344e-05 -2.3858252e-05
-2.480001e-05 -2.5749841e-05 -2.6696838e-05 -2.7665092e-05 -2.8654e-05 -2.9673782e-05 -3.0731648e-05 -3.183157e-05
-3.2966447e-05 -3.4144417e-05 -3.5341247e-05 -3.6579564e-05 -3.7831e-05 -3.91134e-05 -4.0402603e-05 -4.168267e-05
-4.295413e-05 -4.4228636e-05 -4.5479526e-05 -4.670926e-05 -4.7906946e-05 -4.9089635e-05 -5.0236846e-05 -5.1349845e-05
-5.2405507e-05 -5.345109e-05 -5.4468495e-05 -5.544889e-05 -5.6396482e-05 -5.731677e-05 -5.8202546e-05 -5.905955e-05
-5.9883918e-05 -6.068032e-05 -6.145463e-05 -6.218789e-05 -6.289196e-05 -6.355295e-05 -6.418943e-05 -6.4791464e-05
-6.5338005e-05 -6.58186e-05 -6.6291475e-05 -6.672883e-05 -6.713553e-05 -6.749861e-05 -6.785095e-05 -6.819291e-05
-6.852566e-05 -6.887083e-05 -6.924397e-05 -6.961243e-05 -7.000327e-05 -7.041123e-05 -7.0850074e-05 -7.130062e-05
-5.871046e-05 -5.8056627e-05 -5.741818e-05 -5.6794634e-05 -5.618517e-05 -5.558849e-05 -5.499615e-05 -5.440778e-05
-5.3813623e-05 -5.3211406e-05 -5.258617e-05 -5.193999e-05 -5.1255403e-05 -5.052288e-05 -4.9731796e-05 -4.887429e-05

exp_avg_sq f4 [2, 5, 1, 1, 1]
00000000: 8392 9f3a 4575 7039 6a07 8d3a 138c a839
00000010: 1d62 1c39 797a 093b f0f7 d039 aa20 f33a
00000020: 3928 0f3a 97e1 b338
0.0012174401 0.0002293187 0.0010759656 0.0003214782 0.0001491387 0.002097754 0.0003985758 0.0018549163
0.0005461011 8.5774045e-05

exp_avg f4 [2, 5, 1, 1, 1]
00000000: 39ae 1239 a991 2038 2d6d e638 947d 5439
00000010: c25c 8db9 3cad 14b9 c5c4 fbb7 a01f ebb8
00000020: 578f 61b9 bd59 e7b7
0.00013988548 3.828263e-05 0.0001098759 0.00020264677 -0.00026962726 -0.00014178915 -3.001316e-05 -0.00011211564
-0.0002151107 -2.7579134e-05

exp_avg_sq f4 [2]
00000000: f587 3d36 b243 9436
2.8242332e-06 4.4186245e-06

exp_avg f4 [2]
00000000: bab2 83b8 9cfd a138
-6.279857e-05 7.724317e-05

exp_avg_sq f4 [1, 2, 1, 1, 1]
00000000: f90c f03a 20bf 913a
0.0018314413 0.0011119582

exp_avg f4 [1, 2, 1, 1, 1]
00000000: 4017 59b7 6237 8e39
-1.2939621e-05 0.00027125614

exp_avg_sq f4 [5]
00000000: 5c01 9b34 c3d1 3536 0edd ad33 a0aa 9236
00000010: eb5b 5f36
2.887199e-07 2.70932e-06 8.09615e-08 4.3710024e-06 3.3283093e-06

exp_avg f4 [5]
00000000: 1168 b4b7 70cf 81b8 3397 47b7 d1f4 9c38
00000010: 4937 8ab8
-2.1506132e-05 -6.1898376e-05 -1.1896528e-05 7.48426e-05 -6.5906504e-05

exp_avg_sq f4 [12, 5]
00000000: 4279 153b 9956 073a 3ddd 173b 3d41 623a
00000010: db31 593a c9b5 be33 9445 b234 1c42 ff33
00000020: 6853 1034 4f57 1b33 a63f d837 3d36 2f35
00000030: 7df4 9936 bbf8 5137 376f a037 0297 6735
00000040: 12bb 5535 ccb1 d935 314e 3933 6f36 6e34
00000050: 5c68 5635 369f c534 7c2d 0736 fd69 7533
00000060: 7a3d 1b35 648d 4c30 0670 3730 99ed cd30
00000070: 042d 9f2f 17a3 c02f 321f 823b fd3f 7e3a
00000080: 32fc c13a 6090 003b 2591 8e3a 7766 1334
00000090: 2d14 2835 b94c 9136 127c 6735 e876 6635
000000a0: 5ffe c532 4b74 c234 3b7b fd32 580d 5133
000000b0: 6e6a e430 93c5 5531 1f47 c231 4eac eb31
000000c0: d25d c330 bbb5 0131 037d cd33 9984 d832
000000d0: d946 8133 430c 0934 3286 c832 a997 3d33
000000e0: 9f35 cc34 0e09 7a33 65f5 af33 767e 5932
0.002280787 0.00051627454 0.002317264 0.0008630937 0.0008285322 8.880631e-08 3.3205708e-07 1.1886388e-07
1.3441388e-07 3.6168156e-08 2.5778845e-05 6.527151e-07 4.5882175e-06 1.2515283e-05 1.9125275e-05 8.627395e-07
7.9620906e-07 1.6219506e-06 4.3144784e-08 2.218528e-07 7.9873075e-07 3.680995e-07 2.0143043e-06 5.7139903e-08
5.783146e-07 7.4415696e-10 6.6734207e-10 1.4983242e-09 2.8953917e-10 3.504048e-10 0.003971004 0.0009698866
0.0014799892 0.0019617304 0.0010876997 1.3727718e-07 6.2614237e-07 4.3302684e-06 8.623475e-07 8.585471e-07
2.3049493e-08 3.621993e-07 2.9509115e-08 4.867374e-08 1.6619432e-09 3.1107887e-09 5.6542286e-09 6.858989e-09
1.4214783e-09 1.8875272e-09 9.568796e-08 2.5206008e-08 6.019918e-08 1.276358e-07 2.334409e-08 4.4142926e-08
3.8036976e-07 5.8215896e-08 8.1937095e-08 1.2659816e-08

exp_avg f4 [12, 5]
00000000: e372 d8ba 679c c13a 34e2 e53c 75dc e03b
00000010: 3019 f33b f2eb c134 b4ec c134 32ec c134
00000020: 9de8 c134 3beb c134 ea0c 5c35 7207 5c35
00000030: 9510 5c35 e21b 5c35 3312 5c35 1003 e9b4
00000040: 8d12 2d33 23f0 ecb4 eb98 05b4 b41c 86b4
00000050: f600 fa33 6ef3 f933 8231 fa33 f8f5 f933
00000060: a3fb f933 5894 2d34 0d89 2d34 da9f 2d34
00000070: c88c 2d34 158f 2d34 8266 2dba 1059 3fba
00000080: 6cd8 98ba e1d4 cf39 8b8f a7b9 636c e033
00000090: 224a e033 16db e033 3c51 e033 1a62 e033
000000a0: a6a6 b934 a2a5 b934 39a8 b934 cda5 b934
000000b0: 66a5 b934 e185 e1b4 7634 e1b4 1e14 e2b4
000000c0: 704f e1b4 064d e1b4 f754 5635 d251 5635
000000d0: ec59 5635 1c56 5635 c950 5635 03f1 ac34
000000e0: 8cee ac34 2af3 ac34 d5fb ac34 97f3 ac34
-0.0016513731 0.0014771343 0.028061964 0.006862218 0.007418774 3.6120724e-07 3.6121276e-07 3.6120906e-07
3.61183e-07 3.6120204e-07 8.197518e-07 8.196722e-07 8.1980517e-07 8.199696e-07 8.198287e-07 -4.340186e-07
4.0296573e-08 -4.4133148e-07 -1.2442221e-07 -2.498033e-07 1.1641707e-07 1.1639246e-07 1.16505376e-07 1.16397075e-07
1.16407385e-07 1.6165848e-07 1.616174e-07 1.6170034e-07 1.6163096e-07 1.6163933e-07 -0.0006614701 -0.0007299343
-0.0011661178 0.00039640724 -0.0003195967 1.0450528e-07 1.04442975e-07 1.0470664e-07 1.0445589e-07 1.04486574e-07
3.4580188e-07 3.457945e-07 3.4581333e-07 3.457957e-07 3.4579278e-07 -4.2006926e-07 -4.1947686e-07 -4.2110418e-07
-4.1967314e-07 -4.1965558e-07 7.984485e-07 7.9840277e-07 7.9852066e-07 7.984652e-07 7.983877e-07 3.2212856e-07
3.2211062e-07 3.2214422e-07 3.2220728e-07 3.2214732e-07

exp_avg_sq f4 [12]
00000000: 2dc5 4137 8678 1731 b942 9833 19d3 d931
00000010: 5bee 5c32 4e84 a52d 7ccc 2f37 fb80 6332
00000020: 4b0b 6130 aacc b52e 414f a630 6538 b530
1.1549605e-05 2.2041902e-09 7.090188e-08 6.3395302e-09 1.2859881e-08 1.8817083e-11 1.0478423e-05 1.3242466e-08
8.187057e-10 8.267283e-11 1.2100615e-09 1.3185512e-09

exp_avg f4 [12]
00000000: b939 99b8 0c62 9d33 a69e 3234 e47d 29b3
00000010: 05d2 ca32 26d5 0c33 5a7f 1ab9 1300 b632
00000020: 47a8 9633 56bb b6b3 59f3 2d34 5f53 8c33
-7.30636e-05 7.328717e-08 1.6635258e-07 -3.9462876e-08 2.36114e-08 3.2790147e-08 -0.00014734027 2.1187622e-08
7.015529e-08 -8.5091116e-08 1.620041e-07 6.534423e-08
