scripts/python/deep-learning/experiments/cnn3d/003/model-cnn3d-epoch-19.pth (torch_old, 8330 bytes, 21 tensors)

conv1.weight f4 [5, 60, 1, 1, 1]
0	0x3e285b87	0.16441165
1	0x3e8f332d	0.27968732
2	0x3de8831b	0.113531314
3	0x3e48246b	0.19545142
4	0x3e20232d	0.15638418
5	0x3e0047f0	0.12527442
6	0x3e90cbfd	0.2828063
7	0x3e434650	0.19069791
8	0x3e6f46d1	0.23366858
9	0x3e9e64de	0.3093633
10	0x3ea1c4c9	0.31595448
11	0x3e72e5d5	0.23720486
12	0x3ea08b07	0.3135607
13	0x3e732881	0.2374592
14	0x3e8606e1	0.26177123
15	0x3e8add3d	0.27121916
16	0x3e42d776	0.19027504
17	0x3e07e8dd	0.13272424
18	0x3e831884	0.2560464
19	0x3e1e81ad	0.15479155
20	0x3e11df8f	0.14245437
21	0x3e9b920b	0.3038486
22	0x3e201034	0.15631181
23	0x3e09b24f	0.13446926
24	0x3e4b7ecf	0.19872592
25	0x3de4a0bc	0.1116347
26	0x3dc2b081	0.09506322
27	0x3e4b775c	0.1986975
28	0x3e2e7e13	0.17040281
29	0x3cd66cb5	0.026174882
30	0x3e35d761	0.17757942
31	0x3e5483d4	0.20753413
32	0x3e2caa06	0.16861734
33	0xbc72f3a9	-0.014828601
34	0x3dd00e0e	0.10158931
35	0x3e169c65	0.14708097
36	0x3e3941c5	0.18091495
37	0x3de80500	0.11329079
38	0xbcf04b6e	-0.029332843
39	0xbd35757e	-0.044301502
40	0xbba33b50	-0.004981436
41	0x3dff1020	0.124542475
42	0xbd9fa18b	-0.07794484
43	0xbd1cdd78	-0.038297147
44	0x3d20604d	0.03915434
45	0xbd81388e	-0.06309615
46	0x3e0b9554	0.13631183
47	0x3d5b437e	0.053531162
48	0xbcc0cda0	-0.02353555
49	0x3db69c44	0.08916524
50	0xbdb1526a	-0.08658297
51	0xbd3192dd	-0.04335295
52	0xbc8236a6	-0.015895199
53	0xbd82db1a	-0.063894466
54	0x3d8d59c7	0.06901889
55	0x3e220ba1	0.15824749
56	0x3d9a747a	0.075417474
57	0x3e186315	0.14881547
58	0xbda09171	-0.07840241
59	0xbd504477	-0.050846543
60	0xbd6057b8	-0.054771155
61	0xbd0daf41	-0.034590963
62	0x3dd72275	0.10504619
63	0x3e428f31	0.18999936
64	0x3c880611	0.016604455
65	0x3e280838	0.16409385
66	0x3e4d4976	0.20047554
67	0x3e400728	0.1875273
68	0x3c052095	0.008125444
69	0x3d644dd2	0.055738278
70	0x3e69a587	0.2281705
71	0x3e38adf3	0.18035106
72	0x3e576359	0.21033992
73	0x3e6dcf11	0.23223521
74	0x3db1c828	0.08680755
75	0x3d99571a	0.074873164
76	0x3e60bf1e	0.21947905
77	0x3da04e71	0.078274615
78	0x3e1bcd99	0.15215148
79	0xbc7b2b62	-0.0153301675
80	0x3bd6dffc	0.0065574627
81	0x3e39b22c	0.18134373
82	0x3d6c2711	0.057654444
83	0x3e3cd15a	0.18439236
84	0x3e1161a7	0.14197408
85	0x3d17a8f9	0.03702638
86	0x3db8175a	0.08988829
87	0x3e1638b0	0.14670062
88	0x3e178ff5	0.14801009
89	0x3da067d9	0.07832307
90	0xbbb580df	-0.0055390443
91	0x3dba154e	0.09086095
92	0x3dd2e4ee	0.10297571
93	0xbd015b2c	-0.03158109
94	0x3d855f34	0.06512299
95	0xbcc69089	-0.024238842
96	0xbd33079f	-0.04370844
97	0x3de9a274	0.114079386
98	0xbe05d200	-0.1306839
99	0x3d2dc8e8	0.042427927
100	0x3d9ae885	0.07563881
101	0xbc1d9505	-0.009618049
102	0x3d5434a4	0.051808015
103	0xbd94045a	-0.072273925
104	0xbdebfcec	-0.115228504
105	0x3d130d10	0.03590113
106	0xbe181102	-0.14850238
107	0x3d6046f1	0.054755155
108	0xbdd2b336	-0.10288088
109	0x3dc162db	0.09442683
110	0xbd2e2a23	-0.042520653
111	0x3d873c1f	0.06603264
112	0xbd06674c	-0.032813355
113	0xbe07ba3f	-0.13254641
114	0xbd7a83c6	-0.061160825
115	0xbdb2678e	-0.08711158
116	0xbe12a8db	-0.14322226
117	0x3c96ed14	0.018423595
118	0x3ce7778a	0.028255243
119	0x3da1be86	0.078976676
120	0x3e97fc64	0.29684746
121	0x3e898f58	0.26867175
122	0x3e481304	0.19538504
123	0x3e6dec93	0.23234777
124	0x3e930083	0.28711328
125	0x3dd8df38	0.105894506
126	0x3e8d047d	0.27542487
127	0x3e7c628a	0.24646965
128	0x3e9b09d6	0.30280942
129	0x3e56842f	0.20948862
130	0x3e4fed42	0.2030535
131	0x3e3de45f	0.18544148
132	0x3e86c2eb	0.26320586
133	0x3e94a05c	0.29028594
134	0x3de147ac	0.109999985
135	0x3e1e3cc4	0.15452868
136	0x3e7e4511	0.24831034
137	0x3e855b20	0.26046085
138	0x3e819cd1	0.25314954
139	0x3e8396e7	0.25701067
140	0x3e927a55	0.28608957
141	0x3e4c4bba	0.19950762
142	0x3e22ae0f	0.1588671
143	0x3d5f7344	0.054553285
144	0x3e13770b	0.1440088
145	0x3da52be4	0.08065012
146	0x3d339a15	0.043848116
147	0x3e5282e1	0.20557739
148	0x3e643c50	0.22288632
149	0x3daef536	0.08542864
150	0x3dd568ee	0.104204044
151	0x3e08a618	0.1334461
152	0x3c0e11d7	0.008671246
153	0x3e34b2ff	0.17646407
154	0xbc97809a	-0.01849394
155	0x3d26c056	0.04071077
156	0xbd70853c	-0.058720812
157	0x3d837f78	0.06420797
158	0x3d31f18a	0.04344324
159	0x3df671c7	0.1203342
160	0xbdc56b41	-0.09639598
161	0x3e06caac	0.1316325
162	0xbdd7b941	-0.10533381
163	0x3d3dd756	0.04634794
164	0x3c98f768	0.01867266
165	0x3d48b095	0.048996527
166	0xbceb80e2	-0.02874798
167	0xbd0cbfd2	-0.03436262
168	0xbccd40c6	-0.0250553
169	0xbcf98f47	-0.030463828
170	0x3d4fad9c	0.050702676
171	0x3dba2bb1	0.09090365
172	0x3d7635f8	0.060110062
173	0x3ce73d89	0.028227584
174	0x3d3aa79f	0.045570012
175	0x3d6b1381	0.057391647
176	0x3d1cfc37	0.03832647
177	0xbd4ad7e3	-0.049522292
178	0x3dd8afd6	0.10580413
179	0xbda36bd0	-0.07979548
180	0x3c716915	0.014734526
181	0x3d33f730	0.04393691
182	0x3db93d30	0.09044874
183	0xbd7496cb	-0.05971412
184	0x3da89a3f	0.08232545
185	0xbd974575	-0.07386295
186	0x3c1ad85f	0.009451001
187	0x3d98fccd	0.07470093
188	0x3d9dd7ec	0.077071995
189	0x3e00c7b1	0.12576176
190	0xbd8d2a26	-0.06892805
191	0xbd9b317c	-0.07577798
192	0xbdb6c02b	-0.08923372
193	0x3db652f7	0.08902543
194	0x3d2a8305	0.041628856
195	0x3deb7dec	0.11498627
196	0xbd04b40b	-0.032398265
197	0x3e13bb02	0.14426807
198	0xbdcf452c	-0.10120615
199	0x3d75fade	0.0600537
200	0x3d3f534b	0.046710294
201	0x3e00f2f1	0.12592675
202	0x3d2671cb	0.040635865
203	0x3e1725a2	0.1476045
204	0xbd9d48e8	-0.076799214
205	0xbd63bd8f	-0.0556007
206	0x3d09e07e	0.033661358
207	0x3db6dae2	0.08928467
208	0xbcd48766	-0.02594347
209	0x3e25ca77	0.16190515
210	0x3da950d8	0.08267373
211	0x3e149daa	0.14513269
212	0xbcbc0015	-0.022949258
213	0x3bba12e4	0.0056785215
214	0x3de30b9c	0.11086199
215	0x3d354812	0.044258185
216	0x3d96b91d	0.07359526
217	0x3e3601af	0.1777408
218	0x3dc59c12	0.09648909
219	0xb9755b4d	-0.00023399033
220	0x3dde1b24	0.108450204
221	0x3d62ebc4	0.055400625
222	0x3e7274a5	0.23677309
223	0x3b6e8caa	0.003639976
224	0xbbb4f7dc	-0.005522711
225	0x3d3366cf	0.043799218
226	0x3d44a71b	0.048010927
227	0x3d697ecb	0.057005685
228	0x3dda4e30	0.10659444
229	0x3dc0508d	0.09390364
230	0x3e69fa63	0.22849421
231	0x3db7581f	0.08952355
232	0x3e710632	0.2353752
233	0x3deb20be	0.114808545
234	0x3e141d00	0.14464188
235	0x3ca41624	0.020030089
236	0x3d9bb129	0.0760215
237	0x3e3a458d	0.18190594
238	0x3d9be748	0.07612473
239	0x3e2d2d30	0.16911769
240	0xbc91ba44	-0.017789014
241	0xbd096d84	-0.033551708
242	0x3d2f7017	0.042831507
243	0x3e2c496e	0.16824886
244	0x3e23a938	0.1598252
245	0x3e3e8e76	0.18609032
246	0x3e2859e6	0.16440544
247	0xbd242655	-0.04007562
248	0x3b9eb0f3	0.0048428713
249	0x3e0db0d6	0.13836989
250	0xbb51618d	-0.0031949014
251	0x3d9ed030	0.07754552
252	0x3e113e30	0.14183879
253	0x3c816594	0.015795507
254	0x3dca701d	0.09884665
255	0x39cee8f1	0.00039464937

conv1.bias f4 [5]
0	0x3f43b5cb	0.7644927
1	0x3f192ffc	0.59838843
2	0x3f44f132	0.76930535
3	0xbf6c2fe9	-0.92260605
4	0x3f5d054b	0.863362

conv2.weight f4 [2, 5, 1, 1, 1]
0	0x3f0c9048	0.54907656
1	0x3f197e0a	0.59957945
2	0x3eb4c2db	0.35304913
3	0xbeabef09	-0.33580807
4	0x3ee49443	0.44644365
5	0x3e4e2e45	0.20134838
6	0xbe99a3ac	-0.30007684
7	0x3e2827a5	0.16421373
8	0x3f44d3e7	0.7688584
9	0xbf0a2096	-0.5395597

conv2.bias f4 [2]
0	0x3ecbe37d	0.39821997
1	0xbf8912a9	-1.070882

conv3.weight f4 [1, 2, 1, 1, 1]
0	0x3f44db2b	0.76896924
1	0xbf78113e	-0.9690131

fc1.weight f4 [12, 5]
0	0xbd7b4724	-0.06134714
1	0x3ea0e27e	0.314228
2	0xbd703e80	-0.058653355
3	0x3de33e20	0.11095834
4	0x3d76f86b	0.060295504
5	0xbf5e212b	-0.8676936
6	0xbea0c3e7	-0.31399462
7	0xbf3c6ec3	-0.7360651
8	0x3d79c9cc	0.060983464
9	0xbe8453df	-0.2584524
10	0xbe21b9b2	-0.15793493
11	0xbe8b0dc5	-0.27158943
12	0xbf844ac2	-1.0335314
13	0xbd8357f1	-0.06413258
14	0xbd0c67bd	-0.03427862
15	0x3e4957e8	0.1966244
16	0x3f4820e0	0.78175163
17	0x3d9230d5	0.0713822
18	0x3ec7da8a	0.3903392
19	0x3f121fe8	0.57079935
20	0xbf1360b7	-0.5756945
21	0xbe25aeca	-0.16179958
22	0xbdfddf10	-0.123960614
23	0xbf465907	-0.77479595
24	0xbf06a454	-0.52594495
25	0xbe6ce0dc	-0.23132652
26	0xbe9a8344	-0.30178273
27	0xbe5b9799	-0.21444549
28	0xbf2f559d	-0.6849001
29	0xbf12a496	-0.5728239
30	0xbe995446	-0.29947108
31	0x3ed5bf71	0.4174762
32	0x3e71b12f	0.23602746
33	0xbe598087	-0.21240436
34	0x3ea9b1d4	0.33143485
35	0xbf4af6ec	-0.7928302
36	0xbf106fde	-0.56420696
37	0xbccab298	-0.024743363
38	0xbf2f5e5e	-0.6850337
39	0x3d25bb37	0.040461745
40	0xbf0c9738	-0.5491824
41	0xbe05dd7a	-0.13072768
42	0xbf0aa5ea	-0.54159415
43	0xbea87a76	-0.3290593
44	0xbee9f264	-0.45692742
45	0x3ea65476	0.32486314
46	0x3e6e6187	0.23279391
47	0x3e88c03b	0.2670916
48	0x3e9fa62d	0.3118147
49	0x3ea79e5e	0.32738012
50	0xbd93e9c8	-0.072223246
51	0x3cdbe840	0.026844144
52	0xbf511e6b	-0.8168704
53	0xbd88b385	-0.06674866
54	0xbf3dbe79	-0.74118763
55	0xbf3daae8	-0.7408891
56	0xbe9b5e8b	-0.30345568
57	0xbf11d4a3	-0.5696508
58	0x3e5353ac	0.20637387
59	0xbf204b4c	-0.62614894

fc1.bias f4 [12]
0	0xbe901054	-0.28137457
1	0x3d45d29f	0.048296567
2	0xbf2d509a	-0.67701113
3	0x3ecd5bdb	0.40109143
4	0xbf2d9dc7	-0.67818874
5	0xbe148825	-0.1450506
6	0xbe87339d	-0.26406565
7	0xbf27d765	-0.6556304
8	0xbf287621	-0.6580525
9	0x3f63e464	0.8902037
10	0xbf191a2d	-0.59805566
11	0xbeef10e5	-0.46692577

exp_avg_sq f4 [5, 60, 1, 1, 1]
0	0x3696623e	4.4817853e-06
1	0x369584be	4.4559993e-06
2	0x3694b19c	4.43142e-06
3	0x3693e9a0	4.408139e-06
4	0x36932cfa	4.3861774e-06
5	0x36927c33	4.3655978e-06
6	0x3691d816	4.3464925e-06
7	0x3691413e	4.328932e-06
8	0x3690b8ad	4.3130335e-06
9	0x36903e3f	4.298781e-06
10	0x368fd37b	4.2863517e-06
11	0x368f7888	4.275764e-06
12	0x368f2e7e	4.2671445e-06
13	0x368ef5f8	4.2605643e-06
14	0x368ed0d2	4.2562397e-06
15	0x368ebeb2	4.2541296e-06
16	0x368ec0b5	4.254364e-06
17	0x368ed837	4.2571005e-06
18	0x368f0608	4.2624342e-06
19	0x368f4a8d	4.270411e-06
20	0x368fa583	4.281e-06
21	0x369017ec	4.2943193e-06
22	0x3690a0b8	4.3102445e-06
23	0x36914021	4.3288023e-06
24	0x3691f605	4.349977e-06
25	0x3692c073	4.373543e-06
26	0x36939eca	4.399427e-06
27	0x3694903e	4.4275357e-06
28	0x369592d2	4.457638e-06
29	0x3696a56f	4.4896074e-06
30	0x3697c5d8	4.5231827e-06
31	0x3698f36d	4.5582915e-06
32	0x369a2b5f	4.5946067e-06
33	0x369b6d1e	4.632063e-06
34	0x369cb634	4.6703735e-06
35	0x369e05ad	4.7094277e-06
36	0x369f5adb	4.7491462e-06
37	0x36a0b413	4.789335e-06
38	0x36a2112f	4.8299767e-06
39	0x36a3701f	4.870831e-06
40	0x36a4d086	4.911856e-06
41	0x36a6326f	4.9530568e-06
42	0x36a793fe	4.9942164e-06
43	0x36a8f549	5.035345e-06
44	0x36aa55df	5.0763915e-06
45	0x36abb355	5.117074e-06
46	0x36ad0dc3	5.157404e-06
47	0x36ae6344	5.19716e-06
48	0x36afb347	5.236277e-06
49	0x36b0fd88	5.2747237e-06
50	0x36b2400b	5.312269e-06
51	0x36b379cb	5.3487943e-06
52	0x36b4a957	5.384132e-06
53	0x36b5cd34	5.418109e-06
54	0x36b6e4e1	5.4506677e-06
55	0x36b7f028	5.481783e-06
56	0x36b8ed4b	5.511252e-06
57	0x36b9dc08	5.5390447e-06
58	0x36babb8e	5.565066e-06
59	0x36bb8c3b	5.5893593e-06
60	0x386afbbd	5.6024397e-05
61	0x3869f455	5.577908e-05
62	0x3868f17d	5.5538014e-05
63	0x3867f470	5.5302342e-05
64	0x3866fd7b	5.5072345e-05
65	0x38660dc7	5.4849104e-05
66	0x3865263e	5.463347e-05
67	0x3864472a	5.4425713e-05
68	0x38637242	5.422743e-05
69	0x3862a808	5.403909e-05
70	0x3861ea92	5.386264e-05
71	0x38613a03	5.3698208e-05
72	0x38609860	5.3547672e-05
73	0x38600661	5.3411703e-05
74	0x385f8684	5.329262e-05
75	0x385f18a3	5.3190288e-05
76	0x385ebed3	5.3106643e-05
77	0x385e7944	5.3041862e-05
78	0x385e49d5	5.2997686e-05
79	0x385e308c	5.2974137e-05
80	0x385e2cc6	5.2970623e-05
81	0x385e3f98	5.298815e-05
82	0x385e679e	5.3025426e-05
83	0x385ea4e9	5.308251e-05
84	0x385ef78f	5.315948e-05
85	0x385f5d50	5.3254247e-05
86	0x385fd587	5.3366206e-05
87	0x38606004	5.3495183e-05
88	0x3860faee	5.363946e-05
89	0x3861a582	5.379832e-05
90	0x38625deb	5.3970067e-05
91	0x3863247f	5.4155007e-05
92	0x3863f6d8	5.435091e-05
93	0x3864d49e	5.455745e-05
94	0x3865bcd1	5.4773704e-05
95	0x3866af62	5.499961e-05
96	0x3867acd0	5.5235636e-05
97	0x3868b331	5.5479995e-05
98	0x3869c422	5.5734192e-05
99	0x386addba	5.5996446e-05
100	0x386c00d8	5.626757e-05
101	0x386d2df3	5.6547997e-05
102	0x386e639b	5.6836387e-05
103	0x386fa262	5.713327e-05
104	0x3870ea20	5.7438505e-05
105	0x38723821	5.774957e-05
106	0x38738d11	5.8067093e-05
107	0x3874e752	5.8389567e-05
108	0x387644d5	5.8715075e-05
109	0x3877a535	5.904325e-05
110	0x38790768	5.9373124e-05
111	0x387a68bb	5.9702183e-05
112	0x387bc841	6.0029564e-05
113	0x387d240f	6.0353483e-05
114	0x387e7b9d	6.0673443e-05
115	0x387fcceb	6.0987582e-05
116	0x38808b76	6.129492e-05
117	0x38812cdf	6.159557e-05
118	0x3881c9a0	6.188755e-05
119	0x388261ad	6.2170766e-05
120	0x3588749f	1.0166731e-06
121	0x35876a0f	1.0089151e-06
122	0x35866dc7	1.0015727e-06
123	0x358580cf	9.94676e-07
124	0x3584a33a	9.882272e-07
125	0x3583d57d	9.822394e-07
126	0x358318a7	9.767435e-07
127	0x35826d46	9.717558e-07
128	0x3581d4ce	9.673183e-07
129	0x35814eec	9.634218e-07
130	0x3580dd05	9.601068e-07
131	0x35807fac	9.573901e-07
132	0x3580376d	9.552874e-07
133	0x358005ed	9.538468e-07
134	0x357fd8fe	9.531067e-07
135	0x357fd685	9.530707e-07
136	0x35800344	9.537694e-07
137	0x35803650	9.55255e-07
138	0x3580853c	9.57552e-07
139	0x3580f0f4	9.60687e-07
140	0x3581790d	9.646479e-07
141	0x35821ed9	9.694733e-07
142	0x3582e169	9.751358e-07
143	0x3583c0be	9.816356e-07
144	0x3584bd29	9.889819e-07
145	0x3585d401	9.970973e-07
146	0x358704be	1.0059664e-06
147	0x35884e06	1.0155497e-06
148	0x3589ad95	1.0257814e-06
149	0x358b21d4	1.0366152e-06
150	0x358ca821	1.0479745e-06
151	0x358e3f02	1.0598162e-06
152	0x358fe303	1.0720399e-06
153	0x35919344	1.0846202e-06
154	0x35934c16	1.0974497e-06
155	0x35950bba	1.1104778e-06
156	0x3596d148	1.123678e-06
157	0x35989a13	1.1369724e-06
158	0x359a658c	1.1503448e-06
159	0x359c30af	1.1637075e-06
160	0x359dfa7c	1.1770312e-06
161	0x359fc25e	1.1902991e-06
162	0x35a185e7	1.2034405e-06
163	0x35a344fe	1.2164526e-06
164	0x35a4feab	1.229307e-06
165	0x35a6afb8	1.2419105e-06
166	0x35a857f9	1.2542579e-06
167	0x35a9f535	1.2662846e-06
168	0x35ab86b8	1.2779701e-06
169	0x35ad0c35	1.2893057e-06
170	0x35ae833e	1.3002207e-06
171	0x35afeadf	1.3106873e-06
172	0x35b14123	1.3206485e-06
173	0x35b2845e	1.3300557e-06
174	0x35b3b48f	1.3389089e-06
175	0x35b4d1a5	1.347206e-06
176	0x35b5d982	1.3548854e-06
177	0x35b6cbd7	1.3619382e-06
178	0x35b7a85a	1.3683559e-06
179	0x35b86f8d	1.3741534e-06
180	0x38d4fa3a	0.00010155556
181	0x38d5050b	0.00010157571
182	0x38d513aa	0.00010160294
183	0x38d5262d	0.00010163742
184	0x38d53983	0.00010167344
185	0x38d54eb7	0.00010171293
186	0x38d5655c	0.00010175511
187	0x38d57e1e	0.000101801226
188	0x38d5986f	0.000101850244
189	0x38d5b410	0.00010190171
190	0x38d5d2d6	0.00010195903
191	0x38d5f402	0.000102020815
192	0x38d61989	0.000102090715
193	0x38d643ac	0.0001021692
194	0x38d67420	0.00010225945
195	0x38d6aa62	0.000102360515
196	0x38d6e80b	0.000102475366
197	0x38d72c88	0.000102602935
198	0x38d77902	0.00010274538
199	0x38d7ccea	0.00010290167
200	0x38d828f6	0.00010307312
201	0x38d88c1f	0.00010325782
202	0x38d8f72a	0.000103457205
203	0x38d96814	0.000103667524
204	0x38d9dfeb	0.00010389074
205	0x38da5e26	0.000104125866
206	0x38dae165	0.00010437033
207	0x38db6a38	0.000104625185
208	0x38dbf81e	0.00010488949
209	0x38dc8a8e	0.00010516225
210	0x38dd2088	0.000105441606
211	0x38ddb9a8	0.000105726824
212	0x38de55c3	0.00010601759
213	0x38def4d3	0.00010631387
214	0x38df95f0	0.00010661397
215	0x38e039a8	0.00010691892
216	0x38e0df70	0.00010722771
217	0x38e186e1	0.00010753959
218	0x38e22fb6	0.000107854066
219	0x38e2da2d	0.00010817158
220	0x38e3860e	0.00010849173
221	0x38e4336a	0.00010881464
222	0x38e4e122	0.000109138215
223	0x38e58f0c	0.000109462155
224	0x38e63df6	0.00010978796
225	0x38e6ebd8	0.00011011184
226	0x38e799da	0.000110435954
227	0x38e8465f	0.0001107573
228	0x38e8f0cb	0.00011107473
229	0x38e999a4	0.000111389236
230	0x38ea400e	0.000111699206
231	0x38eae4c7	0.000112006026
232	0x38eb8680	0.00011230726
233	0x38ec2536	0.00011260288
234	0x38ecc1c0	0.00011289446
235	0x38ed5a75	0.000113178896
236	0x38edeead	0.000113454975
237	0x38ee7f28	0.00011372409
238	0x38ef0b07	0.00011398462
239	0x38ef91bf	0.000114235554
240	0x388b3f56	6.639834e-05
241	0x388b2881	6.635581e-05
242	0x388b223d	6.634414e-05
243	0x388b2de9	6.636588e-05
244	0x388b4b75	6.6420915e-05
245	0x388b7c41	6.6511806e-05
246	0x388bbef0	6.6636014e-05
247	0x388c1727	6.680033e-05
248	0x388c84e6	6.7004745e-05
249	0x388d0896	6.725003e-05
250	0x388da4aa	6.754075e-05
251	0x388e5aba	6.787987e-05
252	0x388f2bf8	6.826961e-05
253	0x38901a83	6.871393e-05
254	0x38912684	6.921313e-05
255	0x389252b2	6.977226e-05

exp_avg f4 [5, 60, 1, 1, 1]
0	0x3a39eb82	0.00070922833
1	0x3a39c87d	0.0007087065
2	0x3a399d1a	0.00070806
3	0x3a396b95	0.0007073221
4	0x3a3934a8	0.00070650363
5	0x3a38fa23	0.0007056316
6	0x3a38bd62	0.0007047263
7	0x3a387ff1	0.0007038108
8	0x3a38437b	0.00070290983
9	0x3a38097d	0.0007020457
10	0x3a37d2dc	0.00070123165
11	0x3a37a270	0.0007005101
12	0x3a377990	0.000699901
13	0x3a375a0a	0.0006994313
14	0x3a3745d7	0.0006991303
15	0x3a373d88	0.0006990065
16	0x3a3742d3	0.00069908536
17	0x3a375656	0.0006993761
18	0x3a377908	0.0006998931
19	0x3a37ab08	0.00070063816
20	0x3a37ece8	0.0007016198
21	0x3a383d52	0.00070281804
22	0x3a389ce5	0.0007042422
23	0x3a390b42	0.00070588675
24	0x3a3986ad	0.0007077258
25	0x3a3a0f31	0.00070976006
26	0x3a3aa35d	0.000711968
27	0x3a3b450c	0.00071437727
28	0x3a3bf353	0.0007169742
29	0x3a3cadc8	0.0007197526
30	0x3a3d75e3	0.00072273443
31	0x3a3e4ad1	0.00072590733
32	0x3a3f2c72	0.00072926946
33	0x3a401a14	0.00073281047
34	0x3a41140b	0.00073653524
35	0x3a421913	0.0007404249
36	0x3a4328b1	0.0007444723
37	0x3a4440e7	0.0007486478
38	0x3a455ffa	0.0007529255
39	0x3a468616	0.0007573081
40	0x3a47afa5	0.00076174206
41	0x3a48dc0c	0.0007662184
42	0x3a4a086d	0.0007706944
43	0x3a4b3532	0.0007751762
44	0x3a4c60e5	0.0007796421
45	0x3a4d88a0	0.0007840488
46	0x3a4eac42	0.0007883945
47	0x3a4fca96	0.0007926611
48	0x3a50e237	0.0007968279
49	0x3a51fa25	0.0008009992
50	0x3a530357	0.0008049509
51	0x3a540398	0.0008087694
52	0x3a54fa8b	0.0008124492
53	0x3a55e83a	0.00081599096
54	0x3a56cb37	0.00081937335
55	0x3a57a46b	0.00082260993
56	0x3a587312	0.0008256893
57	0x3a593627	0.00082859624
58	0x3a59eefc	0.00083135045
59	0x3a5a9c30	0.0008339314
60	0x3b0b2fb7	0.0021238157
61	0x3b0b548c	0.002126011
62	0x3b0b7c05	0.0021283638
63	0x3b0ba735	0.002130938
64	0x3b0bd654	0.0021337466
65	0x3b0c0a2f	0.0021368375
66	0x3b0c42f2	0.0021402207
67	0x3b0c816c	0.0021439446
68	0x3b0cc602	0.0021480327
69	0x3b0d10d3	0.002152492
70	0x3b0d62c0	0.0021573752
71	0x3b0dbbee	0.0021626907
72	0x3b0e1cdb	0.002168468
73	0x3b0e859c	0.0021747118
74	0x3b0ef690	0.0021814443
75	0x3b0f6f6d	0.0021886483
76	0x3b0ff040	0.0021963269
77	0x3b10789e	0.002204455
78	0x3b11088f	0.0022130345
79	0x3b119faa	0.0022220411
80	0x3b123db4	0.002231461
81	0x3b12e1f2	0.0022412506
82	0x3b138ba5	0.0022513655
83	0x3b143a98	0.0022617932
84	0x3b14eddd	0.0022724785
85	0x3b15a516	0.0022833995
86	0x3b165fca	0.0022945278
87	0x3b171db3	0.0023058474
88	0x3b17deaa	0.002317349
89	0x3b18a27c	0.0023290208
90	0x3b1968c7	0.00234084
91	0x3b1a312d	0.0023527846
92	0x3b1afbac	0.0023648543
93	0x3b1bc793	0.0023770079
94	0x3b1c9414	0.0023891972
95	0x3b1d60f0	0.0024014078
96	0x3b1e2d47	0.0024135874
97	0x3b1ef7e9	0.0024256653
98	0x3b1fc024	0.0024376
99	0x3b2084b6	0.0024493164
100	0x3b21447c	0.002460747
101	0x3b21fedf	0.0024718565
102	0x3b22b278	0.0024825614
103	0x3b235ed5	0.002492835
104	0x3b240308	0.002502622
105	0x3b249dfc	0.002511858
106	0x3b252eed	0.0025204972
107	0x3b25b58a	0.0025285208
108	0x3b2630b7	0.0025358626
109	0x3b26a500	0.0025427938
110	0x3b2708d4	0.002548744
111	0x3b276083	0.0025539703
112	0x3b27ac48	0.0025584865
113	0x3b27ec33	0.0025622963
114	0x3b2820d8	0.0025654342
115	0x3b284a4c	0.002567905
116	0x3b2868c3	0.0025697208
117	0x3b287d3f	0.0025709418
118	0x3b28886f	0.0025716086
119	0x3b288a41	0.0025717171
120	0x39c163c6	0.00036886166
121	0x39c11858	0.00036829966
122	0x39c0bf75	0.0003676374
123	0x39c05bc7	0.00036689473
124	0x39bfee4c	0.00036607904
125	0x39bf792d	0.00036520642
126	0x39befe61	0.0003642915
127	0x39be7fa8	0.00036334735
128	0x39bdff45	0.0003623908
129	0x39bd7f53	0.00036143753
130	0x39bd00b1	0.00036049404
131	0x39bc8762	0.00035959022
132	0x39bc1525	0.00035873908
133	0x39bbac7d	0.00035795933
134	0x39bb5015	0.00035727085
135	0x39bb00ee	0.00035668112
136	0x39bac185	0.00035620868
137	0x39ba92f6	0.0003558618
138	0x39ba76aa	0.00035565096
139	0x39ba6d0c	0.0003555793
140	0x39ba771b	0.00035565425
141	0x39ba934b	0.00035586426
142	0x39bac2f0	0.00035621924
143	0x39bb059d	0.00035671602
144	0x39bb595b	0.00035733994
145	0x39bbbe5f	0.00035809257
146	0x39bc32e4	0.0003589607
147	0x39bcb998	0.00035996432
148	0x39bd5142	0.0003610943
149	0x39bdf95a	0.0003623467
150	0x39beb419	0.00036373807
151	0x39bf8078	0.00036526076
152	0x39c05e3e	0.0003669131
153	0x39c14cb7	0.00036868986
154	0x39c24cc1	0.0003705975
155	0x39c35c9a	0.00037262292
156	0x39c47bfc	0.0003747641
157	0x39c5a8a3	0.00037700412
158	0x39c6e06e	0.00037932716
159	0x39c8242e	0.0003817393
160	0x39c96f6b	0.0003842072
161	0x39cac17f	0.00038672608
162	0x39cc1711	0.00038927098
163	0x39cd70e9	0.00039184772
164	0x39cecd6f	0.00039444442
165	0x39d02902	0.00039703405
166	0x39d183ca	0.00039961777
167	0x39d2dc36	0.0004021839
168	0x39d430cc	0.00040472148
169	0x39d58945	0.000407288
170	0x39d6d4e9	0.0004097589
171	0x39d819d4	0.00041217974
172	0x39d95756	0.00041454536
173	0x39da8d7b	0.0004168561
174	0x39dbb9db	0.00041909408
175	0x39dcddc8	0.0004212691
176	0x39ddf810	0.00042337226
177	0x39df06bc	0.00042538892
178	0x39e00b4d	0.0004273303
179	0x39e103e7	0.00042918252
180	0xbb364a64	-0.0027815336
181	0xbb369163	-0.0027857653
182	0xbb36ddf1	-0.0027903283
183	0xbb373169	-0.0027953035
184	0xbb378be9	-0.0028006977
185	0xbb37ee43	-0.00280656
186	0xbb38584a	-0.0028128796
187	0xbb38caf5	-0.0028197144
188	0xbb39466b	-0.0028270732
189	0xbb39ca53	-0.0028349354
190	0xbb3a57cd	-0.002843368
191	0xbb3aee26	-0.0028523295
192	0xbb3b8db7	-0.0028618404
193	0xbb3c360b	-0.0028718736
194	0xbb3ce71e	-0.002882428
195	0xbb3da02a	-0.0028934577
196	0xbb3e608e	-0.002904925
197	0xbb3f2772	-0.0029167798
198	0xbb3ff454	-0.0029289918
199	0xbb40c664	-0.0029415125
200	0xbb419d26	-0.002954313
201	0xbb4277c4	-0.0029673437
202	0xbb435488	-0.0029805023
203	0xbb443391	-0.0029937963
204	0xbb4513c0	-0.0030071586
205	0xbb45f4a9	-0.0030205643
206	0xbb46d600	-0.0030339956
207	0xbb47b6fd	-0.003047406
208	0xbb4897cb	-0.0030608054
209	0xbb49786c	-0.0030741943
210	0xbb4a57ff	-0.0030875204
211	0xbb4b3659	-0.0031007736
212	0xbb4c13d0	-0.003113974
213	0xbb4cef99	-0.003127074
214	0xbb4dc874	-0.0031399997
215	0xbb4e9eb7	-0.0031527707
216	0xbb4f7145	-0.0031653207
217	0xbb503efc	-0.0031775823
218	0xbb510758	-0.0031895246
219	0xbb51c86c	-0.003201033
220	0xbb52819d	-0.0032120713
221	0xbb53326a	-0.0032226094
222	0xbb53d946	-0.003232555
223	0xbb547589	-0.003241869
224	0xbb55063d	-0.003250494
225	0xbb558a88	-0.0032583792
226	0xbb560152	-0.0032654596
227	0xbb566a8b	-0.0032717313
228	0xbb56c4da	-0.0032771141
229	0xbb5715b3	-0.003281933
230	0xbb5751c3	-0.003285513
231	0xbb577e66	-0.0032881736
232	0xbb579c22	-0.003289946
233	0xbb57ab19	-0.0032908379
234	0xbb57ac93	-0.0032909259
235	0xbb57a05a	-0.0032901973
236	0xbb5786f4	-0.0032886835
237	0xbb57624b	-0.0032864984
238	0xbb573314	-0.0032836841
239	0xbb56f975	-0.0032802497
240	0x3a9646d5	0.0011465201
241	0x3a95f88a	0.0011441868
242	0x3a95b912	0.0011422953
243	0x3a95886b	0.0011408454
244	0x3a956795	0.0011398668
245	0x3a9556f5	0.0011393713
246	0x3a95565c	0.0011393535
247	0x3a9565f7	0.0011398186
248	0x3a9584c0	0.001140736
249	0x3a95b1c3	0.0011420775
250	0x3a95eb11	0.0011437853
251	0x3a962ea3	0.0011457991
252	0x3a967c0e	0.0011481063
253	0x3a96cff4	0.0011506067
254	0x3a9727a8	0.0011532204
255	0x3a9781e1	0.0011559093

exp_avg_sq f4 [2, 5, 1, 1, 1]
0	0x3b3ca653	0.002878566
1	0x39eab4a3	0.00044766543
2	0x3b35550d	0.0027669102
3	0x3a818933	0.0009882807
4	0x38621dea	5.391046e-05
5	0x3b9dd78e	0.004816956
6	0x3a484261	0.0007639286
7	0x3b980bf9	0.004640099
8	0x3ad2364f	0.0016037914
9	0x37b9fa1b	2.2170183e-05

exp_avg f4 [2, 5, 1, 1, 1]
0	0x3c8ed213	0.017434156
1	0x3bf1cccf	0.0073791514
2	0x3c88b9c0	0.016690135
3	0x3c0ff4c8	0.008786388
4	0xbb13ac97	-0.0022533291
5	0xbcacdbb2	-0.021100853
6	0xbc128f04	-0.00894523
7	0xbca4f8a3	-0.02013809
8	0xbc2e9105	-0.010654693
9	0x39f86509	0.00047377523

exp_avg_sq f4 [2]
0	0x36fd1e9c	7.543551e-06
1	0x37415513	1.1523504e-05

exp_avg f4 [2]
0	0x39d3c90f	0.00040394856
1	0xba04debf	-0.0005068592

exp_avg_sq f4 [1, 2, 1, 1, 1]
0	0x3b841f91	0.0040320833
1	0x3b200ff8	0.002442358

exp_avg f4 [1, 2, 1, 1, 1]
0	0x3cabf5a2	0.02099115
1	0x3c56ad91	0.013102905

exp_avg_sq f4 [5]
0	0x354da735	7.661177e-07
1	0x36f9b936	7.4423397e-06
2	0x34681e11	2.1617622e-07
3	0x374e0784	1.2280307e-05
4	0x3714f855	8.879307e-06

exp_avg f4 [5]
0	0x38fececb	0.00012150182
1	0x39cfb8be	0.0003961976
2	0x38801d49	6.1089704e-05
3	0xba09568b	-0.0005239031
4	0x39ed49b8	0.00045259087

exp_avg_sq f4 [12, 5]
0	0x3b6164b4	0.00343923
1	0x3a31576d	0.00067650416
2	0x3b085b7a	0.0020806477
3	0x3aae47a1	0.0013296494
4	0x3a6e3ffb	0.00090885133
5	0x3618369b	2.268155e-06
6	0x38236507	3.8956317e-05
7	0x363e9d7c	2.8403874e-06
8	0x36b13c27	5.2820137e-06
9	0x3447840d	1.8581359e-07
10	0x366557d5	3.4174784e-06
11	0x38662cc0	5.487795e-05
12	0x368a11d4	4.114796e-06
13	0x36ed920e	7.0801534e-06
14	0x347239db	2.2559054e-07
15	0x335933fd	5.0571533e-08
16	0x332c18b8	4.0069352e-08
17	0x342820eb	1.5658195e-07
18	0x343d79a1	1.7646245e-07
19	0x32ac162f	2.0033523e-08
20	0x3261419b	1.3111641e-08
21	0x340d87c5	1.3181041e-07
22	0x32919c99	1.6951434e-08
23	0x328c18c7	1.6309412e-08
24	0x30a9d1eb	1.2356031e-09
25	0x32ed160d	2.7600459e-08
26	0x330bb580	3.2528533e-08
27	0x3309f0f3	3.211694e-08
28	0x33021b24	3.0292668e-08
29	0x32421376	1.1296711e-08
30	0x3b022d41	0.00198634
31	0x3a1e422e	0.0006037083
32	0x3a582587	0.0008245338
33	0x3a93a6ed	0.0011264958
34	0x3a2be417	0.00065571204
35	0x30da1bb7	1.5869465e-09
36	0x31d705c8	6.257981e-09
37	0x32ef1901	2.7834632e-08
38	0x318ce264	4.100274e-09
39	0x321fac2e	9.294167e-09
40	0x363c7e7c	2.8087807e-06
41	0x383a7d04	4.4462286e-05
42	0x3670b2de	3.5866901e-06
43	0x36c7e578	5.957376e-06
44	0x344e21d1	1.9197547e-07
45	0x33b5acfb	8.459934e-08
46	0x35158c6a	5.5711155e-07
47	0x340f65f7	1.3355007e-07
48	0x34199924	1.4304948e-07
49	0x32aacf6a	1.9884926e-08
50	0x34536305	1.968693e-07
51	0x3517603b	5.639192e-07
52	0x3498ddf7	2.8473707e-07
53	0x34cd8e11	3.8287592e-07
54	0x3383f79c	6.145203e-08
55	0x363afad7	2.7862168e-06
56	0x38419015	4.6148973e-05
57	0x3673ff4e	3.6358429e-06
58	0x36de1bbf	6.6193456e-06
59	0x3495c14b	2.7894052e-07

exp_avg f4 [12, 5]
0	0x3b283fbd	0.0025672757
1	0x3b87abfb	0.0041403747
2	0x3bbe0952	0.005799451
3	0x3b7cfaed	0.0038601712
4	0x3b875a25	0.004130619
5	0x353770cd	6.833696e-07
6	0x3537ec4f	6.8516687e-07
7	0x35381da8	6.8588497e-07
8	0x35388b50	6.874807e-07
9	0x35381883	6.858101e-07
10	0x369ff627	4.767225e-06
11	0x369fd49a	4.7633193e-06
12	0x369ee758	4.735699e-06
13	0x36a0996c	4.7862322e-06
14	0x369fc830	4.761874e-06
15	0xb4d85055	-4.0291584e-07
16	0xb4d7172c	-4.006373e-07
17	0xb4d8ac76	-4.0358617e-07
18	0xb4d72324	-4.007244e-07
19	0xb4d6e382	-4.002614e-07
20	0x348ec358	2.6591692e-07
21	0x348f7137	2.67182e-07
22	0x348fd87f	2.6793347e-07
23	0x348eebba	2.6621075e-07
24	0x348ed1ec	2.66023e-07
25	0x35855005	9.932561e-07
26	0x35853a80	9.926298e-07
27	0x3585ab68	9.959158e-07
28	0x3584d622	9.897087e-07
29	0x3584b6b8	9.887945e-07
30	0x3c30060c	0.010743629
31	0x3bd0c75d	0.006371422
32	0x3c19c02f	0.009384199
33	0x3bd2ab6b	0.006429126
34	0x3bda87e2	0.0066690305
35	0x34ffbedf	4.7636328e-07
36	0x350038bb	4.776627e-07
37	0x35012e9b	4.8124065e-07
38	0x350017b3	4.77182e-07
39	0x35004a18	4.7791536e-07
40	0x351a029e	5.737328e-07
41	0x351a8ec2	5.757721e-07
42	0x351ad7a5	5.7683275e-07
43	0x351a812a	5.755743e-07
44	0x351a394b	5.745284e-07
45	0xb68228e5	-3.8790627e-06
46	0xb6829a55	-3.8922685e-06
47	0xb68385ef	-3.919696e-06
48	0xb68242f1	-3.882095e-06
49	0xb681aa7c	-3.8643466e-06
50	0x36687710	3.4639997e-06
51	0x36658b63	3.4204793e-06
52	0x3665462d	3.4164507e-06
53	0x36658f1d	3.4206962e-06
54	0x3663c5c2	3.3940746e-06
55	0x352673ec	6.200851e-07
56	0x35270599	6.2220494e-07
57	0x35274f4d	6.2327746e-07
58	0x352760e4	6.235334e-07
59	0x3526e00a	6.216584e-07

exp_avg_sq f4 [12]
0	0x3787949c	1.6162456e-05
1	0x33a4d791	7.6760564e-08
2	0x33edf1ad	1.1080133e-07
3	0x31eff963	6.9841675e-09
4	0x3020bc48	5.8475225e-10
5	0x30d639b7	1.5586953e-09
6	0x373179e2	1.05784e-05
7	0x2fef85dd	4.3568962e-10
8	0x33d6ed16	1.0008277e-07
9	0x31b21872	5.183261e-09
10	0x32611f79	1.310388e-08
11	0x33de455e	1.03502984e-07

exp_avg f4 [12]
0	0x39ddc6da	0.0004230056
1	0x3413a6c7	1.3751115e-07
2	0x357e93e9	9.483761e-07
3	0xb3ac548d	-8.024754e-08
4	0x336559f3	5.3400026e-08
5	0x3454e7ff	1.9828438e-07
6	0x3a45be33	0.00075432955
7	0x33cdd350	9.584494e-08
8	0x33f8165b	1.15524664e-07
9	0xb54c9f38	-7.6227616e-07
10	0x353500be	6.7428834e-07
11	0x3405afca	1.2450542e-07
