scripts/python/deep-learning/experiments/cnn3d/011/model-cnn3d-epoch-44.pth (torch_old, 19680 bytes, 36 tensors)

momentum_buffer f4 [5]
000000 6e 30 35 3a 52 47 14 3a 4a 64 9c 3a b8 cb b9 ba
       0.00069118186 0.00056563795 0.0011931744 -0.0014175093
000010 58 2b 9c 38
       7.446733e-05

momentum_buffer f4 [10]
000000 02 98 7b bb b2 1f d7 3b 14 01 38 b9 73 ed 23 3b
       -0.0038390164 0.0065650577 -0.00017548009 0.0025013357
000010 24 72 ef b9 31 60 03 3c cc 60 6b bb 48 8e 55 3a
       -0.00045670674 0.008018539 -0.003591585 0.0008146507
000020 0b 37 2c 3b 1a 6a f3 bb
       0.0026277925 -0.00742842

momentum_buffer f4 [10]
000000 1e d2 e2 3b 5f 4e 06 3a 9d ae 4d ba d7 50 8f 3b
       0.0069220206 0.00051233725 -0.0007846149 0.0043736505
000010 ab aa 68 3a 37 99 24 3b be 81 73 bb d4 17 0c 3a
       0.0008875529 0.0025115737 -0.003715619 0.0005344127
000020 cc 5b 6b 3b 01 6e e9 bb
       0.003591287 -0.007123709

momentum_buffer f4 [10]
000000 b6 0b 80 30 0a 40 d1 b0 0e 03 f5 ad e2 99 fa 2f
       9.316554e-10 -1.5224952e-09 -2.7854632e-11 4.5584075e-10
000010 e2 f9 a2 2d 64 b4 dd ad 76 40 f8 ae 36 14 09 b0
       1.8528238e-11 -2.52049e-11 -1.1289185e-10 -4.986903e-10
000020 82 0c d9 2c 25 73 eb 30
       6.1688996e-12 1.7131226e-09

momentum_buffer f4 [10, 5, 1, 1, 1]
000000 eb d8 a6 b9 34 e2 55 b9 1d 3c 83 b9 09 1d c2 ba
       -0.00031823604 -0.0002039753 -0.00025031055 -0.0014809679
000010 c8 15 c0 3a bc de 1e 3a 3c 21 cd 39 7b 0b ea b9
       0.0014654929 0.00060604117 0.00039125409 -0.00044640512
000020 57 47 f8 3a 7a e3 9c 3b 93 f4 45 3b c6 75 a5 39
       0.0018942159 0.0047878595 0.0030205592 0.00031559
000030 68 6a 12 39 ba cc 9d 39 de f9 0c bb 36 d1 ac bb
       0.00013963284 0.00030097907 -0.0021511237 -0.0052739633
000040 42 45 d7 b9 f6 e1 06 ba 8a 91 f7 ba c7 d6 89 3b
       -0.00041059597 -0.0005145365 -0.0018887979 0.0042065117
000050 30 d5 0d b8 25 9a 58 b9 21 ee 1b 38 28 17 3b 38
       -3.3815566e-05 -0.00020656789 3.7176655e-05 4.460584e-05
000060 1e 6a 00 39 a6 03 2b ba 00 f2 ce b8 34 81 59 38
       0.00012246563 -0.0006523676 -9.8679215e-05 5.185716e-05
000070 2e ff 29 ba c0 06 98 37 9e 09 55 3a 5a 29 c5 3a
       -0.0006484863 1.8122955e-05 0.0008126738 0.0015042231
000080 70 4e a5 38 30 91 7e b9 fa 77 34 bb 4b 57 a0 bb
       7.882423e-05 -0.00024277414 -0.0027537332 -0.0048932186
000090 09 6a d8 ba 81 79 b3 39 a6 6d d5 b9 62 49 54 bb
       -0.0016511093 0.00034232068 -0.0004070822 -0.0032392372
0000a0 18 32 ab bb c9 f0 84 ba 54 48 7a b8 df 30 09 3b
       -0.0052244775 -0.001014256 -5.9672006e-05 0.002093367
0000b0 f2 59 5a b9 fe 7f 8a 3b ca 41 78 3c 5d 09 97 ba
       -0.00020823607 0.0042266836 0.015152404 -0.0011523176
0000c0 fc c4 36 3c b2 1c 6c bc
       0.011155363 -0.014411138

momentum_buffer f4 [5, 10, 1, 1, 1]
000000 f6 7d 60 38 b9 8d 7f 3a b5 cd 90 3a 7e 16 93 3a
       5.3523072e-05 0.00097485963 0.0011047634 0.0011221913
000010 06 11 09 ba 3f 5c af 39 82 21 ce 38 5c e7 13 b9
       -0.0005228672 0.0003344733 9.829087e-05 -0.000141052
000020 4a 30 78 b9 9c f1 0b 39 56 e5 52 ba e9 40 a4 3a
       -0.00023669112 0.0001334608 -0.0008045038 0.0012531552
000030 f1 af 83 bb d8 d2 b3 39 1c 08 96 b9 48 3b fd 3a
       -0.0040187766 0.0003429863 -0.0002861627 0.0019320035
000040 cd 25 3f 3a 52 48 58 b9 41 a4 cb 38 55 15 ce ba
       0.00072917045 -0.00020626307 9.710389e-05 -0.001572291
000050 cc e8 44 ba be db ff 3a e0 78 ba ba 2a 6a 13 3d
       -0.0007511496 0.0019520444 -0.0014226697 0.035989918
000060 22 72 64 3b 3c a6 6d ba be e0 bc 3a 2a 91 1c 3a
       0.0034858068 -0.00090656034 0.001441024 0.0005972559
000070 eb 0a 94 3a 50 c0 67 bc f5 c6 28 bb 65 52 cb bb
       0.0011294758 -0.014144972 -0.0025753353 -0.0062048906
000080 ba e2 18 bc f0 6f c9 bc 6c 44 af 3b 7d bd 78 ba
       -0.0093314 -0.024589509 0.0053487327 -0.0009488685
000090 33 41 c4 bb 05 16 dd bb 24 8d e2 3b 74 8e d8 bb
       -0.0059892177 -0.0067470097 0.006913798 -0.0066087786
0000a0 48 3a 8d b8 41 b7 ba b9 5f 8d b2 b9 d2 e0 b4 ba
       -6.73426e-05 -0.0003561322 -0.00034056135 -0.0013799912
0000b0 6a a7 d6 38 f8 a8 cf 37 a8 b9 58 38 0c 3b 6a b9
       0.000102354985 2.4755005e-05 5.167132e-05 -0.00022337976
0000c0 f8 5a 18 b9 90 e0 7b ba
       -0.00014529738 -0.00096083526

momentum_buffer f4 [3, 11]
000000 cf d7 09 3c 90 56 fa 3c 85 ce 10 bd 12 c4 46 3d
       0.008413269 0.030558854 -0.035353202 0.04852683
000010 7b ff 97 3c 2d 8e 9f 3c 87 a6 4e 3c da c6 09 3c
       0.01855444 0.019476974 0.012612945 0.008409226
000020 94 2f 16 3d 42 34 ba 3c 7c 0b 19 bd 1c 14 4d bc
       0.036666468 0.022729997 -0.037364468 -0.0125170015
000030 64 78 1d bc 8d 93 51 3d f4 04 9d bc 75 e5 ad bb
       -0.009611223 0.051166106 -0.0191674 -0.0053068944
000040 92 9b e2 bb fb d2 b0 bb aa 40 17 3c 0f 24 df bc
       -0.006915518 -0.0053962446 0.009231726 -0.027238874
000050 81 46 45 bc b2 01 78 3d 90 78 86 3b 5e 9a ab bc
       -0.012040735 0.06054849 0.0041037276 -0.020947631
000060 0d 8a 81 bc 2f 83 f0 bc 2e 0c 59 bc 8f ce 4d bc
       -0.015812898 -0.029359428 -0.013247533 -0.012561454
000070 11 7a ec bb c4 83 90 bc 32 76 1a bc fb 21 2f bc
       -0.0072167 -0.017640956 -0.009427594 -0.010689254
000080 68 ec bd bc
       -0.023184016

momentum_buffer f4 [1, 5, 1, 1, 1]
000000 e8 a3 dd 3a 8d ab 5f 3b cc f6 9f 3a 69 60 39 3b
       0.001690981 0.0034129352 0.0012204289 0.0028286225
000010 ca 47 53 38
       5.037318e-05

momentum_buffer f4 [5]
000000 9f 6a bf b9 45 be 96 bb 00 0a b1 bb d3 65 a0 3b
       -0.00036509798 -0.0046003186 -0.0054028034 0.004894951
000010 ee 95 33 3b
       0.0027402597

momentum_buffer f4 [3]
000000 3e f6 88 be f2 f3 2b 3e 0a f1 cb 3d
       -0.26750368 0.16792277 0.09958084

momentum_buffer f4 [5]
000000 f2 fd 35 2f f1 3e c6 2f 6a 38 ea ae 2d 73 aa af
       1.6552074e-10 3.6060713e-10 -1.0651109e-10 -3.1004657e-10
000010 57 04 9e 2f
       2.8743116e-10

momentum_buffer f4 [5]
000000 60 09 da af 44 fe 1f af 64 3e 90 30 f0 d4 03 b1
       -3.966063e-10 -1.4551299e-10 1.0495111e-09 -1.918405e-09
000010 d4 cd c8 2c
       5.7071934e-12

momentum_buffer f4 [5]
000000 6c b1 4e ba 4c cf 7a 3a b2 ea a7 bb eb 56 4c bb
       -0.0007884714 0.0009567633 -0.0051244134 -0.0031179737
000010 44 71 7f bb
       -0.0038977424

momentum_buffer f4 [5, 2, 65, 1, 2]
000000 81 b1 ba 3b 86 11 d4 3b be 5d 62 3b de bb 1b 3c
       0.0056974296 0.0064718155 0.0034540738 0.00950524
000010 27 5e bb 3b 0e 30 d5 3b 91 ea 62 3b d2 b3 1b 3c
       0.005718011 0.0065059727 0.0034624676 0.009503322
000020 29 0d bc 3b 1a 4c d6 3b 0a 7e 63 3b 1e aa 1b 3c
       0.0057388735 0.0065398337 0.0034712576 0.009501008
000030 bc c1 bc 3b 5a 6b d7 3b f0 1a 64 3b 55 9f 1b 3c
       0.0057603996 0.0065740766 0.0034806095 0.009498437
000040 d0 78 bd 3b f7 86 d8 3b 27 bd 64 3b 84 93 1b 3c
       0.0057822242 0.006607886 0.0034902783 0.00949562
000050 fc 34 be 3b 38 9f d9 3b 78 65 65 3b 27 88 1b 3c
       0.005804656 0.006641295 0.0035003107 0.0094929105
000060 dd f4 be 3b da b8 da 3b ae 12 66 3b 99 7b 1b 3c
       0.00582753 0.006674868 0.0035106349 0.009489917
000070 e8 bb bf 3b 0c d1 db 3b 0f c5 66 3b 10 6f 1b 3c
       0.0058512576 0.00670827 0.003521267 0.009486929
000080 de 86 c0 3b 20 e8 dc 3b cf 79 67 3b 40 63 1b 3c
       0.0058754524 0.0067415386 0.0035320406 0.009484112
000090 02 5a c1 3b f9 fd dd 3b 68 33 68 3b 2c 58 1b 3c
       0.0059006223 0.0067746607 0.003543103 0.009481471
0000a0 4e 30 c2 3b 0b 13 df 3b 6c ec 68 3b 16 4e 1b 3c
       0.0059261685 0.00680769 0.003554131 0.009479066
0000b0 a5 0c c3 3b 45 27 e0 3b 15 a5 69 3b a8 45 1b 3c
       0.005952435 0.006840619 0.0035651375 0.009477057
0000c0 9c ef c3 3b 1e 3b e1 3b 22 5d 6a 3b b6 3e 1b 3c
       0.0059794914 0.0068735024 0.0035761078 0.009475401
0000d0 eb d8 c4 3b fa 4d e2 3b 1a 14 6b 3b c8 39 1b 3c
       0.006007304 0.006906268 0.0035870136 0.009474225
0000e0 89 c8 c5 3b b3 60 e3 3b 34 c7 6b 3b b1 36 1b 3c
       0.0060358685 0.0069390177 0.0035976889 0.009473489
0000f0 c0 be c6 3b 55 73 e4 3b d4 76 6c 3b f2 35 1b 3c
       0.0060652196 0.0069717565 0.003608157 0.009473311
000100 ef bb c7 3b 90 85 e5 3b 29 21 6d 3b a2 37 1b 3c
       0.0060954015 0.0070044473 0.0036183095 0.009473713
000110 ff bf c8 3b 8d 97 e6 3b fe c6 6d 3b ce 3b 1b 3c
       0.0061264033 0.007037109 0.0036281939 0.009474708
000120 f8 ca c9 3b d7 a9 e7 3b 98 65 6e 3b 65 42 1b 3c
       0.006158229 0.007069807 0.0036376473 0.009476279
000130 67 dd ca 3b 64 bc e8 3b fe fc 6e 3b 88 4b 1b 3c
       0.006190944 0.007102536 0.0036466713 0.009478457
000140 23 f7 cb 3b 78 cf e9 3b 9a 8c 6f 3b 54 57 1b 3c
       0.0062245294 0.007135328 0.003655231 0.00948127
000150 74 18 cd 3b 24 e6 ea 3b d0 12 70 3b 68 65 1b 3c
       0.0062590186 0.007168548 0.0036632307 0.009484626
000160 53 44 ce 3b bc fe eb 3b 4c 92 70 3b 93 75 1b 3c
       0.006294766 0.0072019976 0.0036708293 0.009488481
000170 5a 78 cf 3b ce 14 ed 3b 9a 07 71 3b 03 88 1b 3c
       0.0063314857 0.007235146 0.0036778213 0.009492877
000180 f9 b3 d0 3b a8 30 ee 3b 62 73 71 3b 30 9c 1b 3c
       0.0063691107 0.007268984 0.0036842455 0.009497687
000190 7d f7 d1 3b ec 4e ef 3b f0 d3 71 3b bc b1 1b 3c
       0.0064076767 0.0073031094 0.0036900006 0.009502824
0001a0 ad 42 d3 3b 66 70 f0 3b ec 2b 72 3b 17 c8 1b 3c
       0.0064471574 0.0073376177 0.003695245 0.009508154
0001b0 64 95 d4 3b 0a 95 f1 3b 0e 7b 72 3b 6f df 1b 3c
       0.0064875353 0.007372503 0.0036999616 0.00951372
0001c0 cb ee d5 3b ca bd f2 3b f6 c1 72 3b 8b f7 1b 3c
       0.0065287105 0.0074078785 0.003704188 0.009519468
0001d0 7f 4e d7 3b dd e9 f3 3b 2a 01 73 3b c6 0f 1c 3c
       0.0065706368 0.00744365 0.0037079551 0.009525245
0001e0 0b b3 d8 3b 52 1a f5 3b 1c 39 73 3b d2 27 1c 3c
       0.0066131405 0.0074799443 0.0037112897 0.009530978
0001f0 d7 1c da 3b 76 4f f6 3b 5f 6a 73 3b b9 3f 1c 3c
       0.00665627 0.0075167967 0.003714226 0.009536677
000200 e6 8a db 3b 20 8a f7 3b a8 b3 2e 3c a8 d5 36 3c
       0.0066999076 0.0075543076 0.010662951 0.011159338
000210 3b 1c 76 3b 3f ab 27 3c 3e 17 2f 3c 46 7e 37 3c
       0.0037553448 0.010233699 0.010686694 0.0111995395
000220 ff f5 76 3b ec f1 27 3c 96 75 2f 3c c6 27 38 3c
       0.0037683246 0.01025055 0.010709187 0.0112399515
000230 14 d5 77 3b 7d 38 28 3c c7 ce 2f 3c 06 d2 38 3c
       0.0037816213 0.010267374 0.010730452 0.011280542
000240 7d ba 78 3b e0 7e 28 3c 9a 23 30 3c 0c 7d 39 3c
       0.0037952953 0.010284156 0.010750676 0.011321317
000250 3d a6 79 3b 92 c5 28 3c f0 73 30 3c c5 28 3a 3c
       0.003809347 0.010301011 0.010769829 0.011362259
000260 b0 97 7a 3b 8d 0c 29 3c da c0 30 3c 1a d5 3a 3c
       0.0038237385 0.010317934 0.010788167 0.011403346
000270 78 8e 7b 3b ba 53 29 3c b5 0a 31 3c 06 82 3b 3c
       0.0038384479 0.010334903 0.010805775 0.011444574
000280 89 8b 7c 3b da 9b 29 3c 3f 52 31 3c 80 2f 3c 3c
       0.0038535318 0.010352099 0.010822832 0.011485934
000290 28 8d 7d 3b 1a e5 29 3c ed 97 31 3c 97 dd 3c 3c
       0.0038688872 0.0103695635 0.010839445 0.0115274405
0002a0 9f 93 7e 3b cb 2f 2a 3c 4b dc 31 3c d4 8b 3d 3c
       0.0038845313 0.010387371 0.010855745 0.011568982
0002b0 5a 9f 7f 3b d9 7b 2a 3c 24 20 32 3c d4 3a 3e 3c
       0.0039004893 0.010405504 0.010871921 0.011610705
0002c0 a9 57 80 3b 65 c9 2a 3c 0b 64 32 3c 48 ea 3e 3c
       0.0039167 0.010423993 0.01088811 0.011652537
0002d0 6a e1 80 3b 3f 19 2b 3c ee a8 32 3c 6e 99 3f 3c
       0.0039331215 0.010443031 0.010904534 0.011694295
0002e0 64 6d 81 3b cd 6b 2b 3c 43 ef 32 3c 93 48 40 3c
       0.003949808 0.010462713 0.010921302 0.011736053
0002f0 11 fa 81 3b eb c0 2b 3c e0 37 33 3c 61 f7 40 3c
       0.003966578 0.010483007 0.010938615 0.01177773
000300 40 88 82 3b c0 18 2c 3c 6b 83 33 3c 2f a6 41 3c
       0.0039835274 0.010503948 0.010956625 0.011819406
000310 0b 18 83 3b b7 73 2c 3c 53 d2 33 3c 2d 54 42 3c
       0.004000669 0.010525635 0.010975438 0.011860889
000320 83 a9 83 3b 6a d1 2c 3c 1d 25 34 3c aa 01 43 3c
       0.00401801 0.010547975 0.010995177 0.011902252
000330 70 3c 84 3b c6 32 2d 3c 96 7c 34 3c c4 ae 43 3c
       0.004035525 0.010571187 0.011016032 0.011943523
000340 3c d1 84 3b 37 97 2d 3c 96 d8 34 3c 44 5b 44 3c
       0.004053263 0.010595134 0.011037966 0.01198465
000350 8c 68 85 3b 3f ff 2d 3c a4 39 35 3c fa 06 45 3c
       0.004071301 0.010619937 0.011061106 0.012025589
000360 e4 02 86 3b b0 69 2e 3c de 9f 35 3c 58 b2 45 3c
       0.0040897 0.010645315 0.011085479 0.012066446
000370 8c a0 86 3b 92 d7 2e 3c b0 0b 36 3c 40 5d 46 3c
       0.004108494 0.010671513 0.011111185 0.0121071935
000380 c6 41 87 3b 29 48 2f 3c 0b 7d 36 3c f8 07 47 3c
       0.004127714 0.010698357 0.011138211 0.012147896
000390 f3 e7 87 3b 4a bb 2f 3c 3e f4 36 3c bc b2 47 3c
       0.0041475235 0.010725806 0.01116663 0.01218861
0003a0 0a 94 88 3b 9a 30 30 3c 80 71 37 3c b9 5d 48 3c
       0.0041680383 0.010753775 0.011196494 0.0122293765
0003b0 70 45 89 3b f2 a7 30 3c d1 f4 37 3c 0d 09 49 3c
       0.004189186 0.010782229 0.011227802 0.012270224
0003c0 8f fc 89 3b 00 21 31 3c 67 7e 38 3c d6 b4 49 3c
       0.0042110155 0.0108110905 0.011260605 0.012311181
0003d0 50 ba 8a 3b 48 9b 31 3c 52 0e 39 3c 27 61 4a 3c
       0.004233636 0.010840245 0.011294918 0.0123522645
0003e0 08 7f 8b 3b c4 16 32 3c 78 a4 39 3c e8 0d 4b 3c
       0.0042570867 0.010869686 0.011330716 0.012393452
0003f0 ed 4a 8c 3b 86 93 32 3c 96 40 3a 3c 5c bb 4b 3c
       0.004281393 0.01089943 0.011367938 0.012434807

momentum_buffer f4 [5]
000000 9a 96 b9 ba ac 3b d8 3b 98 8d 5b 3b bc c2 19 3c
       -0.0014159263 0.0065989103 0.0033501144 0.009384807
000010 44 f2 01 bb
       -0.001982824

conv1.weight f4 [5, 2, 65, 1, 2]
000000 01 22 26 bd 9d 8e 46 3d 47 87 2b bd 17 a1 2d bc
       -0.040559772 0.04847585 -0.041877057 -0.010597489
000010 ea 7a 04 bc c1 bd 2a 3d ff 8d 34 bd d9 6b 26 bd
       -0.008085946 0.04168487 -0.04408073 -0.040630195
000020 a3 69 d4 3c 32 9a 39 bd a4 9b 61 3d c2 db da bc
       0.025929278 -0.045313068 0.05508007 -0.026716117
000030 77 07 54 bd 3f 84 3b 3d 21 4a 7f 3d 23 43 2d 3d
       -0.05176493 0.045780417 0.062326554 0.042300355
000040 be b9 4a 3c 09 dc 45 3d 78 37 2f 3d f0 af 3a 3d
       0.012373386 0.048305545 0.04277751 0.045577943
000050 31 eb f8 bc 6a d2 39 bd b4 93 42 3c b4 83 14 bd
       -0.030385586 -0.045366682 0.0118760355 -0.036258414
000060 ce 57 8f bd 7e c9 53 3d 0e ae 4d bd fe 52 5f bc
       -0.06999169 0.05170583 -0.05021482 -0.013630627
000070 84 19 4e bd 2e d7 e5 bc 8e ba 9b bb ce df c6 ba
       -0.050317302 -0.028056707 -0.0047524637 -0.00151729
000080 28 d2 ba bc a0 79 53 3b 87 9e 8d bc e3 d2 3a bc
       -0.022805288 0.003226854 -0.017287506 -0.011402818
000090 dc 98 0d 3d 03 68 d6 3c 20 04 6a bc b5 8d 61 3c
       0.034569606 0.026172644 -0.01428321 0.013766696
0000a0 a2 64 45 3c 50 30 2c 3c 97 8a c8 bc 5a 00 82 bc
       0.0120479185 0.0105095655 -0.024480147 -0.015869308
0000b0 7f 58 3c 3d 25 3b 18 3d 5b 53 c6 bb e3 75 a7 3c
       0.045982834 0.03716578 -0.006052417 0.020441955
0000c0 5a 87 78 bd f2 d7 7c 3d 02 06 7c 3d 36 5f ac 3c
       -0.060675956 0.06172938 0.061529167 0.021041494
0000d0 61 4a 0a bd a9 51 47 bd 96 3a 66 3d 28 a9 15 3d
       -0.03376234 -0.04866186 0.056208216 0.036538273
0000e0 1e 9d 2e 3d 27 5f 2f bb b8 fc ea 3c 6a 0c f7 3c
       0.042630307 -0.0026759596 0.028684959 0.030157287
0000f0 7e 66 ae 3c 82 f0 12 3d e2 1c 21 bd e0 59 94 bc
       0.021289106 0.035873897 -0.039334185 -0.018109262
000100 b7 e8 3e bd 6b ec 01 3d 44 dd db bc f7 37 3f 3c
       -0.046608653 0.031719606 -0.026838906 0.011671058
000110 49 18 e0 3b d3 6c 21 bd 81 43 66 3d 88 1e 8a 3b
       0.0068388325 -0.039410423 0.05621672 0.0042150654
000120 3f ed ef bc 1a 1c ee 3c 9b fd 85 3c d8 36 d4 bb
       -0.029287932 0.029066134 0.01635628 -0.0064762644
000130 a6 de d8 bc 72 d4 0f bd 08 20 6a 3d ba af ef bc
       -0.026473355 -0.035114713 0.057159454 -0.029258598
000140 69 c6 8e bd 47 bf d2 bc 7d 53 87 3d da 85 aa bc
       -0.069714375 -0.025725974 0.06607721 -0.020815779
000150 ab e2 4e 3b 0b be ef 3b aa bf e6 bc a2 f7 28 bd
       0.003156821 0.007316356 -0.028167564 -0.041251786
000160 c6 ed 07 3d c0 67 cf bb b2 b3 06 3d 6e 8c 12 bd
       0.033185743 -0.0063295066 0.032886215 -0.035778455
000170 3b de 9e bd be d2 04 3c 4c 0c 40 bd c5 4f 7c bc
       -0.07757231 0.0081068855 -0.046886727 -0.015399878
000180 51 fd d2 bc ec 8e 10 3d ac 10 20 3c a6 62 50 bd
       -0.025755556 0.03529255 0.0097696 -0.05087533
000190 ba 5a 85 bd 20 a3 1f 3d 6d b2 c4 3c 15 a7 52 3c
       -0.06511445 0.038973927 0.024010861 0.012857218
0001a0 df c9 5f bd 5c c4 0e bd 5e af 3d bc 6d e2 14 3c
       -0.05463588 -0.03485523 -0.011577455 0.009087187
0001b0 b6 20 17 3c 36 28 4a ba 85 cf c7 bb 22 69 1f 3d
       0.0092241075 -0.00077116804 -0.0060977363 0.03891862
0001c0 e0 c4 0f 3d ed 3f 30 3d 2d 56 24 bc 8a c9 10 3d
       0.035099864 0.043029714 -0.0100303115 0.035348453
0001d0 19 40 ad 38 8d 98 35 bc 71 e4 8d 3d b5 34 b0 bc
       8.261222e-05 -0.011083734 0.06928337 -0.021509508
0001e0 3c a6 19 bd e7 43 39 3d b3 79 57 3d 9c 2a 70 3d
       -0.03751205 0.045230772 0.052606296 0.058634385
0001f0 18 9f 9c bd a0 ac 27 3c c1 94 d6 3b ac 83 1a bd
       -0.07647532 0.010234028 0.0065484946 -0.03772323
000200 5f 66 e9 3b 04 90 33 bd cf 6e 1a bd 72 8c 74 3d
       0.0071227993 -0.043838516 -0.03770333 0.05970425
000210 53 4d 02 bc 99 af 1c 3d df fe a8 bc 0e 6b 3a ba
       -0.007953006 0.0382534 -0.020629345 -0.00071112893
000220 23 de ec bb ea 4a 4c bd fc 0d 7a bd 6b 72 14 3d
       -0.007228629 -0.04987613 -0.061048493 0.03624193
000230 b4 e0 01 3d 1f 82 1f 3d 6f b2 f5 3b cb 1e 28 bd
       0.031708434 0.038942453 0.0074980776 -0.04104499
000240 cf 44 2d 3d 71 19 55 3d b2 6a 2d 3d 7a 33 30 bd
       0.04230195 0.052026216 0.04233808 -0.043017842
000250 39 99 80 3c 51 e5 fa bc e6 2c c9 3c 2e 1f e6 bc
       0.015698062 -0.030626925 0.024557542 -0.02809104
000260 ef cd 23 bb 83 a7 81 b9 44 0e 6f bd 1a a3 b7 3c
       -0.0024994572 -0.00024729603 -0.058363214 0.02241664
000270 36 92 b4 bb 90 2a d6 bb 4a ff fe bc 1c 0d 1b 3d
       -0.0055105938 -0.0065358356 -0.03112759 0.0378543
000280 eb e3 6e bc b1 66 2a 3d b1 cf 13 3b 41 f0 f2 bc
       -0.014580707 0.04160184 0.0022554214 -0.029655578
000290 53 81 40 3d 33 ed 0e 3d 5f 58 93 3b 6e 26 09 3d
       0.046998333 0.03489418 0.0044966186 0.033483915
0002a0 26 a3 90 bc fd 19 96 bc 35 a6 0a bd b4 a7 08 bd
       -0.01765592 -0.018322939 -0.033849914 -0.03336306
0002b0 8a ba 19 bd 88 43 5e bd ec 0d 81 bd 18 3c 23 3d
       -0.037531413 -0.05426362 -0.063014835 0.03985223
0002c0 9f 61 db bc 6e 2c b8 3c 49 ab 8c ba 80 f0 d3 bc
       -0.026779948 0.022482123 -0.0010732199 -0.025871515
0002d0 dd 81 8c 3a 9c f6 03 bd 01 6c 57 3c 5f 38 03 3d
       0.0010719855 -0.032217607 0.013148309 0.03203618
0002e0 b5 76 7a 3d 89 48 67 3d cd f5 cf 3c a3 be 9d bb
       0.061148364 0.05646566 0.025385762 -0.0048139854
0002f0 13 73 f6 bb 43 25 b9 3b 9e bc 8a 39 a7 d4 80 3d
       -0.007521042 0.005650194 0.00026461942 0.0629056
000300 29 89 09 3d 2d d0 70 3d 34 11 82 3c cf 9e c9 3c
       0.03357807 0.058792282 0.015877344 0.024611859
000310 45 03 1e 3c 7e ea 60 3d 4f c5 53 3c 5d 19 7d 3d
       0.009644334 0.05491113 0.01292546 0.061791766
000320 d7 0f 29 bd 22 ed 92 bc b7 52 cd bb 49 dd a5 bc
       -0.04127487 -0.01793534 -0.006265964 -0.020247119
000330 82 53 71 3d b5 5a 3f bd 13 6d 2c 3d 3c 7e 17 bb
       0.05891753 -0.046717364 0.04209621 -0.0023116013
000340 d7 e7 17 3b 09 e1 54 bd 2a 77 84 bd 60 03 b1 bc
       0.0023178959 -0.051972423 -0.06468041 -0.021608055
000350 e3 d8 d1 b8 91 16 87 bc 75 94 5b bd 51 16 4a bd
       -0.00010006295 -0.016490253 -0.053608377 -0.04933769
000360 81 0f ce 3c 2f 07 dd 3c ad be c5 bc 50 a3 cd bc
       0.025153877 0.026980964 -0.024138773 -0.025102288
000370 04 89 0e 3d 9a 57 6c bd 74 6e 8d bd 7c 53 a6 3c
       0.034798637 -0.05770073 -0.06905833 0.02030348
000380 8f 92 1b 3d 3d 85 f1 3c 9c 8d cd ba d4 a1 09 3d
       0.037981566 0.029482478 -0.0015682462 0.033601597
000390 46 09 3e 3d 3f ec 73 bd 2c 15 83 bc 1e b2 50 3d
       0.046395563 -0.059551474 -0.016001306 0.050951116
0003a0 8a 77 dd 3c 39 ce 76 3d 6d 0c 06 3a 22 eb 03 bc
       0.02703454 0.060255263 0.0005113546 -0.0080516655
0003b0 ea 93 f7 bb 48 be fe bb 21 77 9e 3b fc ec 23 3c
       -0.0075554745 -0.007774148 0.0048359786 0.010005232
0003c0 f2 27 8c 3d df 3e 36 bd e7 9b 4f bb 12 b1 11 3d
       0.068435565 -0.044493552 -0.0031678618 0.035569258
0003d0 14 f5 0d bd 9c 67 27 3d 05 80 46 bd 2d 42 5a bd
       -0.034657553 0.040870294 -0.048461933 -0.053285766
0003e0 93 23 1f bd d0 f6 9b bc 11 62 a1 3c f5 b1 45 bd
       -0.038852286 -0.019038588 0.019700082 -0.048265416
0003f0 3d 45 80 3b 87 15 e1 3c e6 9b e3 3c dc f2 1e 3d
       0.003914504 0.027476085 0.0277843 0.038805827

conv1.bias f4 [5]
000000 02 f5 a8 bc a2 cd 36 bd 6c be 6a bc 80 3a 76 3c
       -0.020624641 -0.0446297 -0.014327627 0.015028596
000010 50 7e 9f bb
       -0.0048673525

bn1.weight f4 [5]
000000 d7 b9 7b 3f 75 ba 28 3f 63 38 c1 3d f0 40 da 3e
       0.98330444 0.6590951 0.09434583 0.42627668
000010 a8 32 36 3f
       0.71171045

bn1.bias f4 [5]
000000 3c 01 6a 3b 3d da 99 bb 6d 2f 72 bb e6 57 28 bc
       0.0035706302 -0.0046952055 -0.0036954537 -0.010274863
000010 e3 9f 83 bb
       -0.0040168627

bn1.running_mean f4 [5]
000000 f0 8e 1a 40 63 72 10 40 7e d8 b6 3f db 1a f9 3f
       2.4149742 2.2569816 1.4284818 1.9461321
000010 7c f1 fa 3f
       1.9604945

bn1.running_var f4 [5]
000000 30 31 12 41 29 e6 d6 40 bd 16 75 40 02 27 8c 40
       9.137009 6.7155957 3.8295128 4.3797617
000010 7a db 15 41
       9.366083

conv2.weight f4 [10, 5, 1, 1, 1]
000000 68 5d 9e be cb 78 56 bc 74 59 a7 3d 9b 78 56 be
       -0.30930638 -0.013090323 0.08171359 -0.20944445
000010 f6 7c 88 be 86 73 b1 be 2f a1 8d bd 51 15 89 3e
       -0.26657838 -0.3465845 -0.06915509 0.26774076
000020 61 0b bb be 91 3e 60 3e 4b 09 83 3e bf 94 3e bd
       -0.3653212 0.21898867 0.25593027 -0.046528574
000030 97 f6 c2 bd 53 07 92 3e 39 c7 c5 3e 55 78 b6 be
       -0.095196895 0.28521213 0.38628557 -0.3563868
000040 1c 8d b1 be 07 90 b5 3b 27 f8 da 3e e3 79 93 be
       -0.3467797 0.005540851 0.4276745 -0.2880393
000050 37 1c 89 3e 2a 05 85 3e d3 f9 94 3d 4c b9 85 3e
       0.2677934 0.25980502 0.07274213 0.26117933
000060 36 36 ca 3e fc d4 22 be a7 ce 26 be fb eb a0 bd
       0.39494485 -0.1590156 -0.16289769 -0.0785751
000070 9b cf 3f 3e 83 6c a1 3e 07 af 72 3e b2 00 1a 3d
       0.18731539 0.315281 0.2369958 0.03759832
000080 b5 85 1a bd 33 c0 bb 3d 02 93 a6 3d 40 92 19 3e
       -0.03772517 0.091675185 0.08133508 0.14997196
000090 f8 0c 62 be 86 e0 38 3d 8d d2 ab be 48 d7 88 bd
       -0.2207526 0.045135997 -0.33559075 -0.06681687
0000a0 57 47 3d 3e 1b c1 9e be 96 61 1e bd 01 f9 96 3e
       0.18484245 -0.31006703 -0.038667284 0.2948685
0000b0 db 02 1b be 16 f7 b4 be 8c 96 82 be 4e 73 a8 3e
       -0.15137808 -0.35344762 -0.25505483 0.3290047
0000c0 bc e5 62 3e c7 ed 67 be
       0.22157949 -0.22649299

conv2.bias f4 [10]
000000 dc 60 ae 3e d0 06 7b 3e be 3b d7 3e a8 7e 6c bd
       0.34058273 0.24514318 0.42037767 -0.057737976
000010 dc 92 be be 5c 00 8a bd f8 0e 2d 3e 8c a9 71 3e
       -0.3722142 -0.0673835 0.16900241 0.23599833
000020 30 22 1f 3e 45 92 de be
       0.15540385 -0.4347097

bn2.weight f4 [10]
000000 a4 d9 7e 3d a0 48 ae 3e 47 ec 25 3f 14 1e 70 3f
       0.062219277 0.34039783 0.64813656 0.93795896
000010 44 41 85 3e 14 f3 81 3d b5 2c 87 3e dc 67 b3 3e
       0.26026356 0.063451916 0.26401296 0.35040176
000020 94 c9 14 3e 07 99 1d 3f
       0.14530021 0.61561626

bn2.bias f4 [10]
000000 7e f0 a9 3b 37 b5 a7 3b d0 7e ba 3a 11 b8 db 3b
       0.0051861396 0.005118038 0.0014228467 0.006705292
000010 5d d2 0a 3b 38 91 a7 ba 99 3c a3 ba fb d7 09 ba
       0.0021182515 -0.0012784367 -0.0012453973 -0.0005258319
000020 34 34 a6 ba 05 5a cd bb
       -0.0012680353 -0.0062668347

bn2.running_mean f4 [10]
000000 08 1e 5c 3f c0 ea 52 3f 96 57 a1 3f 37 26 31 3f
       0.85983324 0.8238945 1.2604854 0.69198936
000010 53 24 23 3f 8a 7e cf 3e 1e a4 2e 3f 4b be 28 3f
       0.637273 0.4052623 0.6821917 0.65915364
000020 39 f1 2d 3f 12 be 31 3e
       0.679462 0.17357662

bn2.running_var f4 [10]
000000 ae b2 97 3d 2f 74 21 3e 3e e3 fe 3f ad c9 29 3e
       0.07407127 0.15766977 1.9913099 0.1658084
000010 3f 43 31 40 a7 23 b6 3e 13 ed 3f 3f fd 08 e6 3d
       2.7697294 0.35574076 0.7497112 0.11232183
000020 f9 14 86 3e 27 b1 be 3d
       0.26187876 0.09311133

conv3.weight f4 [5, 10, 1, 1, 1]
000000 ab 96 a0 3e f7 7b c9 3d 3f 20 60 3d 14 5c 3b be
       0.3136495 0.098380975 0.054718252 -0.18296844
000010 d4 ae 69 be 2d e3 87 be b0 8b 1f 3e ac 83 4d be
       -0.22820598 -0.2654051 0.1558063 -0.2006976
000020 04 92 97 3d e5 eb 3b be 51 27 9b 3e cc 37 79 3e
       0.07400897 -0.18351705 0.30303434 0.24337691
000030 aa 0e 6a 3d 60 21 1c be bf 44 9e be bd 89 0e 3e
       0.05714289 -0.15247107 -0.30911824 0.1391973
000040 ad 4b fd bd 53 75 53 3e 69 9f 1e be 78 4b e5 bb
       -0.1236795 0.20650224 -0.15490498 -0.006997522
000050 0d 2d af bd 4d f5 97 3e 12 31 01 3e 40 a0 8b 3d
       -0.08553515 0.29679337 0.12616375 0.06817675
000060 25 1e c2 3c 57 e4 3c be 89 6f e3 bd 4b 3c 57 3e
       0.023696015 -0.1844648 -0.11105258 0.21019094
000070 27 b7 9d 3e 1b 2b 7c 3e aa 32 61 be a2 47 0d 3e
       0.30803797 0.24625818 -0.21991983 0.13796857
000080 79 e3 a8 3c 29 05 ba bd ff ee d6 bb 2e 98 55 3e
       0.02061628 -0.090830155 -0.0065592523 0.20858833
000090 9f 2c f9 3d 19 1d 70 bc bd c6 f1 3c a0 40 2a 3e
       0.12166714 -0.014655375 0.029513711 0.16626215
0000a0 79 bb ec bd 72 d0 70 be a2 0a bc bd e8 d1 69 3e
       -0.11559195 -0.23517016 -0.091817155 0.22833979
0000b0 ab 89 7f be e5 35 1f bb 63 c2 81 be be ca dc 3d
       -0.2495486 -0.0024293598 -0.25343618 0.107808575
0000c0 81 5e f6 3b 33 80 88 be
       0.00751859 -0.26660308

conv3.bias f4 [5]
000000 12 55 5c be 9c 6f c1 bd 08 16 b3 3d 56 31 5f be
       -0.21516827 -0.09445116 0.087444365 -0.21796164
000010 43 b3 90 3e
       0.28261766

bn3.weight f4 [5]
000000 a3 f5 80 3e 9c f1 36 3f 0f 33 da 3e ce d3 37 3f
       0.25187406 0.71462417 0.4261708 0.71807563
000010 4c d3 30 3d
       0.04317026

bn3.bias f4 [5]
000000 59 44 bf ba b1 9f 95 ba e9 ae 74 3b db 22 13 3c
       -0.0014592513 -0.001141539 0.00373357 0.008980478
000010 27 1a d5 3b
       0.0065033617

bn3.running_mean f4 [5]
000000 f5 33 fa 3d 59 e6 38 3e 96 14 eb 3e 51 a1 09 bd
       0.12216941 0.1805662 0.45914143 -0.03360111
000010 09 3d 2b 3f
       0.6689001

bn3.running_var f4 [5]
000000 59 7b c1 3d 11 14 83 3d 69 0d 2c 3e a1 7d 14 3d
       0.09447355 0.06400312 0.1680199 0.03625262
000010 12 9d f8 3d
       0.12139334

conv4.weight f4 [1, 5, 1, 1, 1]
000000 50 34 d4 3d fe ac f1 3d 35 4f cd 3e 8e 57 bd be
       0.1036154 0.11800574 0.40099493 -0.3698086
000010 19 7c df be
       -0.43649366

fc1.weight f4 [3, 11]
000000 5a 19 40 bb 37 87 87 3e 48 91 8e bd 3b 90 5a 3e
       -0.0029311986 0.26470348 -0.06961304 0.21344082
000010 8c c3 6a 3b d7 15 ce bd 9d 9d 99 bd a5 a3 7b be
       0.0035822121 -0.10062759 -0.075007655 -0.24574144
000020 73 57 c4 3d 69 a2 63 3d 30 07 2b be b5 e8 a2 bd
       0.09586992 0.05557481 -0.1670196 -0.079545416
000030 59 78 39 3e 85 89 17 3e 2a 59 19 3e 85 d0 cb 39
       0.18112315 0.14798553 0.1497542 0.00038874536
000040 a9 fa 0e bc 6d 6e 13 be 6f ce 1e 3e 55 5b 73 bc
       -0.008726754 -0.14397593 0.15508436 -0.014853318
000050 04 17 6b 3e 28 27 ea bd 8c 8e 75 bd e0 e8 27 3e
       0.22957999 -0.1143325 -0.059950396 0.16397429
000060 f8 ab d7 3c 2e 06 3a be 1b f1 8a bd e2 ef 06 3e
       0.026327118 -0.1816642 -0.067842685 0.13177446
000070 07 be 2b be 9a 0e 1e bd 90 0a 89 3e 76 04 32 3c
       -0.16771708 -0.038588144 0.2676587 0.010865321
000080 62 7a b2 3d
       0.08714749

fc1.bias f4 [3]
000000 aa f5 87 3f 76 89 e3 be ab 4e a9 be
       1.0621846 -0.44440812 -0.3306783
