scripts/python/deep-learning/experiments/cnn3d/011/model-cnn3d-epoch-34.pth (torch_old, 19680 bytes, 36 tensors)

momentum_buffer f4 [5]
000000 9e 18 6c 3b 49 e9 ce ba 59 35 16 3c 51 df 9f bb
       0.0036025415 -0.0015786077 0.0091679925 -0.0048789163
000010 50 fd e4 39
       0.0004367628

momentum_buffer f4 [10]
000000 0c d5 86 3c 62 bc 45 3c 32 0e 5d ba b0 8b 48 3b
       0.01645901 0.01206884 -0.0008432596 0.0030600838
000010 d3 65 25 bc 98 b3 3a bb 63 47 d6 bb b6 e8 aa bb
       -0.010095078 -0.0028488394 -0.0065392717 -0.0052157296
000020 4c 81 15 3c c2 92 20 3c
       0.009125065 0.009800615

momentum_buffer f4 [10]
000000 b9 6e 92 3c a2 14 8d 3b 04 ea 80 bb c2 7c 53 3c
       0.017875062 0.004305438 -0.003934147 0.012908163
000010 8c 8c 1b 3b d4 17 83 3b f0 10 43 bc d5 cd 72 bc
       0.0023734896 0.0040006433 -0.011905894 -0.014819582
000020 35 fb 25 bc bc 49 ae bb
       -0.010130693 -0.0053188484

momentum_buffer f4 [10]
000000 fc 78 aa 30 00 53 2f ad 84 56 23 af 0c 65 f6 31
       1.2403514e-09 -9.966028e-12 -1.48555e-10 7.17103e-09
000010 2d 15 94 2e 66 77 9f 2e c5 68 b9 30 4d dd af 30
       6.7340224e-11 7.251692e-11 1.3490299e-09 1.2795823e-09
000020 48 7b 01 b0 c8 00 d9 b0
       -4.710512e-10 -1.578905e-09

momentum_buffer f4 [10, 5, 1, 1, 1]
000000 d8 ab 2c 3a 04 f9 29 39 fb 2d 12 b9 96 ec 84 3a
       0.0006586886 0.00016209861 -0.00013940774 0.0010141309
000010 0b 66 d3 ba 34 69 4c bb 36 17 99 bc 47 d8 7b ba
       -0.0016128434 -0.0031190636 -0.018687826 -0.0009607118
000020 48 ae 56 bb 09 f6 76 bc 70 5c 43 ba 9e 74 26 ba
       -0.0032757688 -0.015073308 -0.0007452434 -0.0006349775
000030 9e 1d ba 39 28 85 23 3b 95 4e af ba 89 f9 74 bc
       0.0003549875 0.0024951193 -0.001337486 -0.014952072
000040 53 b0 f2 3a 84 0a d2 3a f8 72 80 bc be f0 e7 bb
       0.0018515683 0.0016024862 -0.015679821 -0.0070782593
000050 e2 12 44 b9 dd 34 25 ba 11 bc 88 38 31 28 1c 3a
       -0.00018699051 -0.0006302128 6.5200154e-05 0.0005956917
000060 e8 0b 0e 39 14 75 80 b9 b6 0e 34 ba 38 c8 f7 37
       0.0001354661 -0.00024501293 -0.0006868647 2.9537929e-05
000070 03 d2 df b9 30 5d 64 b9 fe 14 d7 3a 87 75 9a bb
       -0.00042690345 -0.0002177849 0.0016409454 -0.0047137174
000080 5c eb 39 3a 61 60 b8 3a 5e 0a 80 bb 9c 3b 23 3c
       0.0007092261 0.0014066809 -0.003907486 0.009962942
000090 e2 db f0 3a 85 a1 9f 3a 6c 8e 17 3b 95 1b c1 3b
       0.0018376077 0.0012178874 0.0023125662 0.0058931806
0000a0 a4 cb c7 bb 39 ce 26 ba cc ab 5c 39 c7 aa 5f 3b
       -0.006097274 -0.0006363127 0.00021044834 0.003412889
0000b0 2c f8 e7 39 fb 99 21 3d e2 8c 80 3b 74 d8 a0 3b
       0.00044244656 0.039453488 0.0039230445 0.0049086157
0000c0 e8 b6 ac 3d d3 04 cf 3c
       0.08433324 0.025270855

momentum_buffer f4 [5, 10, 1, 1, 1]
000000 c1 d6 e3 39 c8 15 14 38 4b b5 54 bb 97 91 85 bb
       0.00043456818 3.5306235e-05 -0.0032456692 -0.0040761936
000010 0b a9 f0 b9 22 b3 da 38 66 bd 31 ba 62 69 9b 3a
       -0.00045902314 0.00010428416 -0.0006780237 0.0011856968
000020 b2 68 7f b9 9c ef 16 3b a2 d8 58 3b 31 68 ef bb
       -0.00024357697 0.0023031002 0.0033088108 -0.0073061218
000030 58 34 86 bc da 56 fe bc 5d 6d 1b bb bf 29 3f bb
       -0.016382381 -0.031047273 -0.0023716309 -0.002916917
000040 ce 24 24 3b f2 a0 75 bc f6 52 4d ba 60 00 0c 3c
       0.0025046351 -0.014991986 -0.00078324915 0.008545011
000050 21 7a ba b9 ca d0 54 3c b8 1c ba ba 8a 89 16 3d
       -0.00035567678 0.012989232 -0.0014199233 0.03675226
000060 48 0c ee bb d4 5f ad ba 5a f0 8c bb 9f 4f 39 bc
       -0.0072646476 -0.0013227412 -0.004301113 -0.011310487
000070 15 ee 93 bb 66 d1 4c bc 00 6a a5 36 ca 7f ae bb
       -0.0045144656 -0.012501096 4.929723e-06 -0.0053252922
000080 f4 09 8b bd 97 7f 6d bd 94 71 b4 3b 04 3b 0c 3b
       -0.06789008 -0.057983007 0.0055067036 0.002139748
000090 3e 99 da bc da 65 11 bd 6b b4 d7 bb f0 c1 78 bb
       -0.0266844 -0.035497524 -0.006582787 -0.0037957393
0000a0 4f ee 2e b9 9e 22 4d ba 4a 02 5f 3a de 72 8e bb
       -0.0001668271 -0.0007825288 0.0008507116 -0.0043471893
0000b0 5b 8f bd 38 91 b5 03 b9 03 4f 4d b9 80 01 06 38
       9.038924e-05 -0.00012560772 -0.00019579758 3.1949487e-05
0000c0 a6 a0 3e 39 46 db 4c bb
       0.00018179658 -0.0031258627

momentum_buffer f4 [3, 11]
000000 d1 84 36 3d b8 a4 12 3e 0b 71 0e 3d c2 f2 c1 bc
       0.044560257 0.14320648 0.034775775 -0.023675326
000010 59 ba 56 3d 41 34 ed bc 29 4f 26 3d 8e b3 59 bd
       0.05242381 -0.02895558 0.040602837 -0.053149752
000020 4d 18 38 3d 98 38 03 bc 20 7d 78 bc 58 3d ac bc
       0.04494505 -0.0080090985 -0.015166551 -0.021025345
000030 70 71 8f bd 52 4e 92 bc 48 8e 22 bc 47 c9 09 bd
       -0.07004058 -0.017859612 -0.009921618 -0.03363922
000040 10 2e 02 bb 4d a6 c9 bc c0 91 7f bc f1 69 0d bd
       -0.0019863881 -0.024615431 -0.015598714 -0.03452486
000050 af bf b8 bc 9d f2 e8 bc 4a cc c0 bc 01 d8 95 bd
       -0.02255234 -0.028436 -0.023534913 -0.0731659
000060 c1 93 8a bc f4 9c 09 3d 20 e2 99 bc 01 7a fd 3c
       -0.016916158 0.033596948 -0.018784583 0.030941965
000070 04 f8 82 bc fe cb 8c 3d 6d b9 2a bc fd 5b fa 3c
       -0.015987404 0.06874846 -0.0104201855 0.030561442
000080 93 98 32 3d
       0.043602537

momentum_buffer f4 [1, 5, 1, 1, 1]
000000 66 11 0f 3c 14 97 1d bc 34 f0 1f 3c 01 9c 1d 3c
       0.008732175 -0.009618539 0.009761859 0.009619714
000010 cc ed b3 39
       0.00034318713

momentum_buffer f4 [5]
000000 07 ce ed bb 29 8f ab ba a0 ac 7b 3c 48 0d 0b 3d
       -0.0072572264 -0.001308893 0.015360981 0.033948213
000010 be 19 34 bc
       -0.010992466

momentum_buffer f4 [3]
000000 f8 a9 bb be 51 25 ee 3e 69 ed c9 bd
       -0.36653113 0.46512845 -0.098597355

momentum_buffer f4 [5]
000000 95 42 24 30 49 b3 32 31 4d e5 01 b0 7a 7a 0f b1
       5.975747e-10 2.600432e-09 -4.725578e-10 -2.0878859e-09
000010 c0 67 82 ae
       -5.930145e-11

momentum_buffer f4 [5]
000000 46 52 d9 2e b3 7b 45 b0 d5 56 24 b1 23 24 4f b1
       9.882632e-11 -7.184397e-10 -2.39145e-09 -3.0143006e-09
000010 0c 51 e6 ae
       -1.0473586e-10

momentum_buffer f4 [5]
000000 f8 0d 73 39 fb 09 6b 3b e9 e2 02 3b 59 b7 ac bb
       0.0002317949 0.0035864103 0.0019971675 -0.00527088
000010 73 43 e6 bc
       -0.028108334

momentum_buffer f4 [5, 2, 65, 1, 2]
000000 94 f0 4c 3b 63 87 44 3b 8a 7d d6 39 bc 34 e6 3b
       0.0031271325 0.0029987923 0.00040910795 0.0070253294
000010 04 11 4c 3b 56 2a 47 3b 70 a5 b4 39 94 34 e4 3b
       0.0031138072 0.0030390224 0.00034455536 0.0069642756
000020 c2 16 4b 3b 61 4d 48 3b c6 24 95 39 0a 34 e1 3b
       0.0030988907 0.00305637 0.00028446893 0.0068726586
000030 c6 00 4a 3b e4 f0 47 3b 02 b7 6f 39 fe 37 dd 3b
       0.0030823215 0.0030508572 0.00022860992 0.0067510596
000040 f2 d2 48 3b 42 18 46 3b c8 ef 39 39 a5 46 d8 3b
       0.0030643311 0.003022686 0.000177323 0.0066002184
000050 1e 89 47 3b 1c c9 42 3b 78 b6 08 39 60 67 d2 3b
       0.0030446718 0.0029721921 0.00013037946 0.0064210147
000060 ac 26 46 3b 74 0a 3e 3b f8 c9 b7 38 7c a3 cb 3b
       0.0030235453 0.002899793 8.7637396e-05 0.006214557
000070 dc ae 44 3b 44 e5 37 3b 70 c0 4d 38 f7 04 c4 3b
       0.003001145 0.0028060237 4.905503e-05 0.005982037
000080 d4 20 43 3b 96 65 30 3b 80 ab 72 37 a3 97 bb 3b
       0.0029774206 0.0026916019 1.44642545e-05 0.0057248636
000090 6a 7f 41 3b fc 96 27 3b 80 4f 87 b7 05 69 b2 3b
       0.0029525408 0.0025572171 -1.6130274e-05 0.005444648
0000a0 5a ca 3f 3b 28 89 1d 3b 70 ca 33 b8 70 87 a8 3b
       0.0029264898 0.002403805 -4.286546e-05 0.0051430985
0000b0 a0 02 3e 3b 8d 4b 12 3b 28 1d 8a b8 d6 03 9e 3b
       0.0028993264 0.0022322864 -6.5857836e-05 0.0048222346
0000c0 e1 2b 3c 3b 63 ed 05 3b 28 8c b2 b8 f3 ed 92 3b
       0.0028712677 0.0020435683 -8.5138076e-05 0.004483932
0000d0 d1 40 3a 3b f1 0d f1 3a 00 95 d2 b8 2b 5a 87 3b
       0.0028419981 0.0018390996 -0.00010041334 0.004130622
0000e0 3a 43 38 3b 3b 4c d4 3a 88 48 ea b8 2e b8 76 3b
       0.0028116242 0.0016197035 -0.000111714995 0.00376464
0000f0 84 32 36 3b bf bd b5 3a d8 da f9 b8 8a 10 5e 3b
       0.0027801106 0.0013865753 -0.00011914008 0.003388437
000100 70 0d 34 3b cb 8b 95 3a 6c 57 00 b9 87 e4 44 3b
       0.002747383 0.0011409459 -0.00012239598 0.003004344
000110 b8 d4 31 3b 62 a4 67 3a 58 37 ff b8 4c 65 2b 3b
       0.0027134847 0.00088364456 -0.00012169656 0.0026152907
000120 61 86 2f 3b 7c 8c 21 3a 60 33 f5 b8 99 b6 11 3b
       0.0026782977 0.00061625964 -0.0001169208 0.002223408
000130 c4 21 2d 3b a0 28 b2 39 90 b8 e2 b8 c2 fd ef 3a
       0.002641783 0.00033981074 -0.00010810897 0.0018309879
000140 b4 a7 2a 3b c0 8c 67 38 60 9e c7 b8 20 c4 bc 3a
       0.00260399 5.5205775e-05 -9.518559e-05 0.0014401712
000150 b8 14 28 3b 38 6f 78 b9 f0 8e a3 b8 66 fd 89 3a
       0.0025647115 -0.00023692555 -7.79907e-05 0.0010527789
000160 f6 69 25 3b a2 70 0c ba e0 09 6e b8 80 cd 2f 3a
       0.002524016 -0.000535736 -5.675282e-05 0.0006706342
000170 54 a7 22 3b 38 5d 5c ba 90 ab 03 b8 30 d6 9a 39
       0.0024818974 -0.00084062247 -3.1392614e-05 0.0002953275
000180 c0 ca 1f 3b 3e e0 96 ba 00 c8 e9 b5 c0 49 96 b8
       0.0024382323 -0.0011510921 -1.741806e-06 -7.1662944e-05
000190 66 d3 1c 3b b6 3c c0 ba 30 0e 06 38 70 fd e0 b9
       0.0023929714 -0.0014666531 3.1961303e-05 -0.00042913435
0001a0 31 bf 19 3b 12 3b ea ba 68 76 92 38 90 66 4b ba
       0.0023459906 -0.0017870388 6.9838774e-05 -0.00077591185
0001b0 84 8f 16 3b 66 67 0a bb 48 52 ea 38 74 9d 91 ba
       0.0022973726 -0.002111876 0.000111733156 -0.0011109547
0001c0 ee 41 13 3b f2 f7 1f bb 84 08 25 39 28 e0 bb ba
       0.0022469717 -0.0024409262 0.00015738799 -0.0014333772
0001d0 4e d7 0f 3b 74 cb 35 bb 24 8a 58 39 14 60 e4 ba
       0.00219484 -0.0027739676 0.00020650827 -0.0017423653
0001e0 e2 4f 0c 3b 5d dd 4b bb 48 a3 87 39 d8 82 05 bb
       0.0021409919 -0.0031107285 0.0002587086 -0.0020372178
0001f0 5b ac 08 3b 04 2a 62 bb 4a 5a a4 39 fa dd 17 bb
       0.0020854685 -0.0034509907 0.00031347788 -0.002317308
000200 5f ec 04 3b 06 ad 78 bb 0b dd e8 bb 56 5c 5d bc
       0.002028249 -0.0037944927 -0.0071064285 -0.013510784
000210 15 21 07 bb 70 42 2d 3c 94 15 ec bb ec 8d 5d bc
       -0.0020619084 0.010574922 -0.0072047208 -0.013522606
000220 f0 9f 0c bb a3 7f 2f 3c bc 3c ef bb b6 bd 5d bc
       -0.0021457635 0.010711583 -0.0073009413 -0.013534
000230 c6 01 12 bb 61 bd 31 3c 25 53 f2 bb b2 e9 5d bc
       -0.002227889 0.010848374 -0.0073951655 -0.013544487
000240 92 54 17 bb a9 f9 33 3c d6 59 f5 bb 51 10 5e bc
       -0.002309118 0.010984817 -0.007487516 -0.013553695
000250 df 97 1c bb 6b 37 36 3c 4c 4f f8 bb 76 35 5e bc
       -0.0023894233 0.011121611 -0.0075778123 -0.013562551
000260 df d6 21 bb 2c 73 38 3c 16 32 fb bb 5f 55 5e bc
       -0.0024694724 0.011257928 -0.007665883 -0.013570159
000270 e7 f4 26 bb e5 af 3a 3c e9 06 fe bb 42 74 5e bc
       -0.0025475563 0.011394476 -0.0077522886 -0.013577523
000280 ca fc 2b bb 85 ea 3c 3c 2c 66 00 bc 62 8e 5e bc
       -0.0026243203 0.011530523 -0.00783686 -0.013583751
000290 3b f6 30 bb 81 24 3f 3c 8a c1 01 bc 7e a5 5e bc
       -0.0027002234 0.011666418 -0.007919678 -0.013589261
0002a0 7e c6 35 bb e2 5d 41 3c b7 16 03 bc 74 b9 5e bc
       -0.0027736719 0.011802169 -0.008001021 -0.01359402
0002b0 8c 71 3a bb 38 96 43 3c a8 66 04 bc 42 ca 5e bc
       -0.0028449027 0.01193767 -0.008081116 -0.013598027
0002c0 82 f3 3e bb ea cd 45 3c e9 b1 05 bc a2 d7 5e bc
       -0.0029136841 0.0120730195 -0.008160093 -0.013601216
0002d0 ea 57 43 bb 76 04 48 3c 6f f8 06 bc 32 e1 5e bc
       -0.002980704 0.012208095 -0.008237942 -0.013603495
0002e0 2b 88 47 bb 4a 3a 4a 3c fe 3b 08 bc c1 e6 5e bc
       -0.0030446153 0.012342999 -0.0083150845 -0.013604821
0002f0 c4 76 4b bb 8a 70 4c 3c 15 7c 09 bc f0 e9 5e bc
       -0.0031046132 0.012478003 -0.0083914 -0.01360558
000300 6f 22 4f bb 20 a6 4e 3c 83 bb 0a bc c4 e7 5e bc
       -0.0031606217 0.0126128495 -0.008467558 -0.013605062
000310 c8 8a 52 bb e8 d8 50 3c 37 f9 0b bc 0c de 5e bc
       -0.0032126177 0.012747027 -0.008543304 -0.013602745
000320 16 bc 55 bb 24 0a 53 3c 46 34 0d bc 88 cd 5e bc
       -0.0032613329 0.012880836 -0.00861842 -0.013598807
000330 b7 a7 58 bb 68 39 55 3c f8 6d 0e bc 7c b5 5e bc
       -0.003305895 0.013014175 -0.008693211 -0.013593074
000340 70 45 5b bb 5a 66 57 3c 1f a7 0f bc 9a 94 5e bc
       -0.0033458136 0.013146961 -0.008767872 -0.013585234
000350 f4 84 5d bb ac 90 59 3c 12 e0 10 bc 18 6a 5e bc
       -0.003380117 0.013279121 -0.008842485 -0.013575099
000360 f0 82 5f bb f5 b7 5b 3c 45 16 12 bc 10 35 5e bc
       -0.0034105144 0.013410558 -0.008916442 -0.013562456
000370 d8 2f 61 bb e9 db 5d 3c ef 4a 13 bc 75 f4 5d bc
       -0.0034360792 0.0135412 -0.0089900335 -0.013547053
000380 09 85 62 bb 92 fd 5f 3c f2 7e 14 bc bc a9 5d bc
       -0.0034564158 0.013671296 -0.009063469 -0.013529237
000390 02 82 63 bb d9 19 62 3c 01 b1 15 bc 45 50 5d bc
       -0.0034714942 0.013800108 -0.009136439 -0.013507907
0003a0 6a 27 64 bb 42 32 64 3c 72 e2 16 bc 0d e9 5c bc
       -0.0034813532 0.013927998 -0.009209262 -0.013483298
0003b0 a0 60 64 bb b8 47 66 3c 9c 13 18 bc 98 75 5c bc
       -0.0034847632 0.014055185 -0.009282019 -0.013455771
0003c0 5e 40 64 bb b0 58 68 3c 13 44 19 bc 91 f3 5b bc
       -0.0034828405 0.014181301 -0.009354609 -0.01342477
0003d0 c1 c3 63 bb af 63 6a 3c 6e 73 1a bc f4 60 5b bc
       -0.003475413 0.014305993 -0.009426935 -0.013389815
0003e0 44 ee 62 bb e0 6b 6c 3c 89 a2 1b bc 6a c1 5a bc
       -0.003462688 0.014430016 -0.009499201 -0.013351778
0003f0 52 c3 61 bb da 6f 6e 3c 68 d0 1c bc 01 13 5a bc
       -0.0034448695 0.014553035 -0.009571172 -0.013310195

momentum_buffer f4 [5]
000000 3e 14 4a 3c d7 c4 ce bc 13 f6 2c 3d f8 67 bd 3c
       0.012333928 -0.025240345 0.042226862 0.023120865
000010 a3 1f 27 3c
       0.010200414

conv1.weight f4 [5, 2, 65, 1, 2]
000000 aa 97 24 bd 18 89 44 3d f4 ea 27 bd a2 48 28 bc
       -0.0401837 0.047982305 -0.040995553 -0.010271223
000010 d0 a3 fc bb ff b6 28 3d 6b f0 30 bd 9c 16 25 bd
       -0.0077099577 0.041190144 -0.04319803 -0.040304765
000020 3a 7e d7 3c fc a1 3b bd 69 3a 65 3d 89 32 d8 bc
       0.026305307 -0.045808777 0.055963907 -0.026391285
000030 f6 7c 52 bd 93 7b 39 3d 10 75 81 3d 43 97 2e 3d
       -0.051388703 0.045283865 0.06321156 0.042624723
000040 3e e5 50 3c ab d2 43 3d aa d8 32 3d c5 03 3c 3d
       0.012749968 0.04780833 0.04366366 0.045902032
000050 7f d4 f5 bc 47 dc 3b bd 26 1d 51 3c fb 2f 13 bd
       -0.030008553 -0.04586437 0.012763297 -0.03593443
000060 d7 91 8e bd 4c bf 51 3d 79 0a 4a bd df 03 5a bc
       -0.069614105 0.051207826 -0.049326394 -0.013306587
000070 d9 8c 4c bd b6 eb e9 bc 86 28 7d bb f6 5e 9c ba
       -0.04993901 -0.028554779 -0.003862889 -0.0011930156
000080 20 b7 b7 bc 7b d6 32 3b 8d 52 86 bc 1c 81 35 bc
       -0.022426188 0.0027288485 -0.016396785 -0.011078145
000090 4c 27 0f 3d 2a 54 d2 3c 52 67 5b bc dd e1 66 3c
       0.034949586 0.025674898 -0.013391333 0.014091936
0000a0 a8 a2 4b 3c 4c 0a 24 3c b5 39 c1 bc 86 a9 7e bc
       0.012428917 0.010012221 -0.023587087 -0.015543347
0000b0 22 e9 3d 3d 3f 32 16 3d 64 06 a9 bb 4f 23 aa 3c
       0.04636491 0.036669012 -0.0051582325 0.02076879
0000c0 83 f5 76 bd c3 cf 7a 3d ca b0 7f 3d cb 0e af 3c
       -0.060292732 0.061233293 0.06242446 0.021369359
0000d0 40 b7 08 bd ed 58 49 bd 8a e6 69 3d 28 02 17 3d
       -0.033377886 -0.04915707 0.057104625 0.03686729
0000e0 9a 31 30 3d 28 c3 4f bb e6 56 f2 3c 22 c1 f9 3c
       0.043016054 -0.0031702016 0.029582452 0.0304876
0000f0 49 92 b1 3c 68 eb 10 3d a9 6e 1d bd 31 a2 91 bc
       0.0216762 0.03538075 -0.038435612 -0.017777534
000100 5a 51 3d bd 1c d1 ff 3c be 7e d4 bc d5 ad 44 3c
       -0.04622016 0.03122764 -0.025939342 0.012004335
000110 d0 df ec 3b 66 6f 23 bd c5 f3 69 3d 20 18 95 3b
       0.007228829 -0.03990116 0.057117242 0.004549995
000120 25 b8 ec bc c4 19 ea 3c 2e 60 8d 3c 81 2e c9 bb
       -0.0288964 0.02857674 0.017257776 -0.006139577
000130 24 a6 d5 bc 29 d4 11 bd 40 d2 6d 3d c4 e9 ec bc
       -0.026080199 -0.035602722 0.05806184 -0.028920062
000140 6a f7 8d bd e1 bb d6 bc 0f 2d 89 3d ee bb a7 bc
       -0.06931956 -0.026212635 0.06698047 -0.020475354
000150 a2 e0 68 3b 5e d7 df 3b 9e 57 df bc 94 90 27 bd
       0.0035534282 0.0068310937 -0.027263459 -0.040909365
000160 99 8f 09 3d f1 42 df bb 9a 68 0a 3d 3c 23 11 bd
       0.03358421 -0.0068134 0.033791162 -0.035433993
000170 51 0c 9e bd 7f d5 f9 3b a3 56 3c bd 3c a2 76 bc
       -0.07717193 0.0076243277 -0.04598106 -0.015053328
000180 53 b1 cf bc 46 96 0e 3d 8f ea 2e 3c 08 f5 4e bd
       -0.02535311 0.03481128 0.01067604 -0.05052665
000190 a1 86 84 bd c0 ab 1d 3d d1 20 cc 3c 61 66 58 3c
       -0.06470991 0.03849387 0.024917992 0.013208003
0001a0 49 1f 5e bd 71 ba 10 bd c0 cf 2e bc b3 aa 1a 3c
       -0.054229055 -0.035334054 -0.010669649 0.009440112
0001b0 ac d4 1d 3c 9a b1 a3 ba db 0a aa bb 74 dd 20 3d
       0.009633224 -0.0012488842 -0.0051892824 0.039273694
0001c0 67 74 11 3d 21 4c 2e 3d 2b 71 15 bc 0a 40 12 3d
       0.0355114 0.04255307 -0.00912122 0.035705604
0001d0 bb 2c 02 3a 40 63 3d bc 63 c1 8f 3d 54 43 ad bc
       0.0004965772 -0.011559308 0.070193075 -0.021150269
0001e0 85 f1 17 bd 56 52 37 3d 45 34 5b 3d 74 a5 71 3d
       -0.037095565 0.044756256 0.053516645 0.05899568
0001f0 63 c3 9b bd 84 ea 1f 3c 5d 6e f4 3b c4 06 19 bd
       -0.076056264 0.009760503 0.0074594454 -0.037359968
000200 e5 37 f7 3b 7a 7f 35 bd 09 60 17 bd 16 95 73 3d
       0.007544505 -0.044311024 -0.03695682 0.05946835
000210 e9 fa e4 bb 83 1b 1e 3d bc da a2 bc ee b9 77 ba
       -0.0069879186 0.038600456 -0.019879691 -0.0009450008
000220 1e 4c cd bb 97 e0 4a bd c5 f8 76 bd 36 7f 13 3d
       -0.0062651774 -0.04953059 -0.06029584 0.03600999
000230 1f d1 05 3d cd ea 20 3d 46 3a 07 3c 1e 10 29 bd
       0.032670137 0.039286423 0.00825364 -0.041275136
000240 4e 33 31 3d 75 80 56 3d d3 85 30 3d 00 23 31 bd
       0.04326182 0.0523686 0.043096375 -0.04324627
000250 24 72 88 3c c5 1a f8 bc 8c 68 cf 3c ed fa e7 bc
       0.016655989 -0.030286202 0.025318407 -0.028317893
000260 ad 51 ca ba 1a 51 c0 38 e9 ed 6b bd 97 ca b5 3c
       -0.0015435718 9.17038e-05 -0.057599936 0.022191329
000270 76 51 95 bb 08 1e cb bb e6 b9 f8 bc 5b 22 1a 3d
       -0.00455683 -0.0061986484 -0.03036208 0.03763042
000280 b9 4c 5f bc 3f c6 2b 3d 3e 1d 46 3b e5 c2 f4 bc
       -0.013629132 0.04193711 0.0030229832 -0.02987809
000290 c1 64 44 3d b9 4a 10 3d cb 8e ac 3b 72 3e 08 3d
       0.04794765 0.03522751 0.0052660457 0.033262677
0002a0 1b e1 88 bc 7e 63 93 bc 9d 7d 07 bd 69 8e 09 bd
       -0.016708901 -0.017991778 -0.03307878 -0.03358308
0002b0 fe db 15 bd a1 ea 5c bd cc f1 7e bd 97 56 22 3d
       -0.036586754 -0.053934697 -0.062242314 0.03963336
0002c0 90 a9 d3 bc 47 d9 ba 3c b4 fb 9c b9 40 b9 d5 bc
       -0.02583769 0.022808684 -0.00029942172 -0.02608931
0002d0 56 d9 03 3b d6 a2 02 bd d6 1d 64 3c 0f 55 02 3d
       0.0020118556 -0.031893574 0.013923129 0.0318194
0002e0 a9 4d 7e 3d 82 99 68 3d 64 50 d6 3c c8 d0 a4 bb
       0.06208578 0.05678702 0.02616138 -0.0050297715
0002f0 61 cf d7 bb af 95 c3 3b 18 6b 88 3a 03 64 80 3d
       -0.006586001 0.0059687714 0.0010407893 0.06269076
000300 1d 5b 0d 3d 24 1b 72 3d a8 6d 88 3c 05 de c7 3c
       0.03451072 0.059107915 0.01665385 0.02439786
000310 fa 40 2d 3c 3c 32 62 3d b9 7e 60 3c d9 39 7c 3d
       0.010574574 0.05522369 0.013702088 0.061578605
000320 e9 42 25 bd 6d 64 90 bc b9 e0 b3 bb a4 9a a7 bc
       -0.040347014 -0.017626012 -0.0054894355 -0.02045948
000330 f3 1d 75 3d d8 19 3e bd 01 9b 2f 3d 7b 5c 25 bb
       0.059843015 -0.046411365 0.042872433 -0.0025232125
000340 78 67 54 3b e9 a3 53 bd 7c e0 82 bd b8 bd b2 bc
       0.0032410305 -0.05166999 -0.06390473 -0.02181898
000350 49 27 57 3a e3 a3 84 bc b4 67 58 bd cd f2 4a bd
       0.0008207453 -0.016191429 -0.052833274 -0.04954796
000360 ab 95 d5 3c 0d 72 df 3c fb 66 bf bc fa 5a cf bc
       0.026072344 0.027276063 -0.023364535 -0.025311936
000370 b9 49 12 3d 34 26 6b bd 10 d9 8b bd 02 9d a4 3c
       0.03571484 -0.05740948 -0.06828511 0.020094398
000380 d5 50 1f 3d d6 df f3 3c df ae 50 ba 1b c7 08 3d
       0.038895447 0.02976982 -0.0007960628 0.033393007
000390 30 c5 41 3d 1e c3 72 bd 8b 88 79 bc d4 d7 4f 3d
       0.047307193 -0.05926811 -0.015230308 0.05074294
0003a0 8a ea e4 3c 1b f3 77 3d 75 e9 a7 3a aa 52 07 bc
       0.027943868 0.060534578 0.0012810664 -0.008259455
0003b0 d0 da d9 bb a5 b9 f5 bb b1 a4 b7 3b af 86 20 3c
       -0.006648399 -0.007498937 0.0056043495 0.009797736
0003c0 5d 02 8e 3d 9a 22 35 bd e0 57 1d bb b5 d7 10 3d
       0.069340445 -0.04422245 -0.0024008676 0.035361964
0003d0 b4 42 0a bd 78 7f 28 3d 36 5d 43 bd 66 1b 5b bd
       -0.03375502 0.04113719 -0.047696315 -0.053492926
0003e0 95 73 1b bd b9 cf 99 bc bc a4 a7 3c 1b 8b 46 bd
       -0.037952024 -0.018775808 0.020464294 -0.048472505
0003f0 20 b2 9d 3b fb 33 e3 3c ba db e9 3c ac 19 1e 3d
       0.004812494 0.027734747 0.028547157 0.0385987

conv1.bias f4 [5]
000000 02 f5 a8 bc a2 cd 36 bd 6c be 6a bc 80 3a 76 3c
       -0.020624641 -0.0446297 -0.014327627 0.015028596
000010 50 7e 9f bb
       -0.0048673525

bn1.weight f4 [5]
000000 0b 87 7b 3f f1 87 28 3f d8 a6 c3 3d 55 c2 db 3e
       0.98252934 0.6583243 0.09553307 0.429217
000010 7f 29 36 3f
       0.7115707

bn1.bias f4 [5]
000000 ec aa 99 3b 67 d1 83 bb 2f ec 47 bb fe 4b 25 bc
       0.004689565 -0.0040227654 -0.0030505767 -0.010088919
000010 75 f6 74 bb
       -0.0037378345

bn1.running_mean f4 [5]
000000 8d b6 1a 40 57 ac 09 40 9d 7d b8 3f 05 99 e9 3f
       2.417392 2.1511438 1.4413334 1.8249823
000010 c7 20 00 40
       2.0020006

bn1.running_var f4 [5]
000000 18 32 34 41 44 0e e5 40 ad 0a 92 40 f1 71 8f 40
       11.26223 7.1579914 4.563803 4.482659
000010 87 7a 37 41
       11.467414

conv2.weight f4 [10, 5, 1, 1, 1]
000000 d0 55 9e be c2 cb 54 bc a5 3e a7 3d 55 76 56 be
       -0.30924845 -0.012988033 0.08166245 -0.20943578
000010 6b 89 88 be 84 43 b1 be fb 43 8d bd 0a 18 89 3e
       -0.26667342 -0.34621823 -0.06897732 0.26776153
000020 4b 0b bb be c8 dd 60 3e 9a e4 82 3e 89 51 40 bd
       -0.36532053 0.21959603 0.25565034 -0.046952758
000030 9a 03 c3 bd 16 f9 91 3e 7e e2 c5 3e 8b 5b b6 be
       -0.09522171 0.2851035 0.38649362 -0.35616717
000040 74 98 b0 be d2 87 b2 3b b8 f2 db 3e 11 4e 93 be
       -0.34491313 0.00544832 0.42958617 -0.28770497
000050 1c 25 89 3e 86 05 85 3e 72 f7 94 3d d2 b8 85 3e
       0.26786125 0.25980777 0.07273759 0.2611757
000060 65 30 ca 3e c7 fc 22 be c3 e8 26 be 73 f1 a0 bd
       0.39490047 -0.1591674 -0.16299729 -0.07858553
000070 9b d8 3f 3e b9 58 a1 3e 40 e0 72 3e f5 e5 18 3d
       0.18734972 0.31513003 0.23718357 0.03732868
000080 07 bf 1a bd 04 d5 bb 3d 34 8f a5 3d 3e 49 1b 3e
       -0.037779834 0.09171489 0.080839545 0.15164658
000090 2a ca 61 be 81 25 39 3d 73 99 ab be 54 2c 87 bd
       -0.22049776 0.045201782 -0.3351551 -0.06600252
0000a0 f6 7c 3d 3e 4c c9 9e be c3 51 1e bd 07 e6 96 3e
       0.185047 -0.31012952 -0.038652193 0.29472372
0000b0 6b ea 1a be 20 be b3 be b5 e7 82 be 4e 9c a8 3e
       -0.15128486 -0.3510599 -0.25567403 0.3293175
0000c0 d5 df 65 3e 17 9c 67 be
       0.22448666 -0.22618137

conv2.bias f4 [10]
000000 dc 60 ae 3e d0 06 7b 3e be 3b d7 3e a8 7e 6c bd
       0.34058273 0.24514318 0.42037767 -0.057737976
000010 dc 92 be be 5c 00 8a bd f8 0e 2d 3e 8c a9 71 3e
       -0.3722142 -0.0673835 0.16900241 0.23599833
000020 30 22 1f 3e 45 92 de be
       0.15540385 -0.4347097

bn2.weight f4 [10]
000000 f7 43 80 3d 5e 9a ae 3e 93 ed 25 3f 9c ff 6f 3f
       0.06262963 0.34102148 0.64815634 0.93749404
000010 4b 37 85 3e 19 28 80 3d 41 1e 87 3e ab ba b3 3e
       0.26018748 0.06257648 0.2639027 0.35103354
000020 da 95 15 3e 5b 94 1d 3f
       0.14607945 0.615545

bn2.bias f4 [10]
000000 ae a0 81 3b 50 5f c1 3b 06 8d b0 3a d2 3a cd 3b
       0.003955922 0.0059012547 0.0013469763 0.0062631154
000010 b9 6b 0f 3b 55 a1 9e ba bf 0b 18 ba e8 8a 3e ba
       0.0021884276 -0.0012102524 -0.000580009 -0.00072686234
000020 6d 4e 1f ba 79 06 ce bb
       -0.0006077055 -0.0062873927

bn2.running_mean f4 [10]
000000 66 a9 5a 3f f8 df 50 3f b9 a2 aa 3f 0c e6 2b 3f
       0.8541473 0.8159175 1.3330909 0.671479
000010 8a 62 36 3f 77 c7 da 3e 10 b1 36 3f 6b ab 26 3f
       0.7124411 0.42730305 0.71363926 0.65105313
000020 32 ff 2f 3f da 90 1f 3e
       0.6874877 0.155826

bn2.running_var f4 [10]
000000 07 a4 8c 3d 20 26 1d 3e 3b 2a 04 40 10 9d 22 3e
       0.06867223 0.15346575 2.0650775 0.15880227
000010 e8 21 39 40 76 86 ae 3e 38 23 50 3f 23 ff e7 3d
       2.8926945 0.3408696 0.8130374 0.1132796
000020 cb 0c 99 3e b2 a1 ad 3d
       0.29892573 0.084781066

conv3.weight f4 [5, 10, 1, 1, 1]
000000 22 96 a0 3e 53 6b c9 3d cd d9 60 3d 00 54 3b be
       0.31364542 0.098349236 0.05489521 -0.18293762
000010 01 b1 69 be 7a e1 87 be bd 8f 1f 3e 2b 76 4d be
       -0.22821428 -0.26539212 0.15582176 -0.20064609
000020 19 82 97 3d 3b fd 3b be 5c 29 9b 3e d2 76 79 3e
       0.07397861 -0.18358319 0.30304992 0.24361733
000030 7c 6f 68 3d 81 d5 1b be ef 2e 9e be 53 a4 0e 3e
       0.056746945 -0.15218164 -0.30895182 0.13929872
000040 ea cd fd bd 76 7f 53 3e 89 9c 1e be f4 27 f2 bb
       -0.123927906 0.20654091 -0.15489401 -0.0073900167
000050 e5 69 af bd 5a 3b 98 3e 60 ad 01 3e e0 51 8e 3d
       -0.0856512 0.29732782 0.12663794 0.0694921
000060 67 4c c4 3c 84 b6 3c be 21 12 e2 bd 91 52 58 3e
       0.023962213 -0.18428999 -0.11038614 0.21125247
000070 b3 e1 9d 3e b1 e3 79 3e 75 3b 61 be cc 42 0d 3e
       0.30836257 0.24403264 -0.21995337 0.13795012
000080 0f 88 94 3c a2 4e b0 bd 84 d6 08 bc 95 6e 55 3e
       0.018131284 -0.08608748 -0.008351926 0.20842965
000090 f9 44 f9 3d 8f b3 6f bc ef 64 f6 3c 5c fa 2c 3e
       0.121713586 -0.014630212 0.030077426 0.1689238
0000a0 74 ba ec bd af d5 70 be 26 39 bc bd bb 86 69 3e
       -0.115590006 -0.23519014 -0.09190588 0.22805302
0000b0 9d 93 7f be 3d b1 1f bb f8 c4 81 be e0 c9 dc 3d
       -0.24958654 -0.0024367117 -0.25345588 0.10780692
0000c0 6c 41 f6 3b 26 93 88 be
       0.007515123 -0.26674765

conv3.bias f4 [5]
000000 12 55 5c be 9c 6f c1 bd 08 16 b3 3d 56 31 5f be
       -0.21516827 -0.09445116 0.087444365 -0.21796164
000010 43 b3 90 3e
       0.28261766

bn3.weight f4 [5]
000000 65 03 81 3e f6 f0 36 3f 49 8c da 3e fd b6 37 3f
       0.25197902 0.7146143 0.42685154 0.7176359
000010 c2 66 31 3d
       0.043310888

bn3.bias f4 [5]
000000 cf fe c5 ba 79 ba 6e ba f2 b0 84 3b 6a 77 13 3c
       -0.0015105846 -0.0009106766 0.004049414 0.0090006385
000010 0c 9f c7 3b
       0.006091958

bn3.running_mean f4 [5]
000000 e1 d9 f1 3d fd 50 3d 3e 00 f1 ed 3e 23 8a df bc
       0.11809135 0.18487926 0.4647293 -0.027287548
000010 60 26 2c 3f
       0.67246056

bn3.running_var f4 [5]
000000 17 a8 b0 3d ef 27 81 3d fa 56 2a 3e 99 e4 12 3d
       0.086258106 0.06306445 0.16634741 0.03586254
000010 e4 3c 02 3e
       0.1271854

conv4.weight f4 [1, 5, 1, 1, 1]
000000 33 ba d4 3d b1 89 f1 3d 7b ae cd 3e 98 e7 bc be
       0.10387077 0.11793841 0.4017218 -0.36895442
000010 41 7d df be
       -0.4365025

fc1.weight f4 [3, 11]
000000 33 40 db 38 5b 51 8a 3e e5 d8 83 bd b6 b3 61 3e
       0.00010454692 0.27015194 -0.06437854 0.2204121
000010 0b 0c 1d 3c 90 92 c4 bd 20 3c 90 bd fe 28 79 be
       0.009585391 -0.09598267 -0.07042718 -0.24332044
000020 67 4d cd 3d 82 4f 7a 3d 03 42 26 be e8 61 a7 bd
       0.10024529 0.06111098 -0.16236119 -0.08172971
000030 cc 28 35 3e 9a d0 11 3e 9e 15 16 3e 1e fa 6e bb
       0.17691344 0.14239731 0.14656684 -0.0036465
000040 93 9f 4a bc ff ef 16 be f6 c9 1d 3e be c3 a1 bc
       -0.012367147 -0.14739989 0.15409073 -0.019746657
000050 bf 88 67 3e 88 d3 f4 bd 51 0b 79 bd 28 a4 26 3e
       0.22610758 -0.11954409 -0.060801808 0.16273558
000060 d8 91 da 3c 27 e6 3d be de f8 8e bd 8a e8 05 3e
       0.026680872 -0.18544827 -0.069810614 0.13076988
000070 31 ed 2c be 53 e7 23 bd 73 4e 89 3e d2 33 10 3c
       -0.16887356 -0.04001553 0.26817665 0.008801417
000080 61 9c b3 3d
       0.08770061

fc1.bias f4 [3]
000000 b0 e8 77 3f 68 8b bb be 67 47 a1 be
       0.9683943 -0.36629796 -0.31499788
