scripts/python/deep-learning/experiments/cnn3d/011/model-cnn3d-epoch-15.pth (torch_old, 19680 bytes, 36 tensors)

momentum_buffer f4 [5]
0	0xbc259f88	-0.010108836
1	0xbbc7c1b4	-0.0060960893
2	0xbc3564e6	-0.011071419
3	0x3c5b25f1	0.013375745
4	0x3d459c4f	0.04824477

momentum_buffer f4 [10]
0	0x3a685779	0.0008863132
1	0xbc92f5e9	-0.017939525
2	0xbb2642ed	-0.002536948
3	0xbbf840d3	-0.007576087
4	0x3ac39428	0.0014921473
5	0xbd33da00	-0.043909073
6	0x3b4d9a80	0.0031372607
7	0xbc127e03	-0.008941176
8	0x3a669b69	0.00087969616
9	0x3ba37b4a	0.0049890624

momentum_buffer f4 [10]
0	0xbc501747	-0.012700862
1	0xbb718292	-0.0036851508
2	0x3b7be16b	0.003843392
3	0x3c6824b2	0.014168905
4	0x3b2b7759	0.0026163666
5	0x39742580	0.00023283623
6	0xbc196e69	-0.009364703
7	0xbbefaad1	-0.007314064
8	0xbbb0bcde	-0.0053936085
9	0xbc628ba4	-0.013827238

momentum_buffer f4 [10]
0	0xaeb0fd28	-8.048523e-11
1	0x300f27e0	5.207976e-10
2	0xae5686e5	-4.8777777e-11
3	0x318aef33	4.0435224e-09
4	0xaf0e30a8	-1.2932111e-10
5	0x307ecc54	9.269503e-10
6	0xaf92a33c	-2.667323e-10
7	0xafb5c610	-3.306444e-10
8	0x2c795410	3.5431692e-12
9	0xb23e42fe	-1.1074688e-08

momentum_buffer f4 [10, 5, 1, 1, 1]
0	0xbbcaeb9c	-0.0061926376
1	0xbbe50446	-0.006989035
2	0x3a5846ad	0.00082502776
3	0xbb8d414b	-0.004310762
4	0x3c36c2fc	0.011154886
5	0x3c6565d8	0.014001332
6	0xbc85089e	-0.01623946
7	0xb8c65240	-9.456696e-05
8	0xbbecd17a	-0.00722712
9	0x3ba9bd36	0.0051800264
10	0x3c5c1ecb	0.013435076
11	0xbb8a85b0	-0.0042273626
12	0xba1a713c	-0.0005891507
13	0xbbb7a90b	-0.0056048683
14	0xbbb2f381	-0.005461157
15	0xbd1a1154	-0.03761418
16	0x3caf3ef2	0.02139232
17	0xbb19d930	-0.00234754
18	0xbcdc0a28	-0.026860312
19	0xbc9dcb72	-0.01926205
20	0xbb1c4b81	-0.0023848715
21	0x3c1aaf60	0.009441227
22	0x3933a353	0.00017131613
23	0xb9d05579	-0.00039736534
24	0xbb8ed91b	-0.004359377
25	0x3c147284	0.009060506
26	0x3b5ff132	0.0034170863
27	0x3a2b4429	0.0006533289
28	0x3baa5d32	0.005199098
29	0x3b62944e	0.003457326
30	0xbb6c3a9f	-0.0036045683
31	0x3bca13da	0.0061669173
32	0x392694c8	0.00015886419
33	0x3c0b7edd	0.008514133
34	0xbaf6ff83	-0.0018844459
35	0x3cddf808	0.02709581
36	0x3a86df9b	0.0010290028
37	0x3a170062	0.000576025
38	0x3c40f1ba	0.011776382
39	0x3ac6afa0	0.0015158542
40	0x395b1a80	0.0002089534
41	0xbaf5b768	-0.0018746676
42	0x36b41180	5.3664553e-06
43	0x379c7080	1.8649036e-05
44	0x3b878e61	0.004136846
45	0xbc9e4176	-0.019318324
46	0x3d370986	0.044686817
47	0xbc152290	-0.009102479
48	0xbd16b686	-0.03679516
49	0xbd901034	-0.070343405

momentum_buffer f4 [5, 10, 1, 1, 1]
0	0xba834156	-0.0010013978
1	0x3a3e8314	0.0007267457
2	0x3ad4df68	0.0016240897
3	0xbaf07edc	-0.0018348354
4	0x39aef790	0.00033372315
5	0x3957025d	0.00020504878
6	0xba44a058	-0.00075007
7	0x3b37c0d1	0.0028038512
8	0xb9c57abb	-0.0003766621
9	0xbb6a4838	-0.0035748612
10	0xbb6df05e	-0.00363066
11	0x3c4009bb	0.01172107
12	0xbc06ca01	-0.008226872
13	0x3c1180ae	0.008880777
14	0xbb86043f	-0.0040898616
15	0x394fde30	0.0001982383
16	0x3b0e6d3b	0.0021732587
17	0xbbea728e	-0.0071547693
18	0xbb3df4a9	-0.002898494
19	0xbc42def7	-0.011893979
20	0x3aa5c563	0.0012647327
21	0xbc8a5916	-0.016888183
22	0x3ce3e84d	0.02782073
23	0xbc983440	-0.018579602
24	0xbae722f0	-0.0017634314
25	0xba0ef436	-0.00054532604
26	0x3b0361ba	0.0020047263
27	0xbb4a238c	-0.0030843941
28	0xbb1a6982	-0.0023561423
29	0x3c8d3eca	0.017241854
30	0xbb5d098c	-0.0033727614
31	0x3bffc783	0.007805766
32	0xbd675aa2	-0.05648292
33	0xbe226152	-0.15857437
34	0x3bb8cacf	0.005639411
35	0xb939a310	-0.0001770372
36	0xbc856314	-0.016282596
37	0x3c04f180	0.008114219
38	0xbc93bc8a	-0.018034238
39	0xbd964925	-0.0733817
40	0xb93dbb9b	-0.00018094333
41	0x3adadd76	0.001669808
42	0x3b12a14a	0.0022373968
43	0x3bf8520d	0.0075781406
44	0x3acf5c41	0.001582034
45	0x39c6623b	0.0003783869
46	0xb9b1760a	-0.00033848017
47	0x3b0083fc	0.0019609919
48	0x3a019477	0.00049430825
49	0x3b81d5e2	0.0039622644

momentum_buffer f4 [3, 11]
0	0x3d02e86e	0.031959943
1	0xbd909999	-0.070605464
2	0x3c3e50b6	0.011615923
3	0x3c9a116f	0.018807141
4	0x3bc422af	0.00598558
5	0x3d4b088f	0.04956871
6	0xbd8b7cc8	-0.068109095
7	0x3d74eca5	0.059795994
8	0x3cd961bb	0.02653586
9	0x3d75ac22	0.05997861
10	0x3ddd2d5b	0.107996665
11	0xbd06d741	-0.032920126
12	0x3d8ca026	0.068664834
13	0xbc94f024	-0.018180914
14	0xbc47ed22	-0.012202533
15	0xbbf51ce0	-0.007480249
16	0xbce2e1e1	-0.027695598
17	0x3d1b2da6	0.03788533
18	0xbcd26371	-0.025682183
19	0xbc434a11	-0.011919514
20	0xbc986566	-0.018603038
21	0xbd835474	-0.064125925
22	0x3a7bb493	0.0009601798
23	0x3afe5ca0	0.0019406267
24	0x3bd71f35	0.0065649995
25	0xbbd86b7d	-0.0066046105
26	0x3ac3e8f1	0.0014946741
27	0xbcb32f3a	-0.021873105
28	0x3cf797d9	0.030223774
29	0xbd0bbaec	-0.03411381
30	0xbc6f7966	-0.014616346
31	0xbd29796e	-0.04137557
32	0xbd33b1cd	-0.043870736

momentum_buffer f4 [1, 5, 1, 1, 1]
0	0xbcc50ff0	-0.024055451
1	0xbd1b696b	-0.03794233
2	0xbc37ae76	-0.011211028
3	0xbcda7272	-0.0266659
4	0xbb7493b9	-0.0037319495

momentum_buffer f4 [5]
0	0x3cb88f8d	0.022529388
1	0xbcb85336	-0.022500616
2	0xbd027cc8	-0.031857282
3	0xbd4037eb	-0.046928328
4	0x3cb83c86	0.022489797

momentum_buffer f4 [3]
0	0xbf804eae	-1.0024011
1	0x3f11e7ce	0.5699433
2	0x3edd6b1a	0.43245775

momentum_buffer f4 [5]
0	0xb0b527f7	-1.3180842e-09
1	0x30b3b7a7	1.3076161e-09
2	0xad0dbb60	-8.056528e-12
3	0x30f43dab	1.7770864e-09
4	0xb115a7af	-2.177767e-09

momentum_buffer f4 [5]
0	0xb03a5a61	-6.779484e-10
1	0x2ef854c0	1.1292789e-10
2	0xaf98de10	-2.7806424e-10
3	0xafc25ed0	-3.5355763e-10
4	0x30a14e3a	1.1736525e-09

momentum_buffer f4 [5]
0	0xbc18c460	-0.009324163
1	0xbaf8a9bd	-0.0018971484
2	0x3d51d86a	0.05123178
3	0x3c94ae01	0.018149378
4	0xbda42b88	-0.080161154

momentum_buffer f4 [5, 2, 65, 1, 2]
0	0x3d0fa58b	0.035069983
1	0x3d027040	0.03184533
2	0x3d17a04e	0.037018113
3	0x3d3d14e6	0.04616251
4	0x3d0f48c7	0.034981515
5	0x3d023e7a	0.031797864
6	0x3d17ab44	0.037028566
7	0x3d3d2322	0.046176083
8	0x3d0eed93	0.034894537
9	0x3d020c47	0.03174999
10	0x3d17b213	0.03703506
11	0x3d3d3159	0.04618964
12	0x3d0e9471	0.034809534
13	0x3d01d9ba	0.03170178
14	0x3d17b48a	0.03703741
15	0x3d3d3f41	0.0462029
16	0x3d0e3d74	0.034726575
17	0x3d01a6ef	0.03165334
18	0x3d17b314	0.037036017
19	0x3d3d4c4f	0.04621535
20	0x3d0de88b	0.0346456
21	0x3d017406	0.03160479
22	0x3d17ad53	0.03703053
23	0x3d3d57c4	0.046226278
24	0x3d0d95ef	0.034566816
25	0x3d014153	0.03155644
26	0x3d17a340	0.03702092
27	0x3d3d6183	0.046235573
28	0x3d0d45e2	0.034490474
29	0x3d010e70	0.03150791
30	0x3d1794f6	0.037007295
31	0x3d3d696d	0.04624312
32	0x3d0cf832	0.034416385
33	0x3d00db6a	0.03145925
34	0x3d17829a	0.036989786
35	0x3d3d6efc	0.04624842
36	0x3d0cacf4	0.03434463
37	0x3d00a894	0.03141077
38	0x3d176c24	0.036968365
39	0x3d3d71b2	0.046251006
40	0x3d0c6456	0.034275375
41	0x3d0075a3	0.031362187
42	0x3d1751a3	0.03694309
43	0x3d3d71e3	0.04625119
44	0x3d0c1e2d	0.034208465
45	0x3d004266	0.031313322
46	0x3d1732ce	0.036913686
47	0x3d3d6f7c	0.046248898
48	0x3d0bdab5	0.034144122
49	0x3d000ed1	0.03126413
50	0x3d170fb4	0.03688021
51	0x3d3d6a59	0.046244
52	0x3d0b9a1c	0.034082517
53	0x3cffb60e	0.03121474
54	0x3d16e892	0.03684289
55	0x3d3d6297	0.0462366
56	0x3d0b5c40	0.034023523
57	0x3cff4d68	0.03116484
58	0x3d16bd06	0.03680136
59	0x3d3d5836	0.046226703
60	0x3d0b2149	0.03396729
61	0x3cfee36b	0.0311143
62	0x3d168d5b	0.0367559
63	0x3d3d4bc5	0.046214838
64	0x3d0ae944	0.033913866
65	0x3cfe77c8	0.031062976
66	0x3d16592d	0.03670614
67	0x3d3d3d6d	0.04620116
68	0x3d0ab42d	0.033863235
69	0x3cfe0a4c	0.03101077
70	0x3d16207f	0.036652084
71	0x3d3d2dbe	0.0461862
72	0x3d0a8244	0.033815637
73	0x3cfd9a93	0.030957496
74	0x3d15e35e	0.036593787
75	0x3d3d1c65	0.046169657
76	0x3d0a535e	0.03377091
77	0x3cfd2846	0.030902993
78	0x3d15a201	0.036531452
79	0x3d3d0a86	0.046152614
80	0x3d0a2779	0.03372905
81	0x3cfcb300	0.030847073
82	0x3d155bac	0.03646438
83	0x3d3cf859	0.04613528
84	0x3d09fed6	0.033690296
85	0x3cfc3a50	0.030789524
86	0x3d1510e1	0.03639305
87	0x3d3ce614	0.046117857
88	0x3d09d95a	0.03365455
89	0x3cfbbe14	0.030730285
90	0x3d14c1b6	0.03631755
91	0x3d3cd41f	0.046100732
92	0x3d09b6ce	0.0336216
93	0x3cfb3dee	0.030669179
94	0x3d146e07	0.036237743
95	0x3d3cc2b8	0.046084136
96	0x3d099770	0.033591688
97	0x3cfab9cb	0.030606171
98	0x3d141624	0.036153927
99	0x3d3cb249	0.046068463
100	0x3d097b0c	0.033564612
101	0x3cfa31e9	0.030541377
102	0x3d13b9b4	0.036065772
103	0x3d3ca288	0.04605344
104	0x3d0961c7	0.033540513
105	0x3cf9a5f1	0.030474635
106	0x3d135962	0.035973914
107	0x3d3c943a	0.046039797
108	0x3d094b4a	0.033519067
109	0x3cf915b8	0.030405864
110	0x3d12f538	0.03587839
111	0x3d3c8744	0.046027437
112	0x3d0937bc	0.033500418
113	0x3cf88156	0.03033511
114	0x3d128d4e	0.03577929
115	0x3d3c7bfe	0.046016686
116	0x3d0926de	0.033484332
117	0x3cf7e8dd	0.030262405
118	0x3d122216	0.035677038
119	0x3d3c726a	0.04600755
120	0x3d091899	0.033470724
121	0x3cf74c5e	0.030187782
122	0x3d11b3f5	0.03557201
123	0x3d3c6aae	0.046000175
124	0x3d090c7a	0.033459164
125	0x3cf6abcb	0.030111214
126	0x3d11431b	0.035464387
127	0x3d3c64c0	0.04599452
128	0x3d090284	0.033449665
129	0x3cf6075d	0.030032808
130	0x3d02a0ce	0.031891637
131	0x3ccb6ec2	0.024833087
132	0x3cbe90e2	0.023262445
133	0x3d393850	0.04521972
134	0x3d0379f3	0.03209872
135	0x3ccb0f8e	0.02478769
136	0x3cbde7df	0.023181854
137	0x3d3935a1	0.04521716
138	0x3d045a9a	0.032312967
139	0x3ccab2d3	0.024743473
140	0x3cbd3b26	0.023099493
141	0x3d393784	0.04521896
142	0x3d054270	0.032534063
143	0x3cca5871	0.024700375
144	0x3cbc8be7	0.02301593
145	0x3d393e0f	0.0452252
146	0x3d0630c0	0.032761335
147	0x3cca0068	0.024658397
148	0x3cbbd9df	0.022931037
149	0x3d394824	0.045234814
150	0x3d072562	0.032994635
151	0x3cc9ab52	0.024617825
152	0x3cbb25dc	0.022845201
153	0x3d39561e	0.045248143
154	0x3d081fc5	0.033233423
155	0x3cc95873	0.024578309
156	0x3cba7108	0.022758976
157	0x3d3966df	0.04526412
158	0x3d091f36	0.03347703
159	0x3cc908a4	0.024540253
160	0x3cb9bbf2	0.022672627
161	0x3d397a08	0.045282394
162	0x3d0a2309	0.03372482
163	0x3cc8bbc6	0.0245036
164	0x3cb90747	0.022586478
165	0x3d398f50	0.04530269
166	0x3d0b2ac1	0.03397632
167	0x3cc8714e	0.02446809
168	0x3cb8540f	0.02250102
169	0x3d39a609	0.04532436
170	0x3d0c3585	0.034230728
171	0x3cc82914	0.02443365
172	0x3cb7a2e4	0.02241654
173	0x3d39bdf9	0.045347188
174	0x3d0d429f	0.034487363
175	0x3cc7e3b6	0.024400573
176	0x3cb6f451	0.022333296
177	0x3d39d65c	0.045370445
178	0x3d0e5168	0.034745604
179	0x3cc7a062	0.024368469
180	0x3cb64a5e	0.022252258
181	0x3d39ef1b	0.045394044
182	0x3d0f60ab	0.0350043
183	0x3cc75e9a	0.024337102
184	0x3cb5a4d0	0.022173315
185	0x3d3a079a	0.045417406
186	0x3d106fee	0.035262994
187	0x3cc71eea	0.024306733
188	0x3cb504e0	0.022097051
189	0x3d3a1fa0	0.045440316
190	0x3d117dff	0.03552055
191	0x3cc6e0b9	0.024277078
192	0x3cb46b36	0.022023778
193	0x3d3a36e7	0.045462515
194	0x3d1289e7	0.035776045
195	0x3cc6a3a8	0.02424796
196	0x3cb3d8f3	0.021954035
197	0x3d3a4d10	0.04548365
198	0x3d13931a	0.03602896
199	0x3cc667e7	0.024219466
200	0x3cb34e20	0.021887839
201	0x3d3a61eb	0.045503538
202	0x3d149892	0.036278315
203	0x3cc62d1a	0.024191428
204	0x3cb2cb0e	0.02182534
205	0x3d3a7556	0.045522057
206	0x3d15994b	0.036523145
207	0x3cc5f33c	0.024163835
208	0x3cb24f8a	0.021766443
209	0x3d3a875d	0.04553925
210	0x3d1694e5	0.03676309
211	0x3cc5b9de	0.02413648
212	0x3cb1dc7a	0.021711577
213	0x3d3a97a8	0.045554787
214	0x3d178a8c	0.036997363
215	0x3cc58108	0.024109378
216	0x3cb1717f	0.021660564
217	0x3d3aa635	0.045568664
218	0x3d187915	0.037224848
219	0x3cc54864	0.02408237
220	0x3cb10e8a	0.021613378
221	0x3d3ab2dc	0.04558073
222	0x3d19602f	0.037445243
223	0x3cc5100f	0.024055509
224	0x3cb0b3cc	0.021570109
225	0x3d3abdf2	0.045591302
226	0x3d1a3f02	0.037657745
227	0x3cc4d7b2	0.024028633
228	0x3cb06029	0.021530228
229	0x3d3ac741	0.04560018
230	0x3d1b150e	0.037861876
231	0x3cc49f03	0.024001604
232	0x3cb01424	0.021493979
233	0x3d3acefa	0.045607544
234	0x3d1be18d	0.0380569
235	0x3cc46646	0.023974549
236	0x3cafcef3	0.021460986
237	0x3d3ad51a	0.045613386
238	0x3d1ca411	0.038242403
239	0x3cc42d9d	0.023947531
240	0x3caf8fca	0.021430869
241	0x3d3ad971	0.045617525
242	0x3d1d5bee	0.03841775
243	0x3cc3f4ec	0.023920499
244	0x3caf5656	0.021403473
245	0x3d3adcc6	0.045620702
246	0x3d1e08d5	0.03858264
247	0x3cc3bc34	0.023893453
248	0x3caf223e	0.021378633
249	0x3d3adeca	0.045622624
250	0x3d1eaa22	0.03873647
251	0x3cc383d3	0.02386657
252	0x3caef2ae	0.021355953
253	0x3d3adfe2	0.045623668
254	0x3d1f3f49	0.038878713
255	0x3cc34b82	0.023839716

momentum_buffer f4 [5]
0	0xbd4d1d87	-0.050076988
1	0x3cc675ae	0.024226036
2	0xbc2607d0	-0.010133699
3	0x3ca3e236	0.020005327
4	0xbc391b4b	-0.011298011

conv1.weight f4 [5, 2, 65, 1, 2]
0	0xbd23c9e6	-0.039987467
1	0x3d44294d	0.04789095
2	0xbd27c879	-0.04096267
3	0xbc4a2989	-0.012339004
4	0xbbf68bd7	-0.0075239944
5	0x3d28518e	0.0410934
6	0xbd30cc59	-0.04316363
7	0xbd2d92be	-0.042376272
8	0x3cd8ee5a	0.026480842
9	0xbd3c0d44	-0.04591109
10	0x3d656014	0.05599983
11	0xbce933da	-0.028467108
12	0xbd51d014	-0.05122383
13	0x3d390a5f	0.045175906
14	0x3d8188ab	0.063248955
15	0x3d26116b	0.040543955
16	0x3c536b57	0.01290401
17	0x3d435b87	0.04769471
18	0x3d330167	0.04370251
19	0x3d33781c	0.043815717
20	0xbcf4a873	-0.02986548
21	0xbd3c5979	-0.045983765
22	0x3c51c62b	0.012803595
23	0xbd1bc1ee	-0.038026743
24	0xbd8e4cad	-0.069482185
25	0x3d513c26	0.051082753
26	0xbd49dec8	-0.049284726
27	0xbc7c6721	-0.015405447
28	0xbd4c0e35	-0.049818236
29	0xbceafdde	-0.028685506
30	0xbb7a57af	-0.0038199236
31	0xbb58315f	-0.0032988412
32	0xbcb6d1b2	-0.022316787
33	0x3b29e864	0.002592587
34	0xbc85f5be	-0.01635253
35	0xbc58207a	-0.013191337
36	0x3d0f8e11	0.035047594
37	0x3cd12b1e	0.025533255
38	0xbc5aa884	-0.013345841
39	0x3c442232	0.011971043
40	0x3c4d0d80	0.012515426
41	0x3c21a296	0.009865424
42	0xbcc0d7c4	-0.023540385
43	0xbc90c569	-0.017672257
44	0x3d3e37c4	0.0464399
45	0x3d15934c	0.036517426
46	0xbba77462	-0.0051103095
47	0x3c98a15e	0.018631633
48	0xbd76b312	-0.06022937
49	0x3d7a2c18	0.061077207
50	0x3d7fe43c	0.06247352
51	0x3c9d7b3e	0.019223806
52	0xbd0880e7	-0.033326056
53	0xbd4a00f1	-0.049317304
54	0x3d6a1b40	0.057154894
55	0x3d0e2f61	0.034713153
56	0x3d305ba1	0.043056134
57	0xbb5a7f8c	-0.0033340184
58	0x3cf2c2cd	0.029633904
59	0x3ce80972	0.028324816
60	0x3cb1cdf8	0.021704659
61	0x3d103c55	0.035213787
62	0xbd1d377c	-0.038382992
63	0xbca36bee	-0.019948926
64	0xbd3d3fb6	-0.046203338
65	0x3cfe6d87	0.031058086
66	0xbcd40e0e	-0.025885608
67	0x3c20f653	0.009824353
68	0x3bed0c01	0.007234097
69	0xbd242350	-0.04007274
70	0x3d6a2d35	0.05717202
71	0x3b1ac3a9	0.0023615158
72	0xbcecc548	-0.028902665
73	0x3ce8af0d	0.028403783
74	0x3c8dd562	0.017313663
75	0xbc08955b	-0.00833639
76	0xbcd5cb4e	-0.02609792
77	0xbd128a55	-0.035776455
78	0x3d6e0dd7	0.058118667
79	0xbcfef9bc	-0.031124942
80	0xbd8e06a8	-0.06934863
81	0xbcd82893	-0.026386535
82	0x3d894b65	0.067038335
83	0xbcb9dc44	-0.022688039
84	0x3b663a16	0.0035129837
85	0x3bda281f	0.006657615
86	0xbcdedca6	-0.027204823
87	0xbd30a870	-0.043129385
88	0x3d09596f	0.033532556
89	0xbbe4e98a	-0.006985848
90	0x3d0aa6c8	0.03385046
91	0xbd1a4276	-0.03766104
92	0xbd9e2d37	-0.07723468
93	0x3bf43c95	0.007453511
94	0xbd3c17eb	-0.045921247
95	0xbc8d9d08	-0.017286792
96	0xbcd04be2	-0.025426809
97	0x3d0de579	0.03464267
98	0x3c2fe6bc	0.010736164
99	0xbd582127	-0.05276599
100	0xbd84b2f0	-0.06479442
101	0x3d1cfdb2	0.03832788
102	0x3ccc9eef	0.02497813
103	0x3c339ff5	0.01096343
104	0xbd5e82f9	-0.054324124
105	0xbd116546	-0.035496973
106	0xbc2dd4bb	-0.010609801
107	0x3beba210	0.00719095
108	0x3c1c1a9f	0.009527831
109	0xbab899b4	-0.0014083893
110	0xbba81a61	-0.0051300977
111	0x3d17a30c	0.037020728
112	0x3d10fb52	0.035395928
113	0x3d2da8e2	0.042397387
114	0xbc147d6f	-0.009063109
115	0x3d090260	0.03344953
116	0x39c2a441	0.00037124942
117	0xbc3fdf7d	-0.011710999
118	0x3d8fdf1f	0.07024979
119	0xbcbfc368	-0.023408607
120	0xbd187efb	-0.037230473
121	0x3d36b7c0	0.04460883
122	0x3d5b6d7c	0.05357121
123	0x3d6863f1	0.056735937
124	0xbd9c0eee	-0.07620035
125	0x3c1d92cc	0.009617519
126	0x3bf6224b	0.0075114123
127	0xbd2248e7	-0.039620306
128	0x3bf235a5	0.007391649
129	0xbd3610a5	-0.044449467
130	0xbd19cf6a	-0.03755132
131	0x3d71c06c	0.0590214
132	0xbc074f79	-0.008258694
133	0x3d14c35e	0.03631913
134	0xbca7b672	-0.020472739
135	0xbab63153	-0.0013900198
136	0xbbf72d6e	-0.0075432574
137	0xbd543875	-0.051811654
138	0xbd79653a	-0.060887553
139	0x3d11aef4	0.03556724
140	0x3d008dd1	0.031385247
141	0x3d179313	0.037005495
142	0x3bfb1afe	0.00766313
143	0xbd2addb4	-0.04171534
144	0x3d2be943	0.041970503
145	0x3d4d28da	0.050087787
146	0x3d2e1baa	0.04250685
147	0xbd32ed98	-0.04368362
148	0x3c7ba380	0.015358806
149	0xbd05650c	-0.03256707
150	0x3cca95d5	0.024729649
151	0xbceb897b	-0.02875208
152	0xbb3a84fb	-0.002846061
153	0xbb0f788c	-0.002189192
154	0xbd6e56c5	-0.05818822
155	0x3cb24315	0.021760503
156	0xbbc02792	-0.005864092
157	0xbc0aee4d	-0.008479667
158	0xbcfd8b32	-0.030950163
159	0x3d18624c	0.03720312
160	0xbc74c966	-0.014940595
161	0x3d226e51	0.039655987
162	0x3b1f90d3	0.0024347797
163	0xbcf83b3e	-0.030301686
164	0x3d3f01bc	0.046632513
165	0x3d06f29d	0.032946218
166	0x3b9944f4	0.0046774093
167	0x3d068654	0.03284295
168	0xbc93ad9d	-0.018027121
169	0xbca613e9	-0.020273166
170	0xbd09e7a0	-0.03366816
171	0xbd0b427c	-0.03399895
172	0xbd1b44fc	-0.037907586
173	0xbd6642dc	-0.056216106
174	0xbd80ae56	-0.06283252
175	0x3d20a69d	0.039221395
176	0xbcde7fc9	-0.027160542
177	0x3ca828f9	0.02052735
178	0xba698470	-0.00089079794
179	0xbcd91106	-0.026497375
180	0x3a34355d	0.0006874407
181	0xbd0bfac6	-0.034174703
182	0x3c5a67fc	0.013330456
183	0x3d00ad3b	0.031415205
184	0x3d78dfb0	0.0607602
185	0x3d5f4213	0.054506373
186	0x3cd17277	0.025567276
187	0xbbb1efba	-0.005430189
188	0xbc01a29f	-0.007912307
189	0x3b71bdde	0.0036886851
190	0x39e97015	0.0004452473
191	0x3d7f27ee	0.06229394
192	0x3d07ec02	0.03318406
193	0x3d68c526	0.05682864
194	0x3c8389bf	0.016056893
195	0x3cc4a4e9	0.024004417
196	0x3c178414	0.0092477985
197	0x3d58dd61	0.0529455
198	0x3c56b111	0.013103739
199	0x3d7aa0a0	0.06118834
200	0xbd2ab1de	-0.041673534
201	0xbca30b2c	-0.019902788
202	0xbbc786bb	-0.006089059
203	0xbcaac6fc	-0.020846836
204	0x3d6faf9c	0.058517084
205	0xbd476b73	-0.048686456
206	0x3d2d251a	0.04227171
207	0xbb3e93e9	-0.002907986
208	0x3afb1ccf	0.0019158366
209	0xbd5cf37d	-0.053943146
210	0xbd841bfc	-0.0645065
211	0xbcb5dfe5	-0.022201488
212	0xba03f7f7	-0.0005034203
213	0xbc973e0d	-0.018462205
214	0xbd5adf54	-0.05343564
215	0xbd4c81ea	-0.049928583
216	0x3ccabf4d	0.024749422
217	0x3cccdd7f	0.025007961
218	0xbcc45711	-0.023967298
219	0xbcd275cc	-0.025690936
220	0x3d0ce008	0.03439334
221	0xbd746d53	-0.059674572
222	0xbd8d151e	-0.068887934
223	0x3ca184a6	0.019716572
224	0x3d19e8e3	0.037575614
225	0x3ce15898	0.027508065
226	0xbab75526	-0.0013987168
227	0x3d073bc5	0.033015985
228	0x3d3c5f49	0.04598931
229	0xbd7c02db	-0.06152616
230	0xbc81b2d9	-0.015832352
231	0x3d4e4cf3	0.050366353
232	0x3cda2311	0.02662805
233	0x3d6eb79b	0.05828057
234	0x3a323ff7	0.00067996926
235	0xbc0d7e37	-0.008636049
236	0xbc0272aa	-0.007961908
237	0xbc1fb8c7	-0.009748644
238	0x3ba3fe0f	0.0050046514
239	0x3c1a5945	0.009420698
240	0x3d8b52fd	0.06802938
241	0xbd3e54b4	-0.046467498
242	0xbb44864f	-0.002998728
243	0x3d0f4b6a	0.03498403
244	0xbd0f9eab	-0.035063427
245	0x3d1f528a	0.038897075
246	0xbd45cdbc	-0.048291907
247	0xbd5ca8fe	-0.0538721
248	0xbd20cc9b	-0.039257627
249	0xbcac1eb6	-0.021010738
250	0x3ca2c993	0.019871509
251	0xbd481a8d	-0.048853446
252	0x3b660600	0.003509879
253	0x3cd0f05b	0.025505235
254	0x3ce50741	0.02795756
255	0x3d1c8805	0.038215656

conv1.bias f4 [5]
0	0xbca8f502	-0.020624641
1	0xbd36cda2	-0.0446297
2	0xbc6abe6c	-0.014327627
3	0x3c763a80	0.015028596
4	0xbb9f7e50	-0.0048673525

bn1.weight f4 [5]
0	0x3f7c0d20	0.9845753
1	0x3f290d22	0.66035664
2	0x3dbf0f6f	0.093291156
3	0x3ed96e03	0.42466745
4	0x3f35b9c6	0.7098659

bn1.bias f4 [5]
0	0x3b70c7a6	0.0036740093
1	0xbbc34e36	-0.005960251
2	0xbb67088f	-0.0035252904
3	0xbc158084	-0.009124879
4	0xbb420936	-0.002960754

bn1.running_mean f4 [5]
0	0x401497a1	2.3217547
1	0x40058d22	2.086739
2	0x3fb6ba38	1.427558
3	0x3fe8eb3b	1.8196787
4	0x3ffecae4	1.9905667

bn1.running_var f4 [5]
0	0x41277d25	10.468053
1	0x40cd4153	6.414224
2	0x408b16fc	4.3465557
3	0x408ab207	4.334232
4	0x4125b133	10.355762

conv2.weight f4 [10, 5, 1, 1, 1]
0	0xbe9e682c	-0.30938852
1	0xbc51964c	-0.012792181
2	0x3da71439	0.08158154
3	0xbe562e22	-0.20916036
4	0xbe8894db	-0.26676068
5	0xbeb269e7	-0.34846422
6	0xbd8ef199	-0.06979675
7	0x3e88d7b7	0.26727077
8	0xbeba5d5b	-0.3639935
9	0x3e5fce87	0.21856128
10	0x3e836595	0.25663438
11	0xbd418508	-0.04724601
12	0xbdc35442	-0.09537555
13	0x3e921789	0.2853358
14	0x3ec56c8e	0.38559383
15	0xbeb6e05b	-0.35718045
16	0xbeb228ac	-0.34796655
17	0x3bbd1a1e	0.0057709357
18	0x3edb0483	0.4277688
19	0xbe922572	-0.28544194
20	0x3e894407	0.26809713
21	0x3e84edd4	0.25962698
22	0x3d94ed19	0.07271785
23	0x3e85ba6e	0.26118797
24	0x3eca2a61	0.39485458
25	0xbe23f68c	-0.16012019
26	0xbe275d44	-0.16344172
27	0xbda0ca20	-0.07851052
28	0x3e3f77d0	0.18698049
29	0x3ea11a52	0.31465393
30	0x3e729c24	0.23692375
31	0x3d1b5e53	0.03793175
32	0xbd1ab1db	-0.037767272
33	0x3dbb49b0	0.09144914
34	0x3da725bc	0.08161494
35	0x3e1f7ed6	0.15575728
36	0xbe617925	-0.22018869
37	0x3d3922d9	0.04519925
38	0xbeaaafcb	-0.33337244
39	0xbd87f8bf	-0.066392414
40	0x3e3ea90a	0.18619171
41	0xbe9eb4cb	-0.3099731
42	0xbd1e847e	-0.038700573
43	0x3e96a042	0.29419142
44	0xbe1ada16	-0.15122256
45	0xbeb31b6a	-0.34981853
46	0xbe837a9d	-0.25679484
47	0x3ea87d9d	0.32908335
48	0x3e6680c8	0.22510064
49	0xbe67e899	-0.22647323

conv2.bias f4 [10]
0	0x3eae60dc	0.34058273
1	0x3e7b06d0	0.24514318
2	0x3ed73bbe	0.42037767
3	0xbd6c7ea8	-0.057737976
4	0xbebe92dc	-0.3722142
5	0xbd8a005c	-0.0673835
6	0x3e2d0ef8	0.16900241
7	0x3e71a98c	0.23599833
8	0x3e1f2230	0.15540385
9	0xbede9245	-0.4347097

bn2.weight f4 [10]
0	0x3d76cafb	0.06025217
1	0x3eac9e7e	0.3371467
2	0x3f2627e4	0.6490462
3	0x3f7009bb	0.9376485
4	0x3e856b4e	0.2605843
5	0x3d8745c8	0.066051066
6	0x3e86d6df	0.2633581
7	0x3eb3c6e9	0.35112694
8	0x3e17f311	0.14838816
9	0x3f1da64a	0.6158186

bn2.bias f4 [10]
0	0x3a8f0745	0.0010912201
1	0x3bd60ea3	0.0065325066
2	0x3a90c98c	0.0011046394
3	0x3ba8fd59	0.0051571545
4	0x3ae49d46	0.0017441891
5	0xb9a808fe	-0.00032050157
6	0xbade1f06	-0.0016946502
7	0xbb37cc54	-0.0028045373
8	0xb99ea667	-0.00030260088
9	0xbbc37147	-0.0059644314

bn2.running_mean f4 [10]
0	0x3f59634e	0.8491715
1	0x3f4f44ad	0.80964166
2	0x3fa3d58c	1.2799544
3	0x3f281ca3	0.65668696
4	0x3f265ffd	0.64990216
5	0x3ecfaa2c	0.40559518
6	0x3f2f7392	0.6853572
7	0x3f256ecc	0.6462219
8	0x3f2cbda6	0.6747688
9	0x3e1720d3	0.14758615

bn2.running_var f4 [10]
0	0x3d843059	0.06454534
1	0x3e2ab8ac	0.16672009
2	0x4004c037	2.0742319
3	0x3e142fc3	0.14471345
4	0x403efd1b	2.9841983
5	0x3eb9311c	0.3617028
6	0x3f54311b	0.8288743
7	0x3dff1aca	0.124562815
8	0x3e9f2039	0.3107927
9	0x3da1cf57	0.07900875

conv3.weight f4 [5, 10, 1, 1, 1]
0	0x3ea09535	0.31363836
1	0x3dc8f4d7	0.098123245
2	0x3d637724	0.055533543
3	0xbe3af5c4	-0.18257815
4	0xbe699347	-0.22810088
5	0xbe87ddc0	-0.2653637
6	0x3e1ffe0b	0.15624253
7	0xbe4db0ba	-0.20086947
8	0x3d97e8f9	0.07417483
9	0xbe3bc88c	-0.18338221
10	0x3e9b2a90	0.3030591
11	0x3e7878e4	0.24264866
12	0x3d694f75	0.05696054
13	0xbe1d4917	-0.15359913
14	0xbe9e463d	-0.30912963
15	0x3e0f01a9	0.13965477
16	0xbdfe99e8	-0.12431699
17	0x3e52efcc	0.20599288
18	0xbe1e58d6	-0.15463576
19	0xbbe5ef7d	-0.0070170746
20	0xbdaf60ce	-0.08563386
21	0x3e967478	0.29385734
22	0x3e0674fb	0.13130562
23	0x3d8d093d	0.06886528
24	0x3cc79ba6	0.024366211
25	0xbe3ce9a3	-0.184485
26	0xbde027be	-0.1094508
27	0x3e58f3e9	0.21186794
28	0x3e9e9de7	0.30979845
29	0x3e799b7f	0.24375723
30	0xbe609510	-0.21931863
31	0x3e0d1720	0.13778353
32	0x3c35ab2d	0.011088175
33	0xbdafeb42	-0.08589794
34	0xbc434820	-0.011919051
35	0x3e562b0a	0.20914856
36	0x3df653b4	0.12027684
37	0xbc37b268	-0.011211969
38	0x3cdfe3b4	0.027330257
39	0x3e2ebab0	0.17063403
40	0xbdec999e	-0.11552738
41	0xbe70cb5d	-0.23515077
42	0xbdbc2311	-0.09186376
43	0x3e69871f	0.22805451
44	0xbe7fab12	-0.24967602
45	0xbb1f70b1	-0.0024328644
46	0xbe81ce05	-0.25352493
47	0x3ddcf64f	0.10789167
48	0x3bf57ebd	0.007491915
49	0xbe8884dc	-0.26663864

conv3.bias f4 [5]
0	0xbe5c5512	-0.21516827
1	0xbdc16f9c	-0.09445116
2	0x3db31608	0.087444365
3	0xbe5f3156	-0.21796164
4	0x3e90b343	0.28261766

bn3.weight f4 [5]
0	0x3e817282	0.25282675
1	0x3f36d58a	0.71419585
2	0x3edb886c	0.4287752
3	0x3f376845	0.7164348
4	0x3d397c78	0.04528472

bn3.bias f4 [5]
0	0xbab91e7e	-0.0014123467
1	0xbad729ef	-0.0016415695
2	0x3b88adf2	0.0041711265
3	0x3c3221d2	0.010872321
4	0x3bf0cbd6	0.007348518

bn3.running_mean f4 [5]
0	0x3dfe3575	0.1241254
1	0x3e3fbd09	0.18724455
2	0x3ef5912c	0.4796232
3	0xbcdb06f3	-0.026736712
4	0x3f276b34	0.65397954

bn3.running_var f4 [5]
0	0x3dc46366	0.09589271
1	0x3d8fb02b	0.07016023
2	0x3e457718	0.19283712
3	0x3d1f1c14	0.038845137
4	0x3de70e5a	0.11282034

conv4.weight f4 [1, 5, 1, 1, 1]
0	0x3dd8e442	0.10590412
1	0x3dec32f8	0.11533159
2	0x3ecebab8	0.4037683
3	0xbebbbab9	-0.36665896
4	0xbedf9aea	-0.43672878

fc1.weight f4 [3, 11]
0	0x3c4a75c0	0.012357175
1	0x3e90a08c	0.28247488
2	0xbd653628	-0.05595985
3	0x3e6dbf6d	0.23217554
4	0x3cac5f8e	0.021041658
5	0xbdac795c	-0.08421585
6	0xbd6650ed	-0.05622952
7	0xbe71feac	-0.23632306
8	0x3de1825f	0.110111944
9	0x3d94643d	0.072456814
10	0xbe1affbf	-0.15136622
11	0xbdbde9d5	-0.092731155
12	0x3e2c7928	0.16843092
13	0x3e0caa3c	0.13736814
14	0x3e0f84eb	0.14015548
15	0xbc5e56ac	-0.013570469
16	0xbcc45962	-0.023968402
17	0xbe222989	-0.15836157
18	0x3e17b005	0.1481324
19	0xbcf1875a	-0.029483486
20	0x3e60ebc3	0.21964936
21	0xbe04c019	-0.12963904
22	0xbd7e2b2e	-0.062052898
23	0x3e22b571	0.15889527
24	0x3cbecce4	0.023291059
25	0xbe436149	-0.1908008
26	0xbd921c3f	-0.07134294
27	0x3e05bd2e	0.13060448
28	0xbe303d82	-0.17210963
29	0xbd2828d1	-0.04105455
30	0x3e893d70	0.26804686
31	0x3b803f84	0.0039138217
32	0x3db1c48b	0.08680066

fc1.bias f4 [3]
0	0x3f241786	0.64098394
1	0xbdfef2e2	-0.1244867
2	0xbe6ae78a	-0.22939888
