scripts/python/deep-learning/experiments/cnn3d/008/model-cnn3d-epoch-18.pth (torch_old, 18534 bytes, 10 tensors)

momentum_buffer f4 [5, 1, 65, 1, 2]
0.007358688 0.0058043418 0.0074717356 0.005933096 0.0075611034 0.0060720127 0.007625308 0.0062214886
0.00766355 0.0063810917 0.007675075 0.006551013 0.0076590907 0.0067311404 0.0076154135 0.006921365
0.007543849 0.007121779 0.007444041 0.007332186 0.0073162233 0.007552311 0.0071608108 0.0077821407
0.006978628 0.008021427 0.006770541 0.008269761 0.0065374463 0.008526564 0.006280555 0.008791607
0.006001707 0.009064445 0.0057019494 0.00934435 0.005383826 0.00963076 0.005048869 0.009922784
0.0046991487 0.010219898 0.004337512 0.010521345 0.003965848 0.0108259125 0.0035867207 0.011132822
0.0032029613 0.011441078 0.0028168196 0.011749876 0.0024314737 0.012058219 0.0020490764 0.012365254
0.0016719645 0.012670242 0.0013026709 0.012972186 0.00094347587 0.013270569 0.0005961722 0.01356458
0.0002626432 0.013853565 -5.583698e-05 0.014136685 -0.00035753986 0.01441389 -0.0006419155 0.014684364
-0.0009081899 0.014947885 -0.0011554928 0.015203771 -0.001383998 0.015451511 -0.0015934352 0.015690971
-0.0017842711 0.015921582 -0.0019565676 0.016143382 -0.0021118969 0.016356152 -0.002250237 0.01655974
-0.0023724409 0.016754374 -0.0024795122 0.01693994 -0.002572529 0.017116508 -0.002652716 0.01728434
-0.0027209162 0.017443568 -0.002778226 0.01759438 -0.0028263615 0.017737065 -0.002865857 0.017872233
-0.0028981012 0.018000172 -0.0029244306 0.018121142 -0.0029456238 0.018235795 -0.002962844 0.018344417
-0.0029766099 0.0184476 -0.0029883268 0.018545238 -0.0029984894 0.018638337 -0.0030078385 0.01872699
-0.0030170628 0.018811943 -0.003026723 0.018893458 -0.003037462 0.018971791 -0.0030496912 0.019047825
-0.0030639349 0.019121833 -0.014778798 -0.0036935252 -0.014868494 -0.0036934547 -0.014947246 -0.0036951965
-0.015014218 -0.0036989572 -0.015068461 -0.0037045183 -0.015109288 -0.0037119659 -0.015136066 -0.0037216572
-0.015148155 -0.0037334554 -0.015145135 -0.003747326 -0.015126224 -0.0037632906 -0.01509148 -0.0037813939
-0.015040712 -0.0038016739 -0.014974002 -0.0038239388 -0.014891255 -0.0038479783 -0.0147928 -0.0038737415
-0.014678918 -0.003901066 -0.014549983 -0.003929605 -0.014406651 -0.0039592087 -0.01424947 -0.0039895116
-0.014079085 -0.0040204437 -0.013896237 -0.004051248 -0.013702093 -0.004081814 -0.013497358 -0.0041117994
-0.013283043 -0.004140797 -0.013060348 -0.0041685645 -0.012830578 -0.0041946755 -0.012594848 -0.0042191413
-0.012354127 -0.0042414824 -0.012109725 -0.0042619137 -0.011862708 -0.004280202 -0.011613962 -0.0042966367
-0.011364754 -0.0043113567 -0.011115825 -0.0043243566 -0.010868015 -0.004336156 -0.010622336 -0.004346905
-0.010379143 -0.004357083 -0.01013937 -0.004366848 -0.009903121 -0.0043765143 -0.009671107 -0.004386269
-0.009443583 -0.0043963813 -0.0092207715 -0.00440717 -0.009002864 -0.0044189943 -0.008789635 -0.0044320207
-0.008581749 -0.0044464287 -0.008378784 -0.004462559 -0.0081809545 -0.0044805966 -0.007988209 -0.0045006745
-0.007800186 -0.0045226454 -0.007617058 -0.0045468123 -0.0074387235 -0.0045730798 -0.007264782 -0.0046014446
-0.0070952517 -0.0046318844 -0.0069300206 -0.004664344 -0.00676887 -0.004698537 -0.0066115353 -0.0047343695
-0.00645799 -0.004771651 -0.006308282 -0.004810134 -0.006162221 -0.004849732 -0.0060194014 -0.0048901048
-0.0058800057 -0.004930845 -0.005743713 -0.004972101 -0.005610578 -0.0050133914 -0.005480436 -0.0050545186
00000000: 2621 f13b 5932 be3b 76d5 f43b 6b6a c23b
00000010: 22c3 f73b bcf7 c63b b8dd f93b a1dd cb3b
00000020: 841e fb3b 7a18 d13b 327f fb3b e1a9 d63b
00000030: 1cf9 fa3b e690 dc3b b88a f93b 9ecc e23b
00000040: 6432 f73b d05d e93b 24ed f33b d642 f03b
00000050: eebc ef3b 6079 f73b 3ca5 ea3b 5401 ff3b
00000060: faac e43b 4e6c 033c 6adb dd3b e47d 073c
00000070: 1338 d63b 00b3 0b3c 1dcd cd3b ac0a 103c
00000080: f8a9 c43b 0a83 143c 6bd7 ba3b 0b19 193c
00000090: ce6a b03b 56ca 1d3c fc70 a53b 2c93 223c
000000a0: 51fb 993b 5c71 273c b021 8e3b b861 2c3c
000000b0: f2f3 813b 2b5f 313c 300f 6b3b 7166 363c
000000c0: c6e8 513b 5c73 3b3c 649a 383b 8d82 403c
000000d0: 5c59 1f3b d68f 453c cc49 063b a297 4a3c
000000e0: d225 db3a d996 4f3c 62be aa3a 4b89 543c
000000f0: 9853 773a cd6c 593c 7048 1c3a f93d 5e3c
00000100: 60b3 8939 10fa 623c 8032 6ab8 8e9d 673c
00000110: 3074 bbb9 3d28 6c3c 3846 28ba b096 703c
00000120: 9813 6eba f9e7 743c e873 97ba 3d19 793c
00000130: 4467 b5ba 5628 7d3c d0da d0ba 5a8a 803c
00000140: 34de e9ba fa6d 823c c239 00bb 203f 843c
00000150: c067 0abb 56fd 853c b678 13bb 4ba8 873c
00000160: f47a 1bbb 7840 893c 507f 22bb a1c5 8a3c
00000170: e097 28bb eb37 8c3c 30d9 2dbb e397 8d3c
00000180: 6651 32bb d0e5 8e3c e612 36bb 1722 903c
00000190: 7a3a 39bb 524d 913c 1ad1 3bbb ca68 923c
000001a0: 12ee 3dbb 1975 933c cea7 3fbb ca72 943c
000001b0: 5e0b 41bb 3c63 953c 462c 42bb 0847 963c
000001c0: 3a13 43bb 6c1f 973c ced7 43bb 2fec 973c
000001d0: 4e82 44bb 6daf 983c 281f 45bb 5869 993c
000001e0: eab9 45bb 811b 9a3c fc5b 46bb 74c6 9a3c
000001f0: 2810 47bb bb6a 9b3c 54dd 47bb 2f0a 9c3c
00000200: 4ccc 48bb 64a5 9c3c c622 72bc 120f 72bb
00000210: fc9a 73bc e30d 72bb 4be5 74bc 1c2b 72bb
00000220: 32fe 75bc 346a 72bb b5e1 76bc 81c7 72bb
00000230: f28c 77bc 7444 73bb 43fd 77bc 0ce7 73bb
00000240: f82f 78bc fdac 74bb 4d23 78bc b395 75bb
00000250: fbd3 77bc 8aa1 76bb 4142 77bc 43d1 77bb
00000260: 526d 76bc 8125 79bb 8455 75bc 0c9b 7abb
00000270: 73fa 73bc 5d2e 7cbb 805d 72bc 99de 7dbb
00000280: d87f 70bc 07a9 7fbb 0d63 6ebc eac3 80bb
00000290: e009 6cbc 40bc 81bb 9c76 69bc 73ba 82bb
000002a0: f6ab 66bc edbd 83bb 0bad 63bc 55c0 84bb
000002b0: be7e 60bc bdc0 85bb 0624 5dbc 46bc 86bb
000002c0: 1fa1 59bc 86af 87bb 12fb 55bc 7498 88bb
000002d0: 5837 52bc 7d73 89bb 9f5a 4ebc b940 8abb
000002e0: f768 4abc 22fc 8abb de67 46bc 86a7 8bbb
000002f0: ce5b 42bc f040 8cbb 7d48 3ebc cdca 8cbb
00000300: 3c33 3abc 4846 8dbb 261f 36bc 55b3 8dbb
00000310: c20f 32bc 5016 8ebb 4e09 2ebc 7b70 8ebb
00000320: 480d 2abc dcc5 8ebb 9a1f 26bc c717 8fbb
00000330: b340 22bc dd68 8fbb 9073 1ebc b1ba 8fbb
00000340: 42b9 1abc 850f 90bb b812 17bc 066a 90bb
00000350: c080 13bc 36cd 90bb 6702 10bc 7c3a 91bb
00000360: 779a 0cbc 59b3 91bb 2b47 09bc a83a 92bb
00000370: 6909 06bc f8d1 92bb fae0 02bc 657a 93bb
00000380: b498 ffbb b332 94bb 8498 f9bb 6dfd 94bb
00000390: 89c0 f3bb c6d9 95bb 690d eebb b7c7 96bb
000003a0: 497f e8bb 10c7 97bb 3a15 e3bb 5ad7 98bb
000003b0: 66cd ddbb 2ff6 99bb 94a5 d8bb c522 9bbb
000003c0: 8c9d d3bb 825b 9cbb b4b5 cebb 549e 9dbb
000003d0: 75ec c9bb 80ea 9ebb 663e c5bb 2c3d a0bb
000003e0: 10ad c0bb ed92 a1bb c235 bcbb 02ed a2bb
000003f0: f1d8 b7bb 6047 a4bb 3b95 b3bb 60a0 a5bb

momentum_buffer f4 [3, 460]
-0.015860245 0.08491513 -0.18208551 -0.14724529 -0.37418476 0.012113452 0.15636043 0.061281275
0.13636978 -0.3032007 -0.0144526735 -0.10208457 -0.5066773 -0.11828615 -0.3141645 -0.48743656
0.19576897 0.2692396 0.13913058 -0.24654606 -0.3723144 -0.39222807 0.32368273 0.14124176
-0.245074 -0.14928886 0.09622626 -0.12914968 0.22492625 -0.18296924 -0.3485988 -0.34377837
0.011923745 -0.07518388 0.08831739 0.09386075 -0.22279541 -0.3817858 -0.08649875 0.041316986
-0.44214842 -0.26367697 -0.38185963 -0.24396855 0.14408556 -0.34944332 0.09622903 0.303441
-0.2817729 0.07870936 0.12946266 0.15323892 -0.07368907 -0.21412589 -0.42350882 -0.08602607
-0.31537995 -0.20197392 -0.23728722 0.18715122 -0.20609245 0.060493946 0.11435332 -0.16882679
0.22451992 -0.395704 -0.0025457293 0.1325394 0.010139376 -0.38080245 -0.41030747 -0.020998353
-0.09719573 -0.13300648 -0.046968147 0.02549299 -0.046651572 -0.1837539 -0.0776144 -0.08332729
-0.42790455 -0.20651667 -0.37641618 0.38685715 -0.10318145 -0.1396685 0.10288997 -0.45424044
-0.04278356 0.13772826 -0.10803847 -0.2330375 -0.6048462 -0.39473903 0.13530971 -0.0050727576
-0.005607456 -0.286318 -0.060375597 0.005403906 0.3571506 -0.04551564 -0.14978798 0.018164296
0.20024446 -0.0002578476 0.04813674 0.23581415 -0.062252156 -0.17703949 0.004500872 -0.14801516
-0.14874083 -0.17227378 0.15396452 -0.08273177 0.258932 -0.16814834 0.32380468 -0.22379436
-0.28163427 -0.23238546 -0.15700823 -0.07779867 0.1541029 0.1549379 0.14752163 0.010501325
-0.20582317 -0.14710958 -0.15212601 -0.15191865 0.14503112 -0.086818464 0.1812335 0.2636676
-0.22065833 0.18258905 0.22614644 -0.25278938 0.05185979 0.17868558 0.07275004 -0.35146558
-0.0145266205 -0.020640805 -0.042332336 -0.045561686 -0.31386244 -0.42497307 -0.23575605 0.33565634
0.009811662 -0.20506427 0.2207537 -0.121348515 0.23170151 0.12865092 0.15759206 0.15196213
-0.32090586 0.08829276 -0.14381358 -0.27187178 0.0563887 -0.13937934 -0.020454288 -0.23307249
0.25106478 -0.007303572 0.13178213 0.3915733 -0.0423975 0.18038285 -0.03683838 0.12599635
-0.06627388 -0.34904617 0.06527719 -0.24751513 -0.15833177 -0.18463217 0.13208419 -0.055172563
0.18418242 0.027273625 -0.066127166 -0.3126989 0.018419549 -0.25692886 0.19205743 0.013781786
-0.16863406 0.029714711 0.1631949 -0.3147283 0.021489799 0.14270481 0.07247118 -0.3212868
-0.2306919 0.10516803 0.10768204 0.23328102 -0.17949057 -0.10842583 0.3067736 -0.5202658
-0.27997887 -0.089315295 -0.39073813 -0.28304932 0.12418455 0.1467344 -0.2519044 0.14249611
-0.14100474 0.42137313 -0.10455931 -0.48358393 -0.071733594 -0.38111284 -0.13477473 -0.3130924
-0.10021762 0.013265376 -0.2878635 -0.087764524 -0.28480187 -0.06716867 -0.025594382 -0.33662683
-0.1602852 -0.068086386 -0.29955465 -0.40392005 0.14996757 -0.1057417 -0.076986246 -0.05138898
-0.22504696 -0.30773667 -0.27280998 -0.2724447 0.0061549917 -0.08783991 0.14513236 0.019498684
-0.28797877 0.31048843 -0.18907575 0.15707639 -0.32847568 -0.49979615 0.081429765 -0.05800232
00000000: 58ed 81bc fce7 ad3d a074 3abe 78c7 16be
00000010: 2595 bfbe 8077 463c f31c 203e 1302 7b3d
00000020: 85a4 0b3e 1f3d 9bbe e8ca 6cbc b711 d1bd
00000030: 9bb5 01bf 0240 f2bd 2bda a0be 4991 f9be
00000040: a977 483e c6d9 893e 3f78 0e3e 9276 7cbe
00000050: fe9f bebe 1ed2 c8be beb9 a53e aea1 103e
00000060: aef4 7abe 2edf 18be 4612 c53d d03f 04be
00000070: 1153 663e 4a5c 3bbe 8b7b b2be b803 b0be
00000080: d05b 433c 02fa 99bd bfdf b43d 113a c03d
00000090: 7b24 64be 6e79 c3be 4226 b1bd 003c 293d
000000a0: 4761 e2be ab00 87be 1b83 c3be e4d2 79be
000000b0: 2a8b 133e 3cea b2be ba13 c53d 9e5c 9b3e
000000c0: 8a44 90be 5f32 a13d dc91 043e aaea 1c3e
000000d0: 4cea 96bd d143 5bbe 26d6 d8be 702e b0bd
000000e0: 7b79 a1be 40d2 4ebe 6cfb 72be 92a4 3f3e
000000f0: e609 53be 80c8 773d 1332 ea3d eee0 2cbe
00000100: 8de8 653e b799 cabe 40d6 26bb 69b8 073e
00000110: a01f 263c 8af8 c2be d213 d2be bd04 acbc
00000120: 8e0e c7bd da32 08be ac61 40bd add6 d03c
00000130: b815 3fbd fb29 3cbe 4cf4 9ebd 80a7 aabd
00000140: 4e16 dbbe 1b79 53be 9fb9 c0be 2412 c63e
00000150: cc50 d3bd 4205 0fbe fab7 d23d 3492 e8be
00000160: d03d 2fbd a308 0d3e 4643 ddbd 62a1 6ebe
00000170: 33d7 1abf 3c1b cabe a18e 0a3e 6039 a6bb
00000180: c0be b7bb 4698 92be 674c 77bd 4013 b13b
00000190: 72dc b63e 9c6e 3abd 0562 19be 4acd 943c
000001a0: e20c 4d3e b82f 87b9 082b 453d 4479 713e
000001b0: 1efc 7ebd d749 35be 0d7c 933b 4991 17be
000001c0: 844f 18be 8a68 30be e0a8 1d3e 466f a9bd
000001d0: bc92 843e 142f 2cbe bac9 a53e 592a 65be
000001e0: 5e32 90be 74f6 6dbe c4c6 20be e954 9fbd
000001f0: 27cd 1d3e 0aa8 1e3e e90f 173e c00d 2c3c
00000200: 4fc3 52be e5a3 16be ecc6 1bbe 9090 1bbe
00000210: 0a83 143e e1cd b1bd 4695 393e 71ff 863e
00000220: 42f4 61be a0f8 3a3e ef92 673e 9c6d 81be
00000230: ee6a 543d 5af9 363e f9fd 943d 4cf3 b3be
00000240: 1001 6ebc e816 a9bc ac64 2dbd e49e 3abd
00000250: 94b2 a0be 1296 d9be 096a 71be 26db ab3e
00000260: 18c1 203c 5efc 51be 420d 623e 9285 f8bd
00000270: 2943 6d3e 11bd 033e d05f 213e f69b 1b3e
00000280: c64d a4be d6d2 b43d de43 13be c732 8bbe
00000290: d6f7 663d 75b9 0ebe c08f a7bc 8eaa 6ebe
000002a0: 908b 803e cd52 efbb e5f1 063e 4c7c c83e
000002b0: 00a9 2dbd 48b6 383e d7e3 16bd 3005 013e
000002c0: 9aba 87bd 2eb6 b2be 0cb0 853d 9b74 7dbe
000002d0: b921 22be 3710 3dbe 1441 073e a0fc 61bd
000002e0: 519a 3c3e f06c df3c ae6d 87bd 121a a0be
000002f0: 98e4 963c 2e8c 83be b4aa 443e 00cd 613c
00000300: 68ae 2cbe 446c f33c 901c 273e 1124 a1be
00000310: 600b b03c 3621 123e c56b 943d b47f a4be
00000320: 7f3a 6cbe 5662 d73d 6788 dc3d 38e1 6e3e
00000330: 60cc 37be 5d0e debd 6e11 9d3e 2430 05bf
00000340: 6459 8fbe f0ea b6bd d40e c8be d7eb 90be
00000350: 7854 fe3d 8b41 163e 9df9 80be 80ea 113e
00000360: 8c63 10be 38be d73e 3123 d6bd 5098 f7be
00000370: 10e9 92bd 3921 c3be 6302 0abe a64d a0be
00000380: e53e cdbd 0557 593c d862 93be e3bd b3bd
00000390: 8dd1 91be ba8f 89bd 4fab d1bc 5a5a acbe
000003a0: ce21 24be e070 8bbd 3a5f 99be 9cce cebe
000003b0: 1991 193e 1b8f d8bd f7aa 9dbd 407d 52bd
000003c0: b672 66be a98f 9dbe c0ad 8bbe df7d 8bbe
000003d0: d0af c93b 69e5 b3bd 949d 143e b4bb 9f3c
000003e0: f471 93be 57f8 9e3e 139d 41be a2d8 203e
000003f0: f72d a8be 48e5 ffbe a6c4 a63d d793 6dbd

momentum_buffer f4 [1, 5, 1, 1, 1]
0.19622877 0.09587994 3.1312418 -0.60681653 0.16817218
00000000: 32f0 483e b45c c43d 4466 4840 5458 1bbf
00000010: 5435 2c3e

momentum_buffer f4 [5]
-0.006164073 0.005309916 0.03368884 0.020553727 0.009134507
00000000: fefb c9bb cefe ad3b 4ffd 093d 4a60 a83c
00000010: e6a8 153c

momentum_buffer f4 [3]
-0.592283 -1.2266967 0.045806233
00000000: dc9f 17bf 6604 9dbf 519f 3b3d

conv1.weight f4 [5, 1, 65, 1, 2]
0.058773767 0.05182097 -0.057032254 0.00023832546 -0.08659032 -0.07428025 0.07715469 0.029569015
-0.011620407 -0.071310185 -0.009988474 -0.06860047 0.041476697 -0.030130493 0.047391705 -0.02335709
0.018026538 0.053504445 -0.050570797 -0.04064565 -0.014031478 0.07340607 0.041033104 0.04374037
-0.021443289 -0.017679453 0.039828125 -0.059768546 0.0423022 0.050395433 0.0006346045 -0.066899486
-0.056541547 0.08243872 -0.06023712 -0.07649659 0.042295545 -0.0381371 -0.08813626 0.07949479
0.062996976 -0.05051045 -0.093940094 -0.04801219 0.067595996 -0.06703425 0.016813643 -0.058557656
-0.027228838 0.002769245 0.07412872 0.03972302 -0.049358804 0.019930016 0.05577238 -0.004200732
-0.00876973 0.087993115 0.043164022 0.039272897 0.062963456 -0.043588277 0.060700964 -0.07459087
0.015156072 -0.074131176 -0.0075842165 0.08298948 -0.03343369 -0.053229302 -0.04637506 -0.042001955
0.060810924 0.06520023 -0.090045236 0.011156902 0.0054657273 0.06937033 0.008033316 0.020854732
-0.028594077 0.049622543 0.041845784 0.09122956 -0.0051615015 -0.05757159 -0.059854925 -0.07066655
-0.08257531 -0.06545591 -0.002191263 -0.07343436 0.07374957 0.08933156 -0.093255654 0.06615597
0.06570191 -0.0039555263 0.06398975 0.017656498 -0.089388885 0.002815199 0.06968191 0.07099883
0.029917272 0.06660633 -0.072796546 -0.029442467 0.0481333 -0.07551738 -0.09514067 0.021799514
-0.016565174 0.07727138 0.05159403 -0.07029035 0.027400717 0.055825945 0.056559417 -0.022014583
0.010643937 -0.07157462 -0.034363467 -0.013844963 0.04158604 0.021671696 -0.0912901 -0.06546021
-0.051793363 0.062468316 -0.008471342 0.04017839 -0.05754766 -0.018556444 0.08317246 0.062161673
0.01708003 0.06824766 0.05912778 0.06314901 0.05800535 -0.07123115 0.072673105 -0.09037208
-0.0776454 -0.09461098 0.07262841 0.026195215 0.0023898724 -0.038125742 0.0687893 0.038335796
-0.03458061 -0.0008262651 0.013656819 0.009448117 -0.01265325 -0.042867154 0.0039809383 0.024237256
0.02170868 -0.05026045 -0.07895142 -0.046071008 0.03873087 -0.044364344 -0.05774158 0.03503637
0.060985673 0.05321551 -0.0646351 0.02468634 -0.063411914 -0.019405035 -0.009590137 -0.06278563
-0.0005007754 0.02947983 0.074648134 0.02816915 -0.0134113645 0.071024515 0.054389607 -0.08520078
0.020161144 0.057972077 0.06552412 0.019273462 0.025416965 0.022578167 0.023722844 0.047793366
-0.033435967 0.018676497 0.06813549 0.07268699 -0.05683866 0.0031807716 -0.090401605 -0.037877623
-0.02074747 -0.031395122 0.022821652 0.019955069 -0.058605034 -0.05787499 -0.046169743 -0.06957547
-0.0033852372 -0.03549119 0.017920693 -0.051196158 -0.063165136 0.078005545 -0.047420777 0.0056948075
0.021862498 0.03387031 -0.09526447 -0.057726916 0.040810432 -0.07014409 -0.08099791 0.011762901
-0.022393128 0.047192242 0.073451236 -0.07383984 -0.01054462 0.046202634 -0.03382679 -0.048171904
0.025574919 -0.037699465 0.039654642 -0.033550344 0.02286728 0.0033550318 -0.08373118 0.06891287
0.02598896 -0.07355041 0.0152812805 0.07829136 -0.018462386 0.021860579 0.04150915 -0.08202273
0.07141969 0.081549555 -0.026306968 -0.024116978 -0.022596242 -0.08456993 0.069097534 -0.010266829
00000000: c3bc 703d 3a42 543d a79a 69bd 01e7 7939
00000010: 4456 b1bd 3e20 98bd 4703 9e3d b83a f23c
00000020: 8563 3ebc 130b 92bd b2a6 23bc 677e 8cbd
00000030: 78e3 293d 39d4 f6bc ce1d 423d 5e57 bfbc
00000040: 64ac 933c 7a27 5b3d 5323 4fbd 0e7c 26bd
00000050: 49e4 65bc ec55 963d 5412 283d 1a29 333d
00000060: d6a9 afbc 80d4 90bc d122 233d ddcf 74bd
00000070: 1245 2d3d 716b 4e3d 965b 263a 9902 89bd
00000080: 1c98 67bd a2d5 a83d 33bb 76bd 3faa 9cbd
00000090: 183e 2d3d a635 1cbd c980 b4bd 2ace a23d
000000a0: 8f04 813d 0ce4 4ebd aa63 c0bd 6ea8 44bd
000000b0: c56f 8a3d 4149 89bd c4bc 893c 27da 6fbd
000000c0: 030f dfbc 397c 353b ccd0 973d 9bb4 223d
000000d0: 752c 4abd 4644 a33c 9471 643d 4ba6 89bb
000000e0: eaae 0fbc bc35 b43d c2cc 303d 9edc 203d
000000f0: fcf2 803d 9f89 32bd 93a1 783d 19c3 98bd
00000100: 2c51 783c 16d2 97bd 0585 f8bb 63f6 a93d
00000110: c4f1 08bd f806 5abd c6f3 3dbd 3e0a 2cbd
00000120: e014 793d b387 853d a369 b8bd 70cb 363c
00000130: d819 b33b 0812 8e3d 2b9e 033c 8bd7 aa3c
00000140: 203e eabc 0241 4b3d 7c66 2b3d 90d6 ba3d
00000150: d021 a9bb 30d0 6bbd 702a 75bd a0b9 90bd
00000160: 3e1d a9bd c00d 86bd 4b9b 0fbb c164 96bd
00000170: 040a 973d 77f3 b63d d2fc bebd c87c 873d
00000180: b98e 863d 5c9d 81bb 0f0d 833d 5ca4 903c
00000190: 8511 b7bd 347f 383b 64b5 8e3d d667 913d
000001a0: 1115 f53c e668 883d 5b16 95bd 5431 f1bc
000001b0: 6c27 453d dba8 9abd 1dd9 c2bd e594 b23c
000001c0: b0b3 87bc 7540 9e3d 4354 533d 63f4 8fbd
000001d0: 7877 e03c bfa9 643d d9aa 673d ed57 b4bc
000001e0: e863 2e3c b795 92bd b5c0 0cbd fcd5 62bc
000001f0: 2056 2a3d d788 b13c 4ef6 babd 0110 86bd
00000200: 4725 54bd c7de 7f3d 62cb 0abc 1892 243d
00000210: 18b7 6bbd af03 98bc 5356 aa3d 3d9d 7e3d
00000220: 6beb 8b3c 6ec5 8b3d f92f 723d 4554 813d
00000230: 0597 6d3d a3e1 91bd a3d5 943d ff14 b9bd
00000240: 8d04 9fbd 67c3 c1bd 34be 943d 5997 d63c
00000250: 689f 1c3b bd29 1cbd 68e1 8c3d ff05 1d3d
00000260: 66a4 0dbd b699 58ba dac0 5f3c 46cc 1a3c
00000270: 944f 4fbc 7895 2fbd 8872 823b 368d c63c
00000280: 67d6 b13c e7dd 4dbd 48b1 a1bd f4b4 3cbd
00000290: 43a4 1e3d 63b7 35bd 6f82 6cbd 4c82 0f3d
000002a0: 1dcc 793d 82f8 593d 685f 84bd 023b ca3c
000002b0: 1bde 81bd 4ff7 9ebc f31f 1dbc c195 80bd
000002c0: 7846 03ba af7f f13c 1fe1 983d fdc2 e63c
000002d0: 57bb 5bbc 4d75 913d a3c7 5e3d bf7d aebd
000002e0: fc28 a53c 2174 6d3d 8331 863d 61e3 9d3c
000002f0: 3d37 d03c d9f5 b83c 6956 c23c fac2 433d
00000300: 27f4 08bd 74ff 983c 9f8a 8b3d ebdc 943d
00000310: a8cf 68bd 7e74 503b 7a24 b9bd 9125 1bbd
00000320: 99f6 a9bc 2c98 00bd 79f4 ba3c d078 a33c
00000330: d50b 70bd 530e 6dbd 7c1c 3dbd 967d 8ebd
00000340: dbda 5dbb 365f 11bd 6bce 923c 10b3 51bd
00000350: b95c 81bd 5fc1 9f3d 4a3c 42bd 829b ba3b
00000360: fb18 b33c 98bb 0a3d 051a c3bd 0f73 6cbd
00000370: d728 273d b4a7 8fbd 3be2 a5bd 2fb9 403c
00000380: cb71 b7bc a74c 413d 9a6d 963d 5839 97bd
00000390: 58c3 2cbc f93e 3d3d f68d 0abd e74f 45bd
000003a0: 7e82 d13c c16a 1abd e86c 223d 166c 09bd
000003b0: 2954 bb3c 18e0 5b3b 417b abbd 3122 8d3d
000003c0: cde6 d43c 99a1 96bd 565e 7a3c 3857 a03d
000003d0: 6e3e 97bc f514 b33c 8005 2a3d 88fb a7bd
000003e0: 7d44 923d 7403 a73d b681 d7bc f890 c5bc
000003f0: c11b b9bc 0033 adbd 0283 8d3d 3436 28bc

conv1.bias f4 [5]
-0.04888134 0.08637643 -0.10002086 -0.06984411 0.1358562
00000000: cd37 48bd 20e6 b03d bdd7 ccbd 6e0a 8fbd
00000010: e31d 0b3e

conv2.weight f4 [1, 5, 1, 1, 1]
0.0064112977 -0.0046209265 -0.011031916 -0.025571229 -0.0077403807
00000000: dd15 d23b 246b 97bb 36bf 34bc c17a d1bc
00000010: 05a3 fdbb

fc1.weight f4 [3, 460]
0.040881686 -0.01951805 0.014310994 -0.001859099 -0.019933768 0.059812624 -0.020783765 -0.04844281
0.0018724056 -0.07008442 0.004341292 0.017295327 0.025616262 0.009355586 -0.021189163 0.04023528
0.008476223 -0.017343499 -0.019204706 -0.041353364 0.04819339 -0.06730903 -0.005292204 -0.08624859
-0.03755145 0.036670186 0.047311008 -0.038296603 0.04334307 -0.03114794 -0.021350324 0.030989535
0.002624224 0.08707165 0.0015933666 0.046761468 -0.07119628 -0.047193456 -0.0031693557 -0.00979783
-0.010893002 0.028641434 -0.01078465 -0.009152436 -0.03814139 -0.019753404 -0.050513625 0.031146513
-0.058400948 -0.032505658 0.020897433 -0.007104451 0.056505315 -0.07399841 -0.06290189 -0.0124983685
0.0016846033 -0.0452242 -0.032645624 -0.013251523 -0.023261838 -0.010749805 0.027280984 -0.0057472796
-0.012628007 -0.026402196 -0.0026537026 -0.041758154 0.011803585 -0.0276387 0.0016550834 -0.015997184
0.009514295 0.06436864 0.01896624 0.021529727 -0.030672824 0.00081945 -0.007958639 -0.011606641
0.0035341822 0.052531105 -0.010343018 -0.051553752 0.020139745 -0.025620481 0.035690926 0.007986595
0.06511829 -0.016090842 0.020761238 0.035549674 0.00017536852 0.105786175 0.041560896 -0.0017077832
0.014636109 0.04446479 -0.026022924 0.015569096 0.04084144 0.028492989 0.0026083048 0.034417238
0.025389932 -0.03244669 0.00662582 0.028055837 0.030530823 -0.020047912 -0.01657898 0.01074042
-0.06053245 -0.029108878 -0.001994853 -0.0066836067 0.036951777 -0.030155297 -0.000934633 0.019469852
0.06408393 0.037215214 -0.03902341 -0.062423013 -0.10582504 0.026891006 0.041336972 0.03510496
0.026135955 -0.07024703 -0.04806312 -0.008014781 -0.022428658 0.055781 0.0612783 -0.009741262
-0.017223386 0.0072816485 0.00057916023 -0.055672012 0.039860472 0.054884452 -0.042730857 0.06845695
-0.023611993 0.015129128 0.012904862 0.025958754 0.03782721 0.010236652 0.0001434258 -0.074916765
0.0294631 -0.027533278 -0.06828951 0.0515493 -0.01637504 -0.074637584 -0.02256316 0.022552766
0.094875835 0.018191746 -0.03822469 0.10813772 -0.03120541 -0.0053708097 -0.008438448 -0.0131284185
-0.024266431 -0.042015377 -0.02457284 0.043552287 0.045256976 -0.056792505 0.0322846 -0.003912665
-0.06518239 0.014322219 0.031211061 -0.05259087 -0.029209126 -0.055820327 -0.011866173 0.094478995
-0.01569354 0.0027780517 -0.06518214 0.0012202673 -0.0055990065 -0.046522137 -0.047061637 0.010887734
0.047282517 0.025387434 -0.00052721106 0.017321724 -0.08598176 -0.043672014 0.0100603085 -0.011287373
0.0074196663 -0.023229823 0.04688616 0.07984173 0.039957423 0.012170126 -0.017283823 0.06067758
0.028592227 0.021757547 0.0016059208 0.021841586 -0.013627636 0.025739796 0.03808731 -0.015400446
0.01158356 0.01849984 -0.015734946 -0.025460418 0.030429156 -0.06850982 -0.030590456 0.053155977
0.01899042 -0.030136665 -0.020498676 -0.022025198 -0.018200215 -0.061006628 0.0032751395 -0.01867673
-0.069368094 -0.006534378 0.08827208 -0.01718881 -0.032806505 0.05394902 -0.022678126 -0.009505721
0.00070659764 0.01835071 0.018751837 0.06493398 0.045447778 -0.029138898 0.031188598 0.08195046
0.032652214 -0.05618293 0.054353297 -0.066681616 -0.030048693 0.06514129 0.034010336 -0.012485061
00000000: 8e73 273d 51e4 9fbc a978 6a3c 03ad f3ba
00000010: 244c a3bc 15fe 743d b742 aabc f86b 46bd
00000020: 826b f53a 6c88 8fbd 6641 8e3b eeae 8d3c
00000030: 32d9 d13c 2c48 193c e594 adbc c0cd 243d
00000040: dbdf 0a3c f413 8ebc 3053 9dbc 2562 29bd
00000050: 6f66 453d 51d9 89bd 3a6a adbb 1aa3 b0bd
00000060: 8dcf 19bd 7a33 163d 30c9 413d e6dc 1cbd
00000070: 8188 313d f729 ffbc e0e6 aebc c4dd fd3c
00000080: 2cfb 2b3b 9f52 b23d 83d8 d03a f488 3f3d
00000090: 5bcf 91bd ed4d 41bd f7b4 4fbb 1487 20bc
000000a0: 9078 32bc 71a1 ea3c 1ab2 30bc 19f4 15bc
000000b0: 253a 1cbd e4d1 a1bc 60e7 4ebd f926 ff3c
000000c0: d535 6fbd a724 05bd 1831 ab3c 74cc e8bb
000000d0: 1e72 673d 7a8c 97bd b5d2 80bd f5c5 4cbc
000000e0: e8cd dc3a 033d 39bd 6bb7 05bd ea1c 59bc
000000f0: 9c8f bebc f31f 30bc 5f7c df3c ad53 bcbb
00000100: b3e5 4ebc 6b49 d8bc bee9 2dbb 990a 2bbd
00000110: d363 413c 8e6a e2bc 62ef d83a 870c 83bc
00000120: d8e1 1b3c b5d3 833d 175f 9b3c 1c5f b03c
00000130: 9345 fbbc 5cd0 563a f464 02bc c829 3ebc
00000140: bd9d 673b db2a 573d c375 29bc 072a 53bd
00000150: 1bfc a43c 0be2 d1bc a630 123d 35da 023c
00000160: bd5c 853d f1d0 83bc 7913 aa3c 899c 113d
00000170: 21e3 3739 6ca6 d83d c23b 2a3d b2d7 dfba
00000180: 4acc 6f3c b620 363d 072e d5bc 8615 7f3c
00000190: 5b49 273d 216a e93c 18f0 2a3b 17f9 0c3d
000001a0: 8cfe cf3c d2e6 04bd 681d d93b 5bd5 e53c
000001b0: c71b fa3c 853b a4bc a4d0 87bc 96f8 2f3c
000001c0: e0f0 77bd be75 eebc 14bc 02bb 2802 dbbb
000001d0: bf5a 173d 3e08 f7bc 2902 75ba 3d7f 9f3c
000001e0: 6f3e 833d fb6e 183d 03d7 1fbd 46af 7fbd
000001f0: ccba d8bd 874a dc3c f550 293d 38ca 0f3d
00000200: 121b d63c addd 8fbd d6dd 44bd 6e50 03bc
00000210: 4ebc b7bc 9e7a 643d f4fe 7a3d d099 1fbc
00000220: 0f18 8dbc e59a ee3b c9d2 173a 5608 64bd
00000230: bc44 233d 85ce 603d 8d06 2fbd 2833 8c3d
00000240: f06d c1bc 29e0 773c ea6e 533c 74a7 d43c
00000250: b4f0 1a3d a1b7 273c 9264 1639 f66d 99bd
00000260: 995c f13c 788d e1bc 5fdb 8bbd 5c25 533d
00000270: f324 86bc 97db 98bd 60d6 b8bc 94c0 b83c
00000280: 434e c23d db06 953c 7e91 1cbd 4f77 dd3d
00000290: 7da2 ffbc 9efd afbb 6b41 0abc 9418 57bc
000002a0: 65ca c6bc 5118 2cbd fb4c c9bc e263 323d
000002b0: 615f 393d 429f 68bd db3c 043d d035 80bb
000002c0: 587e 85bd bea7 6a3c 57ae ff3c 8669 57bd
000002d0: fa47 efbc dba3 64bd 566a 42bc 347e c13d
000002e0: bd8f 80bc f90f 363b 377e 85bd 60f1 9f3a
000002f0: df77 b7bb ff8d 3ebd b4c3 40bd 7762 323c
00000300: 50ab 413d 4ff9 cf3c 8934 0aba 4ae6 8d3c
00000310: 3417 b0bd 6de1 32bd fed3 243c acee 38bc
00000320: ac20 f33b 784c bebc b40b 403d 1084 a33d
00000330: 65aa 233d 3565 473c ce96 8dbc 0e89 783d
00000340: 3f3a ea3c e23c b23c c37d d23a 20ed b23c
00000350: 7346 5fbc 44dc d23c 7001 1c3d 2752 7cbc
00000360: f9c8 3d3c fa8c 973c 93e6 80bc 5e92 d0bc
00000370: 9146 f93c e04e 8cbd d698 fabc 15ba 593d
00000380: cc91 9b3c 2be1 f6bc d7ec a7bc 306e b4bc
00000390: 9e18 95bc 16e2 79bd b9a3 563b f1ff 98bc
000003a0: dc10 8ebd 561e d6bb fec7 b43d 8ccf 8cbc
000003b0: 1d60 06bd a6f9 5c3d 7ac7 b9bc e2bd 1bbc
000003c0: f73a 393a 3a54 963c 749d 993c 1bfc 843d
000003d0: 7327 3a3d b3b4 eebc 3b7f ff3c a5d5 a73d
000003e0: 54be 053d 1220 66bd 90a1 5e3d 5f90 88bd
000003f0: ad28 f6bc cc68 853d 6c4e 0b3d 248e 4cbc

fc1.bias f4 [3]
-0.0785081 0.030521087 -0.32009745
00000000: dbc8 a0bd 5c07 fa3c d0e3 a3be
