scripts/python/deep-learning/experiments/cnn3d/008/model-cnn3d-epoch-47.pth (torch_old, 18534 bytes, 10 tensors)

momentum_buffer f4 [5, 1, 65, 1, 2]
00000000: 161c b0bc 620a 1c3c de27 b0bc c446 1c3c
00000010: 3930 b0bc 1586 1c3c d435 b0bc f2c7 1c3c
00000020: c938 b0bc 0b0c 1d3c 8c39 b0bc ba51 1d3c
00000030: f037 b0bc be98 1d3c 7734 b0bc 6de0 1d3c
00000040: 102f b0bc 6428 1e3c 0928 b0bc a970 1e3c
00000050: 0e1f b0bc c3b8 1e3c 2f14 b0bc 5000 1f3c
00000060: 7e07 b0bc 3a47 1f3c 09f9 afbc 708d 1f3c
00000070: b4e8 afbc c6d2 1f3c 39d6 afbc 3017 203c
00000080: 14c2 afbc b95a 203c 11ac afbc 949c 203c
00000090: f893 afbc 90dd 203c d479 afbc d21d 213c
000000a0: d85d afbc 345d 213c a63f afbc e29b 213c
000000b0: 161f afbc 9dd9 213c fffb aebc 1517 223c
000000c0: 44d6 aebc 1d54 223c 80ad aebc ec90 223c
000000d0: a881 aebc c2cd 223c 4152 aebc 000b 233c
000000e0: 201f aebc 5c48 233c e4e7 adbc 3086 233c
000000f0: aeac adbc b7c3 233c 206d adbc a401 243c
00000100: 3429 adbc 0f3f 243c b4e0 acbc 777c 243c
00000110: 8c93 acbc 30b9 243c ac41 acbc acf5 243c
00000120: b8ea abbc 5d31 253c 948e abbc be6c 253c
00000130: 392d abbc 9ca7 253c 67c6 aabc ebe1 253c
00000140: 5e5a aabc 321c 263c eee8 a9bc 6356 263c
00000150: 3872 a9bc dc90 263c 3bf6 a8bc 6acb 263c
00000160: fd74 a8bc 2d06 273c e8ee a7bc a041 273c
00000170: 4464 a7bc 937d 273c 54d5 a6bc 9bb9 273c
00000180: 6942 a6bc 81f5 273c a9ab a5bc c831 283c
00000190: 5111 a5bc 096e 283c 3374 a4bc 39aa 283c
000001a0: 6cd4 a3bc 22e6 283c 8632 a3bc b821 293c
000001b0: a68e a2bc f75c 293c 53e9 a1bc 1598 293c
000001c0: 2843 a1bc 64d2 293c 349c a0bc cc0b 2a3c
000001d0: 25f4 9fbc fd43 2a3c d44b 9fbc de7a 2a3c
000001e0: f2a2 9ebc f9af 2a3c d2f9 9dbc 73e3 2a3c
000001f0: aa50 9dbc a414 2b3c c0a7 9cbc 5743 2b3c
00000200: 8eff 9bbc 586f 2b3c 2bff 013d d40e d73c
00000210: 54cc 023d 64ae d63c 5f95 033d 8550 d63c
00000220: 2f58 043d 72f2 d53c 8912 053d 7c93 d53c
00000230: e1c3 053d 4e31 d53c 906a 063d 18cb d43c
00000240: da03 073d 025f d43c 2e90 073d 4bec d33c
00000250: a90e 083d 3672 d33c a07e 083d eef0 d23c
00000260: 58e0 083d 9e67 d23c 5f32 093d 13d6 d13c
00000270: 6776 093d b93d d13c daac 093d b09c d03c
00000280: 35d6 093d b2f4 cf3c 53f3 093d f646 cf3c
00000290: f605 0a3d da93 ce3c 9d0e 0a3d 54dc cd3c
000002a0: 3d0f 0a3d b821 cd3c 2509 0a3d ec63 cc3c
000002b0: fcfe 093d 56a6 cb3c 02f3 093d 7be9 ca3c
000002c0: 49e7 093d b22e ca3c 0cdd 093d 4478 c93c
000002d0: 33d7 093d f2c6 c83c ced7 093d 7a1d c83c
000002e0: 60e0 093d 147c c73c 9cf3 093d 3fe4 c63c
000002f0: 3013 0a3d 0056 c63c ee40 0a3d ded1 c53c
00000300: de7d 0a3d f058 c53c 9bcb 0a3d 2bec c43c
00000310: d62a 0b3d 558a c43c 1d9d 0b3d 7834 c43c
00000320: b422 0c3d beea c33c abbc 0c3d f6ad c33c
00000330: be6a 0d3d 3c7d c33c c62c 0e3d 9858 c33c
00000340: a503 0f3d 9840 c33c 69ee 0f3d 4434 c33c
00000350: 43ec 103d 8c35 c33c c2fc 113d 3743 c33c
00000360: 3a1e 133d 585e c33c 5c4f 143d 0186 c33c
00000370: 438f 153d 1aba c33c bfdb 163d 56fb c33c
00000380: 3633 183d 6f48 c43c 8193 193d 04a2 c43c
00000390: 73fc 1a3d 6408 c53c eb6c 1c3d 167b c53c
000003a0: 0ee3 1d3d 18fa c53c 655d 1f3d 5f85 c63c
000003b0: d5db 203d f51d c73c e65e 223d 67c3 c73c
000003c0: 3fe5 233d 7874 c83c af6f 253d 2232 c93c
000003d0: 2cff 263d b0fb c93c 8093 283d fed0 ca3c
000003e0: 792d 2a3d 0ab2 cb3c 16ce 2b3d 229e cc3c
000003f0: da75 2d3d 2495 cd3c 4d25 2f3d 1296 ce3c
-0.021497767 0.00952396 -0.021503385 0.009538356 -0.02150737 0.009553452 -0.021510042 0.009569155
-0.021511452 0.009585391 -0.021511815 0.009602005 -0.021511048 0.009618936 -0.021509392 0.009636027
-0.021506816 0.009653185 -0.021503465 0.009670415 -0.021499183 0.009687605 -0.021494 0.009704664
-0.021487948 0.009721572 -0.021481054 0.009738311 -0.021473266 0.009754842 -0.021464454 0.009771153
-0.021454848 0.009787255 -0.021444352 0.009802956 -0.021432862 0.00981845 -0.021420397 0.00983377
-0.021407053 0.0098488815 -0.021392655 0.0098638255 -0.021377128 0.009878543 -0.021360395 0.0098931985
-0.021342404 0.0099077495 -0.021322966 0.009922247 -0.02130206 0.009936752 -0.021279456 0.009951353
-0.021255076 0.009965982 -0.021228738 0.009980723 -0.021200504 0.0099953925 -0.021170199 0.010010157
-0.021137811 0.0100248 -0.02110324 0.01003944 -0.02106645 0.010053918 -0.021027409 0.010068338
-0.020985946 0.01008257 -0.02094201 0.010096727 -0.020895587 0.010110762 -0.020846559 0.010124664
-0.020795044 0.010138558 -0.020740952 0.010152432 -0.020684347 0.010166373 -0.020625224 0.010180334
-0.020563597 0.0101943435 -0.020499662 0.010208517 -0.020433553 0.01022281 -0.020365395 0.010237123
-0.020295339 0.010251404 -0.020223456 0.010265775 -0.020149859 0.010280141 -0.02007494 0.0102944905
-0.019998752 0.010308774 -0.019921552 0.010322981 -0.01984341 0.010337106 -0.019764578 0.010351201
-0.019685343 0.010365102 -0.019605733 0.010378789 -0.019525597 0.010392186 -0.019445337 0.01040527
-0.019364808 0.010417932 -0.019284163 0.010430205 -0.019203503 0.010441933 -0.019122958 0.010453067
-0.019042756 0.010463558 0.031737488 0.026252188 0.031933144 0.026206203 0.032124873 0.026161442
0.03231066 0.026116583 0.03248838 0.026071303 0.032657508 0.026024487 0.03281647 0.025975749
0.032962658 0.02592421 0.033096485 0.02586951 0.033217106 0.025811296 0.033323884 0.02574965
0.033417076 0.025684174 0.033495303 0.025614774 0.033560183 0.025542127 0.03361211 0.02546534
0.03365155 0.025385235 0.033679318 0.025302391 0.03369709 0.025216985 0.033705343 0.025129475
0.03370594 0.025040492 0.033700127 0.02494999 0.033690438 0.024859589 0.033679016 0.024769535
0.033667836 0.02468047 0.033658072 0.02459348 0.033652496 0.024508927 0.033653073 0.024428118
0.033661246 0.024351157 0.03367959 0.024278758 0.033709705 0.02421093 0.033753328 0.024147924
0.033811443 0.02409026 0.03388558 0.024038395 0.0339764 0.023991743 0.03408538 0.0239508
0.034212783 0.023915645 0.034359615 0.023886662 0.034525625 0.023863427 0.034710668 0.023845956
0.034915585 0.023834512 0.035139475 0.023828633 0.035381567 0.023829244 0.03564144 0.023835761
0.0359175 0.023848698 0.036208495 0.023867609 0.03651358 0.023892451 0.03683066 0.023923557
0.037158214 0.02396032 0.037494186 0.024003036 0.03783841 0.024051853 0.03818981 0.024106544
0.038546614 0.024167106 0.038907427 0.024233518 0.03927215 0.024306277 0.039641283 0.024385167
0.040013548 0.0244696 0.040389713 0.024560038 0.040770695 0.024656147 0.041156292 0.024757858
0.041547272 0.02486517 0.041944586 0.024977747 0.04234872 0.02509553 0.042760182 0.025218043

momentum_buffer f4 [3, 460]
00000000: 473f 70be 7205 873d dcdf bf3e a234 4f3e
00000010: 82dc b7bd 6122 8f3e b7fe 83bd 41df 683e
00000020: 4817 b03d 56b7 453b 7895 863d e06b 56bb
00000030: a83f 8f3d 008c dcbd c3dc 97be f7ca 603e
00000040: a651 783e 91e2 4cbe 8a92 abbc cab3 293e
00000050: 28a9 583e 213f 123e debb 183d d035 733d
00000060: 5c93 933d 73be ac3d 9345 863e bdf9 813d
00000070: ccda 39bd 3ec2 e7bd e871 a9bd c91e a03d
00000080: c085 98bc 0c2c 0ebd c0a0 6bbb bb1e 913e
00000090: b6e4 cbbd fc5c d73c 2343 4d3e d4ad ed3d
000000a0: 5d28 ad3d e370 e13d 84df 25be c087 1ebe
000000b0: f109 4fbe 9dda 883c 247a 91bd 161c c93d
000000c0: ba5e 9dbd cc7c 41be 5f48 aa3e 864e 5d3e
000000d0: d584 b6be d9dc a7be 7fa3 933e 2fc1 353e
000000e0: cd68 983e 16ad 59be 0834 34be 1611 9dbe
000000f0: 32ad 3ebe d76a a8bd c789 1b3e 8bc3 81be
00000100: 326f 2a3e 2a07 b23e b847 dd3c c926 093d
00000110: 1759 fa3d 350e 493e 8054 053e 4297 283e
00000120: 31c9 333e 5497 87be e412 0cbe e2bc af3c
00000130: a8e0 5abe 008a 23bd 89af 5f3e 581b 9abe
00000140: 5b04 493e 10e9 ddbc f490 943e 8c28 53be
00000150: 25e3 b53e 787a 083d ffc0 733e b06a c43e
00000160: b0a7 6abc 2287 94bd 7e7f f93c ec49 4b3e
00000170: be62 ac3d 9128 d93d 5dd3 15bc a4af 653e
00000180: 9cb5 47be a14a 4d3e 44e7 50be d614 263e
00000190: e796 55be 80a2 c6b9 5670 5f3e 8a13 563d
000001a0: e8f8 333e b3aa d6bd 00fc 323a d43d 1abd
000001b0: 54e3 393d 367f 4e3e 265e 773e e95a 86bd
000001c0: e487 bebd 264a 213e b8e2 cd3c 1c39 81be
000001d0: 040a 533e 0b0b c03d c815 47bd 728e 823e
000001e0: 4c48 453c b2a6 923e 6067 c63c fccd 963e
000001f0: 28a8 f7be cd15 503d bc5d 7a3e cfdc b73d
00000200: cc45 02be e7f7 6f3e 3dbd f83d 77d1 a43e
00000210: f534 8bbe e37d 9cbd 247f 523e 3816 353d
00000220: de5a 753e db43 4b3d aedb 4bbe bcfd 343e
00000230: 6cb9 87bc 7792 773e b493 44be 6eec adbd
00000240: 058a 853e 9b40 b13d 7cb6 de3d aa50 873e
00000250: 7513 223e 90e3 913c 264f a3be b006 f53d
00000260: ae23 ad3e ec9f 1d3e d900 cebe 90f3 ab3d
00000270: 3454 1abe 928c 7bbd 4efe 383d c03f 7fbe
00000280: f842 cf3d ec7d 22bd 701d a53e 601d 103e
00000290: 9893 d63d 5c28 25bd 8c4f c43d 45f2 c9bd
000002a0: 24c6 64be 6007 d23e ad3e cbbe fe5f ce3d
000002b0: d38b 6e3e dece 513e ef12 543e fb0e aebd
000002c0: 5e21 bbbd fc90 8dbd 3431 a53d d0ef 2ebb
000002d0: 109d 29bc da19 aebc a44b 19be aaf8 1ebe
000002e0: 2d68 5e3e 8fc2 4bbe d90b 133e f021 9ebe
000002f0: 4944 3c3e 026c 203e 9fb3 99bc 24a3 ec3d
00000300: 9918 993e f95e 3ebe 504b 4abe f3cf d43d
00000310: 60c0 403e f627 813d 1b38 793d a51e 8a3d
00000320: 54a1 e93d 41e2 133e e793 843e d919 73be
00000330: 1a16 b5be 6c62 a63e e073 cfbb faba 37bd
00000340: 866a 0bbe 3cf5 0fbd 5970 c23e 2472 1dbd
00000350: 231c 013e c8a1 be3e 8208 2fbe d2b7 cf3d
00000360: cbf5 9abd 459d 193e e208 373e d486 8dbe
00000370: d19b 463e 1800 02be 8475 a83d a805 983e
00000380: ce6c 02be 94aa d33c b367 ee3d a21b c33e
00000390: dd64 2abe c3cd fe3d a583 893e c49f aa3e
000003a0: c6f8 e73c 321a a93e c20b 7bbe da32 98bd
000003b0: 6715 cd3d d0c1 29be 7ed2 b3bd 8957 20be
000003c0: 528b 713e a880 cc3e f8f5 0b3e f2c9 aabd
000003d0: 32b5 ac3e 65dc 5b3e e5e4 5f3d 2adc 3f3e
000003e0: a02a 60bc d4ed 053e b2bb ab3e 9ec4 8c3d
000003f0: 4205 e83d b1a6 9dbe 448c e83d 49e8 703e
-0.23461638 0.065928355 0.3747548 0.20234922 -0.089776054 0.27955917 -0.064450674 0.22741415
0.085981905 0.0030169091 0.06571478 -0.0032718107 0.06994563 -0.107688904 -0.29660615 0.21952425
0.24249896 -0.20008303 -0.020943899 0.1657249 0.21158278 0.14281894 0.03728854 0.05937749
0.07205841 0.08434763 0.26224956 0.06346462 -0.045374677 -0.11316346 -0.08273679 0.07818372
-0.018618464 -0.034709975 -0.0035953969 0.28343758 -0.099557325 0.026289456 0.20045142 0.11605421
0.08454964 0.110078596 -0.16198546 -0.15481472 -0.20218636 0.016705805 -0.071033746 0.0981981
-0.07684083 -0.18895262 0.3325834 0.21611986 -0.35648218 -0.3278568 0.28835675 0.17749475
0.29767457 -0.21257433 -0.17597973 -0.30677098 -0.18620756 -0.08223503 0.15189277 -0.253445
0.1664398 0.3477109 0.027011737 0.033484254 0.12224024 0.19634326 0.13020515 0.1646395
0.17557217 -0.26482642 -0.13679081 0.021452371 -0.21374762 -0.03992653 0.21844305 -0.30098987
0.19630568 -0.027088672 0.2901684 -0.20620936 0.3552486 0.03331992 0.23804091 0.38362646
-0.014322206 -0.07252337 0.0304563 0.19852418 0.08417271 0.106034406 -0.009144631 0.22430283
-0.19502872 0.20048 -0.20400721 0.16218886 -0.20858346 -0.00037886575 0.21820197 0.052264728
0.17575419 -0.10481777 0.0006827712 -0.03765662 0.045382813 0.20165715 0.24157009 -0.065603085
-0.09303263 0.15750942 0.025132522 -0.25238883 0.2060929 0.09377106 -0.048604757 0.25499302
0.012041163 0.28642803 0.024219215 0.2945403 -0.4837048 0.05080204 0.2444982 0.08977663
-0.12721938 0.23434411 0.12145469 0.3219106 -0.2718884 -0.076411985 0.20556313 0.044210643
0.23960444 0.04962526 -0.1990802 0.17674917 -0.016567908 0.24176966 -0.1919697 -0.08492361
0.26081863 0.08654901 0.1087465 0.2642873 0.15827735 0.017808706 -0.31896323 0.11964166
0.33816284 0.15393037 -0.40235022 0.08396065 -0.15071183 -0.061413355 0.0451644 -0.24926662
0.10120195 -0.03967087 0.32249022 0.14073706 0.1047737 -0.040321693 0.09585485 -0.09860662
-0.2234121 0.41021252 -0.39696255 0.10076903 0.23295526 0.2048907 0.20710348 -0.08498951
-0.09137224 -0.06912419 0.080660254 -0.0026693232 -0.010352388 -0.021252561 -0.14970261 -0.15524545
0.21719427 -0.19898437 0.14359988 -0.30885267 0.18385424 0.15666202 -0.018762408 0.11554554
0.2990158 -0.18590917 -0.19755292 0.10391226 0.18823385 0.0630645 0.060844522 0.06744126
0.11407724 0.14441778 0.2589409 -0.23740329 -0.35368425 0.32496965 -0.006330952 -0.04485605
-0.13614854 -0.035145983 0.3797634 -0.03843893 0.1260839 0.37232804 -0.17093089 0.10142483
-0.075664125 0.150014 0.17874482 -0.27641928 0.19395377 -0.12695348 0.08225539 0.29691815
-0.12736818 0.025838174 0.11640873 0.3810702 -0.16640039 0.1244159 0.2685825 0.33325016
0.028316867 0.33027798 -0.24516204 -0.07431574 0.10013848 -0.1657784 -0.087803826 -0.15658392
0.23588303 0.39941907 0.13668048 -0.08339299 0.3373199 0.21470793 0.05466165 0.1873633
-0.013682038 0.13079005 0.33541638 0.06873439 0.11329128 -0.30791238 0.113548785 0.2352611

momentum_buffer f4 [1, 5, 1, 1, 1]
00000000: 7c0b 203d 43e0 203f 4862 46be 3e59 4b3f
00000010: 7c9e 1a3f
0.039073452 0.62842196 -0.19373429 0.7943305 0.6039808

momentum_buffer f4 [5]
00000000: 0934 82bc 6536 6ebd b6ba b5bd 3884 2dbe
00000010: d2dd e4bb
-0.015893953 -0.058157343 -0.08873503 -0.16944969 -0.006984451

momentum_buffer f4 [3]
00000000: ac3b 823f 884f ea3f bacf 50be
1.017446 1.8305521 -0.20391741

conv1.weight f4 [5, 1, 65, 1, 2]
00000000: fbe7 713d 45c3 573d b179 68bd 68e5 8e3a
00000010: adca b0bd 8263 96bd 4b8a 9e3d c525 f93c
00000020: 864d 3abc 3c52 90bd 7bb0 1fbc 94c7 8abd
00000030: b5d9 2a3d 9d00 f0bc 6e0d 433d 3e8b b8bc
00000040: 9f7f 953c e189 5e3d 193f 4ebd 181d 23bd
00000050: 7a65 62bc ce03 983d 29ee 283d 8b81 363d
00000060: 8af8 adbc 9129 8abc 2af9 233d 257d 71bd
00000070: b919 2e3d 9cbb 513d e44a 5b3a ae5b 87bd
00000080: 86c4 66bd 7c7b aa3d 11e7 75bd 4e05 9bbd
00000090: 7f13 2e3d b9ed 18bd 1d15 b4bd 3d71 a43d
000000a0: a371 813d 909f 4bbd 0ff5 bfbd c465 41bd
000000b0: 4ae0 8a3d d6a8 87bd a187 8b3c 309b 6cbd
000000c0: 823a ddbc f84a 693b 9148 983d 3aef 253d
000000d0: 3937 49bd 30b4 a93c e86c 653d 7bfd 5fbb
000000e0: 20a8 0bbc 90ce b53d 45d5 313d 310a 243d
000000f0: af7a 813d 7460 2fbd 46b8 793d 0731 97bd
00000100: 50ca 7c3c bc42 96bd 7154 efbb 9d82 ab3d
00000110: a1c3 07bd 39f5 56bd 75bd 3cbd e0ff 28bd
00000120: c153 7a3d ef08 873d d5c5 b7bd eab2 423c
00000130: 749e bd3b 608a 8f3d 4f05 093c d6a5 b03c
00000140: be77 e7bc e71d 4e3d 59d3 2c3d c23f bc3d
00000150: a86c 9dbb 0409 69bd b5a9 73bd d65b 8fbd
00000160: c557 a8bd ffb5 84bd e686 ecba 3213 95bd
00000170: 22da 973d ae3e b83d 4227 bebd 8cc1 883d
00000180: dd69 873d b578 5bbb e2ed 833d a481 953c
00000190: f72a b6bd fe8e 5e3b d0a1 8f3d 7091 923d
000001a0: 24de f83c 958b 893d 1a1e 94bd d2c1 ecbc
000001b0: f023 473d d293 99bd aed4 c1bd 0cce b63c
000001c0: f189 83bc 1b48 9f3d 5e75 553d 31f3 8ebd
000001d0: 47d2 e43c 859f 663d 91e4 693d bc84 b0bc
000001e0: 027c 373c cba6 91bd 596e 0abd 548b 5bbc
000001f0: a3b4 2c3d de18 b53c e8c0 b9bd 0c31 85bd
00000200: 54ae 51bd a1c9 803d d5d6 f7bb 2ab4 263d
00000210: 3f06 68bd 6ff5 93bc e82a ac3d eb44 803d
00000220: dc2d 933c 04af 8c3d 01c9 753d 6b31 823d
00000230: 4527 713d 8d10 91bd 2999 963d c74f b8bd
00000240: c945 9dbd 5e09 c1bd f177 963d 2353 d93c
00000250: 5732 533b 43e1 1abd ad90 8e3d b039 1e3d
00000260: 1a51 0abd 61bf 10ba 49e0 6c3c cbfa 1e3c
00000270: f15f 42bc 549d 2ebd 49ee 9b3b d756 c83c
00000280: ed1b b83c 2a0c 4dbd 6626 a0bd 69f6 3bbd
00000290: 4dac 213d 140c 35bd 4e88 69bd 5d1a 103d
000002a0: f0b7 7c3d 207d 5a3d ddf0 82bd d21c cb3c
000002b0: 2b77 80bd 1b3d 9ebc bd26 12bc 3671 80bd
000002c0: c151 2139 d3e9 f13c 3f30 9a3d 6304 e73c
000002d0: d285 51bc 6b7b 913d a043 613d b781 aebd
000002e0: edfc a93c c357 6d3d 015d 873d 3782 9d3c
000002f0: 7abd d43c d06c b83c 1cb3 c63c cc6a 433d
00000300: cbdb 06bd 9b28 983c 078b 8c3d bf9d 943d
00000310: 02e8 66bd aa64 473b 433e b8bd 59c8 1bbd
00000320: d097 a6bc 3b4c 01bd 6514 be3c e2ee a13c
00000330: a49d 6ebd 7be3 6dbd e4d2 3bbd edef 8ebd
00000340: bdb1 4bbb c752 12bd 30c0 943c efb4 52bd
00000350: 8df6 80bd 9439 9f3d 4e9f 41bd 1fb6 b13b
00000360: 4def b33c 6592 093d a8fe c2bd 42a8 6dbd
00000370: bf28 273d fb47 90bd e1fe a5bd 218b 3b3c
00000380: eb5a b8bc b2f6 3f3d b614 963d 5ee9 97bd
00000390: 8487 30bc 1cd5 3b3d ecbf 0bbd 48c3 46bd
000003a0: 359a ce3c 80e7 1bbd 19b5 203d 28f2 0abd
000003b0: ae5a b73c bfe7 423b a69c acbd ab55 8c3d
000003c0: d4d2 cf3c ee72 97bd 0a16 6f3c fe80 9f3d
000003d0: 8f74 9dbc 60a7 af3c a5a0 263d 25dc a8bd
000003e0: cb6c 903d 771d a63d 0978 dfbc f13e c9bc
000003f0: c3aa c1bc 4624 aebd b138 8b3d abee 2fbc
0.059059124 0.052676458 -0.05675668 0.0010902109 -0.08632407 -0.07343198 0.07741221 0.030413518
-0.011371022 -0.07046935 -0.009746666 -0.06776348 0.041711528 -0.029297167 0.04762023 -0.022527333
0.018249331 0.05433071 -0.050353143 -0.039822668 -0.013818139 0.07422601 0.041242752 0.044557136
-0.021236677 -0.016865524 0.040032543 -0.058957238 0.042505 0.05120431 0.00083653466 -0.066092834
-0.056339763 0.08324334 -0.060034815 -0.07569371 0.04249906 -0.037336085 -0.087930895 0.08029411
0.063205026 -0.049712718 -0.09372913 -0.047216192 0.06781061 -0.06624 0.017032446 -0.057765186
-0.027005438 0.0035597663 0.07435716 0.040511347 -0.04912493 0.020715803 0.056012064 -0.0034178186
-0.008523971 0.08877289 0.04341628 0.04004878 0.06322228 -0.042816594 0.060966752 -0.07382398
0.015429094 -0.07336947 -0.0073037674 0.08374522 -0.03314555 -0.052479956 -0.046079118 -0.041259646
0.06111503 0.06593501 -0.0897328 0.011883477 0.0057867114 0.07008815 0.008363082 0.021563452
-0.02825534 0.050321486 0.042193744 0.09191848 -0.0048042126 -0.056893364 -0.059488017 -0.06999938
-0.08219866 -0.064800255 -0.0018045574 -0.07279052 0.074146524 0.0899633 -0.092848316 0.06677541
0.06611989 -0.0033488695 0.06441857 0.018250294 -0.08894914 0.0033959742 0.07013285 0.07156646
0.030379362 0.06716076 -0.07232304 -0.028901014 0.048618257 -0.074988976 -0.094643936 0.022315048
-0.016056987 0.07777425 0.052113883 -0.06979979 0.0279323 0.056304473 0.057102744 -0.021547668
0.011198999 -0.07111891 -0.033796642 -0.013399918 0.042164456 0.022106584 -0.09069997 -0.065034956
-0.051191643 0.06288458 -0.007563452 0.04069916 -0.05664658 -0.018061368 0.08406621 0.06263145
0.017966203 0.06869319 0.060006145 0.06357082 0.05887534 -0.07083235 0.07353432 -0.08999591
-0.07679326 -0.09425615 0.07347096 0.0265289 0.003222605 -0.037812483 0.069611885 0.038629234
-0.03376875 -0.0005521682 0.014457771 0.009703348 -0.0118636945 -0.04263051 0.0047586304 0.024455471
0.022474254 -0.05006043 -0.07819824 -0.045889292 0.03947096 -0.04420097 -0.057014756 0.035181392
0.061698854 0.053341985 -0.06393597 0.024794016 -0.062727295 -0.019316247 -0.008920369 -0.06271593
0.00015384612 0.029530441 0.075287335 0.028200334 -0.012788253 0.07103618 0.054996133 -0.08520835
0.020750487 0.057945024 0.06609536 0.01922713 0.025969256 0.022512823 0.024255328 0.04770927
-0.032924455 0.01857405 0.06862455 0.0725665 -0.056373604 0.003042499 -0.089962505 -0.038032863
-0.020336062 -0.03156684 0.023203084 0.019767229 -0.058255807 -0.05807827 -0.045855418 -0.06979356
-0.0031081282 -0.035723474 0.018158048 -0.051442083 -0.06297026 0.07774654 -0.047271065 0.005423322
0.021964693 0.03358688 -0.09521228 -0.05802179 0.040810343 -0.07044979 -0.08105255 0.011446745
-0.02250429 0.046866126 0.07328169 -0.07417558 -0.010774497 0.045857534 -0.034118578 -0.04852608
0.025220016 -0.038062572 0.03923521 -0.033922344 0.022382107 0.0029740182 -0.08428316 0.06852277
0.025369085 -0.07394968 0.014592657 0.07788275 -0.019220619 0.021442115 0.040680546 -0.08245114
0.070520006 0.08111089 -0.027278917 -0.024566146 -0.023640996 -0.08503012 0.067979224 -0.010738055

conv1.bias f4 [5]
00000000: 1ba9 46bd 4c4e a13d 4250 d0bd 1aa9 9abd
00000010: 5191 fc3d
-0.048501115 0.07876262 -0.10171558 -0.07551785 0.123324044

conv2.weight f4 [1, 5, 1, 1, 1]
00000000: 6438 59bb 199d 7cbc 3a13 a0bc aaa4 1ebd
00000010: 9ef2 78bb
-0.0033145184 -0.015418314 -0.019540418 -0.038731255 -0.0037986408

fc1.weight f4 [3, 460]
00000000: 06a0 d63c c955 70ba aa90 11bc ce7a 88bc
00000010: 2fca 56bc 3d32 963d 264e 85bc e95a 1cbd
00000020: b71e 933c dc0f 1bbd 6ede 293c df78 943b
00000030: 7068 fa3b 07e6 193c 27d9 3ebd 3de8 1f3d
00000040: 21cb 11bb 6b15 003c b146 8fbb 73d7 fabc
00000050: 7d89 363d d609 95bd 247e 59bc 4f0f a2bd
00000060: ca8b 60bd 3264 493d ba0b 1d3d f05c 6ebd
00000070: b698 263d 77fb 81bd c54b 68bc baac f43c
00000080: e540 3dbb debe 8e3d 6570 95bc 9d25 103d
00000090: eb90 3fbd 286c 80bd bdcc ca3c 4623 03bb
000000a0: 4b13 bfbb 7007 8b3b 02c6 8abc 082b febb
000000b0: 5072 0bbd 026f a6bc 3056 83bd d279 f53c
000000c0: 6b2d c9bc 4198 52bd ba9d 6e3c f0c1 c7bc
000000d0: b38e 4c3d 90a9 90bd d398 04bd 391c a8bc
000000e0: 747a 103c 40e1 46bc 0606 e5bc 7895 c7bc
000000f0: dbaf cf3c de81 57bd a6b5 473d 4b4d b3bc
00000100: c618 16bd 545b 72bb 5e65 c3bc e4d6 b2bc
00000110: 74be 783b 58ae aebc 35ee a53c 0fd9 a9bc
00000120: 09e0 003d bbe9 313d 0ba4 20bb 52a0 303c
00000130: 19c3 56bb acf6 c53a ef9d 0fbc 179b 9ebb
00000140: e61a 0bb9 2e58 893d 0865 adbc 96d2 2abd
00000150: bcd4 0a3d 44b1 9abc 1a2c a53c 665e f73b
00000160: 0bbf df3c 5375 39bc 67a3 cb3c c965 ef3c
00000170: 716a 5dbb 52b8 b63d 9997 103d 3501 1fba
00000180: 5fd5 d23c 3924 953d 1edf 13bc c544 ed3c
00000190: 8904 e43c 1ed4 0a3c 22d4 393c 2a92 9c3c
000001a0: 00e3 ea3c ea0d 3dbd bf00 b33c 4610 3b3d
000001b0: cb23 9c3d ff5c 76bd 2e81 23bd fc45 f5bc
000001c0: 3aa6 87bd 9d67 d7bc 87f7 4fbc 502a f0bb
000001d0: d2b2 d13b 6079 12bd de9c 1d3c bf57 8e3b
000001e0: b757 b03d 0641 223d 5e6b 39bd 93c3 40bd
000001f0: 57ab d4bd 96ae 6e3b 4d6c 563d 87ab 3d3d
00000200: 848e 053b ef6f 77bd 7b4e 36bd b066 c1ba
00000210: f51f 17bd 2853 b73d 5711 df3c 616d 12bc
00000220: af37 6cb8 781e f43c 93e6 10bd 7a72 85bd
00000230: 0326 b03d 3bf6 643d dbf5 d5bc fe8b 543d
00000240: f922 7bbd 0638 443c 9805 d23c 3b92 103d
00000250: 7b58 3f3d da51 d53c cce8 a23b 21ab 89bd
00000260: 03d1 cfbc 8444 e9bc a296 1ebd d1f8 5b3d
00000270: 8d00 10bd cead 99bd a03f 2ebb 20d6 783c
00000280: 1512 d33d 49f1 9c3b 83d9 5abd e0b3 e53d
00000290: 784c 60bd 3122 6a3b 8438 8c3c d613 163a
000002a0: 8fcb 9cbc 3496 29bd cb5d 75bb a55d 573b
000002b0: 5196 413d 4a85 aabd 2b85 003d 268e 83bc
000002c0: 70e3 6dbd 4ea6 1f3c cbe1 4c3d 3c69 bfbc
000002d0: 2079 e0bc 3dfd 38bd 4bd8 53bd 50ff bd3d
000002e0: a1d1 48bc 7d1c da3c 45c8 95bd a2d3 b7bb
000002f0: a5d7 543c 0ca8 bbbc 11aa 46bd af4a af3c
00000300: 5349 123d f2ac ca3b 422b c93b ff5b 143d
00000310: 9fab c4bd 3841 0cbd 1152 b03c 053b 9bbc
00000320: fa9f 033d 5bf4 24bc e2d0 063d 89f0 ac3d
00000330: e934 0d3d 6483 de3a 34fe 88bc 2222 673d
00000340: 8525 203d 6c2e 4c3d facb 5d3c 74cb 213d
00000350: 8a09 8db9 3cf0 b33c 9700 713d dfdb 61bb
00000360: 5af7 253d 8127 c23b ccf7 6bbc e55d 1dbd
00000370: b375 f93c a953 2ebd 01d4 fcbc fd13 493c
00000380: fb91 183d 5607 acbc b223 4c3b 5210 51bd
00000390: a8c7 debc cb12 31bd 1c06 b63c c932 e7bc
000003a0: 7f9e 85bd 9e56 0c3d 4e98 a03d 27d0 2b3c
000003b0: f4d0 cabc 7b4c 0e3d 8b92 a4bb cc46 93bc
000003c0: 8335 d3bb 8e13 623c 9a8a f43a 718f 6d3d
000003d0: 287c 0d3d 6f17 9cbc 3341 d23c ae89 5f3d
000003e0: 9f88 0f3b d6f6 94bd 240e 803d 4251 1fbd
000003f0: 7321 1fbd e8ca 853d 59e2 483d 210b 68bc
0.026199352 -0.00091680564 -0.008884588 -0.01666012 -0.013109728 0.07333801 -0.016272616 -0.038172636
0.017958982 -0.03785692 0.010367973 0.0045310105 0.0076418445 0.009393222 -0.04659381 0.03903984
-0.0022246318 0.007817606 -0.0043724407 -0.030620312 0.044564713 -0.07277267 -0.013274703 -0.07913076
-0.054820813 0.04916782 0.03834126 -0.0581941 0.04067298 -0.06346791 -0.014178221 0.029867519
-0.0028877791 0.06969999 -0.01824207 0.03519212 -0.046769064 -0.06270629 0.02475583 -0.0020010038
-0.0058311573 0.00424283 -0.01694012 -0.0077565946 -0.034044564 -0.020316605 -0.06412923 0.029965315
-0.02455779 -0.051414732 0.014563972 -0.024384469 0.049940776 -0.070635915 -0.032372307 -0.02052127
0.008818258 -0.012138665 -0.027956974 -0.024363264 0.02535241 -0.052614085 0.048757218 -0.021887442
-0.03664472 -0.0036980705 -0.023852047 -0.021830983 0.0037955316 -0.021323368 0.020255188 -0.020733384
0.031463657 0.043435793 -0.002451184 0.010780411 -0.0032770096 0.0015103421 -0.008765682 -0.0048402655
-0.00013266093 0.06706272 -0.02116634 -0.041704737 0.033894286 -0.018883355 0.02016263 0.007549095
0.027312776 -0.011319476 0.02485819 0.02922334 -0.0033785368 0.08921875 0.035300825 -0.00060655485
0.025736509 0.072822995 -0.009025363 0.028963456 0.027834194 0.008473424 0.01134208 0.019112665
0.028672695 -0.046155848 0.021850942 0.045669816 0.076240145 -0.06014728 -0.039918117 -0.029940598
-0.06623502 -0.026294524 -0.012693292 -0.007329263 0.006399491 -0.035760283 0.00961992 0.0043439562
0.0861048 0.039612792 -0.04526841 -0.047061514 -0.10384243 0.003641998 0.052349377 0.04630616
0.0020379135 -0.060409483 -0.04450844 -0.0014755335 -0.03689571 0.08951408 0.027229948 -0.008937211
-5.6318644e-05 0.029799685 -0.035376143 -0.06515975 0.08601 0.055898886 -0.02611821 0.05189132
-0.06131265 0.011976248 0.025637433 0.035295706 0.04671524 0.026040006 0.004971599 -0.067220934
-0.02536822 -0.028475054 -0.038717873 0.053704087 -0.035156775 -0.07503854 -0.0026588216 0.01518777
0.10306183 0.0047895056 -0.05343009 0.11215949 -0.054760426 0.0035725946 0.017116793 0.00057250017
-0.019140033 -0.04140301 -0.0037439938 0.0032862213 0.047262494 -0.08326204 0.031377 -0.016058993
-0.05807823 0.00974424 0.05002002 -0.02336561 -0.027401507 -0.04516338 -0.051719945 0.092772126
-0.012257011 0.026624912 -0.07313589 -0.0056099454 0.012990867 -0.02290728 -0.04850203 0.021397917
0.03571446 0.0061851675 0.00613919 0.036220547 -0.096030466 -0.034241885 0.021523507 -0.018949041
0.032134987 -0.0100680245 0.03291405 0.08444316 0.034474287 0.0016976413 -0.016722776 0.056429036
0.03909828 0.04984896 0.013537401 0.03950067 -0.00026900723 0.021965139 0.058838453 -0.0034463329
0.040519096 0.0059251194 -0.014402341 -0.038419623 0.030451631 -0.042560253 -0.03086281 0.012272832
0.037248593 -0.020999592 0.0031149206 -0.051040955 -0.027194813 -0.043230813 0.02221971 -0.028222458
-0.06524371 0.034262292 0.0784155 0.010486639 -0.02475784 0.034740906 -0.005022352 -0.017978095
-0.006445588 0.0137986075 0.0018657029 0.057998125 0.034542233 -0.019054143 0.025665855 0.05457466
0.00219015 -0.07273643 0.06252697 -0.038895853 -0.03885026 0.06532842 0.049043987 -0.01416281

fc1.bias f4 [3]
00000000: 3540 0ebe 53b2 443d 918e ecbe
-0.1389168 0.048021626 -0.4620252
