scripts/python/deep-learning/experiments/cnn3d/007/model-cnn3d-epoch-13.pth (torch_old, 7128 bytes, 10 tensors)

conv1.weight f4 [5, 1, 1, 1, 1]
000000 46 2b 78 3e 57 26 5e bf 05 ea 27 bd 5c 7d b6 bd
       0.24235258 -0.8677725 -0.040994663 -0.08910629
000010 e7 ba ac 3d
       0.08434086

conv1.bias f4 [5]
000000 3d d4 c1 3e 8d d7 38 3f a8 0e 63 bf bd 8b 09 3f
       0.37857237 0.72203904 -0.8869424 0.5372885
000010 e6 35 cb be
       -0.3968956

conv2.weight f4 [1, 5, 1, 1, 1]
000000 bb 78 8d bd 57 3b 4a be e9 97 52 3c 77 98 29 3e
       -0.06907793 -0.19749199 0.012853601 0.16562067
000010 ed c2 e8 3d
       0.11365304

fc1.weight f4 [3, 200]
000000 5a 8a 99 3c 43 b9 4c ba 23 0c ef 3c 00 14 3d 3d
       0.018742729 -0.00078095886 0.029180592 0.04616165
000010 21 e6 c0 bd bf a7 72 3d 81 b3 b7 3c 2c ba c1 bd
       -0.094188936 0.059242006 0.022424461 -0.094593376
000020 cc a0 5d 3d 23 0a cb bc 79 d5 d2 3d 76 28 f2 bd
       0.054108426 -0.024785107 0.10294623 -0.118241236
000030 43 22 54 bc a5 bd 3f bd 08 77 8a bd 5a 6f dc bc
       -0.012947622 -0.04681172 -0.06760985 -0.026908565
000040 cf 74 63 bd 19 f8 38 bd 80 db 45 3d 08 77 02 be
       -0.05553132 -0.04515848 0.048305035 -0.1274072
000050 05 59 cf 3d 76 aa 95 bd c4 96 8a bb 36 26 4c bd
       0.10124401 -0.073079035 -0.0042293984 -0.04984113
000060 7f 5d ec bb f9 d8 79 3b 6b 51 ad 3a d5 cd 20 3d
       -0.007213294 0.003812371 0.0013223117 0.039258797
000070 96 1f 0e 3d 6d 16 43 bd 99 8d c7 bb e1 d9 93 bc
       0.03469809 -0.04762881 -0.006089878 -0.018048229
000080 d0 00 60 3c 03 31 2a 3b dc 6c 74 bd 15 b5 c8 b9
       0.013672069 0.0025969155 -0.05967413 -0.0003828189
000090 10 21 b0 bd da 65 2f bd c8 a9 0c 3e f3 46 9b 3c
       -0.08600056 -0.042821743 0.13736641 0.01895473
0000a0 ac 39 1c 3d 95 92 05 3c f1 b4 53 3c e1 80 a3 3d
       0.038140938 0.008152624 0.012921558 0.07983566
0000b0 44 45 a8 bd 33 36 1e bc 31 af 6e bd f4 99 39 bd
       -0.08216336 -0.009656477 -0.058272544 -0.045312837
0000c0 d6 92 a1 bc ff 16 ee bc f7 08 9a 3d 0c 9f 3a bc
       -0.019723337 -0.0290637 0.07521241 -0.011390459
0000d0 eb cb 24 bc e3 53 83 3c da 59 cd bd 51 ae 10 bc
       -0.010058383 0.016031211 -0.100269035 -0.008830623
0000e0 8d 2a a8 bd b8 9e 1f bc d2 3d 0a 3d b2 e0 4a 3d
       -0.08211241 -0.009742431 0.033750363 0.049530692
0000f0 98 5a 0a 3d fa 1b 8b bd ab cb c4 bc df 43 74 3c
       0.033777803 -0.067924455 -0.024022898 0.01490876
000100 c2 87 c4 bc fc 39 af bb f5 0e 01 3c f7 2f 42 3b
       -0.023990516 -0.0053474884 0.007877101 0.002963064
000110 0a 2c bd 3b 64 32 00 bd ba 2a fa 3c 5d f6 c6 3c
       0.005773072 -0.031298056 0.030537952 0.024287397
000120 7e bb ac bd 08 98 db 3c 1e ff 49 3d d1 07 f7 3d
       -0.08434199 0.026805893 0.049315564 0.12062038
000130 bd cd 96 bd 8b 3f c3 3d d4 c6 e0 3c 51 7c c5 3c
       -0.0736346 0.09533604 0.027438559 0.02410713
000140 f5 01 0d bd be ae d7 b8 bd 31 9a 3d 5d 22 7d bc
       -0.034425694 -0.00010284547 0.07529018 -0.015450087
000150 a7 e0 46 bd 5f 15 25 3c 03 59 62 ba e6 20 5f 3d
       -0.04855409 0.010075896 -0.00086344796 0.054474734
000160 51 24 21 3e 2f 6a 84 bd 25 cf 8f 39 af 95 da bd
       0.1573651 -0.064655654 0.0002742942 -0.10673081
000170 54 10 d3 bc 41 f6 96 3d bc ad 52 3d e0 71 e7 3d
       -0.025764622 0.07371188 0.051435217 0.11301017
000180 cc 29 eb bc 66 a8 0a 3d a2 07 9b 3d 3f 1c dd 3c
       -0.028706454 0.033852004 0.07569815 0.026991008
000190 e8 11 a2 3d 1a d1 39 bd ee 1f 21 3d 0f 37 ee bc
       0.079135716 -0.04536543 0.03933709 -0.029078988
0001a0 b4 97 ab bd 61 44 a3 bc b0 39 e8 bd 34 5d 56 3d
       -0.083785444 -0.019930067 -0.11339128 0.05233498
0001b0 71 8e c5 bc 8b c4 2a bd 65 34 76 bc 90 0f ed 39
       -0.024115773 -0.041691344 -0.01502714 0.00045215758
0001c0 c5 b4 b0 bd 91 ff ef 3c e4 9a a3 bd 32 0a 1b 3d
       -0.08628229 0.029296668 -0.079885274 0.03785152
0001d0 ff 02 f2 bc ba 8c 93 bc 8e 12 a4 3b 92 e9 ef 3c
       -0.029542444 -0.01801144 0.0050070947 0.02928618
0001e0 5d 9b 02 bc 1e 96 85 bd 6c 8a 02 3d 69 53 65 3d
       -0.007971612 -0.06522773 0.03187029 0.05598775
0001f0 e3 ed 5c bd d8 6c 31 bc 24 03 54 bd 5e e9 36 bd
       -0.053937804 -0.010829173 -0.051760808 -0.04465615
000200 2c 71 2f 3d c1 27 88 bd 13 ab 17 3d c0 5a 90 3d
       0.04283254 -0.066482075 0.037028383 0.07048559
000210 ff f8 2d bd d6 2d 14 3d 98 66 1d be a2 b6 ed 3c
       -0.04247379 0.036176525 -0.15371168 0.02901775
000220 76 f8 d2 3c db 59 54 bc 66 29 7d 3d 46 19 c4 bd
       0.025753241 -0.012960876 0.06180706 -0.09575133
000230 8c 4d d1 b9 ac 89 39 bd 26 53 41 bd fe 16 53 3d
       -0.00039921363 -0.04529731 -0.047198437 0.0515356
000240 19 f4 17 bd ef f1 55 bd 52 95 4a 3c 49 eb d5 3c
       -0.037098024 -0.05223268 0.012364702 0.02611317
000250 74 60 8b bc 0c 55 93 3d 5e a5 c7 3c 19 1f 1b bd
       -0.017013766 0.07193956 0.024370845 -0.037871454
000260 4a f3 f4 3c 3e 41 a1 3d 7a 6c cd bc 96 13 5c 3d
       0.029901166 0.07873772 -0.02507614 0.053729616
000270 5e 38 3d 3d 17 85 83 3d 20 3d 95 3b 1c 41 10 3d
       0.046196334 0.06421869 0.004554406 0.035218343
000280 44 9b 3b 3d 56 e9 1e bd 1c b2 85 bc 45 e9 e2 3d
       0.04580237 -0.038796745 -0.01632028 0.11079649
000290 93 50 4c bd ff 33 1f 3b f6 fa 8e 3c 43 77 a5 3d
       -0.04988153 0.0024292467 0.017453652 0.08079388
0002a0 da 92 9b 3d 0a ab 95 bd 86 83 df 3d ba 62 14 bd
       0.07596369 -0.07308014 0.10913758 -0.036226965
0002b0 ad 86 97 3c 0a 06 dd 3d da 5d 9b bd 5a e2 41 3d
       0.018496836 0.107921675 -0.0758626 0.047335006
0002c0 f0 14 0a 3d ee f4 9a 3d 62 06 af 3d 9d 6a 09 3d
       0.033711374 0.07566248 0.08546139 0.03354894
0002d0 d9 41 5f 3c 41 2a d0 bc 20 8a 10 3d 0b 40 29 3d
       0.013626539 -0.025410773 0.035287976 0.04132084
0002e0 9a b3 92 bd ce 8c 36 3d 24 c0 f8 bd 35 8b 7d 3c
       -0.071631625 0.044567876 -0.12146023 0.015475084
0002f0 9b d0 d2 3c bd 41 91 bd 56 52 05 3e 5d e0 00 bd
       0.025734236 -0.07092617 0.1301969 -0.03146397
000300 12 77 11 bd 0d 3a 36 3d d0 83 40 3d 68 91 08 3d
       -0.035513945 0.044488955 0.047000706 0.033341795
000310 0d 36 86 bd a9 5e 90 bd b0 6f 63 3c 41 cd fe bd
       -0.06553278 -0.07049305 0.013881609 -0.12441493
000320 46 3d 82 3d 23 f6 81 bc 7b ac 51 3c 2a 72 a5 3b
       0.06359343 -0.015864437 0.01279747 0.00504901
000330 9e de 82 bd 63 c9 af bc 16 a0 99 bd a9 97 a8 bd
       -0.06390117 -0.021458333 -0.07501237 -0.08232052
000340 23 e4 33 3d 47 50 a6 bd ac b1 51 3d 6e 50 f2 bd
       0.04391874 -0.081207804 0.05119483 -0.11831747
000350 4a 69 97 3d 11 a9 67 3d 35 8c 62 bd fa a5 da 3c
       0.07393129 0.05655772 -0.055309493 0.026690472
000360 8b a6 d7 bd 1e 32 a1 3c 89 ac b3 3c 3a 85 a1 bd
       -0.105298124 0.019677218 0.021932857 -0.07886739
000370 7a 25 08 3b 05 3a 78 bd 89 5f 0d 3d d5 f3 83 3d
       0.002077429 -0.060602207 0.034514938 0.06442992
000380 0c 35 3a bd c3 df c1 3d bf 7e e4 3a 5d 0f 6d 3c
       -0.045460746 0.09466507 0.0017432793 0.014468995
000390 c3 e8 a3 3d 12 fe 84 bd 67 a0 19 3d dd 53 59 bd
       0.0800338 -0.064937726 0.037506487 -0.053058494
0003a0 06 ce 80 bc 3c 1d 85 3d cd ff a8 bd 3c 99 c4 3d
       -0.01572324 0.06499717 -0.08251915 0.0959954
0003b0 83 60 33 bd e9 13 32 bd ba 9c 85 3c d2 3f 17 bd
       -0.043793213 -0.04347602 0.016310085 -0.0369261
0003c0 ff b5 20 bc 3d 71 14 bc e9 19 a4 bd d7 f8 af 3d
       -0.009809016 -0.009060201 -0.080127545 0.08592384
0003d0 af 9d 3d bd 52 4a d4 3b 8c e5 99 bd 28 a6 2e bc
       -0.046292957 0.0064785862 -0.07514486 -0.010659732
0003e0 01 f4 66 3d 56 b3 e8 bd 9d 44 32 bd 9b 6d df bd
       0.056385044 -0.113623306 -0.043522466 -0.109095775
0003f0 3e 4f 66 3b 73 72 bf bc e5 c8 af bd 10 2c 09 3d
       0.0035142447 -0.023370003 -0.085832395 0.033489287

fc1.bias f4 [3]
000000 23 3f 08 3e 7c fe 59 3e 0d e0 98 be
       0.13305335 0.21288484 -0.29858437

momentum_buffer f4 [5, 1, 1, 1, 1]
000000 40 9f a6 be c0 e2 80 be b0 55 67 bc 38 85 3b 3e
       -0.32543373 -0.25172997 -0.014119551 0.18312538
000010 cb 04 41 3f
       0.7539794

momentum_buffer f4 [3, 200]
000000 32 2e 5a be e5 db 47 be cb 26 47 bf 40 dc 04 3d
       -0.21306685 -0.19517477 -0.7779357 0.03243661
000010 4a 90 6c 3e ce bd 3e 3f 76 77 49 bf 20 d8 73 be
       0.23101917 0.7450837 -0.7869791 -0.23812914
000020 73 57 8b be 0c fb 2f bf 20 24 c4 3c fc df 80 bf
       -0.27215156 -0.6874244 0.023943007 -1.0068355
000030 84 d3 1b bf 0a 8f ba be 68 a5 1b bf dc 4b 09 3e
       -0.6086962 -0.36437255 -0.60799265 0.13407844
000040 90 b4 de be 0c cd 60 bf 80 ea 9e 3d 9c f8 cd be
       -0.43497133 -0.87812877 0.07759571 -0.40228736
000050 4c 24 93 be 3b 76 6c bf 1a 69 6e bf 86 a7 29 bf
       -0.2873863 -0.92367905 -0.9312912 -0.66271245
000060 d0 58 7a 3d af b9 f4 be 83 55 fe be c2 b7 27 bf
       0.061119854 -0.47797915 -0.49674615 -0.6551477
000070 28 25 81 bd 98 80 7f be ab 88 9a be a0 13 bc be
       -0.06305915 -0.24951398 -0.30182394 -0.36733723
000080 90 ef 51 bd 30 22 15 3e 8e f9 2c bf 04 e9 db bd
       -0.051253855 0.14563823 -0.6756829 -0.107378036
000090 56 68 ca 3e 5b 5b 7a be 5a 3c 1a bf 24 7b 0b 3e
       0.39532727 -0.24448912 -0.6024834 0.13621193
0000a0 c2 21 f7 3e 20 18 a3 bf df 7b f7 be e5 a5 92 be
       0.48267943 -1.2741737 -0.48336694 -0.28642192
0000b0 93 4b b4 be 6a de 3f 3e f0 64 12 be 18 44 c7 be
       -0.3521391 0.18737188 -0.14296317 -0.3891914
0000c0 8c e1 a5 be 25 55 0d 3f 34 c3 53 bf 30 e5 67 bf
       -0.3239864 0.55208045 -0.8271973 -0.9058409
0000d0 87 ac 1b 3f 63 83 f6 be 6b 1d c1 bf 52 f7 84 be
       0.6081013 -0.48147115 -1.5087103 -0.2596994
0000e0 f6 12 15 3f fa 41 2a be a7 9b 8a be 96 c2 f1 be
       0.5823206 -0.1662673 -0.27071878 -0.4721877
0000f0 fc b4 b4 be 56 24 e2 be eb 34 be 3e 5c 4d 61 be
       -0.3529433 -0.44168347 0.37149748 -0.22002167
000100 56 d3 6e 3e d5 eb 2a bf 6e 0b 81 bf 24 1e 05 bf
       0.23322806 -0.667661 -1.0081613 -0.51999116
000110 28 d8 c7 be b9 63 0f bf 13 0d 0c be 7e bd 67 bf
       -0.39032102 -0.5601154 -0.13676862 -0.9052352
000120 c0 77 58 be 6a 63 23 be cc 3a 13 3f f6 bc 57 bf
       -0.21139431 -0.15955892 0.5751159 -0.84272707
000130 a8 c7 07 bd 94 33 0d be 55 e9 90 be 88 15 10 bf
       -0.03314939 -0.13789207 -0.28303018 -0.56282854
000140 7b 98 df be e9 fa 74 bf 7c b2 c6 bf 88 71 36 bf
       -0.4367102 -0.9569536 -1.5523219 -0.71266985
000150 f2 59 c0 3d a0 6a 10 bf 1a 2d 70 bf 64 2c 0f bf
       0.09392156 -0.56412697 -0.9381882 -0.5592711
000160 ea 52 28 3e e0 9a ac be 46 16 8a be 1e f4 76 bf
       0.16437879 -0.3371191 -0.26970118 -0.96466243
000170 e5 d5 72 3e 45 e2 01 bf 40 02 6a bf fc b0 c0 be
       0.23714407 -0.50735885 -0.91409683 -0.37635028
000180 fc 97 a1 be 1a ba 2e bf 06 4c 19 3e dc 19 80 bf
       -0.31561267 -0.6825272 0.14970407 -1.0007892
000190 e6 f1 c7 be d2 ed 9b bf 5e c3 2b bf 82 a7 ba 3e
       -0.3905174 -1.2181952 -0.6709498 0.36455923
0001a0 7f 42 8a bf 81 a2 b9 be 00 89 01 3b cc a0 88 bf
       -1.0801543 -0.36256793 0.0019765496 -1.0674071
0001b0 f8 5b eb bd 60 f0 12 3e dc 2d 0a 3e 46 ec 25 be
       -0.11492151 0.14349508 0.13494056 -0.16203412
0001c0 f3 c2 9f bf 14 17 b3 be 51 54 a3 be a8 78 98 be
       -1.2481369 -0.34978545 -0.31900266 -0.29779553
0001d0 5a df f6 be 5b 44 92 bf 0a 58 14 bf 1e 79 89 bf
       -0.4821728 -1.142711 -0.57946837 -1.0740087
0001e0 eb 98 0e bf 8c 29 12 3f 76 7d ed be a9 84 c9 3e
       -0.55702084 0.57094646 -0.46384782 0.39359024
0001f0 24 2d 90 bf 1b a9 eb be ba 05 6d bf 12 4b a9 bd
       -1.1263776 -0.46027455 -0.92586863 -0.08266272
000200 34 c4 85 3d 5d 2f 26 bf 32 4a b3 3e 72 27 cc 3e
       0.065315634 -0.6491602 0.35017544 0.39873844
000210 41 b9 8f be 89 19 43 be 2e 25 32 bf de 65 03 bf
       -0.28071025 -0.1905271 -0.6958798 -0.5132731
000220 7a 51 02 bf 48 6c 26 be 7f 8d c1 be 88 88 14 bf
       -0.50905573 -0.16252244 -0.37803265 -0.5802083
000230 49 69 7b 3e 90 55 b3 bf 47 98 d7 be f0 99 b3 bc
       0.24551882 -1.4010487 -0.42108366 -0.021923989
000240 cc 31 fe be 80 da ad 3c b4 8f 95 be 79 c7 43 bf
       -0.49647367 0.021222353 -0.292112 -0.76476246
000250 7c 24 33 bf df 3e e1 be 49 a5 0f bf b5 8c db 3d
       -0.69977546 -0.4399328 -0.5611158 0.10720197
000260 0c e0 0f 3f a6 23 b5 be 02 28 ac bf 29 8c ef bd
       0.56201243 -0.3537876 -1.344971 -0.11696655
000270 02 f2 36 bf 7e f2 4b bf da 08 02 3f 38 1d 20 bf
       -0.71463025 -0.7966689 0.50794756 -0.62544584
000280 0b 81 8c bf c7 72 f7 be 5d ab b6 be 09 13 01 bf
       -1.0976881 -0.48329756 -0.35677615 -0.5041967
000290 3a 73 12 bf 0f b7 2f bf 4f 29 f0 be 67 eb 9b be
       -0.5720707 -0.686387 -0.46906516 -0.30453035
0002a0 ea bd ca be 0d ea f6 be de 4f 8f 3e 20 e9 0f bf
       -0.39598018 -0.48225442 0.2799062 -0.56215096
0002b0 07 e3 08 bf 40 c2 a9 3d ae 7f 2d be ac ae e5 bd
       -0.53471416 0.08289003 -0.16943237 -0.11214957
0002c0 80 53 47 3d 16 25 e4 be 30 e1 7f be 80 04 4b 3c
       0.048663616 -0.44559544 -0.24988246 0.01239121
0002d0 50 79 64 be a0 75 03 bc 01 09 43 bf dd 56 0c bf
       -0.22311902 -0.008023649 -0.76185614 -0.5482004
0002e0 b9 c3 14 bf 82 04 4d bf 00 a8 f3 3a 35 28 53 bf
       -0.5811115 -0.80085003 0.0018589497 -0.82483226
0002f0 00 fd 43 be 63 6f a3 bf ce 1c 4c 3e 84 f8 ce be
       -0.1913948 -1.2768368 0.19932863 -0.40423977
000300 6a f3 50 bf d4 21 bd bf bb ff 8c 3f 6a ed 63 bf
       -0.8162142 -1.4775949 1.1015543 -0.8903414
000310 47 f2 00 bf e1 2a b3 be c3 31 79 bf d6 2d bd be
       -0.50369686 -0.34993652 -0.97341555 -0.36949033
000320 94 11 3a be 96 04 0f bf 3a a8 51 3e 68 13 bd be
       -0.18170768 -0.5586637 0.2047433 -0.36928868
000330 29 8e cc 3e e0 d0 7e be 52 49 32 bf 20 60 af 3c
       0.3995221 -0.24884367 -0.6964313 0.02140814
000340 e8 ba 66 bf 8d 2d 1d bf 82 4c 15 bf 66 d5 a6 be
       -0.90128946 -0.6139763 -0.58319867 -0.32584685
000350 96 7a e2 be f6 18 d6 be 09 16 1a be 76 15 0b bf
       -0.4423415 -0.4181592 -0.15047468 -0.5432962
000360 7e 10 4a bf b6 fc f4 bd 98 12 28 bf 79 38 eb be
       -0.78931415 -0.11962263 -0.6565337 -0.45941523
000370 f1 d5 8b bf 01 a2 2c bf c8 41 6a 3d 28 ac 35 bf
       -1.0924665 -0.674347 0.05719164 -0.70965815
000380 2e 32 73 3e 06 fa 84 bf 77 2f 12 3e fe 43 66 3e
       0.23749611 -1.0388801 0.14275919 0.22486874
000390 04 e1 23 bf 6b 16 22 be ba 7f 88 bf 0f e4 bb bd
       -0.6401522 -0.15828864 -1.0663979 -0.09174358
0003a0 bc 5e 23 3f a4 41 fc 3e 39 37 de bd 77 92 3e bf
       0.6381643 0.4926883 -0.10850377 -0.7444224
0003b0 b5 ce f8 be 44 38 ac 3e cc cd 7d bf 68 b9 76 be
       -0.48595205 0.33636677 -0.99142146 -0.24094164
0003c0 91 53 65 be e8 95 aa 3d 16 0c 25 3e e1 fb 31 bf
       -0.2239516 0.083293736 0.16117892 -0.6952496
0003d0 8c 0d 21 be a4 15 14 bf 93 a0 3e bf c6 69 1b 3f
       -0.15727824 -0.5784552 -0.74463767 0.6070827
0003e0 d9 ec 54 bf f6 c3 69 3d fb ab fd 3d a5 cc 66 3e
       -0.831739 0.05707165 0.12386318 0.22539003
0003f0 10 f4 77 3c 58 65 4d bf 7e e5 f8 3e e6 3e ba 3e
       0.015133873 -0.80232763 0.4861259 0.36376113

momentum_buffer f4 [3]
000000 76 20 aa 3f 53 72 bb 3e 75 4b 60 3d
       1.3291156 0.3661066 0.05475946

momentum_buffer f4 [5]
000000 09 42 16 3e 1f 24 bd 3e 62 02 55 bd 3c aa 98 be
       0.14673628 0.3694162 -0.052004226 -0.2981738
000010 ad b8 65 be
       -0.2243373

momentum_buffer f4 [1, 5, 1, 1, 1]
000000 64 d4 4c 3f 35 e5 12 c0 9e 65 d0 3f 70 55 8b bf
       0.8001158 -2.2952397 1.6281011 -1.0885448
000010 09 7f ab 3f
       1.3398143
