scripts/python/deep-learning/experiments/cnn3d/007/model-cnn3d-epoch-47.pth (torch_old, 7128 bytes, 10 tensors)

conv1.weight f4 [5, 1, 1, 1, 1]
00000000: 231d 593d 9b03 38bf b6f1 903d cffc 9abd
00000010: d7ac 8e3d
0.053006303 -0.718805 0.07077353 -0.07567751 0.0696656

conv1.bias f4 [5]
00000000: d755 9d3e 68b6 353f 5dad 4bbf c73e fb3e
00000010: ff96 bebe
0.30729553 0.70981455 -0.79561406 0.49071333 -0.37224576

conv2.weight f4 [1, 5, 1, 1, 1]
00000000: 3dcc 88bd b5a7 72be dda6 80bc 58fe d83d
00000010: 6ca2 8ebc
-0.0667958 -0.23696788 -0.015704567 0.10595387 -0.017411433

fc1.weight f4 [3, 200]
00000000: 08ae ef3c 7aec 93bd 5da7 883c d995 963d
00000010: fac3 67bd 58ac e83d 0502 433d f1bd 51bd
00000020: 8765 d63d 57ec 40bd f576 b43c f98d 12be
00000030: 80ec c3bc c7c6 71bd eea5 16be 465f 773c
00000040: bcc9 aabd 5b70 3e3d aba6 503d 3fc6 d4bc
00000050: 8e83 f93d f1fd 80bd 14ff 3ebc e5de fabc
00000060: a067 aabd 8659 0a3e 8b47 71bd 33a5 2b3e
00000070: 9339 aabc 10c4 07bd 3216 013e 441a e1bd
00000080: 31dd 2f3d 39dd 083d e3e0 2dbd 1e3d 5c3d
00000090: 944b f9bd c8b8 383d 9fe0 d53d 01af e0ba
000000a0: 958b 8b3c 7ae2 623b 1c8f 023e 80cd e33c
000000b0: 0d06 69bd 7802 d53c 7d58 6bbc 127c c1bd
000000c0: cbbb 233c 3b78 babd c5cf 513d 6a22 b83c
000000d0: e878 b73c e63a b63c 0642 76bd cbfd f83c
000000e0: 963c cabc f896 f5bc 32e1 22bc a22a c9bc
000000f0: 5481 07bc c5a5 d1bd 8a6d 47bd bb2e 83bd
00000100: 81c9 93bd 1b88 993d 5e6c 193d 964e 073d
00000110: 5893 cdb8 9ae3 13bd b67d a23c bba1 ffba
00000120: 1b01 6d3b f802 193d 8567 10bb c884 2a3d
00000130: d786 6dbd b290 e13d f83a 403d d3bc c63c
00000140: f2dd d7bc ed6b eabc ed06 9ebc a9aa 8fbb
00000150: 5648 6ebd 73fa 68bc 9aa7 5ebd 0338 e43d
00000160: b474 343e fa25 85ba b2ea a53a 4f73 b6bd
00000170: 0d54 9abb 1ba0 553d 8042 093d 0c74 dc3c
00000180: 472a c13b b7b5 943d 2d5a 9e3d fdfc cf3c
00000190: 7714 afbc 6075 b2bb c81a 9b3d 4e03 70bd
000001a0: 6d9c 19be 1452 d0ba e6b6 673a 988f 613d
000001b0: a9aa 8e3d dc30 19be f50b 80bd 67b5 ea3c
000001c0: bcb7 94bd 17a8 903d fa80 9bbd ce03 113c
000001d0: 5feb 843d cc85 143d e645 e6bc 80f7 57bd
000001e0: 9520 893c dd35 d8bb 68fb b93c 73ca 883c
000001f0: bcc8 03bd fbf4 3ebd 5f54 6cbc b9d5 043d
00000200: 46ec 933c 3d68 17be a27c 673d c0be 203c
00000210: fc66 9c3c 0333 663d 6619 41be 3b6a 0d3e
00000220: 63d0 b23b e381 d4bc f396 d53d bf9c a0bc
00000230: db35 efbd 3202 8ebd 5349 c33c 4cbd bd3c
00000240: 4241 e8bd 27ff 5d3d 3461 c3bc cc63 043c
00000250: 9c0f 1a3d 7298 f3bc 946d 28bd 5b3e 8cbd
00000260: 139a 9c3d bbf5 973d 7102 fabd c674 043c
00000270: 8cc3 debb 1df5 853d 23fb 453d 804b 15bd
00000280: f6d0 983d 593b 62bd 5db0 933c 30fd 473e
00000290: 7305 dbbc 9f46 bcbc 7c53 233d 9f44 e33d
000002a0: 7ee9 1c3e 66db 9dbd 2c2e 523d 58b4 a03d
000002b0: 150a e83d 1c10 9b3d 9106 083d 3da0 4d3d
000002c0: 5468 85bb 19d6 d83d e41e 113e 9e22 4dbc
000002d0: b655 573d dd82 18bd 3884 ad3d 46ff be3d
000002e0: 18a1 a13d 64b3 c43c 8d0b afbc bcf2 863b
000002f0: 3c51 f83d 77ec 20be 8f04 e13d 9d62 713d
00000300: d8a8 933c eb9c 813d f276 67bd 7891 3c3b
00000310: 807d 56bd 781e 91bd 69de 133d c308 94bd
00000320: d241 be3d b6e1 183c 9fb8 953d 57a2 153d
00000330: db7e cbbd 503e b83c 7995 8dbd 56ee e1ba
00000340: 41ed c33d a4bd e2bd c7bd 813d 1347 13be
00000350: e8c5 113e 2ed6 843d e6e4 9abd 3260 333d
00000360: 9e2c e1bd af66 663d b8d2 023e ed4d 95bd
00000370: 7450 853d eda4 85bd 4b0c 2d3d 195b 313d
00000380: b038 20bd 1256 c33d d05d a4bb 4326 303d
00000390: baf3 943d 9958 33bd e0ea 773d fe74 c1bc
000003a0: 8d94 8e3c d90c 0d3d 78f6 b7bd 6887 163e
000003b0: ea2b 09bd f638 f1bc 38c4 243b 179f 94bd
000003c0: f9e2 473c 6706 653b 78b7 e5bc 32c4 913d
000003d0: 0430 84bd 52eb 8c3d d4a3 63bd 49dc 783d
000003e0: 9deb 913d 120b f7bd a52d c53c 92e3 f5bd
000003f0: 1c47 7d3d 05f3 0abd 9583 79bd fa7d 203d
0.02925779 -0.07222839 0.016681368 0.073528 -0.056583382 0.11360997 0.047609348 -0.051206533
0.104685836 -0.04710039 0.02202938 -0.14311971 -0.023916483 -0.05902746 -0.14711735 0.015098399
-0.08339259 0.04649387 0.050940197 -0.025973437 0.12183295 -0.062984355 -0.011657495 -0.030623863
-0.08320546 0.13510713 -0.05890612 0.16762237 -0.020779407 -0.033145964 0.12606123 -0.10991338
0.042935554 0.0334141 -0.042450797 0.053769223 -0.121726185 0.045098096 0.10443234 -0.0017141999
0.017034331 0.0034619854 0.12749904 0.027807951 -0.056890536 0.026002154 -0.014364359 -0.09447493
0.009993504 -0.091049634 0.051223535 0.022477347 0.02239652 0.022244882 -0.06012156 0.030394455
-0.024687093 -0.029979214 -0.009941386 -0.024556462 -0.00827058 -0.10236696 -0.04868845 -0.064053975
-0.07216168 0.07496663 0.037456863 0.03303393 -9.802607e-05 -0.03610573 0.019835334 -0.0019503155
0.003616399 0.037356347 -0.0022034359 0.041630536 -0.05798992 0.110139266 0.046931237 0.02425996
-0.026350949 -0.028615916 -0.019290412 -0.004384358 -0.058174454 -0.014219868 -0.054359056 0.11143496
0.17622644 -0.0010158413 0.0012658446 -0.08908712 -0.0047097267 0.05215464 0.033510685 0.026910804
0.0058949324 0.07261222 0.077320434 0.025389189 -0.021372063 -0.005446121 0.075734675 -0.0585969
-0.15001078 -0.0015893602 0.00088392047 0.055068582 0.069661446 -0.14960045 -0.062522806 0.028650953
-0.07261607 0.070633106 -0.0759296 0.008851005 0.06490206 0.03626041 -0.028109502 -0.05272627
0.01673917 -0.006598218 0.022702888 0.016698098 -0.032173857 -0.04662035 -0.0144244125 0.032430384
0.018057 -0.14785857 0.056515343 0.009811103 0.019092076 0.056200992 -0.18857345 0.13810055
0.0054569705 -0.025940841 0.10429182 -0.019605992 -0.11680194 -0.069340125 0.023838675 0.023161553
-0.11340572 0.05419841 -0.023850061 0.008080434 0.037612543 -0.029735778 -0.041120127 -0.06847831
0.07646575 0.07419916 -0.12207497 0.008084482 -0.0067982133 0.06540892 0.048335206 -0.036448956
0.07461731 -0.05523238 0.018028433 0.19530177 -0.026735997 -0.022982894 0.03987454 0.11097073
0.15323445 -0.077078626 0.051313564 0.07846898 0.11330048 0.07571432 0.033209387 0.050201643
-0.004071275 0.10587711 0.1417194 -0.01252046 0.052571975 -0.037234176 0.08472484 0.09326033
0.07892054 0.024011321 -0.021367813 0.0041182917 0.12124869 -0.15715204 0.109871976 0.058931936
0.018024847 0.06328758 -0.05650992 0.002877323 -0.05236578 -0.070858896 0.03610078 -0.07228234
0.09289898 0.009331157 0.07310604 0.036531772 -0.09936305 0.02249065 -0.06913275 -0.0017237167
0.09566737 -0.11071327 0.06335025 -0.14382581 0.14235651 0.06486164 -0.0756319 0.04379291
-0.10994838 0.05625027 0.12775695 -0.07290254 0.06509486 -0.06525598 0.04224805 0.043299768
-0.03911656 0.09537901 -0.005016066 0.04300524 0.0727305 -0.043785665 0.06052673 -0.023615357
0.017404819 0.03443608 -0.08982557 0.14700091 -0.033489145 -0.029446106 0.002514137 -0.072569065
0.012200111 0.0034946443 -0.028041586 0.071174994 -0.06454471 0.06880821 -0.05557616 0.060756955
0.07125018 -0.12062658 0.024069617 -0.12006296 0.061835393 -0.033923168 -0.060916502 0.03918264

fc1.bias f4 [3]
00000000: 6caa 8b3d 9e78 123f 9385 12bf
0.06819615 0.572153 -0.5723507

momentum_buffer f4 [5, 1, 1, 1, 1]
00000000: d048 243e a2e4 7cbf 303f 913c d0f5 d83e
00000010: 5421 213d
0.16043401 -0.98786366 0.017730325 0.4237504 0.039338425

momentum_buffer f4 [3, 200]
00000000: 26bb 143e e789 e83e d0ae 633f 93a7 8dbe
00000010: 4fdd 54be ad84 a63f 277c eb3e 22c2 4b3f
00000020: 878a 8f3e b02d e43e 54ba 973e a9aa 013f
00000030: 3477 a83f ece0 413e 104e 483e a4ff 223f
00000040: a608 7e3e 1db0 5c3e 6b71 2f3e 5bae 163e
00000050: f13a 233f 46b0 8b3f 4f23 3abe 4a9e 403e
00000060: e449 0c3f d476 b03f 084f 433f aa1d 133f
00000070: 929d c53d 879a 67bf c92e 7a3f c4b7 2e3f
00000080: 5539 143f bf82 473e 9031 63be 98eb 95bc
00000090: 5bfd 64be b7b7 0dbf 23e3 a93f 308b 643f
000000a0: d19b 4fbe 1e2c 49be b807 9e3d cd10 813f
000000b0: 0e77 5c3f ca5d c63e 916c 913f 7805 ec3f
000000c0: f6f6 8c3e a07d a53e b1f9 593e a4de 983d
000000d0: 360e 2b3e 9458 0f3f 6628 e83f 566d 963d
000000e0: fbec bd3f 9618 fe3d 16ec 613f 8e6b 32bf
000000f0: a2d7 d8bd c81a 58be 6121 98be 603e 093e
00000100: daa9 d83e b077 483f dcb7 8b3f 3916 3bbe
00000110: 96cd 883d 5c2d 17bf 0729 cd3e 9f7f 103f
00000120: e41a 363e bac8 b83f 069b eebe 4ab5 00be
00000130: f2ac e13f bab4 6e3f 4e87 2e3f d005 f93d
00000140: a789 ff3e 807f c4bc 4487 273f cc5f f43e
00000150: 0cef 5a3e b270 fc3d d2f5 9f3f a6cd bfbe
00000160: f5c9 203f 5a90 5dbf 0458 c33d 90c5 1e3f
00000170: 48ce a03e 0d73 2fbe 7945 4e3f 66d3 6b3f
00000180: 7dd1 a23f 6770 833f df4a fb3e 084f 973e
00000190: f2c4 363f 5824 82bd b8e8 913f 2b7e f53e
000001a0: 9edd 693e 08ed 4fbd 2582 ccbe f76e 3d3f
000001b0: d49b 333f aac3 7b3f aea1 983f a5cd 3ebf
000001c0: 7a75 b1bd f69c f93e 468a 293f e632 f43f
000001d0: 3a7b 093f f85e bb3e 7cf8 ff3e e0d6 aa3f
000001e0: b3cd 493f dc8a d03e 8b0e 01bf c2c6 243f
000001f0: f87c 9e3d d93b 793f f804 0f3f e7c7 a03e
00000200: 4cc0 ea3e 07c2 a63e efd9 653e 0de2 163f
00000210: eac0 953f 5e50 fa3e 8050 ba3d 882a ca3e
00000220: 8015 713c 1e6f 0f3f 5683 0d3e c676 ba3f
00000230: e030 ad3e f84e 3f3f c05a c0bc 9c30 823f
00000240: d029 26bf 4aa6 fc3e f4ae 3bbd e01d 783d
00000250: 0a1d bd3e e12e 88be 100c 593f 9e30 0a3f
00000260: 7a34 5f3f 3cfc 693f 18ae 113c 349a 803f
00000270: 9fc0 f2be 5e6e 09bf 2663 863e 6e6f b5bd
00000280: 5330 b7be f5fa b03e e999 ff3e 0666 1a3f
00000290: 7ff1 173f 418e af3f fd6b 2ebf 7b10 be3d
000002a0: 003e 6b3d d376 033f f963 d93e bc35 453e
000002b0: 4772 283f 12d0 743f 4ef1 1f3f ba92 473f
000002c0: 869a 10bf 1d7b fbbe 7cef 9b3e 5f60 8ebf
000002d0: 3213 083f 018e 743f 3673 bbbe 57a1 bd3f
000002e0: 2a2b 2c3d 82cf c93f a488 d23f 72bf 8d3f
000002f0: 3823 103f dfe5 32bf 5225 9c3f e5b4 363f
00000300: 0d9d d2be 0f1b f7bd 5072 773f 50d8 e03d
00000310: 485f 8abc 5077 c3be cc46 a83f cdea 9c3f
00000320: b0b0 2f3d 77ae 2f3e 1266 d83e 1ca6 a33d
00000330: 4115 223e b88c aa3e 2c10 aa3d 137d 503d
00000340: 9620 893e 297d 193e 7fe9 703e 5523 cb3e
00000350: acc1 803d 11da c8bd 579c c83d e36a d83e
00000360: 96e3 a93e c932 4c3e 8641 babc 2be0 3a3e
00000370: 98a6 7f3e 6137 0fbe 501b 7b3d a8a5 08bd
00000380: 5a0c 18be 70a1 a63d c668 543e 1a6d 303e
00000390: b82c fd3c f6d2 3cbd 9ebc 083d 14f7 353e
000003a0: 6eec 073e 50e7 ea3d 5c79 ba3e ebe5 bd3e
000003b0: ce65 0e3e 4412 40bd b73d 513e 698c 5b3d
000003c0: c389 303e 4168 8f3e 7923 0d3e 7b61 833d
000003d0: b9f2 153e 74b8 df3d d09f b13e 42b0 463e
000003e0: deb9 af3d 2578 e6bd 35e2 e03d 65be 2f3e
000003f0: ac54 3f3e e38f 58be 00e1 583c 4779 7dbd
0.14524516 0.4541771 0.8893862 -0.2766691 -0.20787548 1.300924 0.45993158 0.795931
0.28035375 0.44566107 0.29634345 0.5065103 1.3161378 0.18933457 0.19561028 0.63671327
0.24807987 0.21551557 0.1713311 0.14714949 0.6376181 1.0913169 -0.18177532 0.18810382
0.5480025 1.3786263 0.7629247 0.5746714 0.09649195 -0.90470165 0.9772764 0.68249154
0.5789998 0.1948347 -0.22186875 -0.018300816 -0.22362272 -0.5535845 1.3272442 0.89274883
-0.20274283 -0.19645736 0.07716316 1.0083252 0.86119163 0.3874343 1.1361257 1.8439169
0.27532166 0.32322407 0.21286656 0.0746434 0.1670464 0.55994534 1.8137329 0.07345073
1.4837946 0.12407033 0.88250864 -0.69695365 -0.10588004 -0.21103966 -0.29712966 0.134027
0.42317086 0.7830763 1.0915484 -0.18270196 0.066798374 -0.5905359 0.40070364 0.56444734
0.17783695 1.4436257 -0.46602648 -0.12569156 1.7630904 0.93244517 0.6817521 0.12159312
0.49909708 -0.023986578 0.65440774 0.47729337 0.21380252 0.123261824 1.2496893 -0.37461585
0.6280816 -0.8654839 0.09538272 0.62020206 0.3140738 -0.17133732 0.80574757 0.92119443
1.2720181 1.0268677 0.4908056 0.29552484 0.71394265 -0.06354588 1.1399145 0.4794782
0.22838446 -0.05076316 -0.39943042 0.73997444 0.7015965 0.98345435 1.1924341 -0.7453254
-0.08664985 0.48752564 0.66226614 1.9078033 0.53703654 0.36595893 0.49994266 1.3346825
0.788295 0.4073094 -0.50412816 0.6436578 0.0773868 0.97356945 0.55866957 0.31402513
0.45849836 0.32569906 0.22446416 0.58938676 1.1699498 0.4888944 0.090973854 0.39485574
0.014714599 0.56028926 0.13819632 1.4567497 0.3382635 0.7472987 -0.023480773 1.0171084
-0.6490755 0.49345618 -0.045821145 0.060575366 0.36936218 -0.26598266 0.8478403 0.53980434
0.8718945 0.91400504 0.008891605 1.0047059 -0.47412583 -0.5368403 0.2624752 -0.08859144
-0.35779056 0.34566465 0.49922112 0.60311925 0.5935287 1.3715287 -0.6813353 0.09280487
0.057432175 0.51353186 0.42459086 0.1925878 0.65799373 0.9562999 0.62477577 0.7795826
-0.56485784 -0.49117365 0.3045615 -1.112316 0.5315429 0.9552918 -0.36611336 1.4814862
0.042033352 1.5766451 1.644795 1.107405 0.5630374 -0.69882005 1.2198889 0.71369773
-0.41135445 -0.12065708 0.966588 0.10978758 -0.016891137 -0.38176966 1.3146605 1.2259156
0.04289311 0.17156397 0.42265373 0.07990667 0.1582842 0.33310485 0.08303866 0.05090053
0.26782674 0.14989151 0.23526572 0.39675394 0.0628694 -0.09807218 0.097954445 0.42269048
0.33181447 0.19941248 -0.022736322 0.18249576 0.24965894 -0.13985969 0.061305344 -0.033361107
-0.14848462 0.081362605 0.20743093 0.17229119 0.030905113 -0.046099626 0.033383004 0.17770034
0.13273785 0.114699006 0.36420715 0.37089476 0.13906023 -0.04689242 0.20433699 0.053600702
0.17240052 0.28009227 0.13783063 0.06415077 0.14643373 0.109238535 0.3469224 0.19403175
0.08580373 -0.112533845 0.109806456 0.17162473 0.18684644 -0.21148638 0.013237238 -0.061883237

momentum_buffer f4 [3]
00000000: 8058 95bf 1675 25bf 12b7 3a3d
-1.1667633 -0.64631784 0.045584746

momentum_buffer f4 [5]
00000000: 91f5 083e 7da8 e93e 4228 b03c fa94 47be
00000010: 1453 fc3c
0.13374926 0.4563636 0.021503571 -0.19490424 0.030801333

momentum_buffer f4 [1, 5, 1, 1, 1]
00000000: 80a0 35bf a505 88c0 7e45 af3f 4e54 9dbf
00000010: 08e7 103f
-0.7094803 -4.250689 1.3693082 -1.2291353 0.56602526
