scripts/python/deep-learning/experiments/cnn3d/007/model-cnn3d-epoch-37.pth (torch_old, 7128 bytes, 10 tensors)

conv1.weight f4 [5, 1, 1, 1, 1]
0.087151445 -0.7650741 0.029874636 -0.07426851 0.06537831
00000000: 757c b23d e5db 43bf a7bb f43c 171a 98bd
00000010: 10e5 853d

conv1.bias f4 [5]
0.31768584 0.7158385 -0.81308424 0.5018767 -0.37862456
00000000: b8a7 a23e 3141 373f 4a26 50bf fe7a 003f
00000010: 14db c1be

conv2.weight f4 [1, 5, 1, 1, 1]
-0.083284914 -0.24800038 -0.012139476 0.12127253 -0.010651492
00000000: 4891 aabd d0f3 7dbe a7e4 46bc bb5d f83d
00000010: 9883 2ebc

fc1.weight f4 [3, 200]
0.039953616 -0.005749216 0.041918524 0.054021392 -0.031470172 0.07939068 0.04016961 0.022504596
0.084893845 -0.04241249 0.032674372 -0.14372452 0.0032304816 -0.045433752 -0.113464095 -0.015161498
-0.047305547 0.051985305 0.029528273 -0.08492936 0.14251 -0.06537299 0.016240297 -0.0014305216
-0.045647655 0.112328716 -0.02201402 0.17032114 -0.03486354 -0.013264021 0.10035418 -0.074506916
0.055965815 0.0034887823 -0.098409735 0.05024143 -0.1262276 0.024347592 0.10993626 0.008253037
0.016478263 0.03637199 0.106426574 0.036200795 -0.07237622 -0.04347873 0.011690106 -0.082031496
0.0134403175 -0.0998412 0.10448272 0.016896088 0.018460464 0.02938532 -0.07065941 0.055092663
-0.003390586 -0.024769923 0.02294745 0.012386164 -0.023355143 -0.07506192 -0.07936821 -0.032177046
-0.0074878945 -0.0125778355 0.051289167 0.026894046 -0.03612341 -0.04981367 0.001753598 -0.04050317
0.00517802 0.02452048 0.0383296 0.063956924 -0.0009060965 0.07824815 0.03065629 0.046914846
-0.012199555 -0.03535742 0.06055489 0.0030185506 -0.032886747 -0.005377277 -0.06520167 0.065060705
0.1573561 -0.09047678 0.01256023 -0.012328902 -0.0045663696 0.08110911 0.05434852 0.059790086
0.0021051052 0.054186746 0.047846973 0.013912716 -0.016611543 0.020571565 0.046516974 -0.044495083
-0.17805746 0.007635454 -0.027028061 0.10361876 0.071260095 -0.15868622 -0.06899743 -0.029743753
-0.03355936 0.051949877 -0.03957359 0.010429342 0.0039186478 0.056872968 -0.010729137 -0.08384527
-0.019911654 -0.0063014356 0.028171377 0.04151042 -0.10713747 -0.03787568 0.015197863 -0.022376627
0.05430368 -0.1275438 0.04877429 0.025576055 -0.007541294 0.092379205 -0.15794033 0.06778369
0.0103840595 0.008923946 0.115531355 0.00031906288 -0.06906473 -0.08752801 -0.012850215 0.01642462
-0.08300818 0.0070032524 0.013349951 -0.05194726 0.05008242 -0.03330899 -0.06451197 -0.12901352
0.045058582 0.08955615 -0.09992288 0.018362947 0.028903887 0.084930554 0.057892133 -0.015638392
0.046371803 -0.030416613 0.030840352 0.117994614 -0.03143198 0.020405963 0.038133446 0.055130478
0.12305945 -0.044640988 0.088984326 0.060472623 0.102010176 0.111302465 -0.03798135 0.026850589
-0.007371137 0.11761064 0.11857412 0.02121524 0.011597802 0.012438719 0.09614968 0.08557309
0.08349978 0.062419314 -0.06368406 0.03891031 0.1173759 -0.1425699 0.087780364 0.047619026
0.03161055 0.068742625 -0.043762937 0.016334504 -0.07907601 -0.029959984 0.05485424 -0.049069196
0.09644006 0.011351333 0.033400428 0.023407707 -0.0820351 0.02931045 -0.069188304 -0.007025175
0.0747088 -0.09782304 0.09476463 -0.1545039 0.1102806 0.05116466 -0.09089424 0.067939386
-0.10833118 0.03914325 0.10039595 -0.08681912 0.038432397 -0.07382174 0.049542442 0.05610277
-0.05460388 0.09672378 -0.012575705 0.0197616 0.078233816 -0.051720932 0.029051395 -0.046922456
0.010124558 0.033770252 -0.106092654 0.13663559 -0.05023474 -0.04330568 0.025117796 -0.071718335
0.003454991 -0.007603698 -0.048600055 0.06272092 -0.059684593 0.037044473 -0.060407918 0.04228274
0.031052295 -0.116721734 0.0185158 -0.1260267 0.022839056 -0.039299343 -0.06705124 0.04216902
00000000: 67a6 233d eb63 bcbb c2b2 2b3d 8945 5d3d
00000010: dee6 00bd 9597 a23d e488 243d 8f5b b83c
00000020: d3dc ad3d b8b8 2dbd 90d5 053d 852c 13be
00000030: 7db6 533b be18 3abd dd5f e8bd ef67 78bc
00000040: 76c3 41bd 8bee 543d 47e5 f13c 72ef adbd
00000050: 24ee 113e 46e2 85bd 5f0a 853c 5780 bbba
00000060: 09f9 3abd 990c e63d bf56 b4bc aa68 2e3e
00000070: 12cd 0ebd 5651 59bc 7e86 cd3d 1597 98bd
00000080: 693c 653d 0ea4 643b 0b8b c9bd f5c9 4d3d
00000090: cf41 01be 9a74 c73c 4326 e13d bf37 073c
000000a0: 6cfd 863c ccfa 143d 2df6 d93d 4947 143d
000000b0: fc39 94bd c116 32bd dc87 3f3c 2100 a8bd
000000c0: c734 5c3c 8b79 ccbd 09fb d53d aa69 8a3c
000000d0: 663a 973c 7cb9 f03c e1b5 90bd d8a8 613d
000000e0: 9834 5ebb 4bea cabc 4afc bb3c 56ef 4a3c
000000f0: 4953 bfbc 10ba 99bd cd8b a2bd 14cc 03bd
00000100: 035d f5bb 4413 4ebc 9714 523d e750 dc3c
00000110: 24f6 13bd 6b09 4cbd fcd8 e53a a7e6 25bd
00000120: 61ac a93b 2cdf c83c 80ff 1c3d d9fb 823d
00000130: 1b87 6dba 9140 a03d e622 fb3c c829 403d
00000140: a4e0 47bc f1d2 10bd 6808 783d e0d2 453b
00000150: 41b4 06bd de33 b0bb 7488 85bd 8c3e 853d
00000160: f521 213e e44b b9bd 6cc9 4d3c 2aff 49bc
00000170: 7ca1 95bb 881c a63d 8e9c 5e3d 73e6 743d
00000180: cef5 093b ecf2 5d3d 30fb 433d 29f2 633c
00000190: ee14 88bc b385 a83c 9588 3e3d 7a40 36bd
000001a0: b254 36be d532 fa3b f469 ddbc 1336 d43d
000001b0: d0f0 913d a47e 22be 864e 8dbd 2ca9 f3bc
000001c0: 8a75 09bd 65c9 543d eb17 22bd d5df 2a3c
000001d0: 0068 803b a1f3 683d 43c9 2fbc 12b7 abbd
000001e0: c41d a3bc 467c cebb a9c7 e63c d506 2a3d
000001f0: e46a dbbd 8723 1bbd 7500 793c 304f b7bc
00000200: 896d 5e3d d89a 02be 8dc7 473d e084 d13c
00000210: f61c f7bb 4f31 bd3d 1cbb 21be 2dd2 8a3d
00000220: e721 2a3c be35 123c b49b ec3d e547 a739
00000230: cf71 8dbd e341 b3bd b589 52bc ed8c 863c
00000240: 3100 aabd 8a7b e53b c1b9 5a3c a6c6 54bd
00000250: 3923 4d3d 026f 08bd da1e 84bd 1f1c 04be
00000260: 598f 383d 3769 b73d 5ea4 ccbd e46d 963c
00000270: d8c7 ec3c 12f0 ad3d 4d20 6d3d 161c 80bc
00000280: 5cf0 3d3d 432c f9bc e8a4 fc3c 29a7 f13d
00000290: d2be 00bd 682a a73c d131 1c3d 7fd0 613d
000002a0: 9806 fc3d 78d9 36bd 6a3d b63d 24b2 773d
000002b0: b6ea d03d 8cf2 e33d 5592 1bbd c4f5 db3c
000002c0: 9489 f1bb d9dd f03d fdd6 f23d 95cb ad3c
000002d0: b504 3e3c c5cb 4b3c 20ea c43d f240 af3d
000002e0: ef01 ab3d 65ab 7f3d ca6c 82bd 6b60 1f3d
000002f0: c762 f03d d8fd 11be 31c6 b33d 2b0c 433d
00000300: 107a 013d efc8 8c3d c440 33bd f0cf 853c
00000310: 9af2 a1bd a46e f5bc d7ae 603d c8fc 48bd
00000320: 5e82 c53d f1fa 393c e3ce 083d 85c1 bf3c
00000330: 0502 a8bd 781c f03c 99b2 8dbd 7033 e6bb
00000340: ed00 993d 7257 c8bd f513 c23d 4536 1ebe
00000350: ccda e13d 0992 513d c226 babd ce23 8b3d
00000360: bddc ddbd ac54 203d 649c cd3d 39ce b1bd
00000370: 4a6b 1d3d da2f 97bd 04ed 4a3d 05cc 653d
00000380: 51a8 5fbd 1e17 c63d 540a 4ebc 14e3 a13c
00000390: 0d39 a03d 54d9 53bd 31fd ed3c c331 40bd
000003a0: 79e1 253c ad52 0a3d 1b47 d9bd 33ea 0b3e
000003b0: f1c2 4dbd 4c61 31bd d6c3 cd3c 10e1 92bd
000003c0: 216d 623b 7128 f9bb da10 47bd d373 803d
000003d0: d577 74bd f2bb 173d 4b6e 77bd ab30 2d3d
000003e0: 6261 fe3c ce0b efbd 72ae 973c 250d 01be
000003f0: f918 bb3c 59f8 20bd 2952 89bd 6cb9 2c3d

fc1.bias f4 [3]
0.0999184 0.49147633 -0.5100585
00000000: 05a2 cc3d c9a2 fb3e 3293 02bf

momentum_buffer f4 [5, 1, 1, 1, 1]
-1.0165734 -0.72759074 -0.22188328 0.3463428 -0.14974067
00000000: 141f 82bf 6343 3abf 5f35 63be d853 b13e
00000010: 9e55 19be

momentum_buffer f4 [3, 200]
0.06787178 -0.073664546 -0.13548066 0.077371046 -0.82828104 -0.2176704 0.3371547 -0.58046514
0.0073631555 -0.8799827 -0.44722056 0.9656096 -0.19648641 -0.17061117 0.3422927 -0.07543692
-0.5168943 -0.25408143 -0.21088059 -0.13883826 0.2531606 -0.67850167 -0.7980318 0.13088155
-0.5311208 -0.19663768 0.40044293 -0.26782396 0.24639508 -0.4974084 0.044389322 -0.51595044
0.47922698 0.14899726 -0.06858067 -0.21398196 -0.45798635 -0.57529414 -0.31663403 -0.43028796
-0.2679494 0.3443954 -0.65971696 0.0035249442 -0.4576317 0.016069919 -0.22468303 -0.8270143
-0.29446805 -1.0845191 0.014309112 -0.15289757 0.13082746 0.04823623 -1.14865 -0.14107314
0.3072471 0.08150256 -0.011970762 -0.23861146 -0.43855968 -0.5050277 0.20442344 0.5282027
-0.8010088 0.37943846 0.43273667 -0.3779723 0.06434733 -0.6685923 -0.37234995 0.05753386
0.046761513 0.613182 -0.934769 -0.330215 0.21340232 -0.89080775 0.009081669 -0.91612506
-0.40029508 -0.3333419 -0.058790505 -0.24174008 -0.5673653 -0.69561756 -0.290008 -0.29580843
0.30662575 0.077371985 -0.644653 0.57474166 0.23006374 -0.21351847 0.076105595 -0.4535876
1.0897299 0.016645692 -0.28078556 -0.96601593 -0.2190387 -0.14351994 -0.13286638 -0.2300547
-0.81238955 0.09261015 -0.46398234 0.6673304 -0.14222446 -0.033776786 -0.59683585 0.4560501
-0.72425383 0.117049426 0.06562024 -0.116771095 -0.36973038 -0.75063384 -0.6859509 -0.57972205
-0.30088672 0.2112131 -0.61627436 -0.3244812 -0.7708689 0.36709297 0.4604784 -0.15862484
-0.24504924 -0.42579663 -0.29202747 0.24354401 0.28081846 -0.058097795 -1.1536417 -0.25875655
-0.11517917 -0.9302435 -0.020968124 -0.75940025 0.028378904 0.51634043 -0.22625124 0.047003374
0.09227136 -0.4464794 -0.6225484 -1.051273 -0.2767848 -0.23128468 0.15055707 -0.730365
-0.77442265 0.001250999 -0.022925198 0.25192225 -0.044654787 -0.41762525 -0.18944392 -0.82622427
0.17692053 -0.44672346 -0.61384875 -0.26535097 -0.25130057 -0.24938333 0.7795383 -0.46470428
-0.18504646 -0.26426768 -0.35421643 -0.46954188 -0.70168823 0.23794019 -1.1354098 -0.5321647
-0.04587853 -0.17275599 0.09673158 0.106825024 0.2211079 0.29565376 0.2575139 -0.22902945
-1.0190216 -0.31211072 -0.8743454 0.22281629 -0.3940996 -0.5397455 -0.25118807 -0.5307395
-0.2851624 0.007265389 -0.7944101 -0.24261987 -0.2619745 -0.013060212 0.0014258847 -1.1809486
0.12767452 0.15235113 0.061300263 0.25028574 0.27747917 0.43091634 0.3654544 -0.07195508
0.002613152 0.27488002 0.31235227 0.43809122 0.31599557 0.16377845 0.025369603 0.23969318
0.684698 0.09689115 0.32462975 0.12441252 -0.06661141 0.08684878 0.14640178 0.34402356
-0.040205114 0.45654204 0.30290407 0.22283289 0.16035408 0.059117597 0.091442734 0.34845382
0.037547488 0.07358161 0.14718682 0.3257305 0.056067392 0.3567219 -0.0074190255 -0.033357978
-0.03322395 0.6086328 -0.17758776 0.243139 0.256363 0.34668046 0.34089476 0.4016982
0.36062723 -0.06915429 0.36885655 0.4357999 0.35273182 -0.015625572 0.30373883 0.10798596
00000000: 5c00 8b3d 70dd 96bd 71bb 0abe b674 9e3d
00000010: 3a0a 54bf fde4 5ebe 8a9f ac3e 5d99 14bf
00000020: a046 f13b 8c46 61bf 18fa e4be 3132 773f
00000030: bc33 49be b2b4 2ebe fd40 af3e ac7e 9abd
00000040: 2f53 04bf f616 82be 15f1 57be 9e2b 0ebe
00000050: 449e 813e 49b2 2dbf d04b 4cbf d005 063e
00000060: 88f7 07bf 635b 49be db06 cd3e 3920 89be
00000070: fe4e 7c3e 50ac febe 94d1 353d 5415 04bf
00000080: 3d5d f53e bd92 183e 0674 8cbd 161e 5bbe
00000090: 307d eabe 7a46 13bf db1d a2be b44e dcbe
000000a0: aa30 89be 9854 b03e 36e3 28bf c002 673b
000000b0: b44e eabe 10a5 833c 4f13 66be 36b7 53bf
000000c0: 84c4 96be 86d1 8abf c470 6a3c 2e91 1cbe
000000d0: a2f7 053e 5a93 453d f706 93bf 7a75 10be
000000e0: 7e4f 9d3e d0ea a63d 0421 44bc 9056 74be
000000f0: e58a e0be 7f49 01bf 6154 513e 4b38 073f
00000100: ea0e 4dbf c245 c23e a98f dd3e 9685 c1be
00000110: 88c8 833d dd28 2bbf a7a4 bebe a0a8 6b3d
00000120: 0089 3f3d 7ff9 1c3f 054d 6fbf f111 a9be
00000130: 2386 5a3e fa0b 64bf 48cb 143c 2c87 6abf
00000140: 7af3 ccbe caab aabe 50ce 70bd b68a 77be
00000150: da3e 11bf fe13 32bf ee7b 94be 3474 97be
00000160: 0dfe 9c3e 3475 9e3d fb07 25bf 4522 133f
00000170: d495 6b3e 96a4 5abe 40dd 9b3d a23c e8be
00000180: 457c 8b3f 8c5c 883c 20c3 8fbe d24c 77bf
00000190: ae4b 60be e4f6 12be 200e 08be 7693 6bbe
000001a0: c3f8 4fbf 64aa bd3d 188f edbe 2ad6 2a3f
000001b0: 4aa3 11be 8759 0abd 3cca 18bf 667f e93e
000001c0: b368 39bf 9cb7 ef3d e863 863d af25 efbd
000001d0: 4d4d bdbe 8a29 40bf 7a9a 2fbf aa68 14bf
000001e0: d30d 9abe 3f48 583e 28c4 1dbf 6622 a6be
000001f0: aa57 45bf 9cf3 bb3e d3c3 eb3e 8d6e 22be
00000200: 30ee 7abe 0402 dabe a084 95be 9a63 793e
00000210: 70c7 8f3e f4f7 6dbd 88aa 93bf bd7b 84be
00000220: 0fe3 ebbd 7024 6ebf 58c5 abbc 0e68 42bf
00000230: e07a e83c e32e 043f 68ae 67be 9c86 403d
00000240: c4f8 bc3d f398 e4be 555f 1fbf 1d90 86bf
00000250: bdb6 8dbe e4d5 6cbe a22b 1a3e 33f9 3abf
00000260: 9040 46bf 90f8 a33a a0cd bbbc f4fb 803e
00000270: f0e7 36bd fad2 d5be 96fd 41be 6f83 53bf
00000280: a82a 353e f0b8 e4be 3125 1dbf 15dc 87be
00000290: 78aa 80be 585e 7fbe d28f 473f b8ed edbe
000002a0: d27c 3dbe 184e 87be db5b b5be cb67 f0be
000002b0: d7a1 33bf 98a6 733e 1c55 91bf f23b 08bf
000002c0: 20eb 3bbd f2e6 30be 351b c63d 14c7 da3d
000002d0: 1c6a 623e ee5f 973e ddd8 833e b286 6abe
000002e0: 4d6f 82bf facc 9fbe 1ad5 5fbf f429 643e
000002f0: 6cc7 c9be c32c 0abf b99b 80be 8bde 07bf
00000300: ce00 92be 8012 ee3b 765e 4bbf 5871 78be
00000310: 8621 86be 80fa 55bc c0e4 ba3a 5329 97bf
00000320: 1cbd 023e ef01 1c3e fc15 7b3d 7425 803e
00000330: c011 8e3e 11a1 dc3e d71c bb3e 2f5d 93bd
00000340: 6a41 2b3b 13bd 8c3e a3ec 9f3e 7e4d e03e
00000350: 2cca a13e 8ab5 273e ead3 cf3c 2172 753e
00000360: 5e48 2f3f de6e c63d df35 a63e fecb fe3d
00000370: 906b 88bd c6dd b13d 59ea 153e db23 b03e
00000380: 1eae 24bd e1bf e93e 3e16 9b3e 4e2e 643e
00000390: dc33 243e 4b25 723d 5446 bb3d 8a68 b23e
000003a0: 65cb 193d f5b1 963d 24b8 163e 26c6 a63e
000003b0: eca6 653d 41a4 b63e 4c1b f3bb 60a2 08bd
000003c0: d615 08bd 5ccf 1b3f 91d9 35be 6ef9 783e
000003d0: 0342 833e 1a80 b13e c289 ae3e 63ab cd3e
000003e0: 22a4 b83e c4a0 8dbd c4da bc3e 2a21 df3e
000003f0: 4499 b43e 3301 80bc a883 9b3e be27 dd3d

momentum_buffer f4 [3]
0.9606744 -1.116128 0.07942368
00000000: c2ee 753f 48dd 8ebf e2a8 a23d

momentum_buffer f4 [5]
-0.361354 -1.1269238 -0.07811162 0.56608975 -0.054368638
00000000: 6403 b9be 0a3f 90bf fcf8 9fbd 42eb 103f
00000010: a6b1 5ebd

momentum_buffer f4 [1, 5, 1, 1, 1]
2.5421624 1.0993001 -3.3227313 2.0906253 -0.88371485
00000000: cab2 2240 deb5 8c3f a1a7 54c0 cecc 0540
00000010: 233b 62bf
