scripts/python/deep-learning/experiments/cnn3d/007/model-cnn3d-epoch-20.pth (torch_old, 7128 bytes, 10 tensors)

conv1.weight f4 [5, 1, 1, 1, 1]
000000 c3 a7 1e 3e c2 1f 58 bf c8 0b bd bc 8e e6 a8 bd
       0.15493684 -0.8442346 -0.023076907 -0.082471
000010 84 23 a3 3d
       0.079657584

conv1.bias f4 [5]
000000 d3 21 b7 3e 31 1b 38 3f f8 20 5d bf ba a9 06 3f
       0.35767993 0.7191649 -0.8637843 0.5260273
000010 45 58 c8 be
       -0.39129844

conv2.weight f4 [1, 5, 1, 1, 1]
000000 7a cc 5d bd eb f6 70 be da 11 ba 3b ec 4a 18 3e
       -0.054150082 -0.23531692 0.0056783976 0.1487233
000010 cd 81 98 3d
       0.074466325

fc1.weight f4 [3, 200]
000000 4d a2 ec 3c 2f bb 64 bc 0d d8 ac 3c 61 f8 54 3d
       0.028885985 -0.013960644 0.021099115 0.051994685
000010 4b fc 03 be 48 a6 97 3d 91 a8 55 bc 77 2d 91 bd
       -0.12889211 0.074047625 -0.013040678 -0.0708875
000020 b7 99 17 3d 58 f2 c3 bd 9e 03 f2 3d d5 d6 2e be
       0.03701183 -0.09567708 0.11817096 -0.1707414
000030 31 88 0f 3c 23 aa 32 bd 7a 16 a8 bd af 4a 86 bc
       0.008760498 -0.043619286 -0.08207412 -0.016393034
000040 a6 6c 4f bc 34 10 8a bc 20 c7 15 3d b8 9b 7d bd
       -0.012660181 -0.01685343 0.036566854 -0.061916083
000050 da 9c fb 3d b1 c9 84 bd 7d 18 c4 bc 9c a7 4d bd
       0.122857764 -0.06483782 -0.023937458 -0.050208673
000060 57 2d a9 bc f4 42 8a 3c 8a 31 5f 3c f5 2e 96 3d
       -0.020651503 0.016877629 0.013622651 0.07333175
000070 fd 08 7e 3c 7e 10 8e bb 3b 37 19 3c b8 1d d3 bc
       0.015505073 -0.004335462 0.009351547 -0.025771007
000080 2e 95 10 3b 0a ca ff 3c fb 86 38 bd 59 44 eb 3c
       0.0022061574 0.03122427 -0.045050602 0.028719114
000090 40 da b2 bd f4 ad 80 bc 84 98 07 3e 51 7b a9 3d
       -0.08733034 -0.015707947 0.13241774 0.08275474
0000a0 d7 3a 5e 3d 82 b7 83 3a cc c4 6d 3d 1f c0 1e 3d
       0.054255333 0.0010049196 0.05804901 0.03875744
0000b0 f5 46 92 bd f6 ab 24 bd 3f 71 08 bd 0f fd ac bd
       -0.0714244 -0.040203057 -0.033311125 -0.084467046
0000c0 7b 6f 14 bd 5f fb a3 bd 23 40 a5 3d 14 c4 e7 3c
       -0.03623913 -0.080069296 0.08068874 0.02829174
0000d0 a6 e6 11 3d 21 a7 83 3d 0f a2 c8 bd a5 31 37 3c
       0.035620354 0.06428362 -0.09796535 0.01118127
0000e0 4e 6a 81 bd d8 9b 9c bc 01 17 24 3d f1 c9 90 3c
       -0.06319104 -0.01911728 0.040061 0.017674418
0000f0 a5 16 48 3c 57 df c3 bd ba 0d 9d bd 3e 06 88 bc
       0.01221243 -0.09564083 -0.07668634 -0.016604539
000100 5f 85 66 bc e6 07 57 bc 0b e3 6f 3d 52 70 33 3d
       -0.014069884 -0.013124442 0.058566134 0.04380829
000110 30 e4 c4 bc 2c b3 86 3c a3 1f 30 3d 3b 72 03 3b
       -0.02403459 0.016442858 0.04299892 0.00200571
000120 15 e6 b7 bc 82 99 68 3c 6f e4 6f 3d f1 2c f6 3d
       -0.022448579 0.014196755 0.05856746 0.12020291
000130 f9 58 32 bd bd 5d c7 3d 14 a5 2f 3d 33 08 1b 3c
       -0.043541882 0.09734676 0.04288204 0.009462404
000140 e3 0a 5b 3c 65 0e 6f bd 93 70 ac 3d 56 3c ff bc
       0.013369295 -0.058363337 0.08419909 -0.0311567
000150 c1 61 51 bd 81 63 c5 bc 8e 7a 7d 3c b4 39 6a 3d
       -0.051118616 -0.024095299 0.015471114 0.057183936
000160 84 9d 10 3e 4b f5 c1 bd a7 a7 7a 3c 34 a0 c8 bd
       0.14122587 -0.09470614 0.0152987605 -0.09796181
000170 bb c6 02 bd 4a 79 6c 3d 85 55 8d 3d 22 cd af 3d
       -0.031927805 0.057732858 0.06901077 0.08584048
000180 5d 8f 82 3a 01 b0 7f 3c d4 37 cc 3c 47 55 05 3d
       0.0009960938 0.015605927 0.024928965 0.03255203
000190 06 8b 7f 3d 75 3d 87 bc f0 b6 83 3d 4a ba 83 bd
       0.062388442 -0.016508797 0.06431377 -0.06432016
0001a0 1c 01 a5 bd 41 7a da 3c 78 8a de bd 1a 5f c3 3d
       -0.08056852 0.026669623 -0.108662546 0.095396236
0001b0 6b e6 d1 3c ad 22 96 bd 9c 65 7a bd bf ce c9 bc
       0.025622567 -0.07330833 -0.06113206 -0.024634717
0001c0 b8 28 6a bd 6a 02 80 3d b2 ff 15 bd 4e 1c 94 3c
       -0.05716774 0.062504604 -0.036620803 0.018079903
0001d0 67 86 4c bc 1c 83 9d bb 6e 2c aa bc 73 75 41 3c
       -0.012483216 -0.004806889 -0.020773139 0.011807787
0001e0 42 a8 93 bc 7e 3a 24 bd 18 c2 61 b9 d4 a8 15 3d
       -0.018024568 -0.040094845 -0.00021529978 0.03653796
0001f0 9d 92 8b bd 0d d3 9b bc e6 c0 2f bd ca 6b 7e bd
       -0.06815074 -0.019021535 -0.04290857 -0.062114514
000200 59 7e fb 3c d8 2d 06 be d6 81 5d 3c 7c 3f 9c 3d
       0.030699896 -0.13103426 0.013519725 0.07629296
000210 83 46 28 bd 84 da 8c 3d 38 a2 3a be c3 57 58 3d
       -0.04108287 0.06877616 -0.18225944 0.05281807
000220 d3 15 49 3d 22 c8 2e ba b6 cc c9 3d 8e d7 cf bd
       0.04909308 -0.00066673954 0.09853499 -0.10148536
000230 a3 e5 3f bc 5e be fa bc 81 38 dd 3b 07 d9 1e 3c
       -0.0117124645 -0.030608352 0.0067511206 0.009695298
000240 51 f1 07 bd 1a c1 0d bd 18 67 58 3d e0 67 c6 3b
       -0.03318912 -0.034607984 0.052832693 0.0060548633
000250 79 b6 88 3c 06 f7 a1 3d 25 a3 2e 3c d8 70 87 bd
       0.016688572 0.07908444 0.010659014 -0.0661332
000260 15 dc be 3c 1a 6f a1 3d 42 2e a8 3a ad f9 3e 3d
       0.023298303 0.07882519 0.0012831169 0.046624828
000270 f6 f5 2c 3d 7a 2d e8 3c 9b 83 f8 3c 72 39 d6 3c
       0.042226754 0.028341997 0.030336192 0.026150439
000280 35 c9 1f 3d c1 d6 88 bc f7 bb c7 3c 80 c5 da 3d
       0.039010245 -0.016703965 0.02438162 0.106822014
000290 0a 9f 0e bd 9f 76 b5 bc da 5b ba 3c 88 e8 ce 3d
       -0.03481964 -0.02215129 0.022748876 0.101029456
0002a0 7a 45 ec 3d a3 c9 46 bd a9 1b 09 3e d4 82 a9 3c
       0.11536689 -0.04853214 0.13389458 0.020692267
0002b0 2f 91 1e 3c 01 18 be 3d dd 8d 3b bd 8e 66 6c 3d
       0.009678169 0.09281922 -0.04578959 0.05771499
0002c0 9a 91 04 3c 5b f1 07 3e 9a 35 c9 3d 27 93 ba 3c
       0.008091355 0.13275664 0.09824677 0.022775246
0002d0 9a f3 e4 bb e7 4f 37 bb 1f 34 26 3d ec 5d 8e 3d
       -0.0069870474 -0.002797121 0.04057705 0.06951508
0002e0 33 bb 89 3c 97 87 95 3d 50 9f ac bd 4b dd 17 3d
       0.016812896 0.07301252 -0.08428824 0.037076276
0002f0 63 ec 00 3d 1f ac d6 bd ab 5c 07 3e f5 5a 30 bd
       0.031475436 -0.10482048 0.13218944 -0.043055493
000300 0d 64 14 bd ad 8c 80 3d d8 1b 23 bd 4c 40 61 3d
       -0.03622823 0.06276832 -0.039821476 0.05499296
000310 53 66 bd bd c8 54 cb bd ea 04 fb 3c aa 9a d3 bd
       -0.092480324 -0.0992828 0.030641992 -0.10332234
000320 10 6a e4 3d 10 e0 a5 3a 69 3c 4a 3d f9 f2 44 3c
       0.11153042 0.0012655277 0.049374018 0.01202082
000330 6c b7 80 bd 1b 8d 99 3a 91 1c 8b bd 0e 20 18 bd
       -0.06284985 0.0011715026 -0.06792558 -0.037139945
000340 b1 a5 59 3d ac 63 cf bd df 56 a8 3d 43 3f f4 bd
       0.05313653 -0.10126433 0.08219694 -0.11926129
000350 1b 48 d2 3d 81 ac ee 3c 6a f7 6f bd fa 1f 4c 3d
       0.10267659 0.02913499 -0.05858556 0.049835183
000360 b6 13 db bd 51 ab c9 3c c3 33 5c 3d b3 6f a7 bd
       -0.10697119 0.024617823 0.0537603 -0.08175602
000370 4c a0 81 3b 78 23 83 bd 0c 7b 5b 3d b7 b0 81 3d
       0.0039558765 -0.064032495 0.053584144 0.06332534
000380 58 d2 73 bd 6a 51 e8 3d 4e bf bd 3b 67 78 a6 3c
       -0.05952677 0.113436535 0.0057906276 0.020321084
000390 e8 c7 8e 3d b4 48 87 bd cd 93 ab 3c 2a c8 29 bd
       0.06971723 -0.06605664 0.0209445 -0.041450657
0003a0 c1 8d 1d bb ea ee 52 3d 96 93 a1 bd 46 37 eb 3d
       -0.002404079 0.051497377 -0.07889478 0.11485152
0003b0 7b bf 28 bd dd 22 57 bd 0f 85 98 3c 89 21 5b bd
       -0.041198235 -0.052523483 0.018618135 -0.05349878
0003c0 68 b6 a4 3a 29 80 af 3b b2 e9 78 bd bd cf a6 3d
       0.0012566568 0.005355854 -0.060769744 0.08145092
0003d0 ec b3 20 bd ce c7 12 3d 6a 59 73 bd 1c b5 45 3c
       -0.039234087 0.03583508 -0.059411444 0.012067106
0003e0 86 e3 60 3d 0d c8 dd bd 22 7c c9 bc 27 a7 0c be
       0.054904483 -0.10829172 -0.024595324 -0.13735639
0003f0 da 9b 3f 3c 5f 57 8f bc 95 11 97 bd 50 e5 03 3d
       0.011694873 -0.017497716 -0.073764004 0.03220111

fc1.bias f4 [3]
000000 45 96 f2 3d 2a 49 92 3e 4d 72 bb be
       0.11845068 0.28571445 -0.36610642

momentum_buffer f4 [5, 1, 1, 1, 1]
000000 70 db 35 3f 72 d6 8d 3f 1f 99 50 bd cb 2f 35 bf
       0.7103796 1.1081069 -0.050927278 -0.7077605
000010 79 73 60 bf
       -0.876762

momentum_buffer f4 [3, 200]
000000 43 83 07 be 1b 46 b8 3f 32 0e b7 3e 0f ab 10 3f
       -0.13233666 1.4396394 0.35753018 0.56511015
000010 1c 34 80 3f 69 ca 38 3e 14 48 7b 3f c8 01 55 3e
       1.0015903 0.18045963 0.9815686 0.2080146
000020 cd fe 52 3f b9 05 bd 3e 67 d2 0f 40 40 47 57 bd
       0.82420045 0.3691843 2.247217 -0.052558184
000030 5c 29 78 3f aa 3b 89 3f 88 26 b9 be 64 2e b1 3f
       0.9693811 1.0721333 -0.3616221 1.3842282
000040 1c f4 af 3f 9d 48 25 be 1d 12 06 3f a8 07 42 3f
       1.3746371 -0.16140981 0.5237139 0.7579293
000050 ec 2d 4b 3e ba 02 e0 3e 08 9f 65 3f 3b b6 49 3f
       0.19841737 0.4375208 0.8969579 0.78793687
000060 62 db 67 3f 68 e9 3a 3f e2 d6 71 3f 34 32 a9 3f
       0.90569127 0.730124 0.9446851 1.3218446
000070 1e 43 21 3f b0 d0 b0 3f 39 b1 bc 3e 26 2f af 3f
       0.6299304 1.3813686 0.3685396 1.3686264
000080 88 5d 2d 3f dc dc ca 3f 54 95 af 3f 71 63 bc be
       0.6772084 1.5848651 1.3717446 -0.36794618
000090 86 51 04 40 33 86 02 40 67 e7 13 3e f5 2d a1 3f
       2.0674758 2.0394409 0.14443742 1.259215
0000a0 40 90 a1 3f fc 5c 4a 3f 7a 10 fd 3e 61 0e ed 3e
       1.2622147 0.7904813 0.49426633 0.46300033
0000b0 a0 cf 9b 3f a9 8e 4b 3f b2 04 02 40 dd a6 bd 3f
       1.2172737 0.7951456 2.0315366 1.4816548
0000c0 c2 95 6b 3f 27 17 94 3f 42 c1 3c 3f 1e 99 b1 3f
       0.9202539 1.1569566 0.7373239 1.3874853
0000d0 51 a6 6d 3f 3c 63 10 3f 29 f5 dc 3f 54 f2 8b 3f
       0.92831904 0.5640142 1.7262317 1.0933328
0000e0 91 43 c8 3f 42 c6 b0 3e fb 70 7b 3f f8 ea c6 3f
       1.564562 0.3452626 0.9821927 1.5540457
0000f0 fa 05 b6 3f 3f 01 07 3f a2 88 6b 3f 57 24 6d 3f
       1.4220574 0.52736276 0.9200536 0.92633575
000100 68 dd 87 3f 28 2b 4a 3f 37 ed df 3e 08 c9 8b 3f
       1.0614443 0.789721 0.43735668 1.0920725
000110 ba b5 20 3f 60 c1 25 3f d2 b6 c5 3f c6 b3 66 3f
       0.6277729 0.6474819 1.5446417 0.9011806
000120 03 79 6b 3f a0 84 e4 3e 39 e7 0b 3f 4a 01 62 3f
       0.91981524 0.44632435 0.5464969 0.88283217
000130 70 ef 08 40 6a 1c ef 3f c0 3f c3 3d ce 05 91 3f
       2.139614 1.8680546 0.09533644 1.1329896
000140 60 3e 8f 3f 96 ca 80 3e 52 19 c8 be d6 0b a3 3e
       1.119091 0.2515456 -0.39081818 0.31844968
000150 88 4b 0f 40 21 14 ee 3e 28 e3 bd 3f 1f d5 b9 be
       2.238985 0.46499732 1.4834948 -0.3629541
000160 fc 7e 13 be 00 dc a1 bd 66 5e bb 3f bc 59 1a 3d
       -0.1440391 -0.0790329 1.4638183 0.037683234
000170 0c 61 de 3e fe bb 9e 3f 6c 29 d0 3f 86 96 02 3f
       0.43433416 1.2401121 1.6262641 0.5101093
000180 80 a3 02 40 ae 99 89 3e 00 29 05 3f 56 4f 0d 40
       2.0412292 0.2687506 0.52015686 2.2079673
000190 18 0e b8 3e 36 c9 80 be ab 76 8b 3e 6e d1 07 3f
       0.35948253 -0.25153512 0.27238974 0.5305394
0001a0 7d a7 92 3f 75 9c e1 3e d1 ca ca 3f 1c b8 b1 3f
       1.1457363 0.4406468 1.5843145 1.3884311
0001b0 af 9e e0 3e 73 3c 0a 40 1e dc 87 3d 54 2e de be
       0.43871066 2.1599395 0.06633781 -0.4339472
0001c0 cd 80 6c 3f e1 49 57 3f 31 3d ab 3f fb 85 05 3f
       0.92384034 0.84097105 1.3378049 0.5215756
0001d0 68 8f 67 3f e0 39 8a 3f 08 f2 67 3e 40 cb 15 40
       0.90453196 1.0798912 0.22650921 2.3405304
0001e0 2e e0 84 3f a6 15 e2 3d 5c 79 14 be 28 ef 88 3f
       1.0380914 0.11039285 -0.1449942 1.0697985
0001f0 98 3d fd 3f bf 3e 6d 3f ba 09 0b bf 44 92 e4 3f
       1.9784422 0.9267387 -0.54311717 1.7857137
000200 99 0e ca 3e 7f 83 d3 3f 66 56 8c 3d ac de a7 bd
       0.39464262 1.6524504 0.06852417 -0.08196768
000210 e2 8e 15 3e b3 9c 1a 3e 3b 27 a5 3f fe f3 80 3f
       0.14605287 0.15098839 1.2902597 1.007446
000220 75 53 19 bf 76 01 13 3f fc a5 ba 3f 5b a1 80 3f
       -0.5989297 0.57424104 1.4581904 1.0049242
000230 b0 de 9b 3f b6 5f 4d bf d8 fc 1c 3f c8 46 9f 3e
       1.2177334 -0.8022417 0.6132331 0.3110869
000240 c9 a9 f3 3f 00 65 ce 3e 3e e9 c9 3f af b0 81 be
       1.9036189 0.40311432 1.5774305 -0.2533011
000250 50 26 08 3e 16 79 c3 be c8 6e 8d 3e 3a c8 02 3f
       0.13295865 -0.3817832 0.27623582 0.5108677
000260 20 c8 71 3d 7c 2d 83 3f 70 e2 19 bd 4e c3 57 3e
       0.059028745 1.0248256 -0.037569463 0.21070597
000270 fd 9f 9b 3e 5c 19 09 40 8b 32 03 3f 01 26 36 3f
       0.303955 2.1421728 0.51249 0.7115174
000280 b3 1d 2e 3f a6 dc c4 3f 52 ca b5 3e f6 a1 69 3f
       0.6801407 1.5379837 0.3550592 0.9126276
000290 bf f3 60 bf 29 7f c6 3f 30 3c b5 3f a3 50 a4 3f
       -0.8787193 1.5507556 1.4158993 1.2837108
0002a0 16 ad f2 be f6 31 66 3f 99 1c 59 3e 20 8d 0d bf
       -0.4739768 0.89919984 0.21202315 -0.55293465
0002b0 0d b6 00 3f 02 ca 88 3f c8 79 c9 3f d4 d6 8e 3f
       0.5027779 1.0686648 1.574029 1.115931
0002c0 f4 48 90 3f f6 78 2e 3f fe 8d d2 3e e7 2a af 3f
       1.1272264 0.6815332 0.41123956 1.3684968
0002d0 6c 3c e6 3e 81 2b d1 3e ca 29 4f 3e 6e 52 71 be
       0.44967973 0.40853503 0.20230785 -0.235666
0002e0 c2 07 0f 40 1d 5f 4d 3f 53 fc 95 3e 6c a3 0b be
       2.2348485 0.80223256 0.2929407 -0.13636559
0002f0 24 05 28 3f 1c 6b 7f 3e de 55 2b 3f d7 ad 04 3f
       0.65632844 0.24943203 0.669279 0.5182776
000300 90 fd 42 3f 79 ee 35 3f f0 62 05 40 6a cb bb 3e
       0.76168156 0.71067005 2.0841637 0.3667863
000310 36 5b 9f 3e a1 72 68 3f a0 01 5f 3f 6e 0d 23 40
       0.31124276 0.9079991 0.87111855 2.5476947
000320 0a 10 fc bc d6 d5 6f bc ba 6a be 3d 56 bc 3b bf
       -0.030769367 -0.014638385 0.092977 -0.7333425
000330 8c b6 19 3d 99 81 b8 3d 19 52 a7 3c 0a 13 dd bd
       0.037527606 0.09009094 0.02042489 -0.10794647
000340 99 7a 5b be 71 4e 15 3e 9b ff 4a 3d 20 ed 74 3d
       -0.21433486 0.14580704 0.04956017 0.059796453
000350 26 40 7c 3c 4d 28 bf 3d f9 30 27 3e a1 37 3f bc
       0.015396154 0.09333859 0.16327275 -0.011670978
000360 3d c0 2c be 00 c4 5f bd 28 81 1e be 3a 7e f6 3d
       -0.16870208 -0.05463028 -0.15478957 0.120357946
000370 b6 29 9b 3c d6 61 ea 3c 0d 4f 91 bc 2c cc 79 3d
       0.018940788 0.028611105 -0.01773789 0.06098573
000380 5a 21 d7 3d ba d7 05 be 4e 4a f8 3d 00 58 5e 3d
       0.10504408 -0.13070574 0.121235475 0.054283142
000390 18 25 42 3d f5 f8 39 3e a9 ad c2 3d 48 ab 8f bc
       0.047398657 0.18161376 0.09505779 -0.017537728
0003a0 38 b1 92 3d fb ac bf be e4 03 ab 3d a1 9b 9c 3d
       0.07162708 -0.3743666 0.083503515 0.07646871
0003b0 4f 13 37 bd f8 d7 a1 3d 83 6f f5 be 74 27 97 3d
       -0.04469615 0.07902521 -0.4793664 0.07380572
0003c0 4b e0 d7 bd 46 85 d9 3d c4 8d 03 3e 20 cd e0 be
       -0.10540827 0.10621123 0.12847048 -0.43906498
0003d0 6c 04 e9 3b ef 4b 25 be 38 d0 87 bc e4 05 b4 3d
       0.007111123 -0.16142248 -0.016578779 0.08790186
0003e0 82 aa 91 be 66 8c a8 3c 10 28 37 be d8 81 17 be
       -0.284504 0.02057476 -0.17886376 -0.14795625
0003f0 48 a0 bf 3c 42 f5 22 bf 3a bd 12 3c c5 dc 58 be
       0.023391858 -0.63655484 0.008956248 -0.21177967

momentum_buffer f4 [3]
000000 0d 21 18 c0 66 6a 81 3e 13 7c d8 3d
       -2.3770173 0.25276488 0.1057054

momentum_buffer f4 [5]
000000 af d6 fb 3d 3e 25 e0 3e 08 a3 10 bd 6e cd 87 be
       0.12296807 0.43778414 -0.03531173 -0.26523918
000010 88 a2 13 be
       -0.1441747

momentum_buffer f4 [1, 5, 1, 1, 1]
000000 49 2b 20 c0 7a 48 2d 40 6c d0 dc 3f c0 a8 12 bf
       -2.502642 2.7075486 1.7251105 -0.5728874
000010 b0 ff 33 be
       -0.17578006
