scripts/python/deep-learning/experiments/convlstm/001/model-convlstm-epoch-20.pth (torch_old, 13111 bytes, 54 tensors)

convLSTM2d1.conv_xi.weight f4 [2, 2, 1, 1]
0.11289699 0.48972276 -0.445565 0.17822205
00000000: 8936 e73d f1bc fa3e 1821 e4be d77f 363e

convLSTM2d1.conv_xi.bias f4 [2]
0.9028884 0.41918305
00000000: b223 673f 299f d63e

convLSTM2d1.conv_xf.weight f4 [2, 2, 1, 1]
-0.39590982 0.0658115 0.43422192 -0.47118434
00000000: b1b4 cabe 2ec8 863d 5652 de3e 133f f1be

convLSTM2d1.conv_xf.bias f4 [2]
0.89137506 -0.22541834
00000000: 2831 643f 11d4 66be

convLSTM2d1.conv_xo.weight f4 [2, 2, 1, 1]
0.09898204 0.8043558 -0.3817689 -0.12443795
00000000: 19b7 ca3d 43ea 4d3f 3777 c3be 53d9 febd

convLSTM2d1.conv_xo.bias f4 [2]
0.24432921 0.35753372
00000000: 7031 7a3e a90e b73e

convLSTM2d1.conv_xg.weight f4 [2, 2, 1, 1]
0.44267997 -0.13498609 -0.03877137 -0.027909733
00000000: f3a6 e23e cb39 0abe bace 1ebd f4a2 e4bc

convLSTM2d1.conv_xg.bias f4 [2]
0.091972075 -0.7765135
00000000: db5b bc3d 97c9 46bf

convLSTM2d1.conv_hi.weight f4 [2, 2, 1, 1]
0.6851137 0.34904397 0.2281118 -0.024003888
00000000: 9d63 2f3f e4b5 b23e 2496 693e cda3 c4bc

convLSTM2d1.conv_hi.bias f4 [2]
0.720478 0.05549485
00000000: 3f71 383f 914e 633d

convLSTM2d1.conv_hf.weight f4 [2, 2, 1, 1]
0.09259052 -0.3697622 0.17991363 0.18403852
00000000: 19a0 bd3d 7951 bdbe 473b 383e 9874 3c3e

convLSTM2d1.conv_hf.bias f4 [2]
0.18555313 0.6671657
00000000: a401 3e3e 5fcb 2a3f

convLSTM2d1.conv_ho.weight f4 [2, 2, 1, 1]
0.15056708 -0.7442431 0.75418514 0.19203734
00000000: 422e 1a3e b786 3ebf 4712 413f 70a5 443e

convLSTM2d1.conv_ho.bias f4 [2]
-0.12988564 -0.4934584
00000000: be00 05be 94a6 fcbe

convLSTM2d1.conv_hg.weight f4 [2, 2, 1, 1]
0.13088533 0.24306464 0.19802408 -0.5227592
00000000: ce06 063e f0e5 783e d3c6 4a3e 8cd3 05bf

convLSTM2d1.conv_hg.bias f4 [2]
0.34461078 -0.3428637
00000000: d370 b03e d58b afbe

fc1.weight f4 [3, 110]
0.10748844 0.15892445 0.11266891 -0.20185745 0.09561317 0.032892853 0.12923002 0.0870288
0.15304556 0.1550347 0.15727629 -0.07117213 0.07573713 -0.012125911 0.058530197 0.105951466
0.029986437 -0.10835599 0.24965997 0.14246774 -0.004482291 -0.033269506 0.007735647 0.003556456
-0.093893655 -0.093470275 0.053121995 0.07263412 0.18487784 0.13608715 0.06713024 0.020186307
0.19730833 0.087109834 0.003283734 -0.18611835 -0.10499172 -0.035038553 0.1741239 0.02562487
-0.026345914 0.08073277 0.16690004 -0.021389192 0.0018952631 -0.0559899 0.04209837 0.15258354
0.029815784 -0.11576408 -0.19661218 0.037062798 -0.09536929 -0.017910544 -0.00031761843 -0.021371102
-0.09446703 -0.095896296 -0.0004929531 -0.090012185 0.012299318 -0.01745388 -0.031030314 -0.099332444
0.0012858191 -0.12507242 0.0055867922 0.0026545147 0.006348237 0.040541448 -0.09533836 -0.06645176
-0.1465189 -0.046503875 0.005548046 -0.12155662 -0.14378232 -0.14226872 -0.1024661 -0.12966368
-0.09394013 -0.085409075 -0.04972508 -0.028668689 -0.06602539 -0.10498295 -0.070394315 -0.025160737
0.0056549395 0.00020204698 -0.09469346 -0.020977737 -0.05705329 0.010347038 -0.084677495 -0.06723666
0.0653111 0.012466714 -0.052131772 -0.08440472 -0.10228737 -0.0304582 -0.04899874 -0.027257845
-0.1265147 -0.0033474378 -0.093046114 -0.117652416 -0.08934575 -0.1304218 -0.0008740761 -0.18524966
-0.28101137 -0.29369372 -0.1383818 -0.11955272 0.0047926744 -0.12043909 -0.07009025 -0.034149222
-0.15612893 -0.15224469 -0.09152603 -0.15400903 -0.087106355 -0.18649451 0.16102707 -0.061770428
0.040317167 -0.170281 -0.025465801 -0.39611027 -0.036845487 -0.22346848 -0.10867396 -0.17834157
-0.022048261 0.15598388 -0.05265562 0.20194548 -0.0778743 -0.15649875 0.10409693 -0.26866427
-0.18559016 0.067204535 0.27181292 0.14558974 -0.12173209 -0.07512856 0.12501468 -0.06353202
-0.018764464 -0.12171868 -0.00887248 -0.1949761 0.314691 -0.071759 0.14946988 0.11898943
0.089586675 -0.040577978 -0.10471824 -0.04287909 -0.064201705 0.013012328 0.0731281 0.13501124
0.056884527 -0.006216882 0.04866452 0.09266905 0.12071929 0.10863823 -1.5914053e-05 0.12647438
0.030411467 0.13197444 0.014751524 0.026148291 -0.023036163 0.07716293 -0.010874759 0.12802175
0.08607861 0.14662124 0.10651633 0.16684026 0.12737507 0.047752175 0.051164597 0.009013198
0.061913215 0.047050152 0.08441781 0.06644477 0.04670745 0.14839719 0.03386837 0.13303714
0.14149699 -0.016253361 0.05095203 0.11308722 0.10717307 0.1559384 0.053192247 0.0190747
0.10367755 0.040669274 0.15259117 0.15902989 -0.014249396 0.0229527 0.10294896 0.018850015
-0.005182557 0.11488682 0.09787817 0.132801 0.066420235 -0.0168852 0.11712965 0.32358697
0.15214176 -0.04028676 -0.024345022 0.008260226 0.05604264 -0.004160389 0.09626488 0.09305676
-0.07262917 0.23373106 0.07459955 -0.07415005 -0.11963539 0.1407638 -0.25670314 -0.23772703
-0.007387973 0.11392773 -0.048794933 0.07574367 0.23111129 0.25714883 0.16554435 -0.16384979
-0.05288909 -0.12261425 -0.03930185 0.0068538203 -0.17379743 0.041216336 -0.0035364532 0.253617
00000000: e622 dc3d 17bd 223e f5be e63d b8b3 4ebe
00000010: d6d0 c33d a8ba 063d e054 043e 283c b23d
00000020: fab7 1c3e 6bc1 1e3e 090d 213e b2c2 91bd
00000030: 121c 9b3d c2ab 46bc 5cbd 6f3d 15fd d83d
00000040: 1ea6 f53c bfe9 ddbd dda6 7f3e 10e3 113e
00000050: 2fe0 92bb 9b45 08bd 4f7b fd3b 6e13 693b
00000060: 514b c0bd 586d bfbd 7396 593d 33c1 943d
00000070: 9e50 3d3e 6e5a 0b3e 947b 893d c15d a53c
00000080: 320b 4a3e a466 b23d ea33 573b cf95 3ebe
00000090: e605 d7bd 9684 0fbd 894d 323e 3feb d13c
000000a0: 63d3 d7bc 3957 a53d d8e7 2a3e 6338 afbc
000000b0: 7a6a f83a aa55 65bd 576f 2c3d dc3e 1c3e
000000c0: 3b40 f43c b815 edbd b454 49be 29cf 173d
000000d0: f950 c3bd 22b9 92bc 0686 a6b9 7312 afbc
000000e0: ee77 c1bd 4765 c4bd 8639 01ba 4f58 b8bd
000000f0: 1483 493c 70fb 8ebc 4933 febc cf6e cbbd
00000100: ee88 a83a fc12 00be 6911 b73b 5ef7 2d3b
00000110: df04 d03b ca0e 263d c240 c3bd dc17 88bd
00000120: 0d09 16be d97a 3ebd 62cc b53b adf2 f8bd
00000130: ac3b 13be e4ae 11be bfd9 d1bd 8ec6 04be
00000140: af63 c0bd f4ea aebd 87ac 4bbd 99da eabc
00000150: 5238 87bd 4d01 d7bd e52a 90bd e41d cebc
00000160: 124d b93b 93dc 5339 a5ee c1bd 81d9 abbc
00000170: b6b0 69bd 9f86 293c 656b adbd 60b3 89bd
00000180: d3c1 853d 3041 4c3c 2088 55bd 62dc acbd
00000190: 0a7c d1bd 7a83 f9bc e7b2 48bd d84b dfbc
000001a0: 128d 01be b060 5bbb f68e bebd c0f3 f0bd
000001b0: e8fa b6bd 4b8d 05be 4122 65ba 16b2 3dbe
000001c0: b9e0 8fbe 065f 96be f5b3 0dbe 0ed8 f4bd
000001d0: de0b 9d3b c5a8 f6bd 7a8b 8fbd 0ee0 0bbd
000001e0: 43e0 1fbe 08e6 1bbe 0072 bbbd 8bb4 1dbe
000001f0: d164 b2bd 6bf8 3ebe 48e4 243e fd02 7dbd
00000200: 9d23 253d 245e 2ebe a89d d0bc f7ce cabe
00000210: 4beb 16bd ecd4 64be 7490 debd 2c9f 36be
00000220: 8e9e b4bc 3dba 1f3e 6bad 57bd ccca 4e3e
00000230: 907c 9fbd 3541 20be c530 d53d 5d8e 89be
00000240: 590b 3ebe 88a2 893d 102b 8b3e 7a15 153e
00000250: ad4e f9bd 01dd 99bd d903 003e 131d 82bd
00000260: efb7 99bc a547 f9bd e15d 11bc d1a7 47be
00000270: 2e1f a13e 62f6 92bd a20e 193e bbb0 f33d
00000280: 3879 b73d 1835 26bd 8476 d6bd fca1 2fbd
00000290: 2f7c 83bd a931 553c 2fc4 953d 6340 0a3e
000002a0: c0ff 683d fcb6 cbbb 7354 473d 45c9 bd3d
000002b0: ad3b f73d b87d de3d 2b7f 85b7 8082 013e
000002c0: 7821 f93c 4f24 073e 60b0 713c f134 d63c
000002d0: 56b6 bcbc 9907 9e3d 0c2c 32bc 2218 033e
000002e0: fb49 b03d e123 163e 3c25 da3d 2cd8 2a3e
000002f0: 9c6e 023e c997 433d f891 513d 18ac 133c
00000300: b698 7d3d a9b7 403d 3fe3 ac3d 3214 883d
00000310: 5050 3f3d 6ff5 173e 8fb9 0a3d e33a 083e
00000320: 96e4 103e c525 85bc 13b3 503d 469a e73d
00000330: 8e7d db3d 51ae 1f3e 1de0 593d 8c42 9c3c
00000340: e554 d43d d394 263d dc40 1c3e bbd8 223e
00000350: 4c76 69bc 4d07 bc3c e8d6 d23d 596b 9a3c
00000360: 70d2 a9bb c849 eb3d 5a74 c83d fcfc 073e
00000370: 5507 883d d552 8abc ace1 ef3d 31ad a53e
00000380: 0dcb 1b3e bb03 25bd 366f c7bc e655 073c
00000390: f88c 653d df53 88bb 8526 c53d 8b94 be3d
000003a0: 9abe 94bd 3257 6f3e a6c7 983d fbdb 97bd
000003b0: 6603 f5bd 6324 103e 986e 83be b76e 73be
000003c0: cf16 f2bb f152 e93d 32dd 47bd 7f1f 9b3d
000003d0: 70a8 6c3e 03a9 833e 7584 293e 3dc8 27be
000003e0: 3ba2 58bd 2e1d fbbd fafa 20bd 0396 e03b
000003f0: f4f7 31be 76d2 283d d7c3 67bb 16da 813e

fc1.bias f4 [3]
0.014423247 -0.11590916 0.039474882
00000000: 7c4f 6c3c c861 edbd 6ab0 213d

exp_avg f4 [2]
-0.0021321021 0.0006542363
00000000: bdba 0bbb 0e81 2b3a

exp_avg_sq f4 [2]
3.821026e-05 3.5568835e-05
00000000: f443 2038 bf2f 1538

exp_avg f4 [2]
-0.0016131025 0.00041264377
00000000: bd6e d3ba 1c58 d839

exp_avg_sq f4 [2]
7.060652e-05 0.00011698256
00000000: 9612 9438 8954 f538

exp_avg f4 [2]
-0.0016131025 0.00041264377
00000000: bd6e d3ba 1c58 d839

exp_avg_sq f4 [2]
7.060652e-05 0.00011698256
00000000: 9612 9438 8954 f538

exp_avg f4 [2]
-0.0021321021 0.0006542363
00000000: bdba 0bbb 0e81 2b3a

exp_avg_sq f4 [2]
3.821026e-05 3.5568835e-05
00000000: f443 2038 bf2f 1538

exp_avg f4 [2]
-0.00039665375 0.00032746774
00000000: f7f5 cfb9 faaf ab39

exp_avg_sq f4 [2]
3.5842065e-06 1.7659851e-05
00000000: 3388 7036 3e24 9437

exp_avg f4 [2]
0.019249095 -0.00076852035
00000000: 47b0 9d3c 8776 49ba

exp_avg_sq f4 [2]
0.0019696846 0.00011824331
00000000: d315 013b 65f9 f738

exp_avg f4 [2, 2, 1, 1]
2.1880525e-05 0.00012496643 0.00063696975 -0.00016935063
00000000: 128c b737 6c09 0339 51fa 263a b793 31b9

exp_avg_sq f4 [2, 2, 1, 1]
3.4975844e-07 5.1703154e-07 9.986926e-07 2.0374064e-06
00000000: 6fc6 bb34 23ca 0a35 d10a 8635 60ba 0836

exp_avg f4 [2, 2, 1, 1]
-0.004803745 -0.0058196285 -0.0017527574 0.00030426422
00000000: bc68 9dbb 95b2 bebb c7bc e5ba a785 9f39

exp_avg_sq f4 [2, 2, 1, 1]
0.00011680318 0.00025882208 3.9606916e-06 1.3535216e-05
00000000: 3bf4 f438 83b2 8739 15e6 8436 4f15 6337

exp_avg f4 [2, 2, 1, 1]
-0.00018632437 -0.0020723774 0.0011658034 0.0009456716
00000000: 1160 43b9 b9d0 07bb dfcd 983a f2e6 773a

exp_avg_sq f4 [2, 2, 1, 1]
3.7628473e-05 2.3679062e-05 8.02627e-06 7.09797e-06
00000000: 44d3 1d38 66a2 c637 91a8 0637 192b ee36

exp_avg f4 [2]
-0.00039665375 0.00032746774
00000000: f7f5 cfb9 faaf ab39

exp_avg_sq f4 [2]
3.5842065e-06 1.7659851e-05
00000000: 3388 7036 3e24 9437

exp_avg f4 [2, 2, 1, 1]
-0.00015122145 0.00068792305 0.0011617084 -0.00029056473
00000000: 3391 1eb9 bc55 343a 7744 983a f056 98b9

exp_avg_sq f4 [2, 2, 1, 1]
5.911568e-06 6.1200703e-06 2.7463414e-06 4.7091057e-06
00000000: fc5b c636 015b cd36 c94d 3836 e902 9e36

exp_avg f4 [2, 2, 1, 1]
-0.0011067346 -0.0036295159 0.0015987213 0.0011797618
00000000: da0f 91ba 2cdd 6dbb 2f8c d13a 3da2 9a3a

exp_avg_sq f4 [2, 2, 1, 1]
0.00024904803 4.0723244e-05 4.2421798e-05 4.940104e-05
00000000: a992 8239 40ce 2a38 0fee 3138 f633 4f38

exp_avg f4 [2, 2, 1, 1]
0.00014964725 -0.00048558545 0.00044404579 0.0002663934
00000000: a1ea 1c39 2d96 feb9 d1ce e839 b8aa 8b39

exp_avg_sq f4 [2, 2, 1, 1]
3.4506938e-06 1.4769938e-06 3.5411206e-06 3.4608304e-06
00000000: 7892 6736 1f3d c635 fda3 6d36 9d40 6836

exp_avg f4 [3]
0.024016501 0.0023307186 -0.026347235
00000000: 41be c43c f8be 183b 28d6 d7bc

exp_avg_sq f4 [3]
0.0018516934 0.0010111501 0.0010555042
00000000: 85b4 f23a 9188 843a d858 8a3a

exp_avg f4 [3, 110]
0.013802413 0.014154737 0.016801903 0.016788496 0.019370858 0.0147305215 0.01717879 0.012415452
0.016743269 0.009908964 0.015591767 0.007869009 0.00811663 0.016525576 0.014084535 0.011673078
0.0042362567 0.015659414 0.010401655 0.009307496 0.009314979 0.014529399 0.013802413 0.016724152
0.010475863 0.016273707 0.012904061 0.0074246908 0.009540292 0.012251835 0.01354017 0.010337327
0.008821413 0.0113056395 0.016118795 0.01066903 0.013831398 0.006772025 0.012322323 0.006365916
0.015074366 0.011000865 0.003871491 0.013025872 0.013802413 0.0068253893 0.009306162 0.008521835
0.0062040323 0.0059678545 0.0117599135 0.009240872 0.014187895 0.009845927 0.012475518 -0.010604469
-0.00995791 -0.00888439 -0.009267706 -0.009298489 -0.01111878 -0.011276331 -0.011081807 -0.009236887
-0.010006072 -0.010024435 -0.012114441 -0.011070355 -0.010356586 -0.009678649 -0.009931956 -0.009951282
-0.011340883 -0.009587874 -0.010246103 -0.010301191 -0.010496698 -0.010604469 -0.0117849335 -0.011174445
-0.010255612 -0.010244222 -0.010406172 -0.011044093 -0.010474283 -0.01048314 -0.011364683 -0.010410557
-0.0106502995 -0.011571057 -0.010094738 -0.011256302 -0.010493184 -0.011196261 -0.009591325 -0.010915702
-0.01100352 -0.010156164 -0.010865117 -0.010604469 -0.010838828 -0.010236044 -0.010030512 -0.010561566
-0.010188237 -0.010772712 -0.010424594 -0.010682607 -0.009996725 -0.010107084 0.0013383689 0.0016810249
0.0006664564 0.0009703818 0.0010398311 0.00060560653 -0.00016129608 -0.0001228374 -0.00035078567 0.00056239916
0.0012999134 0.0013222905 0.000715725 0.0010505866 0.00077372516 0.0009780921 4.7274836e-05 0.00046558707
-0.00019103887 0.00048561298 0.0004526773 0.001031887 0.0013383689 0.0005218315 0.0012693923 0.0010290445
0.00064492726 0.00034400806 0.00061002513 -0.00044650811 0.0006353754 1.2571475e-05 -0.00023779206 -1.2049404e-05
0.00020191475 0.00042158243 3.6689307e-05 0.00043552546 0.00089089305 0.0004309805 9.677983e-05 0.00062205445
9.393655e-05 3.3485798e-05 0.0013383689 0.0008754726 -0.00031548084 7.345277e-05 0.00024433198 1.7551423e-05
0.0002753028 0.0003019759 0.0010835349 0.00043382306 0.0009167981 -0.0010279206 -0.000677465 -0.00082057243
-0.00066759903 -0.00074750197 -0.0007618072 -0.001004577 -0.0010912057 -0.0011365411 -0.0009901116 -0.00075996213
-0.00089011865 -0.0008075803 -0.00075172144 -0.000831518 -0.0008618237 -0.0008614753 -0.0010875579 -0.00090573914
-0.0009430276 -0.0010075838 -0.000918227 -0.0010279206 -0.0009816816 -0.0009188283 -0.000865609 -0.0009424355
-0.0008353318 -0.0008666512 -0.0010529638 -0.0009779471 -0.0009697817 -0.00086610694 -0.000899488 -0.00096521433
-0.0009841735 -0.0009357895 -0.0009786008 -0.00092465995 -0.00090559036 -0.0009941142 -0.0009299285 -0.0009998862
-0.00091160426 -0.0010279206 -0.0009783211 -0.0009831456 -0.0009785426 -0.0009782918 -0.000985154 -0.0010562461
-0.00096343004 -0.0010977098 -0.0011034517 -0.00093359215 -0.0151407905 -0.015835771 -0.017468369 -0.01775889
-0.020410698 -0.015336136 -0.017017497 -0.012292623 -0.016392494 -0.010471367 -0.016891684 -0.0091913035
-0.00883236 -0.017576175 -0.014858269 -0.01265118 -0.0042835367 -0.016125008 -0.010210626 -0.009793119
-0.009767659 -0.015561294 -0.0151407905 -0.01724599 -0.011745263 -0.017302765 -0.013548992 -0.0077687027
-0.010150327 -0.011805334 -0.014175554 -0.010349906 -0.00858363 -0.011293594 -0.016320717 -0.01109062
00000000: 8423 623c 45e9 673c 25a4 893c 0788 893c
00000010: a2af 9e3c 4958 713c 89ba 8c3c 2e6a 4b3c
00000020: 2e29 893c 3559 223c 9c74 7f3c 04ed 003c
00000030: 9dfb 043c a560 873c d2c2 663c 7040 3f3c
00000040: 4cd0 8a3b 2c48 803c b46b 2a3c 787e 183c
00000050: db9d 183c b70c 6e3c 8423 623c 1701 893c
00000060: f4a2 2b3c 7050 853c 8e6b 533c d24a f33b
00000070: e34e 1c3c ecbb 483c 97d7 5d3c e45d 293c
00000080: b087 103c 4a3b 393c 900b 843c 28cd 2e3c
00000090: 179d 623c dde7 dd3b 92e3 493c 2d99 d03b
000000a0: 79fa 763c f93c 343c d7b8 7d3b 786a 553c
000000b0: 8423 623c 84a7 df3b df78 183c 2b9f 0b3c
000000c0: 324b cb3b fe8d c33b a7ac 403c 0767 173c
000000d0: 5874 683c d050 213c 1d66 4c3c 5ebe 2dbc
000000e0: 8026 23bc d58f 11bc 94d7 17bc b158 18bc
000000f0: 8b2b 36bc 5cc0 38bc 7890 35bc 5056 17bc
00000100: 82f0 23bc 873d 24bc a67b 46bc 6f60 35bc
00000110: acae 29bc 3293 1ebc a5b9 22bc b40a 23bc
00000120: 1ccf 39bc 7516 1dbc 45df 27bc 54c6 28bc
00000130: 58fa 2bbc 5ebe 2dbc 9815 41bc 0515 37bc
00000140: 2807 28bc 62d7 27bc a67e 2abc 49f2 34bc
00000150: 549c 2bbc 7ac1 2bbc ef32 3abc 0a91 2abc
00000160: 987e 2ebc 8894 3dbc 6664 25bc 5a6c 38bc
00000170: 9beb 2bbc 8670 37bc ef24 1dbc c6d7 32bc
00000180: 1c48 34bc 0a66 26bc 9b03 32bc 5ebe 2dbc
00000190: 5795 31bc 15b5 27bc 0457 24bc 6b0a 2dbc
000001a0: 90ec 26bc 0780 30bc ebcb 2abc 1a06 2fbc
000001b0: 4ec9 23bc 2f98 25bc 356c af3a d655 dc3a
000001c0: 22b5 2e3a 3861 7e3a f14a 883a 91c1 1e3a
000001d0: 9621 29b9 eacd 00b9 a8e9 b7b9 f86d 133a
000001e0: db61 aa3a b550 ad3a 7e9f 3b3a d6b3 893a
000001f0: d1d3 4a3a 5333 803a f848 4638 0a1a f439
00000200: 9b51 48b9 df99 fe39 5255 ed39 6240 873a
00000210: 356c af3a 85cb 083a bd61 a63a 01e1 863a
00000220: 5610 293a fb5b b439 18ea 1f3a 4e19 eab9
00000230: 528f 263a 13ea 5237 d257 79b9 cc27 4ab7
00000240: 14b9 5339 d607 dd39 d8e2 1938 3d57 e439
00000250: d28a 693a 39f5 e139 47f6 ca38 5e11 233a
00000260: cdff c438 1a73 0c38 356c af3a f97f 653a
00000270: 1f67 a5b9 a80a 9a38 af19 8039 653b 9337
00000280: 8456 9039 8552 9e39 6605 8e3a bf72 e339
00000290: 4755 703a 4bbb 86ba e897 31ba af1b 57ba
000002a0: d001 2fba 02f4 43ba 04b4 47ba 03ac 83ba
000002b0: ca06 8fba fef7 94ba a2c6 81ba 3238 47ba
000002c0: da56 69ba ccb3 53ba 2c0f 45ba 3afa 59ba
000002d0: 02ec 61ba a1d4 61ba 638c 8eba 206f 6dba
000002e0: 8335 77ba e710 84ba 2cb5 70ba 4bbb 86ba
000002f0: c5ab 80ba 86dd 70ba 09ea 62ba c70d 77ba
00000300: 2bfa 5aba fa2f 63ba 9a03 8aba 762e 80ba
00000310: f338 7eba 740b 63ba 9ecb 6bba 7006 7dba
00000320: 62ff 80ba c54f 75ba 6544 80ba e164 72ba
00000330: 2465 6dba f04c 82ba 72c6 73ba 9d0e 83ba
00000340: baf8 6eba 4bbb 86ba 023b 80ba e4dc 80ba
00000350: 7142 80ba 073a 80ba 4820 81ba bd71 8aba
00000360: b28e 7cba 07e1 8fba b2a1 90ba 4fbc 74ba
00000370: 1411 78bc 05ba 81bc d319 8fbc 177b 91bc
00000380: 5634 a7bc 6b44 7bbc 4768 8bbc ff66 49bc
00000390: 8d49 86bc 1990 2bbc 6e60 8abc 1f97 16bc
000003a0: 9ab5 10bc e9fb 8fbc 1970 73bc e546 4fbc
000003b0: e95c 8cbb 9818 84bc 784a 27bc 5173 20bc
000003c0: 8808 20bc ccf4 7ebc 1411 78bc 7647 8dbc
000003d0: 346f 40bc 87be 8dbc 97fc 5dbc 9a90 febb
000003e0: 8f4d 26bc 296b 41bc 9540 68bc a792 29bc
000003f0: 5ba2 0cbc c408 39bc 06b3 85bc 6fb5 35bc

exp_avg_sq f4 [3, 110]
0.00023955318 0.0003102519 0.00032779147 0.00030259628 0.00031789442 0.0003076167 0.00026095042 0.00024949497
0.00024444182 0.00018542587 0.00022038464 0.00013946938 0.00025241857 0.00030138105 0.00025914752 0.0003058029
0.00020774166 0.00018430153 0.00027912782 0.00024793702 0.00021628902 0.00023288668 0.00023955318 0.00015734143
0.00021170569 0.00024180609 0.00019086654 0.00022536998 0.00022555447 0.00017035067 0.00022830664 0.00015710107
0.00016136993 0.00015835563 0.00020764553 0.00014585251 0.00013667841 0.00014453307 0.00020856774 0.00014282344
0.00019527641 0.00020919325 0.0001413062 0.00020187498 0.00023955318 0.00013105276 0.00014730798 0.00013684845
0.00013045776 0.00012952671 0.00013583995 0.00014824039 0.00014679416 0.00016517984 0.00020435566 0.00024316192
0.00017187929 0.00017198035 0.00018411086 0.00017332444 0.00018051472 0.0001927601 0.0002124629 0.0002183458
0.00022614459 0.0002152863 0.00024556063 0.00020920135 0.00019064169 0.00020176164 0.00019624445 0.00020005924
0.00022870851 0.00020568505 0.00021122105 0.00022550666 0.0002163427 0.00024316192 0.000244854 0.00023599947
0.00022870228 0.0002262511 0.00021552687 0.00021932423 0.00022943279 0.00022706234 0.00022980849 0.00021972012
0.00024675168 0.0002402954 0.0002410667 0.0002310772 0.00024529343 0.00023250912 0.0002084758 0.00023971658
0.0002247827 0.00023207616 0.00022778902 0.00024316192 0.00023970514 0.00023935478 0.0002474208 0.00024984856
0.0002448937 0.00025398086 0.00023870204 0.0002494496 0.00024632693 0.00022900186 2.3259587e-05 3.1471827e-05
2.2273665e-05 1.6398168e-05 1.6275178e-05 1.1861903e-05 1.7196244e-05 8.333133e-06 1.3484919e-05 5.5579585e-06
2.0855063e-05 4.2283355e-06 7.214011e-06 2.3282972e-05 1.5552736e-05 1.7193799e-05 8.433521e-06 1.4660105e-05
1.3813985e-05 2.0142064e-05 1.15795165e-05 1.4768793e-05 2.3259587e-05 6.0950542e-06 1.0757849e-05 2.0198573e-05
6.458595e-06 5.180343e-06 1.3515416e-05 7.034141e-06 1.0697221e-05 8.732219e-06 4.5840343e-06 4.164894e-06
6.618456e-06 5.253671e-06 5.0563294e-06 3.851142e-06 2.0770085e-05 5.9157624e-06 7.71695e-06 6.3211196e-06
5.2100763e-06 4.3489076e-06 2.3259587e-05 7.6009815e-06 4.673351e-06 4.3407053e-06 7.1506574e-06 5.4867887e-06
7.967985e-06 8.54103e-06 1.1426059e-05 6.152264e-06 1.6583977e-05 7.64989e-05 4.577429e-05 4.2973494e-05
5.7508667e-05 5.7323112e-05 5.101675e-05 5.793599e-05 5.8609163e-05 6.7314875e-05 6.246536e-05 5.8829744e-05
7.190283e-05 6.0258048e-05 5.6133624e-05 6.3588006e-05 6.368386e-05 4.7555815e-05 6.0049388e-05 5.9164096e-05
6.5544824e-05 6.446403e-05 6.670984e-05 7.64989e-05 7.256298e-05 7.0993825e-05 7.513229e-05 7.284539e-05
6.761678e-05 6.6341454e-05 6.588076e-05 7.2180745e-05 6.972299e-05 7.165386e-05 7.625233e-05 7.080006e-05
7.350077e-05 7.190431e-05 7.4833224e-05 6.7999455e-05 5.7363824e-05 7.1616385e-05 6.8005604e-05 7.180943e-05
7.080325e-05 7.64989e-05 7.497706e-05 7.4841475e-05 7.683387e-05 7.76397e-05 7.808823e-05 7.904385e-05
7.576688e-05 7.701649e-05 7.543632e-05 7.096213e-05 0.00022017243 0.00028204403 0.00033631834 0.00033040755
0.00030940026 0.0002940335 0.00023611366 0.00023791422 0.00023484224 0.00018010153 0.00021499784 0.00013867518
0.00024160183 0.00031450734 0.00026000603 0.0002912533 0.00020020011 0.00016928183 0.00025589 0.00021972602
0.00020702471 0.00024220222 0.00022017243 0.00015156873 0.00021590736 0.00023423872 0.00018412108 0.00022028472
0.00020739659 0.00016358383 0.00021225969 0.00014434478 0.0001547015 0.00015727976 0.00020261182 0.00014308696
00000000: 9130 7b39 4ea9 a239 6ddb ab39 c9a5 9e39
00000010: 11ab a639 9d47 a139 2cd0 8839 a6ce 8239
00000020: 6d28 8039 e16e 4239 0d17 6739 873e 1239
00000030: 0c57 8439 ae02 9e39 31de 8739 2c54 a039
00000040: 3ad5 5939 1141 4139 e757 9239 8bfd 8139
00000050: a4cb 6239 0b33 7439 9130 7b39 05fc 2439
00000060: 50fd 5d39 548d 7d39 5923 4839 4b51 6c39
00000070: d182 6c39 29a0 3239 9965 6f39 7fbb 2439
00000080: 6935 2939 440c 2639 6cbb 5939 fcef 1839
00000090: 5551 0f39 cd8d 1739 fab2 5a39 e0c2 1539
000000a0: 1dc3 4c39 e35a 5b39 982b 1439 67ae 5339
000000b0: 9130 7b39 356b 0939 af76 1a39 fa7e 0f39
000000c0: 7dcb 0839 90d1 0739 4270 0e39 fa70 1b39
000000d0: c2ec 1939 2034 2d39 4e48 5639 48f9 7e39
000000e0: 7f3a 3439 a055 3439 e20d 4139 6dbe 3539
000000f0: 8d48 3d39 a51f 4a39 93c8 5e39 c1f3 6439
00000100: 3a21 6d39 7abe 6139 97be 8039 0f5d 5b39
00000110: fde6 4739 fa8f 5339 f8c6 4d39 fec6 5139
00000120: 79d1 6f39 29ad 5739 387b 5d39 fc75 6c39
00000130: 0dda 6239 48f9 7e39 bf5f 8039 a076 7739
00000140: cdcf 6f39 d13d 6d39 0eff 6139 66fa 6539
00000150: e593 7039 9517 6e39 bff8 7039 ac64 6639
00000160: 735e 8139 cef7 7b39 d9c6 7c39 504d 7239
00000170: ba9a 8039 b1cd 7339 4c9a 5a39 6e5c 7b39
00000180: a6b3 6b39 7859 7339 a6da 6e39 48f9 7e39
00000190: 5c59 7b39 4ffb 7a39 42b8 8139 1bfe 8239
000001a0: 1365 8039 bc28 8539 174c 7a39 8fc8 8239
000001b0: 7125 8139 3820 7039 951d c337 9e00 0438
000001c0: 55d8 ba37 cc8e 8937 ae86 8837 7c02 4737
000001d0: a740 9037 89ce 0b37 493d 6237 807e ba36
000001e0: e8f1 ae37 20e1 8d36 e20f f236 cd4f c337
000001f0: 3f77 8237 673b 9037 b27d 0d37 acf4 7537
00000200: 9dc2 6737 c1f6 a837 a545 4237 7cc7 7737
00000210: 951d c337 1e84 cc36 9c7c 3437 1b70 a937
00000220: e9b6 d836 cfd2 ad36 45c0 6237 d006 ec36
00000230: 3778 3337 9880 1237 8ed0 9936 2bc0 8b36
00000240: 1b14 de36 b148 b036 8aa9 a936 0f39 8136
00000250: 6b3b ae37 0380 c636 0c78 0137 011a d436
00000260: 37d2 ae36 d5ec 9136 951d c337 ef0b ff36
00000270: c8cf 9c36 60a6 9136 aeef ef36 281b b836
00000280: 3cae 0537 724b 0f37 8db2 3f37 8c6f ce36
00000290: d21d 8b37 096e a038 c5fd 3f38 703e 3438
000002a0: 7635 7138 396e 7038 d1fa 5538 4c00 7338
000002b0: 1cd3 7538 662b 8d38 d6ff 8238 f5bf 7638
000002c0: 8aca 9638 96bd 7c38 0571 6b38 8d5a 8538
000002d0: 038e 8538 ab76 4738 8add 7b38 f726 7838
000002e0: 1c75 8938 dd30 8738 93e6 8b38 096e a038
000002f0: f42c 9838 85e2 9438 5790 9d38 92c4 9838
00000300: 7bcd 8d38 cc20 8b38 7729 8a38 be5f 9738
00000310: 3f38 9238 e044 9638 a8e9 9f38 7e7a 9438
00000320: 6d24 9a38 55cb 9638 c8ef 9c38 ee9a 8e38
00000330: f099 7038 c130 9638 3b9e 8e38 6598 9638
00000340: 357c 9438 096e a038 013d 9d38 36f4 9c38
00000350: df21 a138 7fd2 a238 4dc3 a338 58c4 a538
00000360: 09e5 9e38 ea83 a138 9133 9e38 81d1 9438
00000370: 16de 6639 4fdf 9339 e253 b039 8d3a ad39
00000380: 0037 a239 8228 9a39 4795 7739 9d78 7939
00000390: fc3f 7639 a3d9 3c39 0b71 6139 5669 1139
000003a0: 7f56 7d39 76e4 a439 6b51 8839 5bb3 9839
000003b0: cfec 5139 3f81 3139 f928 8639 4166 6639
000003c0: c614 5939 aaf7 7d39 16de 6639 6cee 1e39
000003d0: 3165 6239 fa9d 7539 a010 4139 3bfc 6639
000003e0: 9978 5939 b387 2b39 0792 5e39 425b 1739
000003f0: 5e37 2239 77eb 2439 3274 5439 9d09 1639

exp_avg f4 [2]
0.019249095 -0.00076852035
00000000: 47b0 9d3c 8776 49ba

exp_avg_sq f4 [2]
0.0019696846 0.00011824331
00000000: d315 013b 65f9 f738

exp_avg f4 [2, 2, 1, 1]
-0.00063506776 0.00038398115 0.0015961176 -0.00022562925
00000000: ad7a 26ba 1451 c939 d234 d13a e496 6cb9

exp_avg_sq f4 [2, 2, 1, 1]
1.2868271e-05 1.086984e-05 8.2189445e-06 1.445629e-05
00000000: cee4 5737 9b5d 3637 19e4 0937 4b89 7237

exp_avg f4 [2, 2, 1, 1]
-0.012920334 0.02352401 -0.0028939666 -0.0018118013
00000000: cfaf 53bc 6db5 c03c b4a8 3dbb f779 edba

exp_avg_sq f4 [2, 2, 1, 1]
0.0006658836 0.0006920279 0.0002093484 0.000115779396
00000000: b18e 2e3a 3569 353a 8984 5b39 97ce f238
