scripts/python/deep-learning/experiments/cnn3d/013/model-cnn3d-epoch-60.pth (torch_old, 19731 bytes, 36 tensors)

conv1.weight f4 [5, 2, 65, 1, 2]
0	0x3d4eb3ef	0.050464567
1	0xbd03b83d	-0.032158125
2	0xbb0298d4	-0.0019927518
3	0x3c251697	0.010076187
4	0x394f0b6f	0.00019745318
5	0x3ccea932	0.025227163
6	0xbcf6ade3	-0.030112213
7	0x3d0158a7	0.031578686
8	0x3d711a52	0.05886299
9	0x3d679adf	0.05654418
10	0xbd4f53d8	-0.05061707
11	0xbb47bdbd	-0.0030478083
12	0xbca80d60	-0.02051419
13	0xbc36bb96	-0.011153122
14	0xbd0e4ef3	-0.03474326
15	0xbd94bf5b	-0.07263061
16	0x3c23797e	0.009977696
17	0x3c8e2ed7	0.01735632
18	0xbca567f1	-0.020191165
19	0xbd464495	-0.04840525
20	0x3d35612e	0.04428213
21	0xbc823849	-0.01589598
22	0xbd386c40	-0.04502511
23	0xbd367c4f	-0.044552144
24	0xbd322a50	-0.043497384
25	0x3c8db1d4	0.01729671
26	0xbd3b4e72	-0.04572911
27	0xbd2f9bc5	-0.042873163
28	0xbca516ee	-0.020152535
29	0x3aba1771	0.001419766
30	0xbcf9aa71	-0.03047678
31	0xbd06bbc6	-0.03289392
32	0x3d6b0609	0.057378802
33	0xbd19ff33	-0.037596893
34	0x3c0d386e	0.008619411
35	0x3ce6a7df	0.028156219
36	0x3cb02db3	0.021506166
37	0xbd71b5db	-0.05901132
38	0x3d45c831	0.04828662
39	0x3cde5279	0.027138935
40	0x3d80bb42	0.062857166
41	0x3caba507	0.020952715
42	0xba91831c	-0.0011101696
43	0xbd8d349c	-0.068948
44	0x3cb11f32	0.02162132
45	0xbcee44d0	-0.029085547
46	0x3b020ac2	0.0019842838
47	0xbd243313	-0.04008777
48	0xbd1baa0e	-0.038003974
49	0x3be4a587	0.00697774
50	0xbbaef6d4	-0.005339483
51	0x3cb3c9a7	0.021946741
52	0x3d1ba544	0.037999406
53	0xbd3613ac	-0.044452354
54	0x3d4509b0	0.04810494
55	0xbcdbd6ed	-0.026835883
56	0x3d6d8aec	0.057993814
57	0x3c55786a	0.013029197
58	0xbd832ac6	-0.06404643
59	0xbcfae7e6	-0.030628156
60	0x3c829cc5	0.015943894
61	0x3acdc295	0.0015698249
62	0x3d2cb9cb	0.042169373
63	0x3ced5141	0.028969409
64	0xbc7c9266	-0.0154157635
65	0x3cc60ef8	0.02417706
66	0xbc5cbc88	-0.013472684
67	0xbda1bb1a	-0.07897015
68	0x3d168912	0.036751814
69	0x3d29e86b	0.041481417
70	0xbd2ba3d8	-0.0419043
71	0x3c7e1207	0.015507228
72	0xbc02e3da	-0.007988894
73	0x3bc9f9b0	0.0061637983
74	0xbc2ecff3	-0.010669696
75	0xbd93b2ac	-0.07211813
76	0xbb604787	-0.003422232
77	0x3d0cc256	0.03436502
78	0xbc8cb162	-0.017174426
79	0x3c8a65ae	0.016894188
80	0x3d1de710	0.038550436
81	0x3d77441e	0.060367696
82	0xbabed4c1	-0.0014559255
83	0x3a33c54d	0.0006857708
84	0x3d3784d4	0.04480441
85	0x3ccb38ad	0.024807299
86	0x3c3b566b	0.011434178
87	0xbd715c35	-0.058925826
88	0xbca6c638	-0.02035819
89	0xbc93a1c9	-0.018021481
90	0xbd2b77bf	-0.041862246
91	0x3d1f7a3c	0.03893493
92	0xbc9ee6de	-0.019397195
93	0x3d08d758	0.033408493
94	0xbc0bfcf3	-0.0085441945
95	0xbd0ac7e8	-0.03388205
96	0xbd6fbd1b	-0.058529954
97	0x3d050d2f	0.032483276
98	0x3c7d4de9	0.01546047
99	0xbd0281b6	-0.031861983
100	0xbd1126dd	-0.035437454
101	0x3d346941	0.04404569
102	0x3ce12f09	0.027488248
103	0x3d0243e0	0.031803012
104	0xbd52d3c1	-0.051471476
105	0x3cfd7151	0.030937823
106	0xbc72ca9f	-0.014818816
107	0xbd5b3027	-0.05351272
108	0xbc296838	-0.010339789
109	0xbcda9908	-0.0266843
110	0xbd538f6c	-0.05165045
111	0x3c95c06f	0.018280236
112	0xbd30845a	-0.04309497
113	0x3d3ed0ab	0.04658572
114	0xbb2eb76d	-0.0026659623
115	0x3ce54d82	0.02799106
116	0x3d0d0672	0.034429975
117	0xba31df56	-0.0006785294
118	0xbd6ee390	-0.05832249
119	0x3d16d4cf	0.036824044
120	0x3c5998c1	0.013281048
121	0x3c3496ed	0.011022312
122	0x3c374432	0.011185693
123	0xbbe9cb4b	-0.00713483
124	0xbc17714b	-0.00924332
125	0xbd1198e0	-0.035546184
126	0x3c11a556	0.008889517
127	0xbd2f2ee6	-0.042769335
128	0xbd514898	-0.05109462
129	0xbcc461f8	-0.023972496
130	0x3d5332ad	0.051562
131	0x3bc3374c	0.0059575196
132	0xbd88ffa1	-0.06689382
133	0xbd1b4dd1	-0.03791601
134	0x3c9a9adb	0.018872669
135	0xbb6cb9b6	-0.0036121435
136	0xbd906e93	-0.0705234
137	0xbcdcaa52	-0.026936684
138	0xbb9b6274	-0.004741961
139	0xbd624eb9	-0.055250857
140	0xbd71ff4f	-0.059081372
141	0xbca42e86	-0.020041715
142	0xbcb8857f	-0.022524593
143	0x3cde1eac	0.027114235
144	0xbd7fa451	-0.062412564
145	0x3cd591dd	0.02607053
146	0x3d49cb88	0.04926637
147	0xbc37f397	-0.01122751
148	0xbcf9c6a1	-0.030490221
149	0xbd0550dd	-0.03254782
150	0x3d7acd42	0.061230905
151	0x3d6cbb78	0.05779597
152	0xbd871c73	-0.06597223
153	0xbd42e2ac	-0.047579452
154	0xbbcc892e	-0.006241939
155	0x3c3f9360	0.011692852
156	0x3cb5f8cb	0.02221336
157	0xbd53f516	-0.051747404
158	0x3d7f4c0b	0.06232838
159	0x3cc022c1	0.023454072
160	0x3cda4a8c	0.026646875
161	0x3d03d26f	0.032183107
162	0x3c91e794	0.01781062
163	0xbcbb8708	-0.022891536
164	0x3b60a116	0.0034275702
165	0x3ca5a2c9	0.020219224
166	0xbcee89ba	-0.029118408
167	0x3d5637d5	0.05229934
168	0x3d367597	0.044545736
169	0x3ce025a1	0.027361693
170	0x3d45fdc8	0.048337728
171	0x3d06e6cd	0.032934953
172	0x3d413463	0.0471691
173	0xbd864f23	-0.06558063
174	0xbb1bf917	-0.0023799592
175	0x3cd815bc	0.026377551
176	0xbd65341b	-0.055957895
177	0xbd641621	-0.055685166
178	0xbd51c406	-0.051212333
179	0xbd5ce39c	-0.053928003
180	0xbd656552	-0.05600483
181	0xbd02a403	-0.031894695
182	0x3c1d37e8	0.009595849
183	0x3c75c69f	0.015000968
184	0x3a8d89cd	0.0010798514
185	0x3d282926	0.041054867
186	0xbca9e8a5	-0.020740816
187	0xbc096782	-0.008386495
188	0x3cd59290	0.026070863
189	0xbb94bcc9	-0.0045391065
190	0xbd26b0c2	-0.040695913
191	0x3cffc752	0.031222973
192	0x3d06fe9b	0.032957654
193	0xbc08f331	-0.008358763
194	0x3d5510b9	0.0520179
195	0xbd68291c	-0.05667983
196	0x3cf75e35	0.030196289
197	0xbcd1f8d6	-0.02563135
198	0xbc4f99fb	-0.012670989
199	0xbd347e57	-0.0440658
200	0xbd074bd1	-0.03303129
201	0xbd5a656e	-0.053319387
202	0xbd5fbf31	-0.054625694
203	0x3c739bba	0.014868671
204	0x3be4fabe	0.0069878986
205	0x3d222b18	0.03959188
206	0xbcde80ae	-0.027160969
207	0x3ce8445e	0.028352913
208	0xbc886476	-0.016649466
209	0xbd38c4de	-0.045109622
210	0x3d50b12f	0.050950225
211	0x3d541885	0.051781196
212	0x3ba27b7c	0.004958568
213	0x3c679db1	0.014136718
214	0x3d2705a2	0.040776856
215	0xbc294b53	-0.0103329
216	0x3d40169b	0.04689656
217	0x3c933da1	0.017973723
218	0xbc2e64a2	-0.01064411
219	0xbd3b1ac8	-0.045679837
220	0xbd858534	-0.06519547
221	0x3c34afe4	0.011028264
222	0x3cc73166	0.024315547
223	0xbc335fe1	-0.010948152
224	0xbcd0a467	-0.025469018
225	0xbd243165	-0.04008617
226	0x3bcb7801	0.006209374
227	0xbd52cfd0	-0.051467717
228	0xbd121573	-0.035664987
229	0x3d00b0c8	0.03141859
230	0x3c24cdd9	0.0100588435
231	0xbd042bdd	-0.032268394
232	0xbd81f65f	-0.0634582
233	0xbcbd5c1f	-0.023115216
234	0xbc038220	-0.00802663
235	0x3ce2adb8	0.027670726
236	0x3d0e5301	0.034747127
237	0x3cec5fdc	0.028854303
238	0x3b327886	0.0027232482
239	0x3d0ad55f	0.033894893
240	0x3d37d79c	0.044883355
241	0x39e1ee74	0.00043093006
242	0x3cc744ce	0.0243248
243	0xbd37d290	-0.044878542
244	0xbd70baed	-0.058772016
245	0x3d08d697	0.033407774
246	0xbc8628c6	-0.016376864
247	0xbc890d0d	-0.016729856
248	0xbd181a16	-0.037134252
249	0x3ca0d7a6	0.01963408
250	0x3d42bd94	0.047544077
251	0xbc49d232	-0.012318181
252	0xbcc13dd1	-0.023589047
253	0xbd85ba4d	-0.06529675
254	0xbb027be7	-0.0019910277
255	0x3c560db5	0.013064791

conv1.bias f4 [5]
0	0xbc65b8b8	-0.014021091
1	0x3d230fba	0.03980992
2	0x3d6ae5ba	0.05734799
3	0x3d09f030	0.033676326
4	0xbaf28660	-0.0018503182

bn1.weight f4 [5]
0	0x3f1da45b	0.6157891
1	0x3f40c920	0.7530689
2	0x3eaabc2f	0.33346698
3	0x3eaa2149	0.3322852
4	0x3e89128e	0.2677197

bn1.bias f4 [5]
0	0xbc057a2b	-0.008146803
1	0xbc56380f	-0.013074889
2	0xbc35bdfc	-0.011092659
3	0x3c6b2610	0.0143523365
4	0x3c117530	0.008878037

bn1.running_mean f4 [5]
0	0x402a7474	2.6633577
1	0x405cf708	3.4525776
2	0x3ffba847	1.9660729
3	0x4017dd6d	2.3728898
4	0x3fe285b3	1.7697052

bn1.running_var f4 [5]
0	0x41173024	9.449253
1	0x41648b5c	14.284023
2	0x40e71c62	7.2222147
3	0x410bf427	8.7471075
4	0x40afb7f1	5.491204

conv2.weight f4 [10, 5, 1, 1, 1]
0	0x3bb8f87f	0.0056448574
1	0x3e3e8b15	0.18607743
2	0x3e320849	0.17385973
3	0xbed33b9a	-0.4125641
4	0xbe528324	-0.20557839
5	0xbe6cba9b	-0.2311806
6	0xbeb2b406	-0.34902972
7	0xbe778de5	-0.24175222
8	0xbeb8e09d	-0.36108866
9	0xbe5d0f9b	-0.21587984
10	0x3d944292	0.0723926
11	0xbdddd34b	-0.108313166
12	0x3ee30899	0.44342497
13	0x3ebd9c6c	0.37033403
14	0x3d151c66	0.036404036
15	0xbec3bedb	-0.3823155
16	0x3e16951f	0.14705323
17	0xbed3582a	-0.412782
18	0x3eb03e11	0.34422353
19	0x3e423e02	0.18968967
20	0xbe2a9373	-0.1665781
21	0xbedaff48	-0.4277289
22	0xbdd7d93a	-0.105394796
23	0x3e537955	0.20651753
24	0xbcb8efaf	-0.022575228
25	0x3d350b36	0.044200145
26	0x3edd1131	0.43177179
27	0x3d17dfb2	0.037078567
28	0xbe5bfb82	-0.21482661
29	0x3e7ee5dc	0.24892372
30	0x3e4f8bf3	0.2026823
31	0xbd8ab810	-0.067733884
32	0x3e8123de	0.25222677
33	0x3e975b38	0.29561782
34	0x3e3f7f98	0.18701017
35	0x3eb875c5	0.3602735
36	0x3d079cb6	0.033108436
37	0xbca75bca	-0.02042951
38	0x3ce1a22c	0.02754315
39	0xbe085ef3	-0.1331747
40	0x3e85351a	0.26017076
41	0x3e8c8557	0.2744548
42	0xbebd57c0	-0.3698101
43	0x3ea8f544	0.32999623
44	0xbed50e97	-0.41612694
45	0xbeb8af32	-0.36071163
46	0x3d893187	0.066989
47	0x3ea61545	0.32438102
48	0xbe842868	-0.25812078
49	0xbec9b8a1	-0.39398673

conv2.bias f4 [10]
0	0x3c8755a0	0.016520321
1	0x3ea88bd2	0.32919174
2	0x3de0f4d8	0.109842
3	0xbdd41b1c	-0.10356733
4	0xbdd009cc	-0.101581186
5	0xbc30a920	-0.01078251
6	0x3d11f2c8	0.035631925
7	0xbe5b7f6c	-0.21435326
8	0xbe1857e4	-0.14877278
9	0xbe96fb93	-0.2948881

bn2.weight f4 [10]
0	0x3f459e03	0.7719423
1	0x3f69aad4	0.9127629
2	0x3eb1434e	0.34621662
3	0x3f20d8b1	0.62830645
4	0x3f5970ef	0.8493795
5	0x3f756ae5	0.95866233
6	0x3ed514f2	0.41617543
7	0x3f392f7f	0.723381
8	0x3ef21889	0.47284344
9	0x3f5564fe	0.83357227

bn2.bias f4 [10]
0	0x3b853bcf	0.0040659676
1	0xbc025547	-0.007954902
2	0x3b253e63	0.0025214187
3	0x3b442cb3	0.002993387
4	0x3b58befc	0.003307282
5	0x3b9c7819	0.004775059
6	0xba93a610	-0.00112647
7	0xb8b4cfc7	-8.6217704e-05
8	0xba2e6b8a	-0.0006653598
9	0xbc0aeae2	-0.008478852

bn2.running_mean f4 [10]
0	0x3eb3d239	0.35121325
1	0x3f62432c	0.88383746
2	0x3f0f134c	0.5588882
3	0x3ed6e812	0.4197393
4	0x3ecccd80	0.40000534
5	0x3f277dc5	0.65426284
6	0x3ef9b04d	0.4876732
7	0x3e59c9cc	0.21268386
8	0x3f051b9a	0.5199524
9	0x3e1fa5d6	0.15590605

bn2.running_var f4 [10]
0	0x3dd394fb	0.1033115
1	0x3de0a6fe	0.10969351
2	0x3e971bfb	0.29513535
3	0x3e4d2a8c	0.20035762
4	0x3db37b32	0.08763732
5	0x3f7bb195	0.98317844
6	0x3eaaf3b7	0.33389065
7	0x3eca0851	0.3945947
8	0x3f402249	0.75052315
9	0x3dd1d905	0.10246471

conv3.weight f4 [5, 10, 1, 1, 1]
0	0x3d4a4b85	0.049388427
1	0x3b5ed6ac	0.0034002466
2	0x3daa4c1d	0.08315299
3	0xbe7cdddd	-0.24694009
4	0xbe391be1	-0.18077041
5	0x3df9af35	0.12191621
6	0x3de8dab4	0.11369839
7	0x3e277d62	0.16356423
8	0xbdf3d5db	-0.11906024
9	0x3e6c9095	0.23102029
10	0xbe15612f	-0.14587854
11	0xbdccdc2f	-0.10002934
12	0xbe1affd9	-0.1513666
13	0x3e22f1da	0.15912572
14	0xbe3f5cce	-0.18687746
15	0x3e594d91	0.21220995
16	0x3e46c301	0.19410326
17	0xbdec0093	-0.11523547
18	0xbe96c29b	-0.29445347
19	0x3e33e88a	0.17569175
20	0xbe9b2f07	-0.30309317
21	0x3af07edd	0.0018348355
22	0xbd9cb515	-0.07651726
23	0xbe07e216	-0.13269839
24	0x3e67b116	0.22626147
25	0x3e916424	0.28396714
26	0xbc699530	-0.0142567605
27	0x3b3da8f6	0.002893982
28	0xbde41948	-0.111376345
29	0xbe59fee9	-0.21288647
30	0x3e12efca	0.14349285
31	0xbe1dea7c	-0.1542148
32	0x3e2d4a4b	0.16922872
33	0xbe94a8eb	-0.29035124
34	0x3d85e1aa	0.06537183
35	0xbe8f20e9	-0.27954796
36	0x3dfb5bf3	0.12273397
37	0xbdaaab0b	-0.08333405
38	0xbdb6c2dd	-0.08923886
39	0xbe069efb	-0.13146584
40	0xbdc26902	-0.09492685
41	0xbe9d6f7b	-0.30749115
42	0xbe7bbbf8	-0.24583423
43	0x3e6b5257	0.22980629
44	0x3e7c92a2	0.24665311
45	0xbe1dd816	-0.15414461
46	0x3e38eb0c	0.18058413
47	0x3d651018	0.05592355
48	0x3c74584e	0.014913632
49	0xbe588a5a	-0.21146527

conv3.bias f4 [5]
0	0xbd4a4d70	-0.049390256
1	0x3e0dd622	0.13851216
2	0xbe025052	-0.12725952
3	0x3e371338	0.17878425
4	0xbe9ec002	-0.31005865

bn3.weight f4 [5]
0	0x3eb04f96	0.3443572
1	0x3e03e295	0.12879403
2	0x3e7ce6d2	0.24697426
3	0x3ea5cafe	0.32381433
4	0x3f01cd32	0.5070373

bn3.bias f4 [5]
0	0x3ad51154	0.0016255775
1	0xbba93618	-0.005163919
2	0xbc67226f	-0.014107331
3	0xbba21a25	-0.0049469643
4	0x3c0a6903	0.008447888

bn3.running_mean f4 [5]
0	0x3ed8c136	0.42334908
1	0x3f230d41	0.636921
2	0x3ee0143a	0.43765432
3	0x3f2adda0	0.6674442
4	0x3e9db067	0.30798647

bn3.running_var f4 [5]
0	0x3e908993	0.2822996
1	0x3e8881a9	0.26661423
2	0x3e6b102d	0.2295539
3	0x3dcd2421	0.10016657
4	0x3e8521ba	0.26002294

conv4.weight f4 [1, 5, 1, 1, 1]
0	0x3da3841d	0.07984183
1	0xbd2fb84d	-0.042900372
2	0x3e710eee	0.23540851
3	0xbd870864	-0.06593397
4	0xbdc1f0cf	-0.09469759

fc1.weight f4 [3, 11]
0	0x3d638e98	0.05555591
1	0x3e645b63	0.22300486
2	0x3e323b04	0.17405325
3	0x3df4d451	0.11954559
4	0x3e9f0c83	0.31064233
5	0xbc492efd	-0.012279269
6	0x3e47d832	0.19516066
7	0x3e8cf26e	0.2752871
8	0x3e200a67	0.15628968
9	0x3dca36ad	0.0987371
10	0x3e1893ce	0.14900133
11	0x3d10a3d4	0.03531249
12	0x3c937334	0.017999269
13	0x3c01cb93	0.007922071
14	0x3bc16dc2	0.0059029767
15	0x3ddf935a	0.10916777
16	0xbe1dedd4	-0.15422755
17	0x3db7d226	0.089756295
18	0x3d334a08	0.043771774
19	0x3d9f1382	0.07767393
20	0xbd8ed937	-0.06975024
21	0x3dbbb1d8	0.091647804
22	0xbdcca158	-0.099917114
23	0xbe5c2613	-0.21498899
24	0xbe80d0b2	-0.25159222
25	0xbe575028	-0.21026671
26	0x3e05e9aa	0.13077417
27	0xbe75f3bc	-0.24018759
28	0xbe5a24c3	-0.21303086
29	0xbd51719a	-0.05113373
30	0x3ce3a8d7	0.02779047
31	0xbe12248e	-0.14271757
32	0xbd5e8ca7	-0.054333355

fc1.bias f4 [3]
0	0x3fa7ab34	1.3099122
1	0xbf1d2948	-0.61391115
2	0xbf56aafe	-0.83854663

momentum_buffer f4 [5, 2, 65, 1, 2]
0	0xba8ce244	-0.0010748585
1	0xbb193c63	-0.002338194
2	0x3a6c8e6e	0.0009023909
3	0xbb300a54	-0.0026861625
4	0xba8c6042	-0.0010709839
5	0xbb19316f	-0.0023375412
6	0x3a6e017b	0.00090792
7	0xbb2fc2a2	-0.002681889
8	0xba8bcf68	-0.001066667
9	0xbb192df0	-0.0023373328
10	0x3a6f40ea	0.00091267994
11	0xbb2f73ac	-0.0026771827
12	0xba8b2f20	-0.0010618903
13	0xbb193267	-0.002337599
14	0x3a704c67	0.0009166658
15	0xbb2f1d90	-0.0026720501
16	0xba8a80d9	-0.0010566964
17	0xbb193f99	-0.0023383854
18	0x3a7121e5	0.0009198471
19	0xbb2ec064	-0.0026664967
20	0xba89c423	-0.0010510724
21	0xbb19555c	-0.0023396825
22	0x3a71c15e	0.00092222344
23	0xbb2e5b98	-0.0026604887
24	0xba88f84e	-0.0010449977
25	0xbb1973d0	-0.0023414977
26	0x3a7227b2	0.00092374824
27	0xbb2defd3	-0.0026540651
28	0xba881c8a	-0.0010384482
29	0xbb199b06	-0.0023438348
30	0x3a725008	0.0009243493
31	0xbb2d7de0	-0.0026472732
32	0xba872ed3	-0.0010313637
33	0xbb19ca0f	-0.0023466384
34	0x3a723b5e	0.0009240414
35	0xbb2d0548	-0.0026400853
36	0xba8630ea	-0.0010237966
37	0xbb1a00a7	-0.0023498924
38	0x3a71e9b0	0.00092282426
39	0xbb2c86f8	-0.0026325565
40	0xba8521ad	-0.0010157131
41	0xbb1a3d7e	-0.0023535187
42	0x3a71551d	0.0009206103
43	0xbb2c02cc	-0.0026246784
44	0xba83fecd	-0.0010070443
45	0xbb1a8073	-0.0023575097
46	0x3a708047	0.0009174388
47	0xbb2b791e	-0.002616472
48	0xba82c990	-0.0009978283
49	0xbb1ac78d	-0.0023617477
50	0x3a6f6d3f	0.00091334054
51	0xbb2aead8	-0.002607992
52	0xba8180c1	-0.0009880291
53	0xbb1b125b	-0.0023662064
54	0x3a6e194b	0.00090827484
55	0xbb2a58b2	-0.0025992808
56	0xba802596	-0.0009776826
57	0xbb1b5e53	-0.0023707345
58	0x3a6c8ac0	0.0009023361
59	0xbb29c39c	-0.0025903946
60	0xba7d6fa7	-0.00096678216
61	0xbb1baab7	-0.0023752877
62	0x3a6ac215	0.0008955312
63	0xbb292c58	-0.0025813784
64	0xba7a7110	-0.0009553591
65	0xbb1bf6a3	-0.002379813
66	0x3a68c22b	0.0008879031
67	0xbb28936c	-0.0025722636
68	0xba77525d	-0.00094345753
69	0xbb1c40f0	-0.0023842417
70	0x3a669251	0.00087956066
71	0xbb27f8fa	-0.002563058
72	0xba7418ec	-0.0009311575
73	0xbb1c8880	-0.0023885071
74	0x3a643bfa	0.0008706447
75	0xbb275d32	-0.0025537726
76	0xba70c952	-0.00091852725
77	0xbb1ccdd5	-0.0023926396
78	0x3a61bff3	0.00086116715
79	0xbb26c09f	-0.00254444
80	0xba6d6438	-0.0009055766
81	0xbb1d0fd9	-0.0023965745
82	0x3a5f2bb0	0.0008513285
83	0xbb262357	-0.0025350654
84	0xba69f046	-0.0008924048
85	0xbb1d4f35	-0.002400351
86	0x3a5c8252	0.0008411753
87	0xbb2585dc	-0.0025256788
88	0xba666e06	-0.00087901985
89	0xbb1d8a4c	-0.002403873
90	0x3a59ccf3	0.0008308433
91	0xbb24e85c	-0.002516291
92	0xba62e438	-0.0008655223
93	0xbb1dc132	-0.0024071452
94	0x3a571494	0.00082046655
95	0xbb244a98	-0.0025068875
96	0xba5f59f4	-0.0008520179
97	0xbb1df404	-0.0024101743
98	0x3a546151	0.00081016595
99	0xbb23aca5	-0.002497473
100	0xba5bd0b6	-0.00083852874
101	0xbb1e22c3	-0.0024129606
102	0x3a51bf90	0.00080012623
103	0xbb230eee	-0.0024880725
104	0xba5850cd	-0.00082517863
105	0xbb1e4d60	-0.0024155006
106	0x3a4f39dc	0.0007905045
107	0xbb2270be	-0.0024786438
108	0xba54ddf0	-0.00081202295
109	0xbb1e7325	-0.0024177518
110	0x3a4cdae2	0.00078145985
111	0xbb21d266	-0.0024692058
112	0xba517d8f	-0.0007991427
113	0xbb1e94fb	-0.0024197686
114	0x3a4aa8e6	0.00077308563
115	0xbb213385	-0.0024597358
116	0xba4e3000	-0.0007865429
117	0xbb1eb1e1	-0.002421491
118	0x3a48afb8	0.00076555787
119	0xbb209408	-0.0024502296
120	0xba4af95c	-0.0007742846
121	0xbb1ecbb6	-0.0024230308
122	0x3a46f3b6	0.00075894163
123	0xbb1ff2e6	-0.0024406253
124	0xba47d944	-0.00076236227
125	0xbb1ee21e	-0.0024243663
126	0x3a457c5a	0.00075334834
127	0xbb1f4f50	-0.0024308749
128	0xba44d2ee	-0.00075082376
129	0xbb1ef460	-0.0024254546
130	0xb9914ac3	-0.00027712257
131	0xbae20b82	-0.0017245861
132	0x3aa71504	0.0012747352
133	0xba98b707	-0.0011651226
134	0xb986f876	-0.0002574359
135	0xbae02567	-0.001710099
136	0x3aa25cbe	0.0012387258
137	0xba96ed41	-0.0011514799
138	0xb9795196	-0.00023776884
139	0xbade52a1	-0.0016961881
140	0x3a9db1c6	0.001203113
141	0xba952af3	-0.0011380598
142	0xb964c15c	-0.00021815806
143	0xbadc9340	-0.0016828552
144	0x3a99194e	0.0011680515
145	0xba9373e2	-0.0011249746
146	0xb950871a	-0.00019886755
147	0xbadae805	-0.0016701227
148	0x3a949955	0.00113372
149	0xba91ca8c	-0.0011122986
150	0xb93ca5fc	-0.00017990911
151	0xbad951da	-0.001658018
152	0x3a90379a	0.0011002899
153	0xba903177	-0.001100107
154	0xb929486c	-0.00016144075
155	0xbad7d330	-0.0016466137
156	0x3a8bf970	0.0010679197
157	0xba8eaa48	-0.0010884488
158	0xb9167f60	-0.00014352566
159	0xbad66ba7	-0.0016358987
160	0x3a87e372	0.0010367467
161	0xba8d3790	-0.0010774005
162	0xb9046ca2	-0.0001262897
163	0xbad51a42	-0.0016258436
164	0x3a83fce4	0.0010069874
165	0xba8bda16	-0.0010669853
166	0xb8e65204	-0.00010982531
167	0xbad3df65	-0.0016164599
168	0x3a8049fa	0.0009787672
169	0xba8a9453	-0.0010572769
170	0xb8c5b1c8	-9.426806e-05
171	0xbad2b8dd	-0.0016076822
172	0x3a799e58	0.0009522191
173	0xba8964e2	-0.0010482336
174	0xb8a6f670	-7.9613994e-05
175	0xbad1a5fa	-0.00159949
176	0x3a732101	0.00092746323
177	0xba884de6	-0.0010399192
178	0xb88a4200	-6.592646e-05
179	0xbad0a686	-0.0015918768
180	0x3a6d23a7	0.0009046145
181	0xba874de4	-0.0010322896
182	0xb85fb0a0	-5.3331838e-05
183	0xbacfb7fc	-0.0015847678
184	0x3a67aa76	0.00088373513
185	0xba866528	-0.0010253536
186	0xb82f7220	-4.182954e-05
187	0xbaced8ab	-0.0015781125
188	0x3a62c0fb	0.0008649972
189	0xba8593d9	-0.0010191157
190	0xb8043430	-3.1519856e-05
191	0xbace0a92	-0.0015719703
192	0x3a5e6c34	0.00084847515
193	0xba84d81c	-0.0010135206
194	0xb7bc4340	-2.2442662e-05
195	0xbacd4b5b	-0.0015662716
196	0x3a5aab3a	0.0008341555
197	0xba842f4a	-0.0010084894
198	0xb7751340	-1.460762e-05
199	0xbacc9b0d	-0.0015610174
200	0x3a578674	0.0008221634
201	0xba8399e0	-0.0010040365
202	0xb7071dc0	-8.053554e-06
203	0xbacbf76e	-0.0015561411
204	0x3a54fc44	0.0008124749
205	0xba83170c	-0.0010001375
206	0xb639a400	-2.7662609e-06
207	0xbacb61e2	-0.0015516842
208	0x3a5309d7	0.00080504775
209	0xba82a3ec	-0.0009967065
210	0x35b13600	1.3203244e-06
211	0xbacada3a	-0.0015476414
212	0x3a51adf3	0.0007998638
213	0xba823cbd	-0.0009936314
214	0x368b0280	4.142814e-06
215	0xbaca5fa9	-0.0015439886
216	0x3a50e650	0.00079688895
217	0xba81e206	-0.0009909279
218	0x36c24c00	5.790498e-06
219	0xbac9ef98	-0.0015406488
220	0x3a50ae0c	0.00079605053
221	0xba81905e	-0.0009884944
222	0x36d2de00	6.284332e-06
223	0xbac98bda	-0.0015376762
224	0x3a5103ac	0.00079732644
225	0xba814671	-0.0009862912
226	0x36bed100	5.686772e-06
227	0xbac930d6	-0.0015349637
228	0x3a51e041	0.0008006134
229	0xba81033e	-0.0009842885
230	0x3688b980	4.074711e-06
231	0xbac8df52	-0.0015325344
232	0x3a533c06	0.00080579554
233	0xba80c1ac	-0.0009823344
234	0x35c8de00	1.4965772e-06
235	0xbac897c2	-0.0015304016
236	0x3a55147a	0.00081283564
237	0xba80812c	-0.0009804121
238	0xb6048900	-1.9749277e-06
239	0xbac85807	-0.0015285023
240	0x3a576330	0.0008216379
241	0xba803f1a	-0.0009784431
242	0xb6d16800	-6.2407926e-06
243	0xbac8204a	-0.0015268412
244	0x3a5a1d44	0.0008320401
245	0xba7ff199	-0.0009763479
246	0xb73c1a00	-1.1211727e-05
247	0xbac7f27f	-0.0015254765
248	0x3a5d3e4e	0.0008439765
249	0xba7f5ab6	-0.0009740995
250	0xb78d16a0	-1.6819045e-05
251	0xbac7cb94	-0.0015243166
252	0x3a60c163	0.0008573739
253	0xba7eb4d6	-0.0009716278
254	0xb7c10960	-2.3011758e-05
255	0xbac7aca9	-0.0015233952

momentum_buffer f4 [10]
0	0x2f7f9f02	2.3248606e-10
1	0xb0ffa5a1	-1.8600766e-09
2	0x2fcd747e	3.7372055e-10
3	0x2f1d1b58	1.4288781e-10
4	0x2ee7e708	1.0545703e-10
5	0x308d6fd4	1.0290884e-09
6	0xafd632a3	-3.8962353e-10
7	0xaf47455a	-1.8123583e-10
8	0x3010bd70	5.26561e-10
9	0x30a24d50	1.1809025e-09

momentum_buffer f4 [5]
0	0x2fa6e620	3.0358738e-10
1	0x2f09e58e	1.2541632e-10
2	0xaf993518	-2.7868263e-10
3	0x2df633f0	2.7990027e-11
4	0x2fe74a31	4.207137e-10

momentum_buffer f4 [3, 11]
0	0xbe2417f2	-0.1602476
1	0xbd9062cf	-0.07050096
2	0xbd94abab	-0.072593056
3	0xbd4c87af	-0.049934085
4	0xbd670d91	-0.056409422
5	0xbdeb0ce4	-0.11477068
6	0xbd5f395a	-0.054498054
7	0xbdbbd87c	-0.091721505
8	0xbd9a30fd	-0.07528875
9	0xbd8b5c84	-0.06804755
10	0xbdc9cbba	-0.09853311
11	0x3dcaf554	0.09910074
12	0x3d5ffcdb	0.0546845
13	0x3d7b5168	0.061356932
14	0x3d23f57d	0.040029038
15	0x3d03a3df	0.0321387
16	0x3da12051	0.07867492
17	0x3d36af93	0.044601034
18	0x3d8335f4	0.06406775
19	0x3d1bee1b	0.038068872
20	0x3d3dc1b4	0.046327308
21	0x3caa7490	0.020807534
22	0x3d7a7520	0.061146855
23	0x3c819164	0.015816398
24	0x3c3817b4	0.01123612
25	0x3c2248e0	0.00990507
26	0x3cc6d354	0.024270691
27	0x3d13d92f	0.036095794
28	0x3c222735	0.009897043
29	0x3ce28a10	0.027653724
30	0x3d1873d8	0.037219852
31	0x3cb1eeab	0.021720251
32	0x3d9f2e9a	0.077725604

momentum_buffer f4 [1, 5, 1, 1, 1]
0	0xbcbcc18c	-0.02304151
1	0x3b52fddf	0.0032194776
2	0x3b97a9e0	0.004628405
3	0xbb97ddb0	-0.0046345815
4	0xbbc7dc0d	-0.00609923

momentum_buffer f4 [5, 10, 1, 1, 1]
0	0xbc32a77a	-0.010904187
1	0x3c123a0c	0.008924972
2	0xbafb246a	-0.0019160633
3	0x3832b0c0	4.260312e-05
4	0xbbc0701e	-0.0058727404
5	0xbbc212f8	-0.0059226714
6	0xbbebeeb7	-0.007200088
7	0xbb13f6d8	-0.002257755
8	0xbb28499a	-0.0025678636
9	0x3bacf45f	0.0052781547
10	0xb9ee9f1e	-0.0004551345
11	0xbac7a831	-0.001523262
12	0xb9d43c62	-0.0004048078
13	0xbabac2be	-0.0014248712
14	0xba7ccfd9	-0.0009644009
15	0x39e04e10	0.0004278277
16	0xb93a9c15	-0.00017796487
17	0x3943ad68	0.00018661248
18	0x39dd4554	0.00042204058
19	0xba56e4e6	-0.00081975607
20	0x3c48c080	0.012252927
21	0xbc1a1bd8	-0.0094060525
22	0xba58f0cc	-0.00082756276
23	0xbbbdc4e6	-0.0057912944
24	0x3baa1222	0.00519015
25	0x3c31d670	0.010854349
26	0xbacba184	-0.0015535806
27	0x3aa1053c	0.0012284885
28	0x3b95be76	0.004569824
29	0x3b86fca2	0.0041194716
30	0xbaa03e3a	-0.0012225576
31	0xbb005021	-0.001957901
32	0xb9209b7a	-0.00015316709
33	0x3a3a649a	0.0007110328
34	0xbb3ab4d7	-0.0028489137
35	0x3a1abbc4	0.0005902613
36	0xbabcb6c0	-0.0014397725
37	0x3ae94a9a	0.0017798722
38	0xba2f3434	-0.0006683499
39	0xbbb3e0aa	-0.0054894285
40	0xbb5b2096	-0.003343617
41	0xbacec18c	-0.0015774234
42	0x39955120	0.00028479937
43	0x3ac7824c	0.0015221327
44	0xbc1740b6	-0.009231737
45	0xbb8d50f8	-0.0043126307
46	0xbb5d50c0	-0.0033770055
47	0x3ab559ee	0.0013836005
48	0xbb014c1e	-0.0019729207
49	0xbba907b2	-0.005158388

momentum_buffer f4 [10]
0	0xbbac3791	-0.0052556475
1	0x3a899ef4	0.0010499642
2	0xb9b64403	-0.00034764418
3	0x3a8e0656	0.0010835628
4	0xb86535b4	-5.464787e-05
5	0x3b4a1eba	0.0030841068
6	0xbb7ee267	-0.003889227
7	0xba25e3d7	-0.0006328201
8	0xba24c91e	-0.00062860723
9	0x3b1f1c5e	0.0024278383

momentum_buffer f4 [5]
0	0xbb3d60ce	-0.0028896811
1	0x3afa4def	0.0019096712
2	0x3b8facfc	0.004384635
3	0xb97a8ff0	-0.00023895479
4	0xbb63e956	-0.003477653

momentum_buffer f4 [5]
0	0x3bd0252a	0.0063520866
1	0x3b6c8e47	0.0036095546
2	0xbac9b4a4	-0.0015388918
3	0xbb55d280	-0.0032626688
4	0x3ae8fedc	0.0017776149

momentum_buffer f4 [10]
0	0x3b5e8464	0.0033953423
1	0x3a124250	0.00055793393
2	0xbb85cfec	-0.004083624
3	0xbb05ba03	-0.002040506
4	0xb7938530	-1.7585786e-05
5	0xba88894b	-0.0010416893
6	0xba94cbfe	-0.0011352298
7	0x3a6afd93	0.0008964177
8	0xb98f2701	-0.00027304146
9	0x3aba3baa	0.0014208455

momentum_buffer f4 [5]
0	0xbbc72dd2	-0.0060784603
1	0xba1c5524	-0.00059636147
2	0xbc107ab8	-0.008818321
3	0x3ad6dce4	0.0016392735
4	0x3a9c7584	0.0011936878

momentum_buffer f4 [10, 5, 1, 1, 1]
0	0xbaa48bb4	-0.0012553842
1	0x3abd567a	0.0014445328
2	0xba74159b	-0.0009311081
3	0xb9a3dc38	-0.00031253858
4	0x3a928f94	0.0011181706
5	0x3b82f498	0.003996443
6	0xbafd4288	-0.0019322196
7	0xbb5ee2b4	-0.0034009637
8	0x3a491871	0.00076711836
9	0x3ab3991c	0.0013702246
10	0x3a36d162	0.00069739495
11	0x39474730	0.00019004638
12	0x38d96d9c	0.00010367783
13	0xb96c5d0e	-0.0002254138
14	0x395aa2be	0.00020850726
15	0x39d562a2	0.00040700013
16	0x3b67230e	0.0035268697
17	0x3a10093b	0.00054945395
18	0xba267bd5	-0.000635085
19	0x39e36200	0.0004336983
20	0x3baa60a4	0.0051995087
21	0xba0479e8	-0.0005053566
22	0x3b3fcd54	0.0029266672
23	0x3b8ff299	0.0043929336
24	0xbb145eec	-0.0022639586
25	0x394455f0	0.00018724031
26	0xba857cd1	-0.0010184293
27	0x3a987425	0.0011631293
28	0xba77c814	-0.0009452116
29	0x3a4304f7	0.00074393995
30	0x38904b2c	6.880457e-05
31	0x39928038	0.0002794282
32	0x3a7298bf	0.00092543283
33	0xba20059c	-0.00061043515
34	0xb986be72	-0.00025700364
35	0x398c9c64	0.000268194
36	0xbb1da12a	-0.002405236
37	0x3aa81032	0.0012822209
38	0x3a5c107b	0.000839479
39	0x38db7790	0.00010465004
40	0x3a034542	0.00050075736
41	0xba4d61cc	-0.0007834702
42	0xb8f80e3c	-0.00011828213
43	0x3a505ed7	0.00079487026
44	0x3a0b6cbe	0.0005318633
45	0x3a01b256	0.00049475336
46	0x3bedbf01	0.0072554355
47	0x3b4cde18	0.0031260308
48	0x3b620846	0.0034489795
49	0x3a8fbac6	0.0010965697

momentum_buffer f4 [5]
0	0xaeae9f5a	-7.9409104e-11
1	0xae72b889	-5.518833e-11
2	0xaf866210	-2.4444136e-10
3	0x2fc37501	3.555343e-10
4	0x2f2d567c	1.5764984e-10

momentum_buffer f4 [5]
0	0xbbadf8a7	-0.0053091827
1	0xba8fa4af	-0.0010959114
2	0x3b80044f	0.0039067636
3	0x3a7e568e	0.00097022287
4	0x3a92da87	0.0011204042

momentum_buffer f4 [3]
0	0xbd7c1bf6	-0.061550103
1	0xbd99df6b	-0.07513317
2	0x3e0bf6b0	0.13668323
