scripts/python/deep-learning/experiments/cnn3d/013/model-cnn3d-epoch-50.pth (torch_old, 19731 bytes, 36 tensors)

conv1.weight f4 [5, 2, 65, 1, 2]
00000000: d182 4e3d 0a4a 04bd f319 e4ba 9412 1f3c
00000010: 5bde 1e39 fb87 cd3c ae9d f4bc 09af ff3c
00000020: ffea 703d 930b 673d 624c 4ebd 7ed2 5fbb
00000030: 756a a8bc 13f3 38bc 1e48 0dbd 0b80 95bd
00000040: 42c2 223c 2716 8d3c 9c5b a3bc 27c6 47bd
00000050: 0834 353d c84d 83bc c566 37bd 05fe 37bd
00000060: d956 32bd b89f 8c3c 9349 3abd 861d 31bd
00000070: f06e a5bc 4f2e a93a 28a2 f7bc 903d 08bd
00000080: 83da 6a3d ac84 1abd 4646 113c 40a4 e33c
00000090: 7cd7 af3c 6539 72bd f6ca 463d fc4e db3c
000000a0: dfa5 803d c8a1 aa3c 4b82 62ba 74f5 8dbd
000000b0: 4eca b03c 0944 efbc 5020 123b a5b4 25bd
000000c0: 48d4 1bbd 1db9 e03b d7f1 a6bb dac6 b03c
000000d0: 467b 1b3d 238f 36bd 9509 463d 5ad9 debc
000000e0: 1261 6d3d 1993 533c 30ab 82bd d4e9 fdbc
000000f0: 4949 823c 72dd be3a 1cb8 2d3d df4f ea3c
00000100: 2039 7dbc 1125 c53c 57c6 58bc 547b a2bd
00000110: 655f 163d b275 293d 13a7 2abd d811 783c
00000120: a68a 03bc e575 c63b 4de0 2abc 9272 94bd
00000130: bfe3 62bb 1c54 0c3d 4cbb 8abc 0a67 873c
00000140: 2ebd 1d3d 3dd8 763d e48f 9fba 6b15 a839
00000150: cb5a 373d 7165 ca3c 603b 3f3c bada 72bd
00000160: 781a a7bc 5970 94bc 767f 2abd 28fc 1d3d
00000170: 733b 9fbc 5f72 083d 931f 08bc 9445 0cbd
00000180: 9be7 6fbd 82aa 043d aa93 803c e3fe 03bd
00000190: 8951 11bd dd08 343d c419 e33c 2cc7 003d
000001a0: 99fe 52bd 16b5 fc3c 46f9 6ebc 65ac 5cbd
000001b0: 5414 2abc bd50 dbbc 1b9c 52bd f6c8 923c
000001c0: 92af 30bd 0e77 3e3d e492 1fbb 1c57 e23c
000001d0: 0cdb 0c3d 27b9 47ba 4df2 6dbd 1c5a 153d
000001e0: 90ea 583c 1042 333c 1805 3b3c 499c f5bb
000001f0: 1320 18bc f4eb 11bd 2762 153c 6fa8 30bd
00000200: 5f74 51bd dc03 c5bc 9402 533d 5a44 c33b
00000210: 6279 88bd 764b 1cbd 6a39 9a3c 4aa3 6cbb
00000220: cbe7 8fbd 57a9 debc 8cec 9cbb a04d 62bd
00000230: a2f0 70bd 3e31 a6bc f5e8 b8bc 5d20 de3c
00000240: 9994 7ebd 608b d33c 6a99 493d 93f1 37bc
00000250: 16a5 f7bc fc55 06bd e39a 7a3d a1bb 6c3d
00000260: 8993 86bd a5e9 43bd d61d cebb 6592 3f3c
00000270: 871e b83c e3fd 54bd 5c19 7f3d 5e21 c03c
00000280: 4972 dc3c bbc7 023d 2382 913c 5689 bbbc
00000290: 7aef 713b ab89 a33c 14ef eebc 3a36 563d
000002a0: 858b 373d bf08 de3c 45cb 453d b9e4 063d
000002b0: 394b 423d 52d7 86bd 211d 1fbb a610 d83c
000002c0: 4e1c 64bd 5928 65bd f4f5 51bd a4e6 5cbd
000002d0: 9c4c 64bd 35b8 03bd fc71 1c3c e2b8 753c
000002e0: b6bb b03a ff12 273d 934a aabc bf76 09bc
000002f0: 53c7 d73c ec7d 9dbb 1de1 26bd 1cbf ff3c
00000300: ca19 083d e05b 0dbc 08e1 543d 7b2d 68bd
00000310: 0396 f93c 4a31 d4bc 9e55 50bc ef82 34bd
00000320: 312f 06bd c083 5bbd 43ed 5fbd f488 733c
00000330: 90e4 ed3b ad0a 213d 00db debc f23a e83c
00000340: d528 86bc 5de7 39bd 1985 503d ea13 543d
00000350: 566e ab3b 0b0b 633c 8ada 263d 1b5d 29bc
00000360: 7235 413d 0cf0 903c 600c 2fbc ed1e 3bbd
00000370: 8ef5 84bd 3b0c 303c e0df c63c d26e 33bc
00000380: 0365 cebc 695c 25bd 143c ca3b 0cd3 52bd
00000390: 6ef5 10bd 5a07 ff3c 0f35 243c 742e 04bd
000003a0: 2c66 81bd 7bba bfbc 7d15 04bc 16aa e23c
000003b0: a473 0f3d 77fd e93c 5c41 303b 60d4 0a3d
000003c0: 72f8 383d e4af 1039 c500 c73c 8bd2 37bd
000003d0: e599 6fbd 82a1 073d da69 86bc d80a 89bc
000003e0: e6f8 16bd a669 9e3c 819e 423d edc8 49bc
000003f0: 34fb bebc b556 86bd a954 04bb 511c 563c
0.050417725 -0.03229717 -0.0017402753 0.009709019 0.00015150888 0.025089255 -0.029860344 0.031211393
0.05881786 0.056407522 -0.050365813 -0.0034152563 -0.020558575 -0.011288422 -0.034492604 -0.07299813
0.00993401 0.017222477 -0.019941144 -0.048772957 0.044239074 -0.0160283 -0.044775743 -0.044919986
-0.043539856 0.017166004 -0.045480322 -0.043241046 -0.0201945 0.0012907478 -0.03022869 -0.033261836
0.057337295 -0.037724182 0.008866852 0.027788281 0.021465056 -0.059136767 0.048533402 0.026771061
0.062816374 0.020829096 -0.0008640631 -0.06931582 0.021580841 -0.029207246 0.0022297092 -0.04045548
-0.038044244 0.0068580047 -0.0050947475 0.021579195 0.03795936 -0.0445701 0.048348982 -0.02720325
0.0579539 0.012913489 -0.06380308 -0.030995287 0.015904086 0.0014561845 0.04241191 0.028602539
-0.015455514 0.024065526 -0.013230882 -0.07933679 0.03671207 0.04137201 -0.04166324 0.015140973
-0.008028662 0.0060565346 -0.010429454 -0.07248415 -0.003462061 0.0342599 -0.016935013 0.016528625
0.038510494 0.060264815 -0.001217362 0.00032059415 0.04476432 0.024706574 0.011671871 -0.059290625
-0.020398363 -0.018119978 -0.041625462 0.038570553 -0.019437527 0.033312198 -0.008308309 -0.034246042
-0.058570486 0.03238917 0.015695412 -0.0322255 -0.03547815 0.043953765 0.027722247 0.031439945
-0.051512334 0.030848067 -0.014585799 -0.053875346 -0.010380823 -0.026771897 -0.051418405 0.017918091
-0.043136187 0.04650026 -0.0024349028 0.027629428 0.034388587 -0.00076188374 -0.058092404 0.036462888
0.013239518 0.0109410435 0.011414789 -0.0074954373 -0.009284991 -0.035625413 0.00911764 -0.04312938
-0.05113637 -0.024049692 0.05151613 0.005959076 -0.06663777 -0.038157903 0.018826205 -0.003610807
-0.07026633 -0.027180357 -0.004788941 -0.05524981 -0.058823235 -0.020287152 -0.02257202 0.027115041
-0.062153433 0.025823295 0.049218573 -0.011227029 -0.030230086 -0.032796845 0.061182868 0.057796124
-0.06571109 -0.047830243 -0.006290178 0.011692618 0.022475494 -0.051999938 0.062280044 0.02345341
0.026909964 0.03192876 0.01776225 -0.022892635 0.003691642 0.019963106 -0.029166736 0.05229781
0.04481079 0.02710378 0.048289556 0.03293297 0.04743502 -0.06584038 -0.0024278837 0.026375126
-0.055691056 -0.05594668 -0.05125995 -0.053930894 -0.055737123 -0.032158095 0.00954866 0.014997693
0.0013483677 0.0407896 -0.020787513 -0.008390128 0.026340162 -0.004806271 -0.04074203 0.031219058
0.03322772 -0.008627862 0.05197242 -0.056684 0.030467039 -0.02590241 -0.012715725 -0.04407018
-0.03275985 -0.053592443 -0.05466963 0.014864195 0.007259913 0.03931682 -0.027204037 0.02834842
-0.016376892 -0.04538666 0.05090818 0.051776804 0.005231659 0.013857613 0.04073576 -0.0103371395
0.04717011 0.017692588 -0.010684103 -0.04568379 -0.06492148 0.0107451035 0.024276674 -0.010951715
-0.02519465 -0.040371332 0.0061717127 -0.0514708 -0.03539031 0.031131435 0.010022416 -0.032270864
-0.06318316 -0.02340435 -0.008061764 0.027668994 0.035022393 0.028563244 0.0026894426 0.033893943
0.04515881 0.00013798435 0.02429236 -0.044878524 -0.058496375 0.03311301 -0.016407896 -0.016728804
-0.03685846 0.019337486 0.047514442 -0.012315971 -0.023313142 -0.06559507 -0.0020192063 0.013068275

conv1.bias f4 [5]
00000000: b8b8 65bc ba0f 233d bae5 6a3d 30f0 093d
00000010: 6086 f2ba
-0.014021091 0.03980992 0.05734799 0.033676326 -0.0018503182

bn1.weight f4 [5]
00000000: 039c 1d3f dbd8 403f 7d1b aa3e b3a4 aa3e
00000010: f1fc 883e
0.6156618 0.75330895 0.33224097 0.3332878 0.2675548

bn1.bias f4 [5]
00000000: 486c 06bc 9f0e 5dbc 5170 3fbc bce9 763c
00000010: dbe5 fd3b
-0.008204527 -0.0134922555 -0.011684493 0.015070375 0.007748348

bn1.running_mean f4 [5]
00000000: 74d5 2a40 1be0 5f40 9e82 0140 3779 1f40
00000010: 1759 ed3f
2.6692781 3.4980533 2.0235972 2.4917734 1.8542813

bn1.running_var f4 [5]
00000000: 8e58 2b41 ae32 8341 b681 1041 5474 3741
00000010: 6ec0 e940
10.70912 16.399746 9.031668 11.4659 7.30474

conv2.weight f4 [10, 5, 1, 1, 1]
00000000: 15fa e93b e8b8 3f3e dc75 323e 7d1d d3be
00000010: 837e 51be b3d4 6cbe 44cd b2be 0b49 77be
00000020: 68bf b8be 965d 5dbe 549a 943d 63c2 ddbd
00000030: aff3 e23e 0eb3 bd3e 45e6 143d 3a63 c3be
00000040: 6c60 163e 3a56 d3be ada3 b03e 506e 423e
00000050: ccd3 2abe 350f dbbe 8c84 d7bd 5c10 533e
00000060: d70e bbbc 0ff8 2f3d d30f dd3e a704 163d
00000070: 50b1 5cbe 4197 7e3e c159 4f3e 49ec 8abd
00000080: 2131 813e 265c 973e be85 3f3e b46d b83e
00000090: 6e85 093d 5530 a7bc c537 e13c 8b6f 08be
000000a0: 4632 853e 8f8c 8c3e 085c bdbe 95f6 a83e
000000b0: b806 d5be 3200 b9be 8e87 843d c68c a53e
000000c0: b369 84be 2de5 c9be
0.007140408 0.1872288 0.17427772 -0.41233435 -0.20458417 -0.23128013 -0.3492223 -0.24148957
-0.3608353 -0.21617731 0.07255998 -0.10828092 0.4432654 0.3705067 0.036352415 -0.3816164
0.1468522 -0.41276723 0.34499875 0.18987393 -0.16682357 -0.4278504 -0.10523328 0.2061171
-0.022834225 0.042961176 0.43176135 0.03662553 -0.21552014 0.24862386 0.20249082 -0.06783349
0.25232795 0.2956249 0.18703362 0.36021197 0.033574514 -0.020408789 0.027492413 -0.133238
0.26014918 0.27450988 -0.36984277 0.33000627 -0.41606688 -0.36132962 0.064711675 0.32333964
-0.25861892 -0.3943266

conv2.bias f4 [10]
00000000: a055 873c d28b a83e d8f4 e03d 1c1b d4bd
00000010: cc09 d0bd 20a9 30bc c8f2 113d 6c7f 5bbe
00000020: e457 18be 93fb 96be
0.016520321 0.32919174 0.109842 -0.10356733 -0.101581186 -0.01078251 0.035631925 -0.21435326
-0.14877278 -0.2948881

bn2.weight f4 [10]
00000000: 2a8b 453f 9eae 693f 3948 b13e ead7 203f
00000010: 4366 593f 8885 753f 431e d53e 261d 393f
00000020: 1815 f23e dd6c 553f
0.7716547 0.9128207 0.34625414 0.6282946 0.84921664 0.9590688 0.4162465 0.723101
0.47281718 0.8336924

bn2.bias f4 [10]
00000000: f95a 8c3b 01f6 fdbb e4f0 243b d0f5 4f3b
00000010: 1479 4a3b a6c5 933b 3098 9eba 65fb 0db9
00000020: dd61 dfb9 a958 08bc
0.0042833057 -0.007750273 0.0025167996 0.003173221 0.0030894922 0.0045096455 -0.0012099799 -0.0001354046
-0.00042606788 -0.0083219195

bn2.running_mean f4 [10]
00000000: 077c af3e fedb 5b3f f875 0c3f fc87 d23e
00000010: 060a c23e b149 263f 3bb2 f63e d5fc 573e
00000020: 46f6 033f 6c85 093e
0.34274313 0.85882556 0.54867506 0.41119373 0.37898272 0.64956194 0.48182854 0.21092542
0.5154766 0.13429803

bn2.running_var f4 [10]
00000000: d5f0 063e 21a9 a63d ffba c03e 8b02 663e
00000010: b04a 8a3d dc8e 8a3f 4559 c93e abcb e33e
00000020: b535 573f 1c2a a93d
0.13177808 0.081377275 0.37642667 0.22461908 0.06752527 1.0824847 0.3932592 0.44491324
0.84066325 0.08259985

conv3.weight f4 [5, 10, 1, 1, 1]
00000000: 715e 4b3d 4d1e 6b3b c23e a93d 0d83 7cbe
00000010: 160c 39be e0da fb3d 9e0a e83d f065 263e
00000020: 4d01 f4bd 1b77 6d3e b87f 15be 97e4 ccbd
00000030: 79fe 1abe 7cd9 223e 6b67 3fbe 8c4a 593e
00000040: 43d4 463e 85da ebbd 03c2 96be bdd7 333e
00000050: a4d5 9abe 73c8 ad3a 9846 9dbd 6586 07be
00000060: 588d 683e 9dab 913e 5fcd 79bc d913 2c3b
00000070: 9f2c e4bd 8d57 59be 7177 123e c5db 1cbe
00000080: 72c2 2d3e fee4 94be 5995 843d 7d48 8fbe
00000090: da28 fc3d 3c1d aabd de39 b6bd e45c 06be
000000a0: 8cd9 c2bd bac7 9dbe 9f8e 7bbe 6459 6b3e
000000b0: b561 7b3e 48fa 1dbe a6e9 383e 3630 653d
000000c0: e6f8 713c a4e6 58be
0.049650613 0.0035876215 0.08263923 -0.24659367 -0.18071017 0.122976065 0.1133015 0.16249824
-0.119143106 0.23189966 -0.14599502 -0.100045376 -0.15136136 0.15903276 -0.18691795 0.21219844
0.19416909 -0.11516289 -0.29444894 0.17562766 -0.3024112 0.0013258591 -0.0767948 -0.13234861
0.22710168 0.28451243 -0.015246718 0.0026256947 -0.11141323 -0.21224804 0.14303376 -0.1531821
0.16968706 -0.29080957 0.06473798 -0.27984992 0.12312479 -0.08306357 -0.08897756 -0.13121372
-0.0951415 -0.30816442 -0.24566124 0.22983319 0.24548991 -0.15427506 0.1805788 0.05595418
0.014768815 -0.21181732

conv3.bias f4 [5]
00000000: 704d 4abd 22d6 0d3e 5250 02be 3813 373e
00000010: 02c0 9ebe
-0.049390256 0.13851216 -0.12725952 0.17878425 -0.31005865

bn3.weight f4 [5]
00000000: af2f b03e 2e1e 043e 7af3 7c3e 003d a63e
00000010: 84ae 013f
0.3441138 0.12902138 0.24702254 0.32468414 0.50656915

bn3.bias f4 [5]
00000000: 9f58 fa3a 1c1b 9bbb 5784 5fbc d717 9abb
00000010: 7e2d 133c
0.0019099897 -0.0047334563 -0.013642392 -0.004702549 0.008983014

bn3.running_mean f4 [5]
00000000: e054 de3e c474 263f 6290 e13e 2c1d 293f
00000010: 9dfa 923e
0.4342413 0.6502192 0.44055468 0.6606014 0.28706828

bn3.running_var f4 [5]
00000000: f2a2 ac3e cccc 9a3e 387f 7d3e 9ecd c93d
00000010: e651 813e
0.33718067 0.30234373 0.24755561 0.098536715 0.25257796

conv4.weight f4 [1, 5, 1, 1, 1]
00000000: 7943 a13d b846 32bd 8c15 713e 5263 8fbd
00000010: e4c3 bcbd
0.078741975 -0.043524474 0.23543376 -0.07001366 -0.09217051

fc1.weight f4 [3, 11]
00000000: f72e bf3c f808 5f3e 7f83 3b3e b4f2 dd3d
00000010: 26fd 9e3e d375 b7bc f4ef 373e 7426 8b3e
00000020: 905b 103e a732 bc3d 3723 f53d f821 553d
00000030: 6444 893c 8ccf 05bc 6efd 023c a4ab c13d
00000040: dc39 21be 945b c83d 7aa7 193d 3109 9d3d
00000050: 41cb 98bd 9607 da3d e0e4 acbd d28d 55be
00000060: 3970 7abe cd03 4ebe 46fc 143e ed4b 68be
00000070: 3f81 52be 5a6f 29bd 76a4 343d 9429 06be
00000080: 382f 23bd
0.023337824 0.21780765 0.1831188 0.108373076 0.31052512 -0.02239505 0.17962629 0.27177775
0.14097428 0.09189349 0.11969607 0.05203435 0.016756244 -0.008167159 0.007994993 0.09456566
-0.15744728 0.09783092 0.037513234 0.07667769 -0.074606426 0.10645978 -0.08442092 -0.20854881
-0.24456872 -0.20118637 0.1454936 -0.22685213 -0.20557116 -0.04136596 0.044102155 -0.13101798
-0.039839953

fc1.bias f4 [3]
00000000: 77a2 a13f 8a49 1cbf 3b79 4bbf
1.2627705 -0.6104971 -0.7948186

momentum_buffer f4 [5, 2, 65, 1, 2]
00000000: 3eab c73b 10ca 9d3b 5a24 1b3b 6ce9 cd3a
00000010: caa2 c73b 7218 9e3b 9175 1a3b 063d cc3a
00000020: 659e c73b 4a5e 9e3b 55cc 193b 0189 ca3a
00000030: 889d c73b b49a 9e3b ac29 193b 5ace c83a
00000040: 3a9f c73b e2ce 9e3b b98e 183b b80b c73a
00000050: 34a2 c73b 58fa 9e3b d8fc 173b 2142 c53a
00000060: 13a6 c73b 901c 9f3b 2074 173b 1a72 c33a
00000070: 8ca9 c73b 0c36 9f3b f3f5 163b 4e9b c13a
00000080: 4bac c73b e746 9f3b dc82 163b f0bd bf3a
00000090: 3bad c73b 934e 9f3b ec1c 163b f5db bd3a
000000a0: 09ac c73b 844c 9f3b 5ac3 153b 5af5 bb3a
000000b0: 59a7 c73b 0742 9f3b 0978 153b 1a0a ba3a
000000c0: 259f c73b f12d 9f3b cb3a 153b ac1c b83a
000000d0: e592 c73b 7110 9f3b 830b 153b 892d b63a
000000e0: 6e82 c73b a6ea 9e3b b0ea 143b 743c b43a
000000f0: 6e6c c73b b6bb 9e3b 65d8 143b f84b b23a
00000100: fa51 c73b 0684 9e3b 81d3 143b c05c b03a
00000110: f432 c73b f443 9e3b ebdb 143b ae6e ae3a
00000120: 710e c73b aefb 9d3b f3f1 143b 3c84 ac3a
00000130: dee4 c63b a4ab 9d3b ca14 153b 1c9d aa3a
00000140: e0b6 c63b 4d54 9d3b aa43 153b 31ba a83a
00000150: 9384 c63b b4f5 9c3b 587e 153b 54dd a63a
00000160: 9a4d c63b 0391 9c3b a5c4 153b b006 a53a
00000170: 2e12 c63b 7526 9c3b 8016 163b b637 a33a
00000180: f9d2 c53b 70b5 9b3b 3973 163b a972 a13a
00000190: cb8f c53b 643f 9b3b 79db 163b b6b6 9f3a
000001a0: 444a c53b ebc3 9a3b dc4d 173b 3506 9e3a
000001b0: 2c02 c53b 0645 9a3b 1dca 173b 7b60 9c3a
000001c0: d2b8 c43b fcc1 993b 4b50 183b b2c8 9a3a
000001d0: 3b6d c43b 1a3c 993b 35e0 183b 523e 993a
000001e0: 7221 c43b 35b3 983b 6d79 193b 4fc3 973a
000001f0: 0ad5 c33b 3928 983b fd1b 1a3b 9c58 963a
00000200: 5c88 c33b ca9d 973b 352f b63b 4243 9c3b
00000210: 8008 323b 9609 cb3a af9c b63b 4146 9c3b
00000220: 3a91 313b 2ed6 ca3a a80a b73b 3446 9c3b
00000230: 3c19 313b caa4 ca3a 5879 b73b 0e44 9c3b
00000240: b2a0 303b e074 ca3a f1e6 b73b 503f 9c3b
00000250: 642a 303b c846 ca3a a953 b83b 073a 9c3b
00000260: 80b6 2f3b d818 ca3a b7bd b83b f032 9c3b
00000270: 9246 2f3b 52eb c93a d624 b93b e22a 9c3b
00000280: bbdb 2e3b 6cbe c93a bf88 b93b de22 9c3b
00000290: c476 2e3b dc90 c93a 8de8 b93b aa1a 9c3b
000002a0: 0619 2e3b 4662 c93a ec43 ba3b f810 9c3b
000002b0: 14c2 2d3b 4e34 c93a 969a ba3b 1707 9c3b
000002c0: d072 2d3b f705 c93a 65eb ba3b 02fc 9b3b
000002d0: 0f2c 2d3b a6d8 c83a 8e36 bb3b 37f0 9b3b
000002e0: a6ee 2c3b eeaa c83a 1b7c bb3b cde1 9b3b
000002f0: afb9 2c3b 0b7f c83a 24bb bb3b 9fd1 9b3b
00000300: cb8d 2c3b 6654 c83a 41f4 bb3b c7bd 9b3b
00000310: d06a 2c3b c32c c83a 2026 bc3b 2fa7 9b3b
00000320: fa50 2c3b 8e06 c83a 6f51 bc3b 2b8c 9b3b
00000330: 2b40 2c3b b4e3 c73a c675 bc3b 4d6c 9b3b
00000340: 2d38 2c3b 43c4 c73a 0494 bc3b 8d47 9b3b
00000350: 8d38 2c3b bea7 c73a 2aab bc3b 251e 9b3b
00000360: aa41 2c3b d68d c73a 29bb bc3b 17f0 9a3b
00000370: b053 2c3b ae75 c73a 08c4 bc3b d4bd 9a3b
00000380: e36d 2c3b b85e c73a d0c5 bc3b 4a88 9a3b
00000390: e08f 2c3b c446 c73a 39c1 bc3b 8d4f 9a3b
000003a0: 90b9 2c3b c42e c73a cab5 bc3b b015 9a3b
000003b0: 98ea 2c3b e213 c73a 1fa4 bc3b 85db 993b
000003c0: 1a22 2d3b f2f3 c63a 4d8d bc3b 32a2 993b
000003d0: 4f5f 2d3b 51cf c63a 7271 bc3b 656a 993b
000003e0: 0fa2 2d3b 56a5 c63a f351 bc3b 0135 993b
000003f0: 56e8 2d3b 4475 c63a 382f bc3b 7204 993b
0.0060934117 0.0048153475 0.002367279 0.0015709824 0.006092404 0.0048246915 0.002356861 0.0015582151
0.00609188 0.0048330175 0.0023467739 0.0015452207 0.0060917772 0.0048402194 0.0023370786 0.0015320287
0.0060919793 0.0048464397 0.0023278429 0.0015185988 0.006092334 0.0048516206 0.0023191478 0.0015049615
0.0060927956 0.0048557 0.0023109987 0.0014911324 0.0060932096 0.004858738 0.002303478 0.0014771016
0.006093537 0.004860747 0.0022966182 0.0014628749 0.0060936487 0.0048616617 0.0022905422 0.0014485108
0.0060935062 0.0048614163 0.0022852034 0.0014340088 0.0060929474 0.004860166 0.0022807142 0.0014193684
0.0060919696 0.0048577716 0.002277064 0.0014046631 0.0060905092 0.004854255 0.0022742457 0.0013899069
0.0060885465 0.0048497496 0.0022722892 0.0013750927 0.006085924 0.004844154 0.002271199 0.0013602963
0.0060827704 0.0048375158 0.0022709074 0.0013455376 0.006079072 0.004829878 0.002271409 0.0013308132
0.0060747196 0.0048212623 0.002272722 0.0013161968 0.0060697636 0.004811721 0.0022747987 0.0013016793
0.006064281 0.004801309 0.0022775927 0.0012872872 0.0060582845 0.0047900323 0.0022810902 0.0012730756
0.0060517313 0.004778029 0.0022852805 0.0012590494 0.0060446477 0.0047653266 0.0022901595 0.0012452516
0.006037113 0.0047518536 0.0022956862 0.0012317497 0.0060291043 0.0047377814 0.0023019 0.0012185189
0.006020816 0.0047230623 0.002308718 0.0012056293 0.006012222 0.0047079353 0.002316124 0.0011930609
0.0060034776 0.004692314 0.0023241218 0.001180908 0.0059944666 0.004676354 0.0023326997 0.0011691547
0.0059854323 0.004660035 0.0023418323 0.0011578592 0.005976324 0.004643467 0.0023515217 0.00114705
0.005967183 0.004626964 0.0055598267 0.00476876 0.002716571 0.0015490528 0.0055728774 0.004769117
0.0027094618 0.0015475207 0.005585987 0.004769111 0.0027023098 0.0015460488 0.005599182 0.004768855
0.002695125 0.0015446208 0.005612247 0.0047682896 0.0026880736 0.0015432471 0.0056252074 0.0047676596
0.002681166 0.0015418781 0.00563785 0.0047668144 0.0026744944 0.0015405214 0.005650143 0.004765854
0.0026681263 0.0015391833 0.0056620534 0.0047648987 0.0026621083 0.0015378254 0.005673474 0.004763921
0.0026565208 0.0015364371 0.0056843664 0.004762765 0.0026513385 0.0015350671 0.0056946976 0.0047615874
0.0026466139 0.0015336861 0.0057043307 0.0047602663 0.0026423966 0.0015323355 0.0057132905 0.0047588605
0.0026387363 0.001530973 0.0057215816 0.004757142 0.0026355793 0.0015296651 0.005729096 0.0047552134
0.0026329632 0.0015283942 0.0057359044 0.004752848 0.0026308782 0.0015272129 0.0057418495 0.0047501544
0.0026293383 0.0015260743 0.0057470123 0.004746934 0.0026283364 0.0015250356 0.0057513444 0.004743135
0.00262786 0.0015240986 0.0057549495 0.004738754 0.0026278824 0.0015232486 0.005757709 0.004733818
0.0026284256 0.0015224766 0.005759616 0.004728328 0.0026294999 0.0015217566 0.0057606734 0.0047223363
0.0026310615 0.0015210724 0.005760886 0.004715954 0.0026330873 0.0015203585 0.0057603386 0.00470919
0.002635572 0.0015196432 0.0057589756 0.0047022924 0.0026384946 0.0015188421 0.0057568694 0.004695358
0.0026418031 0.0015178903 0.005754149 0.0046885246 0.0026454513 0.0015167986 0.0057508284 0.0046818727
0.00264943 0.0015155475 0.005747074 0.004675508 0.0026536188 0.0015141149 0.0057429336 0.0046697194

momentum_buffer f4 [10]
00000000: da8e 07b0 2823 2eb1 4c65 072f db5e 2a2e
00000010: dc8b 1630 ebbc 5b30 c031 89af 8f6b 482f
00000020: 0ef5 692f 0f42 4c30
-4.931572e-10 -2.5340317e-09 1.2314166e-10 3.8737773e-11 5.4768434e-10 7.9940204e-10 -2.4955504e-10 1.8228107e-10
2.1278287e-10 7.430864e-10

momentum_buffer f4 [5]
00000000: e48b edad 7281 8230 02e3 38ae 6453 9b2e
00000010: 5c65 24af
-2.7005904e-11 9.495535e-10 -4.203838e-11 7.063397e-11 -1.4951723e-10

momentum_buffer f4 [3, 11]
00000000: 80ec 883b e3da 1dbe 4946 80bd 0d77 b9bd
00000010: ae2f 8bbd 3dce 32be e676 d2bd 534d e6bd
00000020: 119d 8cbd dcc9 18bd 6925 2dbe a24c a7bd
00000030: 67c6 f63d 46bf 0c3d b411 673d bcdb 193d
00000040: f251 f03d 6065 a33d 294e 933d fa43 3a3d
00000050: 27df a53c b859 f03d debd 9e3d d1de 093d
00000060: 6a9a e73c 5cdc 0b3d 2a07 f93c ef94 6a3d
00000070: 2346 bc3c 4efe 253d 36ec bd3c 82b4 8b3c
00000080: 1ee2 533d
0.0041785836 -0.1541553 -0.06263406 -0.0905591 -0.067962036 -0.17461486 -0.10276584 -0.11245217
-0.068658955 -0.037301883 -0.16908802 -0.081689134 0.12049561 0.0343621 0.056413367 0.03756307
0.1173438 0.0797832 0.07192642 0.045474984 0.020248009 0.117358625 0.07751058 0.03365976
0.028271873 0.034145698 0.030398924 0.05727094 0.022982663 0.040525727 0.023183923 0.017053846
0.051729314

momentum_buffer f4 [1, 5, 1, 1, 1]
00000000: 16b9 363d 7018 9ab8 1ea4 1ebc 2659 2a3c
00000010: d360 c33b
0.044610105 -7.347844e-05 -0.009682683 0.010397231 0.00596247

momentum_buffer f4 [5, 10, 1, 1, 1]
00000000: 2177 1dbb 9766 59bb beba d139 ccbb a03b
00000010: 3a19 10bb cbc7 0a3c be33 00bb 9d86 cb3b
00000020: 932d 38bb 527c b1bb bc97 a8b9 c890 8fba
00000030: 0ebf 6cb9 e522 46ba acde a6ba d8fc 59ba
00000040: b020 a5b7 b2a0 0f3a b557 03b9 a451 18ba
00000050: 6611 953b 3a35 6dbc 64c5 823b 3904 363b
00000060: 2926 84bc 5ab5 f83c 325e 3b3b a912 b33c
00000070: 24bc 5c3c 9070 dd3b 1a98 f43b c8ad 3d3b
00000080: 368d 43ba 14ba 68bb 145f 49bb bdaf 103b
00000090: 55d0 b1ba 9f5e 32bb 9907 1cba 965b ce3b
000000a0: b7fb afba 92bc a4bb 0caa 71b9 ae2c 23bb
000000b0: f907 d83a 74a6 8a3b 3f96 16bb 6279 ed3b
000000c0: 58fc 0f3c ec90 a03b
-0.0024027305 -0.003317272 0.0004000272 0.0049051996 -0.0021987692 0.008470486 -0.001956209 0.0062111155
-0.0028103336 -0.0054164315 -0.00032156508 -0.0010953182 -0.00022577887 -0.00075583 -0.0012731156 -0.000831557
-1.9684754e-05 0.00054789626 -0.00012525807 -0.0005810505 0.004549193 -0.014478022 0.003990816 0.0027773513
-0.016131477 0.030359913 0.002859008 0.021859484 0.013472591 0.0067578033 0.007464421 0.0028942693
-0.0007459702 -0.0035511302 -0.0030726837 0.0022077404 -0.0013566116 -0.0027217043 -0.000595206 0.006297539
-0.0013426457 -0.005027362 -0.00023046898 -0.0024898457 0.0016481868 0.0042312685 -0.0022977737 0.007247136
0.008788191 0.0049000885

momentum_buffer f4 [10]
00000000: d0a0 b5b9 36c8 a83a f63d 6cba 2537 00bb
00000010: 482c 59bb 9bf5 0b3c 63e3 05bb e068 143b
00000020: 52dc 02bb 5677 b6bb
-0.00034642825 0.001287705 -0.00090119184 -0.0019564119 -0.0033137966 0.008542444 -0.0020429722 0.0022645518
-0.0019967747 -0.005568425

momentum_buffer f4 [5]
00000000: 34bf e03b 58dd 53bb 56ce a7bb 2a4b 783b
00000010: 9e14 b6bb
0.0068587307 -0.0032327976 -0.0051210327 0.0037886598 -0.005556657

momentum_buffer f4 [5]
00000000: f989 cebb f02b 163a 8d98 16bc cc29 f9ba
00000010: 2e8d c63a
-0.0063030687 0.0005728593 -0.009191644 -0.0019009649 0.0015148276

momentum_buffer f4 [10]
00000000: 62a9 693b 1411 beba 9fad 973a 0cfc faba
00000010: 2a49 c7ba cf80 293c 4c44 8239 7eba 713a
00000020: 28e7 08ba 9eff d33a
0.0035653939 -0.0014500939 0.0011572129 -0.0019148602 -0.00152043 0.010345652 0.00024846417 0.000922121
-0.0005222433 0.0016174202

momentum_buffer f4 [5]
00000000: 8ea4 5c39 5a00 a3b9 6cc5 f7bb fffb 23bb
00000010: 9dbe e0b9
0.00021042136 -0.00031090045 -0.0075613763 -0.0025022028 -0.00042866627

momentum_buffer f4 [10, 5, 1, 1, 1]
00000000: 6aa2 3ebc be46 f5bb bb8d d63b 00ca 25ba
00000010: 1c73 d1b9 998f d5bb 80b0 613b b46e 1c39
00000020: 8743 23ba 9496 153b 0d8b 05ba 2efb c1ba
00000030: 5241 53ba 27b9 1c3a b91f b239 60e1 aebb
00000040: 3ff1 23bc c0fc 4138 9e19 d5ba 50ef 8638
00000050: 18c8 4a3b 4cbd d7ba c5e7 ca3a 9865 40ba
00000060: b272 b3bb 941d 043c a339 4c3b 2127 cc3a
00000070: 514e 233b 78e5 9fbb bbbc a039 2ecc e839
00000080: 3c88 003a 6ef8 34ba a56a 8739 f359 d7b8
00000090: 6181 b2b9 0930 78b9 b2b5 9039 d79f 8db9
000000a0: 0e37 c1b9 ff5d 2b3a bad0 9839 7037 a337
000000b0: 8839 33b8 9ab0 45bb cd59 36bc acca e2bb
000000c0: f333 f9bb c490 8739
-0.011635402 -0.0074852398 0.0065476573 -0.0006324351 -0.0003994935 -0.0065173623 0.0034437478 0.0001491856
-0.0006228019 0.0022825347 -0.00050942675 -0.0014799589 -0.0008058745 0.00059785176 0.0003397444 -0.0053369254
-0.010006248 4.6250178e-05 -0.0016258245 6.434193e-05 0.003094202 -0.0016459613 0.001548045 -0.00073393574
-0.005476319 0.008063693 0.0031162284 0.0015575626 0.0024918506 -0.0048796497 0.00030658193 0.00044402614
0.0004903113 -0.0006903474 0.00025828663 -0.00010268753 -0.000340472 -0.00023669018 0.00027601194 -0.00027012706
-0.00036852848 0.0006537139 0.00029147213 1.945693e-05 -4.2730506e-05 -0.0030165077 -0.011129809 -0.006921133
-0.00760507 0.00025857065

momentum_buffer f4 [5]
00000000: 9ca0 fe2e 2ada 26ad 6169 0231 1894 8aaf
00000010: ffba 9730
1.1579113e-10 -9.48445e-12 1.897739e-09 -2.520728e-10 1.1039843e-09

momentum_buffer f4 [5]
00000000: b544 283c a028 7737 0810 1ebc e1be 14bb
00000010: 9259 89ba
0.010270287 1.4731806e-05 -0.009647377 -0.002269678 -0.0010478965

momentum_buffer f4 [3]
00000000: 7279 8ebe 2ae9 0b3e b509 113e
-0.2782703 0.13663164 0.14163859
