scripts/python/deep-learning/experiments/convlstm/004/model-convlstm-epoch-15.pth (torch_old, 21552 bytes, 102 tensors)

exp_avg_sq f4 [2]
000000 68 ce a6 33 6a b8 a3 34
       7.7675224e-08 3.0495295e-07

exp_avg f4 [2]
000000 13 4a 08 b9 86 6f 91 b9
       -0.00012997565 -0.00027739647

exp_avg_sq f4 [2]
000000 7d 55 dc 32 e6 7d 7a 34
       2.5650246e-08 2.3328866e-07

exp_avg f4 [2]
000000 e1 68 a7 b8 d3 c0 a2 b9
       -7.982716e-05 -0.00031042713

exp_avg_sq f4 [2]
000000 b7 53 22 33 73 9e 3a 34
       3.7794702e-08 1.7380243e-07

exp_avg f4 [2]
000000 77 14 b7 b8 bb 60 7a b9
       -8.729932e-05 -0.00023877893

exp_avg_sq f4 [2, 2, 1, 1]
000000 46 24 88 31 10 82 2c 31 2e e8 f7 32 74 a4 d2 32
       3.9622448e-09 2.5103226e-09 2.8860168e-08 2.4522002e-08

exp_avg f4 [2, 2, 1, 1]
000000 04 d4 8f b5 0b d5 f4 b6 e3 1a 82 b7 86 d4 8d b8
       -1.0716035e-06 -7.296568e-06 -1.5509728e-05 -6.7629895e-05

exp_avg_sq f4 [3]
000000 a4 3f c7 3a c8 31 59 3a c0 71 7c 3a
       0.0015201462 0.0008285311 0.0009629987

exp_avg f4 [3]
000000 06 2e a3 bc 8b 68 02 3b ef e0 92 3c
       -0.019919407 0.0019898738 0.017929522

exp_avg_sq f4 [2, 2, 1, 1]
000000 b2 0d 43 30 69 3c 60 31 98 96 f6 31 6b fb 06 33
       7.096005e-10 3.263063e-09 7.176663e-09 3.142797e-08

exp_avg f4 [2, 2, 1, 1]
000000 b6 d1 61 b7 40 ae fe b7 7e 95 6f b8 e1 a5 f8 b8
       -1.3459872e-05 -3.0360301e-05 -5.7121266e-05 -0.00011856459

exp_avg_sq f4 [2, 2, 1, 1]
000000 82 d7 39 37 c1 7a ee 36 b4 fe 50 36 40 1a 06 36
       1.1077036e-05 7.107243e-06 3.1142672e-06 1.9982836e-06

exp_avg f4 [2, 2, 1, 1]
000000 6c b7 c7 ba 76 c5 a1 ba dc d5 25 ba ca a2 05 ba
       -0.0015237159 -0.0012342173 -0.0006326118 -0.0005097805

exp_avg_sq f4 [2]
000000 68 ce a6 33 6a b8 a3 34
       7.7675224e-08 3.0495295e-07

exp_avg f4 [2]
000000 13 4a 08 b9 86 6f 91 b9
       -0.00012997565 -0.00027739647

exp_avg_sq f4 [2, 2, 1, 1]
000000 82 5d 79 36 ae fa 82 37 f2 e7 79 35 1f d9 99 36
       3.715832e-06 1.561394e-05 9.3097253e-07 4.5850315e-06

exp_avg f4 [2, 2, 1, 1]
000000 8b 2b 6d ba f2 c4 db ba a2 a5 ab b9 a3 2b 38 ba
       -0.0009047321 -0.0016767068 -0.00032739068 -0.00070255453

exp_avg_sq f4 [2]
000000 b7 53 22 33 73 9e 3a 34
       3.7794702e-08 1.7380243e-07

exp_avg f4 [2]
000000 77 14 b7 b8 bb 60 7a b9
       -8.729932e-05 -0.00023877893

exp_avg_sq f4 [2]
000000 6d 04 c6 32 c3 05 2c 34
       2.3052246e-08 1.6020844e-07

exp_avg f4 [2]
000000 ee d6 92 b8 b7 9a 79 b9
       -7.001856e-05 -0.00023804126

exp_avg_sq f4 [2]
000000 8e 78 89 38 6c 88 86 37
       6.555124e-05 1.6037571e-05

exp_avg f4 [2]
000000 5e 2b 6a bb 29 f7 bc ba
       -0.0035731415 -0.0014416921

exp_avg_sq f4 [2, 2, 1, 1]
000000 02 86 c3 31 31 8b d5 31 14 13 16 33 d6 42 16 33
       5.690482e-09 6.21494e-09 3.4941948e-08 3.4985383e-08

exp_avg f4 [2, 2, 1, 1]
000000 3e 67 2b 36 44 d0 83 b7 df 95 89 b7 31 b2 a8 b8
       2.554108e-06 -1.5713398e-05 -1.6401462e-05 -8.044055e-05

exp_avg_sq f4 [2]
000000 7d 55 dc 32 e6 7d 7a 34
       2.5650246e-08 2.3328866e-07

exp_avg f4 [2]
000000 e1 68 a7 b8 d3 c0 a2 b9
       -7.982716e-05 -0.00031042713

exp_avg_sq f4 [2]
000000 4f b8 ac 37 89 81 83 38
       2.0589823e-05 6.2706946e-05

exp_avg f4 [2]
000000 f7 63 03 bb d8 a8 47 bb
       -0.0020048597 -0.003046563

exp_avg_sq f4 [2, 2, 1, 1]
000000 2b 7a 8d 30 4a e9 58 31 6e 96 e1 31 0d 75 bc 32
       1.0293822e-09 3.1564746e-09 6.5654637e-09 2.1939309e-08

exp_avg f4 [2, 2, 1, 1]
000000 03 e5 5b b7 12 84 e6 b7 45 0b 47 b8 22 84 c0 b8
       -1.3106738e-05 -2.7479637e-05 -4.7455793e-05 -9.179885e-05

exp_avg_sq f4 [2]
000000 6d 04 c6 32 c3 05 2c 34
       2.3052246e-08 1.6020844e-07

exp_avg f4 [2]
000000 ee d6 92 b8 b7 9a 79 b9
       -7.001856e-05 -0.00023804126

exp_avg_sq f4 [2, 2, 1, 1]
000000 f7 f3 5c 31 e7 9f 33 32 43 9d 6b 32 77 9d 30 33
       3.2152891e-09 1.0455529e-08 1.37145575e-08 4.1121407e-08

exp_avg f4 [2, 2, 1, 1]
000000 25 64 c6 b7 84 e6 54 b8 a7 0c 73 b8 d8 c2 e1 b8
       -2.3650073e-05 -5.0759423e-05 -5.7947498e-05 -0.000107651285

exp_avg_sq f4 [2, 2, 1, 1]
000000 93 e6 16 36 1a 6f 10 37 aa cc 05 35 1d 54 09 36
       2.2485954e-06 8.608937e-06 4.9844186e-07 2.0463551e-06

exp_avg f4 [2, 2, 1, 1]
000000 5b 78 42 ba dc 75 b4 ba c2 9a 8a b9 58 ae 13 ba
       -0.0007418447 -0.0013768035 -0.00026436715 -0.0005633584

exp_avg_sq f4 [2]
000000 bf e0 f8 38 c4 9f 17 38
       0.00011867424 3.615e-05

exp_avg f4 [2]
000000 b7 ac 8e bb e8 ae ec ba
       -0.0043540853 -0.0018057497

exp_avg_sq f4 [2, 2, 1, 1]
000000 08 6d 24 32 8c 47 1d 32 32 a2 2e 33 13 c9 2d 33
       9.570847e-09 9.154871e-09 4.0660048e-08 4.0462577e-08

exp_avg f4 [2, 2, 1, 1]
000000 88 59 77 36 21 a8 8c b7 42 93 89 b7 e1 83 b3 b8
       3.6857982e-06 -1.6767592e-05 -1.6400245e-05 -8.5599495e-05

exp_avg_sq f4 [2, 2, 1, 1]
000000 50 e4 0c 36 8f 98 b3 35 16 f7 d2 36 ea ae 86 36
       2.099452e-06 1.338094e-06 6.2872523e-06 4.013874e-06

exp_avg f4 [2, 2, 1, 1]
000000 98 ee 37 ba 97 f4 14 ba 1b fc 8b ba 3a 96 61 ba
       -0.0007016449 -0.00056821987 -0.0010679992 -0.00086054543

exp_avg_sq f4 [2]
000000 4f b8 ac 37 89 81 83 38
       2.0589823e-05 6.2706946e-05

exp_avg f4 [2]
000000 f7 63 03 bb d8 a8 47 bb
       -0.0020048597 -0.003046563

exp_avg_sq f4 [2, 2, 1, 1]
000000 e0 05 88 36 f4 18 2d 36 87 31 d7 35 c3 52 89 35
       4.0538e-06 2.5793533e-06 1.6033163e-06 1.0231382e-06

exp_avg f4 [2, 2, 1, 1]
000000 12 a3 84 ba 21 dd 56 ba 00 6a 0f ba 29 1f e7 b9
       -0.00101194 -0.0008196403 -0.00054708123 -0.0004408297

exp_avg_sq f4 [2]
000000 bf e0 f8 38 c4 9f 17 38
       0.00011867424 3.615e-05

exp_avg f4 [2]
000000 b7 ac 8e bb e8 ae ec ba
       -0.0043540853 -0.0018057497

exp_avg_sq f4 [2, 2, 1, 1]
000000 94 21 df 36 a0 4e 8e 36 15 bb cf 35 15 bc 84 35
       6.649827e-06 4.241083e-06 1.547715e-06 9.889505e-07

exp_avg f4 [2, 2, 1, 1]
000000 1b e8 a3 ba 34 c1 84 ba 9e 7a 04 ba 8e 7e d5 b9
       -0.0012505086 -0.001012838 -0.0005053672 -0.00040720816

exp_avg_sq f4 [2, 2, 1, 1]
000000 6b bd ba 35 b7 2a aa 36 53 5a 0d 35 df 1f 09 36
       1.3913208e-06 5.0713675e-06 5.265803e-07 2.0433142e-06

exp_avg f4 [2, 2, 1, 1]
000000 c3 71 1d ba 93 fd 91 ba 04 1e 96 b9 a1 db 1f ba
       -0.00060060265 -0.0011138193 -0.00028632593 -0.0006098096

exp_avg_sq f4 [2, 2, 1, 1]
000000 b9 05 db 30 e4 bb ae 31 60 ba fa 31 0e b3 cb 32
       1.5935974e-09 5.085427e-09 7.297146e-09 2.3713735e-08

exp_avg f4 [2, 2, 1, 1]
000000 a4 0f 86 b7 eb 56 0f b8 cd 53 4a b8 4a 89 c1 b8
       -1.5981328e-05 -3.4174805e-05 -4.82386e-05 -9.228529e-05

exp_avg_sq f4 [2]
000000 32 ed 20 38 70 a8 85 37
       3.8367878e-05 1.593327e-05

exp_avg f4 [2]
000000 e5 7f 3d bb a7 90 cc ba
       -0.0028915342 -0.0015607075

exp_avg_sq f4 [2]
000000 8e 78 89 38 6c 88 86 37
       6.555124e-05 1.6037571e-05

exp_avg f4 [2]
000000 5e 2b 6a bb 29 f7 bc ba
       -0.0035731415 -0.0014416921

exp_avg_sq f4 [2]
000000 32 ed 20 38 70 a8 85 37
       3.8367878e-05 1.593327e-05

exp_avg f4 [2]
000000 e5 7f 3d bb a7 90 cc ba
       -0.0028915342 -0.0015607075

exp_avg_sq f4 [2, 2, 1, 1]
000000 58 b1 3c 35 cb 0a 35 36 11 a3 0a 36 c4 b1 06 37
       7.0293527e-07 2.6977384e-06 2.065852e-06 8.028412e-06

exp_avg f4 [2, 2, 1, 1]
000000 3c 73 d9 b9 12 8f 4a ba d5 98 12 ba eb 18 9c ba
       -0.00041475322 -0.00077270076 -0.0005592232 -0.0011909282

exp_avg_sq f4 [3, 110]
000000 fa 62 93 39 2d 59 8c 39 bb 9d 91 39 1e 78 9a 39
       0.00028111768 0.00026769322 0.00027774074 0.00029462663
000010 0d e5 a0 39 2a 19 9a 39 45 b8 97 39 da 21 9c 39
       0.00030688234 0.00029391918 0.00028938256 0.0002977986
000020 86 16 9e 39 53 0b a2 39 b3 a8 9c 39 d2 25 96 39
       0.0003015289 0.00030907485 0.0002988033 0.00028638408
000030 1d 2c a8 39 62 a3 9d 39 6d 36 aa 39 b7 ad 9f 39
       0.00032076324 0.00030067103 0.00032465477 0.0003045627
000040 09 9f 97 39 f1 46 97 39 39 cc 91 39 a9 ee a5 39
       0.00028919455 0.0002885382 0.00027808713 0.00031649068
000050 8d f6 94 39 b7 8b 9a 39 0f 1e a4 39 31 c3 93 39
       0.00028412454 0.00029477265 0.00031302913 0.00028183454
000060 ae d1 96 39 40 af ab 39 90 14 a2 39 4c 7b a1 39
       0.00028766453 0.00032746233 0.00030914368 0.00030800176
000070 79 32 87 39 b6 11 98 39 0e f4 9d 39 ba 39 92 39
       0.00025786812 0.00029004895 0.00030127208 0.000278903
000080 5a e8 98 39 a0 5f 9c 39 f3 67 9b 39 83 d9 9e 39
       0.00029164815 0.00029825885 0.00029641352 0.00030298167
000090 1a e4 8f 39 36 00 8f 39 fd f5 9b 39 af 05 9b 39
       0.00027445034 0.00027275243 0.0002974718 0.00029568138
0000a0 fe 51 94 39 51 49 a9 39 40 35 a1 39 6d 3a 96 39
       0.0002828985 0.00032288817 0.00030747987 0.0002865376
0000b0 0d 34 93 39 29 79 92 39 2a 29 99 39 8d 82 95 39
       0.00028076806 0.0002793756 0.00029213104 0.00028516763
0000c0 5b fd 91 39 e0 3c 94 39 35 23 95 39 50 2a 9c 39
       0.0002784532 0.00028274115 0.00028445726 0.00029786164
0000d0 86 51 a5 39 2c 1b a4 39 d1 e3 a8 39 aa 12 4c 39
       0.00031531992 0.00031300762 0.00032213193 0.00019461909
0000e0 fc e7 49 39 ce 43 41 39 a3 f7 2d 39 a8 11 5d 39
       0.00019255275 0.00018431174 0.00016590818 0.0002108278
0000f0 ef 17 4c 39 be f5 37 39 bf ad 44 39 af a6 47 39
       0.00019463872 0.00017543786 0.00018756742 0.00019040213
000100 06 b7 4e 39 18 8a 47 39 ab 0b 3f 39 40 db 44 39
       0.00019713872 0.00019029563 0.00018219526 0.00018773694
000110 6a ac 41 39 0b 17 4a 39 4a 1e 46 39 55 05 4e 39
       0.00018470144 0.00019272805 0.00018894035 0.00019647677
000120 8b cb 42 39 e7 68 3e 39 a7 7e 42 39 d7 13 41 39
       0.00018577107 0.00018158891 0.00018548463 0.00018413305
000130 cf 82 4f 39 2d eb 47 39 1a b3 50 39 df 7c 36 39
       0.00019789788 0.00019065729 0.00019903146 0.0001740339
000140 e5 5b 47 39 e7 d4 5f 39 fd c5 44 39 70 9a 39 39
       0.00019012352 0.0002134625 0.00018765773 0.00017700507
000150 9c a1 47 39 bc b4 41 39 d2 19 37 39 14 81 3e 39
       0.00019038323 0.00018473243 0.00017461859 0.00018167897
000160 d4 ee 3a 39 2a 11 4b 39 e3 48 3a 39 7b ac 48 39
       0.00017827313 0.00019365983 0.00017765495 0.0001913774
000170 72 42 52 39 5d 2e 4a 39 f2 96 35 39 5c a4 53 39
       0.00020051913 0.00019281493 0.00017317737 0.00020183757
000180 60 53 58 39 5e 69 30 39 5d 0c 41 39 2b 19 49 39
       0.00020630425 0.0001682392 0.0001841052 0.0001917823
000190 39 f1 54 39 ed c8 35 39 ab 3f 42 39 51 3a 42 39
       0.00020307758 0.00017336356 0.00018525 0.00018523006
0001a0 64 fa 38 39 71 4b 40 39 b5 26 38 39 94 8f 4f 39
       0.00017640885 0.00018338651 0.00017562027 0.00019794545
0001b0 74 f7 58 39 d4 24 44 39 e8 2a 64 38 0d e7 4d 38
       0.00020691549 0.00018705736 5.4399396e-05 4.909099e-05
0001c0 da 12 58 38 66 e4 6e 38 6f 8d 4f 38 95 f7 49 38
       5.151597e-05 5.6956334e-05 4.9484366e-05 4.8152713e-05
0001d0 32 72 58 38 2d a4 54 38 15 58 5c 38 bc b7 56 38
       5.1604766e-05 5.069764e-05 5.253412e-05 5.1192692e-05
0001e0 69 e3 71 38 e4 02 57 38 e7 b6 74 38 f2 89 5d 38
       5.767067e-05 5.1262687e-05 5.8344474e-05 5.2818978e-05
0001f0 eb 2b 52 38 45 c6 5a 38 58 68 4b 38 b8 88 71 38
       5.0108803e-05 5.2159903e-05 4.849615e-05 5.7586207e-05
000200 a3 06 5b 38 51 b8 4b 38 63 9c 54 38 97 85 63 38
       5.221985e-05 4.857063e-05 5.0690385e-05 5.4245433e-05
000210 fe cb 5b 38 f9 2d 62 38 a3 85 49 38 21 4d 5a 38
       5.240365e-05 5.3925414e-05 4.8046593e-05 5.2047082e-05
000220 a5 ce 52 38 9f 8e 57 38 9f ab 4c 38 7c 23 74 38
       5.0260354e-05 5.139282e-05 4.8797225e-05 5.820718e-05
000230 94 c2 7a 38 4d 38 58 38 d8 33 64 38 9d 86 67 38
       5.978586e-05 5.1550847e-05 5.440772e-05 5.520006e-05
000240 f9 05 56 38 2c f2 4e 38 77 57 67 38 6c bc 58 38
       5.102714e-05 4.9339767e-05 5.515615e-05 5.1673895e-05
000250 78 e6 58 38 69 82 56 38 d0 0f 63 38 a1 9d 60 38
       5.1713054e-05 5.114303e-05 5.4135744e-05 5.3552565e-05
000260 dd 34 57 38 3c f7 5a 38 f9 4e 57 38 47 d2 5a 38
       5.1309227e-05 5.2205505e-05 5.1333544e-05 5.2171086e-05
000270 12 9a 61 38 2b f1 57 38 5d 65 64 38 8a af 5a 38
       5.378767e-05 5.14846e-05 5.4453838e-05 5.2138734e-05
000280 86 ec 61 38 86 d3 5e 38 2b 55 76 38 c5 7f 65 38
       5.386446e-05 5.312592e-05 5.873029e-05 5.471685e-05
000290 8e ea 61 38 90 68 0e 38 9d 85 20 38 45 7a 10 38
       5.3862626e-05 3.395282e-05 3.827141e-05 3.4446148e-05
0002a0 e7 9f 12 38 06 dd 17 38 3f 6c 20 38 1a 46 10 38
       3.4958033e-05 3.620705e-05 3.8247785e-05 3.4397563e-05
0002b0 2d 39 11 38 08 3a 1e 38 53 1a 15 38 c9 4f 1b 38
       3.4623943e-05 3.772418e-05 3.5548885e-05 3.7029185e-05
0002c0 86 6a 11 38 cf ac 1a 38 18 60 1a 38 5e f5 17 38
       3.46699e-05 3.68774e-05 3.6805955e-05 3.622972e-05
0002d0 77 61 1b 38 98 e7 0f 38 15 b8 14 38 c7 b6 12 38
       3.704565e-05 3.4309545e-05 3.545739e-05 3.4979337e-05
0002e0 4e d8 12 38 c9 9f 1d 38 ad eb 0f 38 ca c0 1e 38
       3.5010562e-05 3.758053e-05 3.4313347e-05 3.7849684e-05
0002f0 71 ed 16 38 b8 15 17 38 ef 7b 19 38 59 a8 1e 38
       3.598392e-05 3.6021433e-05 3.6593465e-05 3.782692e-05
000300 16 29 14 38 18 1d 08 38 da 40 20 38 88 44 11 38
       3.5324214e-05 3.2452022e-05 3.820737e-05 3.463452e-05
000310 59 07 0f 38 1e 72 0a 38 c1 f3 13 38 e9 c1 07 38
       3.41007e-05 3.3008044e-05 3.5274545e-05 3.23671e-05
000320 84 26 19 38 06 f4 13 38 d4 92 1b 38 d0 2f 18 38
       3.6513913e-05 3.5274796e-05 3.7091624e-05 3.6284153e-05
000330 4c f5 0f 38 1f 31 16 38 35 5b 10 38 d2 4e 15 38
       3.4322307e-05 3.5808534e-05 3.441722e-05 3.5597775e-05
000340 32 1d 11 38 81 1b 28 38 ba c7 1b 38 ee 3f 0e 38
       3.4597884e-05 4.0079936e-05 3.714089e-05 3.3914977e-05
000350 93 bf 10 38 3b a2 14 38 b8 de 1f 38 35 2f 1a 38
       3.4510693e-05 3.543704e-05 3.8115977e-05 3.6760426e-05
000360 15 2d 1a 38 3e a0 10 38 23 53 13 38 7e b4 0c 38
       3.6758447e-05 3.4481513e-05 3.512496e-05 3.3546698e-05
000370 84 82 82 39 12 0b 81 39 8a 96 86 39 b4 24 90 39
       0.00024892774 0.00024613045 0.00025670632 0.00027493166
000380 a9 bb 94 39 c5 ed 86 39 60 07 91 39 75 54 91 39
       0.00028368577 0.00025735624 0.0002766205 0.0002771948
000390 ac 8d 87 39 e9 6c 8d 39 9b 35 89 39 06 0e 89 39
       0.0002585476 0.0002697476 0.00026170615 0.00026141125
0003a0 52 9d 96 39 6c f5 95 39 6b 5e 90 39 09 8d 93 39
       0.00028727442 0.00028602348 0.00027536167 0.00028143104
0003b0 6b b7 89 39 41 f0 8e 39 86 50 81 39 b2 23 94 39
       0.00026267333 0.00027263354 0.00024664792 0.00028255355
0003c0 d2 81 84 39 53 97 8b 39 68 5a 98 39 dc b1 87 39
       0.00025273726 0.0002662489 0.00029059057 0.00025881722
0003d0 a0 e8 87 39 6a 1d 98 39 bd 0c 8d 39 dd 00 90 39
       0.00025922526 0.00029013614 0.00026903106 0.00027466464
0003e0 f7 6d 70 39 c9 86 8c 39 d9 d7 91 39 d8 dd 89 39
       0.00022929149 0.00026803304 0.00027817374 0.00026295963
0003f0 a7 54 8f 39 40 51 90 39 da d0 8d 39 74 64 90 39
       0.00027338156 0.00027526356 0.00027049222 0.00027540664

exp_avg f4 [3, 110]
000000 36 7f 70 bb 6d 0c 46 bb bb 1a 9f 3a 50 38 43 bc
       -0.0036696917 -0.0030219809 0.0012138704 -0.011915281
000010 f8 3e 0a bc 68 d8 03 bc a1 8b 88 bb 5e 20 84 39
       -0.0084378645 -0.008047201 -0.0041670357 0.00025201117
000020 28 04 89 bc 3a 2a a2 bb e8 70 ff bb 0f 7b 6f 3b
       -0.016725615 -0.0049488815 -0.007795442 0.0036541854
000030 38 39 5f bc dc 0d 0e bc 84 1b c1 bb 18 0b 65 bc
       -0.013624482 -0.0086702965 -0.0058931727 -0.013979696
000040 87 12 12 bc 23 5a 80 bc 6d 47 58 bb 4f 0c 15 bc
       -0.00891555 -0.01566798 -0.0033001557 -0.009097173
000050 f9 ed 32 bc 38 26 78 bc 21 3a 00 bc 05 88 8e bb
       -0.010920995 -0.015145831 -0.007826359 -0.004349711
000060 60 ee 40 bc 9b 48 e7 ba 02 51 55 bc af 12 97 bb
       -0.011775583 -0.001764554 -0.013019802 -0.0046103816
000070 e8 8b 7d bc 11 9e ff bb 8e 8c 7b bc fb 93 a2 ba
       -0.015475251 -0.0078008254 -0.015353335 -0.0012403721
000080 6f 09 05 3c c5 28 16 bc 6d 5f 8a bb 27 b3 0f bc
       0.008119925 -0.009164994 -0.0042228014 -0.008770741
000090 64 e2 fe bb 6b 08 8a bb 79 5d 40 bc 10 21 ef 3a
       -0.0077784527 -0.0042124293 -0.011741036 0.0018244106
0000a0 fe b6 87 bc 8a 91 80 bb 32 cb 86 bb e8 50 b2 bb
       -0.01656675 -0.0039235996 -0.0041135782 -0.0054417737
0000b0 41 8d 88 bb 78 f4 df bb 48 6b 0b bb 37 22 b6 bb
       -0.0041672294 -0.006834563 -0.0021273661 -0.005558278
0000c0 36 10 ea bb 91 80 56 bb f0 f3 88 bb 8c 9e 5b bc
       -0.007143046 -0.003273044 -0.0041794702 -0.0134045
0000d0 db e2 38 bc b4 9c 40 bc b0 34 8a bb 07 7a 15 bc
       -0.011284555 -0.011756111 -0.0042177066 -0.009123332
0000e0 56 ee 48 bb 6b 78 16 bc d8 e1 0e 3a 83 ca ca bb
       -0.0030659637 -0.009183983 0.00054505235 -0.006188692
0000f0 38 3f 25 bc 2f e8 d7 bb 57 f1 04 bc 4b db 87 bb
       -0.010085873 -0.0065889577 -0.0081141805 -0.004146015
000100 15 83 ae bb 94 68 5b bb 97 05 3b 3b 82 89 03 bc
       -0.005325685 -0.0033479081 0.0028537267 -0.00802839
000110 4f b0 08 bc a5 fa 21 bc 8c 2b 26 bc 39 8a 6b bc
       -0.0083428165 -0.0098864185 -0.010142218 -0.014376217
000120 68 14 a3 bb 78 01 56 bb 2f 5f 17 bc 4b 66 12 bc
       -0.004976798 -0.0032654684 -0.009239002 -0.008935521
000130 85 b4 4f bc 9c 44 f5 bb 55 77 f9 bb 31 d4 92 ba
       -0.012677317 -0.0074849855 -0.0076131024 -0.0011202154
000140 0c 14 ef ba e8 f5 1c bc 6e f5 21 3a b8 0c 73 bb
       -0.0018240227 -0.009580113 0.00061782345 -0.0037086438
000150 6b 41 e4 bb ac 24 01 bc 8a a4 35 bc 61 f1 c4 bb
       -0.0069658062 -0.007882278 -0.011086592 -0.00601022
000160 2c fc b6 bb 0f ca 10 bb e9 c4 19 3b 65 38 2f ba
       -0.0055842604 -0.0022093093 0.0023463315 -0.00066841237
000170 34 bf f5 bb ed 4b cc 3b 49 43 24 bc 58 e5 dd bb
       -0.0074996 0.006234637 -0.010025808 -0.0067717247
000180 62 0d b9 bb 8f dd ea bb 8b b5 0c bb e6 c2 a0 ba
       -0.0056473473 -0.007167525 -0.0021470513 -0.0012265116
000190 60 7c 13 bc 92 17 a9 bb bd 51 97 bb 9c 2c 53 bc
       -0.009001821 -0.0051602805 -0.0046178983 -0.012889054
0001a0 65 5a c0 bb a6 73 fd bb 4e ce 16 bc 7a b0 f1 bb
       -0.005870151 -0.0077347336 -0.00920446 -0.007375774
0001b0 82 b0 ee bb 31 db 19 bc 25 80 ca 39 43 ef cb 38
       -0.007284225 -0.009390638 0.00038623917 9.72436e-05
0001c0 78 6c c2 b9 2f 6c 9f 3a 86 8f 0e ba 27 6d fc 39
       -0.0003708338 0.0012162979 -0.0005438257 0.0004814651
0001d0 ab d1 2c 3a 2a c4 b8 3a 92 9e e1 b9 b3 b3 80 3a
       0.0006592522 0.0014096547 -0.00043033488 0.000981918
0001e0 7b d2 80 3a 50 ba 51 3a ac 1d f8 39 47 13 24 3a
       0.0009828353 0.000800048 0.00047324353 0.0006258976
0001f0 3c c1 4b 3a 3a 98 cd 3a e6 c8 0b 3a c8 09 d9 39
       0.00077726296 0.0015685626 0.00053323654 0.00041396753
000200 a9 59 2c ba 03 6a 40 3a 49 a2 78 3a 7c 4d a9 3a
       -0.00065746397 0.0007340016 0.00094846316 0.0012916769
000210 9e 6e ed 39 a6 a0 c4 b9 2a 82 7b 3a bc c0 18 3a
       0.0004528658 -0.00037503726 0.0009594286 0.00058270595
000220 27 3d 28 3a 78 09 03 39 f8 71 27 38 a7 ee 64 3a
       0.0006417804 0.00012496661 3.9922044e-05 0.0008733072
000230 e5 7e 5c 39 6e 45 dc 38 8e 29 72 3a f9 36 45 3a
       0.00021028107 0.0001050335 0.00092377595 0.0007523145
000240 d0 88 b9 39 3d c7 9e 3a 80 eb 89 38 2b df 8d 3a
       0.00035387883 0.0012113821 6.576534e-05 0.0010823956
000250 4b 70 1e 3a 8a 18 be 3a de 16 ce 3a e2 c0 8f b7
       0.00060439546 0.0014503163 0.0015723368 -1.7136746e-05
000260 1f 4b 05 3a 44 c4 2b 3a 40 a4 06 3a f4 86 de 39
       0.0005084741 0.0006552378 0.00051361695 0.00042443688
000270 df 26 85 3a 82 34 ba 3a 27 0d 0e 3a 3c 0b 40 3a
       0.0010158679 0.0014206322 0.000541883 0.0007325893
000280 38 51 0b 3a f9 66 cc 3a b4 ac 4a 3a ec 70 1a 3a
       0.0005314532 0.0015594653 0.0007731423 0.00058914605
000290 18 1b 64 3a 29 d3 91 3a 64 1d 0d 3a 3f 20 38 b8
       0.0008701547 0.0011125553 0.00053831027 -4.389905e-05
0002a0 cc b4 e3 39 8e ca 4b 39 07 fc 7b 3a f5 03 2d 3a
       0.00043431518 0.00019435046 0.0009612445 0.0006600016
0002b0 31 65 e2 39 4d ba 12 3a 26 06 11 3a e3 50 ca b9
       0.00043181473 0.0005597219 0.0005532227 -0.00038588708
0002c0 5d e5 b5 39 40 72 11 3a c1 06 2c b9 48 16 c1 39
       0.000346939 0.00055483356 -0.00016405714 0.0003682843
0002d0 46 c3 d8 39 02 38 81 39 f0 ab 53 39 3e cb 94 b7
       0.0004134422 0.00024646526 0.0002018658 -1.7737617e-05
0002e0 3f 63 7c 37 77 78 92 3a a8 60 3e 3a 2c a9 f5 38
       1.5043478e-05 0.0011174817 0.00072623277 0.00011714021
0002f0 2a 65 04 3a 64 ad db 39 d0 c8 29 3a 83 85 4f 3a
       0.0005050475 0.0004190012 0.0006476762 0.0007916318
000300 e4 e6 41 39 0f 2e 44 b8 57 d0 29 39 15 c6 b1 39
       0.00018491928 -4.6772937e-05 0.00016194709 0.00033907653
000310 4b 4e a6 38 a7 d8 41 3a a6 5e e5 39 88 55 f9 39
       7.93008e-05 0.00073946494 0.00043748802 0.00047556707
000320 fe 8c a8 39 62 8c 93 39 50 c5 28 3a 0c d3 06 ba
       0.00032148504 0.00028142618 0.0006438093 -0.0005143143
000330 9b 87 31 3a 62 07 52 39 d7 38 47 39 07 a0 3f b9
       0.0006772221 0.00020029911 0.00018999293 -0.00018274794
000340 93 80 ae b7 e5 39 89 3a 45 bd 01 3a b9 32 10 b9
       -2.0802288e-05 0.0010469524 0.0004949163 -0.00013751806
000350 e0 26 98 3a c0 f0 e5 39 6d 90 45 3a 13 89 23 3a
       0.0011608265 0.00043857656 0.0007536475 0.0006238382
000360 b7 5a 05 39 54 de 30 3a e7 76 27 39 5f d7 7a 3a
       0.00012717662 0.00067469967 0.00015970656 0.0009568836
000370 12 2f 57 3b d8 ac 3f 3b 60 ff 5c ba c6 4a 2f 3c
       0.0032834453 0.002924731 -0.0008430388 0.01069898
000380 ed 27 13 3c ef e9 f7 3b bd e2 65 3b 5a cc d9 ba
       0.008981687 0.007565729 0.0035077774 -0.0016616688
000390 9f 8a 8c 3c 45 fd 81 3b 42 3c df 3b d8 f4 91 bb
       0.017155943 0.0039669597 0.006812603 -0.0044542365
0003a0 48 78 57 3c a3 cc 03 3c 59 a3 a7 3b 0d 58 4b 3c
       0.013151236 0.008044395 0.005115908 0.01241113
0003b0 f5 55 09 3c f4 eb 79 3c e3 ae 81 3b a9 05 09 3c
       0.00838231 0.0152540095 0.0039576157 0.008363166
0003c0 cf 63 23 3c 84 fc 62 3c 4b 9d f1 3b 09 d2 9a 3b
       0.009972527 0.01385415 0.007373487 0.004724745
0003d0 3a 36 31 3c 27 e8 9a 3a 2e cd 4a 3c 5e fa 92 3b
       0.010816151 0.0011818454 0.01237802 0.0044854125
0003e0 72 e4 7c 3c 32 00 e3 3b 8d 1a 78 3c 87 cf 94 3a
       0.015435325 0.0069275135 0.015143049 0.0011353352
0003f0 0a 2c 14 bc 54 d5 09 3c a3 8d 7d 3b 74 b4 f7 3b
       -0.009043703 0.008412678 0.0038689158 0.0075593535

exp_avg_sq f4 [2, 2, 1, 1]
000000 f2 d7 a3 32 7e 3e 9a 32 2a d1 b8 33 30 dc b1 33
       1.9073898e-08 1.7956378e-08 8.6062144e-08 8.282257e-08

exp_avg f4 [2, 2, 1, 1]
000000 d9 be 9e 36 64 60 c9 b7 0c 88 a5 b7 89 7e ef b8
       4.7309845e-06 -2.4005953e-05 -1.9732885e-05 -0.00011419977

convLSTM2d1.conv_xi.weight f4 [2, 2, 1, 1]
000000 ca d1 0d 3d 1f 3d ac 3e 56 8f 06 bf ba 30 ca bd
       0.0346239 0.33640382 -0.52562463 -0.09872575

convLSTM2d1.conv_xi.bias f4 [2]
000000 ee 11 ec be da 73 03 bf
       -0.4610743 -0.5134865

convLSTM2d1.conv_xf.weight f4 [2, 2, 1, 1]
000000 4b 2c a2 be 20 f1 0d 3f d1 71 fc be 21 cb 11 bf
       -0.31674418 0.5544605 -0.49305585 -0.56950575

convLSTM2d1.conv_xf.bias f4 [2]
000000 d3 bd 58 be 6e ae 2e 3e
       -0.21166162 0.17058727

convLSTM2d1.conv_xo.weight f4 [2, 2, 1, 1]
000000 50 8c a9 bd 90 02 54 3e 64 d5 50 bd 93 50 81 3e
       -0.082787156 0.20704103 -0.050984755 0.25256786

convLSTM2d1.conv_xo.bias f4 [2]
000000 97 63 bc 3e 64 69 23 3f
       0.3679473 0.6383269

convLSTM2d1.conv_xg.weight f4 [2, 2, 1, 1]
000000 b7 fc 18 3d 75 35 2c 3f 3b 14 8d 3e 4f a6 1b 3f
       0.037350383 0.6726907 0.27554497 0.6080064

convLSTM2d1.conv_xg.bias f4 [2]
000000 e4 e8 f8 bd bf a4 d1 3e
       -0.12153795 0.40946004

convLSTM2d1.conv_hi.weight f4 [2, 2, 1, 1]
000000 42 68 07 bf 9f e8 00 bf f0 09 9a be ec 2e 18 3e
       -0.5289346 -0.5035495 -0.30085707 0.1486165

convLSTM2d1.conv_hi.bias f4 [2]
000000 c5 0f b8 be f8 21 10 3f
       -0.3594953 0.5630183

convLSTM2d1.conv_hf.weight f4 [2, 2, 1, 1]
000000 68 38 01 bf 61 de 9f 3e a1 c5 ad 3d 20 08 0e bf
       -0.50476694 0.3122435 0.0848496 -0.5548115

convLSTM2d1.conv_hf.bias f4 [2]
000000 39 04 af be 17 d3 0b 3d
       -0.3418291 0.034136858

convLSTM2d1.conv_ho.weight f4 [2, 2, 1, 1]
000000 11 c0 81 be ab 1d 65 bc c0 9e 1d 3f a2 72 28 be
       -0.25341848 -0.013984124 0.6157036 -0.16449979

convLSTM2d1.conv_ho.bias f4 [2]
000000 08 20 3f be 76 3a b9 bd
       -0.18664563 -0.09044354

convLSTM2d1.conv_hg.weight f4 [2, 2, 1, 1]
000000 0e 0c 16 3f b0 fe 11 3f b7 ef 26 3f 7f 0f 3d be
       0.58612144 0.5702925 0.65209526 -0.18462943

convLSTM2d1.conv_hg.bias f4 [2]
000000 10 04 4f 3f 5b fc a9 3e
       0.80865574 0.33200344

convLSTM2d2.conv_xi.weight f4 [2, 2, 1, 1]
000000 68 f4 a6 be bb 97 34 3e 75 bf 87 be 12 34 10 3e
       -0.32608342 0.17636006 -0.26513258 0.14082363

convLSTM2d2.conv_xi.bias f4 [2]
000000 39 22 2a be ce fe 3b 3f
       -0.16614617 0.73435676

convLSTM2d2.conv_xf.weight f4 [2, 2, 1, 1]
000000 e9 28 a9 3e 2a 20 0c 3f 35 9c 8e 3e 79 e4 12 3e
       0.33039024 0.5473658 0.27853552 0.14344968

convLSTM2d2.conv_xf.bias f4 [2]
000000 b8 06 8b 3e 59 8e 2d bd
       0.27153563 -0.04237208

convLSTM2d2.conv_xo.weight f4 [2, 2, 1, 1]
000000 b9 c1 b9 3e 13 bc 06 3f 8b be fd bd 83 33 a0 3e
       0.3628061 0.5263073 -0.12389859 0.312893

convLSTM2d2.conv_xo.bias f4 [2]
000000 ba 4f 1c 3f 27 32 d0 bd
       0.61059153 -0.10165816

convLSTM2d2.conv_xg.weight f4 [2, 2, 1, 1]
000000 f7 37 20 be ac 39 b6 be 90 3e 45 3f f3 cf 11 bf
       -0.15646349 -0.35590875 0.7704859 -0.5695793

convLSTM2d2.conv_xg.bias f4 [2]
000000 df 17 30 3f 29 2a 17 3f
       0.68786424 0.59048706

convLSTM2d2.conv_hi.weight f4 [2, 2, 1, 1]
000000 bd c4 bb be 52 73 25 3f b4 c0 dd be 02 3d 0b bf
       -0.36673537 0.6462909 -0.43311083 -0.54389966

convLSTM2d2.conv_hi.bias f4 [2]
000000 9f 75 aa be 62 25 c6 bd
       -0.33292863 -0.09675099

convLSTM2d2.conv_hf.weight f4 [2, 2, 1, 1]
000000 3d c2 66 be f6 10 d4 3e 99 25 df be 91 62 99 bb
       -0.22535034 0.4141919 -0.43583372 -0.0046809395

convLSTM2d2.conv_hf.bias f4 [2]
000000 49 fe 1b bf 9e 23 d1 bd
       -0.60934883 -0.102118716

convLSTM2d2.conv_ho.weight f4 [2, 2, 1, 1]
000000 0c 81 ec be 6f 05 cb 3e b5 a8 f6 3d de 1a ca be
       -0.46192205 0.39652583 0.12043897 -0.39473623

convLSTM2d2.conv_ho.bias f4 [2]
000000 b2 fe af 3d 63 f8 82 be
       0.08593501 -0.2558013

convLSTM2d2.conv_hg.weight f4 [2, 2, 1, 1]
000000 8d ed 21 3e 19 e4 07 3e 9c ed 8e bd 22 d2 3d bd
       0.15813275 0.13270606 -0.06978914 -0.046342976

convLSTM2d2.conv_hg.bias f4 [2]
000000 69 4f 80 3e 3e d2 0e 3f
       0.25060585 0.55789554

fc1.weight f4 [3, 110]
000000 bf af ff 3c 2d 40 f6 3d 7b f3 06 3d 8b ce c2 3d
       0.031211732 0.12023959 0.032947045 0.09512051
000010 fc c7 b9 3d b0 9e 67 3d 84 52 ae 3d 46 aa d7 3d
       0.09071347 0.05654782 0.08511832 0.10530524
000020 19 08 09 3c b8 49 82 3c 04 23 ff 3c bf f4 88 3d
       0.008363747 0.015904292 0.031144626 0.066873066
000030 bc 3d 1c 3d a7 2a 98 3d 2d 01 18 3d d4 8b 95 3d
       0.038144812 0.0743001 0.037110496 0.07302061
000040 77 8c d0 3d 94 e8 65 3c 68 42 14 3d cc 43 cf ba
       0.101830415 0.014032502 0.036196142 -0.0015813052
000050 55 bb a8 bc c5 13 6b 3d 83 06 19 3d ae 6a 64 3d
       -0.02059714 0.0573919 0.037359726 0.0557658
000060 72 05 63 3d 81 5b d2 3b de 88 cb 3c bd 52 8f 3d
       0.055425115 0.0064195995 0.024845537 0.06998203
000070 73 f9 e2 3d bb 71 35 3d b1 89 ee bc 8d 31 b3 3d
       0.11082735 0.044297915 -0.02911839 0.087496854
000080 2a 5f 98 3d 8e ee ad 3b d8 96 9b 3d 7d f0 85 3d
       0.07440026 0.005307979 0.075971305 0.0654001
000090 14 00 ad 3d 05 a9 e7 ba c3 01 d1 bb 99 33 ce 3d
       0.084472805 -0.0017674273 -0.006378384 0.10068435
0000a0 7c 65 ab 3d c2 3e 21 3c 5a 4b b5 3d 7e 01 15 3e
       0.08368966 0.009841623 0.08852263 0.1455135
0000b0 73 9a 58 3d 13 9f 93 3d 2f be 88 3d ab 78 b9 3d
       0.05288167 0.072080754 0.066769 0.09056219
0000c0 67 77 d2 3c a2 0d e7 3d 4b af 59 3d 5e 91 05 3d
       0.025691701 0.11281897 0.053145688 0.032609336
0000d0 51 32 ba 3c 53 63 40 bc e1 b9 9d 3c d4 0a 09 3d
       0.02272907 -0.011742431 0.019253673 0.033457592
0000e0 90 17 11 3d 52 fa 0a 3e 0d 14 9f 3d 42 dc 34 3d
       0.03542286 0.13572052 0.07767496 0.044155367
0000f0 b3 85 b8 3d 07 34 b1 3d ca 32 ef 3d b9 4d a4 bb
       0.09009876 0.086525016 0.11679609 -0.005014148
000100 56 d9 ff 3b b5 59 95 3d fb 65 a4 3d 2d 4a e9 3c
       0.007807891 0.07292501 0.08027264 0.028477753
000110 22 7d 28 3d 0a 91 95 3c bf 33 3e bc 1c 3e 24 3c
       0.04113496 0.018257637 -0.011609017 0.010024574
000120 97 29 99 3c a4 17 90 bb e0 36 a2 3d 3f c7 21 3d
       0.01869659 -0.0043973494 0.07920623 0.039496657
000130 4c d8 17 3d 01 3b 1a bb b3 9b e5 3c c4 00 09 3e
       0.03707151 -0.0023533704 0.028028345 0.13379198
000140 e2 44 b0 3d 6d 61 c1 3d 15 aa 98 3d 82 00 5b 3d
       0.08606888 0.094424106 0.074543156 0.05346728
000150 72 7f 1a 3d eb 3d 1a 3c 25 a5 ce 3d 35 b9 ff 3b
       0.037719198 0.009414176 0.100900926 0.007804061
000160 06 3c 4b 3d 4f 47 4a 3c d2 8c 92 3d 32 7c a6 3c
       0.04961779 0.012346103 0.071557656 0.020322893
000170 22 95 d2 bc f2 33 8f 3d 16 dc 96 3d 72 a2 83 3d
       -0.025705878 0.0699233 0.07366197 0.06427468
000180 df f9 03 3e 7d d6 6d 3d 68 a9 7a 3b a9 57 01 3d
       0.12888287 0.05806588 0.0038247947 0.03157774
000190 95 8e 86 3d 76 5b 05 3e 16 42 90 3d 68 c1 86 3d
       0.06570164 0.13023171 0.07043855 0.06579858
0001a0 7e d0 bb bb 57 99 5e 3d bf c8 86 3d 1b c6 c2 3c
       -0.0057316413 0.054345455 0.06581258 0.023776105
0001b0 15 37 48 3c 6f 1a c2 3d a7 3e f5 bd 37 00 df bd
       0.012220164 0.09477698 -0.119748406 -0.10888713
0001c0 57 6b ed bd 6c 69 d8 3a 6d bb a3 bd 06 d6 db bd
       -0.11592739 0.001651091 -0.07994733 -0.10734181
0001d0 c6 5a 18 bd 3c 7b 23 bd 66 ea 21 be d9 ef 07 be
       -0.037195943 -0.039912447 -0.15812072 -0.13275088
0001e0 64 2f 08 be 5f b6 37 bd 6c 6b 32 bb c4 7a b7 bd
       -0.13299328 -0.044851657 -0.0027224673 -0.089589626
0001f0 19 94 c3 bd b5 46 3a bd 56 b9 1f be a7 4f ea bd
       -0.09549732 -0.045477588 -0.15598044 -0.11440974
000200 0c 77 9d bd c2 76 02 be ed b9 2a be b6 aa b7 bc
       -0.07688722 -0.12740615 -0.16672488 -0.022420269
000210 4c d9 46 bd 6d ac 58 bd a1 39 13 be 81 0b 0e be
       -0.048547074 -0.052898813 -0.14377452 -0.13871576
000220 8e 74 0c be 10 2b b2 bd f6 d0 e1 bd 21 54 a8 3c
       -0.13716337 -0.0869962 -0.11026184 0.020547928
000230 4c e3 c7 bb cc 4b d2 bd 7c e9 1c bd df 46 d9 bc
       -0.006100094 -0.10268363 -0.038308606 -0.026523052
000240 2a 46 03 be bd 18 1c be b3 c3 bc bd 6d 30 24 be
       -0.12819734 -0.15243812 -0.09217014 -0.16034098
000250 6c 58 20 be 7e f9 15 3c 09 02 94 bd 4e 30 03 be
       -0.1565873 0.009153722 -0.07226951 -0.12811396
000260 85 de 65 bd 4a d3 1a bb 0c c9 09 be f9 f6 fe bd
       -0.056120414 -0.0023624473 -0.134556 -0.1244945
000270 a6 b4 28 bd bb e6 8c bc 29 30 0f bd 5f 9d 82 bd
       -0.041187905 -0.017199865 -0.03495804 -0.063776724
000280 f0 7f ad bd 3a b7 c8 bd c4 06 b8 3b 88 20 34 bd
       -0.08471668 -0.09800573 0.005616041 -0.043976337
000290 20 e2 ed bd 0f f7 ed bd bf 5f 0c bd 89 a5 00 be
       -0.116153955 -0.11619388 -0.034270998 -0.12563147
0002a0 b6 be 28 be 71 e2 87 bd 98 bd 31 bd e7 70 a1 3a
       -0.16479 -0.06634987 -0.0433937 0.0012316973
0002b0 36 be 00 be 4d 39 2a bd 6d 77 e1 bd 73 af d5 bc
       -0.1257256 -0.041558553 -0.11009107 -0.026084637
0002c0 40 c8 e9 bc 64 94 22 bc 01 a5 08 be 56 72 b5 bd
       -0.02853787 -0.009923074 -0.13344194 -0.088596985
0002d0 4c e5 e8 bd f8 ea 20 be 3e 30 f0 bd bd 1e a2 bd
       -0.1137186 -0.15714633 -0.117279515 -0.07916019
0002e0 bd c0 98 bd 88 bf 31 3c b2 35 64 bd 8e e2 aa 3b
       -0.07458637 0.010848887 -0.05571527 0.0052149957
0002f0 f1 84 e5 bd e0 3f f3 3b 77 b8 eb bd 65 3d 29 bd
       -0.11206997 0.007423386 -0.11509793 -0.041318316
000300 ef 11 08 be 1b 41 24 be 3e 1e 9f bd c6 4c 01 be
       -0.13288091 -0.16040461 -0.0776944 -0.12626943
000310 77 5e d9 bd 38 71 10 be 84 d9 1c bd b3 88 2e be
       -0.10613721 -0.1410569 -0.038293377 -0.17044334
000320 29 28 5b bc fa a6 f5 bd f9 f2 7e bd 7d 59 0f bd
       -0.013376274 -0.11994739 -0.062243436 -0.034997452
000330 bc 92 60 bd 57 39 06 be 64 2d b9 bd 69 c5 be bd
       -0.054827437 -0.13107811 -0.09041861 -0.09314997
000340 46 4b 2a be 55 0d 5a 3c bf 8a 57 3b d6 02 35 bd
       -0.16630277 0.013308843 0.0032889096 -0.044192158
000350 95 dc f0 bd 47 4c 80 bd f4 4a fb bd 7e af a7 bd
       -0.11760823 -0.06264549 -0.122701555 -0.08187769
000360 4b 4b 85 bd d8 48 ff bd 8a a6 fc bd 39 95 1d be
       -0.065085016 -0.12465066 -0.12336452 -0.15388955
000370 31 91 bf 3c 67 bd 27 3d cf a9 b9 bb 20 00 31 3d
       0.023384662 0.040952113 -0.0056659947 0.04321301
000380 f9 8f 6e 3d b4 c7 25 3d 27 e7 8c 3d e0 17 77 3d
       0.05824277 0.040473655 0.06880026 0.060325503
000390 df 9a 87 3c 46 12 d0 3c 8a 62 26 3d 2c 06 c1 3c
       0.01655334 0.025399338 0.040621318 0.023562513
0003a0 c8 61 f6 3b 55 9b 3b 3d 4c 85 7e 3d 1b 3b 32 3d
       0.0075189807 0.045802433 0.06213884 0.0435134
0003b0 16 4f 68 3d 43 bc 43 bc 0e b8 05 3d 56 87 1e 3c
       0.056716047 -0.011946741 0.03264623 0.009675821
0003c0 75 75 1c bd c4 f7 ef 3c 3f ee 79 3b 6a cf 53 3d
       -0.038197953 0.029292949 0.003813639 0.051711477
0003d0 a2 c1 1a 3c 25 07 06 3c d1 fd 3e 3b bd b8 8b 3d
       0.00944558 0.008180414 0.0029142986 0.068223454
0003e0 24 d2 db 3d 36 ed af 3c 02 c9 55 bd f7 c2 80 3d
       0.107334405 0.021475416 -0.05219365 0.062871866
0003f0 f4 aa de 3c e5 a8 6d 3b db c1 72 3d 9e 16 f7 3c
       0.027181126 0.0036264 0.059266906 0.030162152

fc1.bias f4 [3]
000000 b4 81 da 3d 72 84 da bd 0b c3 3a 3d
       0.1066927 -0.10669793 0.045596164
