scripts/python/deep-learning/experiments/cnn3d/010/model-cnn3d-epoch-6.pth (torch_old, 19549 bytes, 16 tensors)

momentum_buffer f4 [5, 1, 65, 1, 2]
00000000: 23e3 e13e e793 083e 783d e23e 8de9 073e
00000010: 258f e23e f847 073e f1d7 e23e feaf 063e
00000020: 5018 e33e d322 063e 5950 e33e ac9f 053e
00000030: d180 e33e ce27 053e eea9 e33e 20bc 043e
00000040: c4cb e33e e65c 043e 28e7 e33e e00a 043e
00000050: 93fc e33e 3fc6 033e a00c e43e 5d90 033e
00000060: 8617 e43e a268 033e 181e e43e c34f 033e
00000070: 1020 e43e 3146 033e 2c1e e43e 2e4c 033e
00000080: ce18 e43e d061 033e 2f10 e43e 4c87 033e
00000090: 2304 e43e 41bc 033e c0f4 e33e 1801 043e
000000a0: 0fe2 e33e 7c55 043e a9cb e33e 9db9 043e
000000b0: 62b1 e33e f82c 053e 7892 e33e 24af 053e
000000c0: 706e e33e d53f 063e c144 e33e 6edf 063e
000000d0: ee14 e33e a18c 073e 0bde e23e 6647 083e
000000e0: 6c9f e23e cc0e 093e 9a58 e23e cbe1 093e
000000f0: 4a09 e23e 1cc0 0a3e 15b1 e13e 03a9 0b3e
00000100: 3850 e13e aa9b 0c3e 26e6 e03e 2e97 0d3e
00000110: 0473 e03e ef9a 0e3e 7cf7 df3e 64a6 0f3e
00000120: 7b73 df3e 88b8 103e ebe7 de3e 4fd0 113e
00000130: 0a55 de3e baed 123e 19bb dd3e ca0e 143e
00000140: 611b dd3e bc32 153e 9a76 dc3e 7858 163e
00000150: d8cd db3e fa7e 173e 6c21 db3e 13a5 183e
00000160: 8172 da3e bdc9 193e cec1 d93e 5cec 1a3e
00000170: 9a0f d93e cc0b 1c3e 645d d83e 6a27 1d3e
00000180: 6bab d73e 583e 1e3e 00fa d63e 9450 1f3e
00000190: 5549 d63e 105e 203e 089a d53e 1766 213e
000001a0: baec d43e 8868 223e e740 d43e 5665 233e
000001b0: 1197 d33e fa5c 243e 5bee d23e 8a4e 253e
000001c0: 7547 d23e ae3a 263e afa1 d13e b620 273e
000001d0: 0efd d03e 7c00 283e c658 d03e 76d9 283e
000001e0: a5b4 cf3e 68ab 293e 3e10 cf3e 4576 2a3e
000001f0: 336b ce3e 6439 2b3e 93c5 cd3e 5ef4 2b3e
00000200: a41e cd3e 3ca7 2c3e dc18 23bb 269f a93b
00000210: 49ac 29bb 9143 ab3b e4dd 2fbb 42e1 ac3b
00000220: dbaa 35bb 6578 ae3b 0009 3bbb 010a b03b
00000230: d0f4 3fbb 5a98 b13b 5767 44bb 9624 b33b
00000240: ad60 48bb beac b43b 19df 4bbb fd36 b63b
00000250: 53e3 4ebb d2c4 b73b 2070 51bb 7455 b93b
00000260: 3b89 53bb 82ec ba3b 7a38 55bb bb8d bc3b
00000270: 3e77 56bb 553c be3b 3446 57bb ecfb bf3b
00000280: 24af 57bb e0cc c13b 24a6 57bb b4b3 c33b
00000290: 7229 57bb acb2 c53b bd42 56bb 20cb c73b
000002a0: e8f1 54bb 68fe c93b 543c 53bb 524f cc3b
000002b0: 9827 51bb 76bc ce3b a0b9 4ebb 0848 d13b
000002c0: 4cff 4bbb eaf3 d33b 61fc 48bb b6bd d63b
000002d0: 0ab8 45bb 85a9 d93b 8e38 42bb 55b6 dc3b
000002e0: 838c 3ebb e6e1 df3b 27b1 3abb 6c2c e33b
000002f0: 3eb1 36bb e894 e63b 2a96 32bb c01b ea3b
00000300: 945f 2ebb f0bb ed3b 5122 2abb a377 f13b
00000310: 7ee5 25bb 1d49 f53b bab4 21bb d12f f93b
00000320: b09a 1dbb 282d fd3b caa1 19bb ea9c 003c
00000330: 91cf 15bb 2daa 023c 1427 12bb adbd 043c
00000340: 1cb3 0ebb 6cd4 063c 2e6e 0bbb 64ee 083c
00000350: 8657 08bb aa08 0b3c 0a72 05bb 1723 0d3c
00000360: e2c1 02bb 143b 0f3c 3647 00bb fc4e 113c
00000370: 7f06 fcba 315c 133c bcf6 f7ba 4a61 153c
00000380: 5859 f4ba 285c 173c 5928 f1ba ce4a 193c
00000390: 8067 eeba 5229 1b3c 9a02 ecba 2df6 1c3c
000003a0: f8f3 e9ba a3ae 1e3c 4a33 e8ba 7c51 203c
000003b0: b0a7 e6ba 94dc 213c 4647 e5ba 514e 233c
000003c0: 6f11 e4ba 34a5 243c 1af2 e2ba 76e0 253c
000003d0: 27fa e1ba 0fff 263c fe1b e1ba ae00 283c
000003e0: 9965 e0ba 24e6 283c 31cf dfba 52af 293c
000003f0: 6d59 dfba 515b 2a3c f217 dfba 60eb 2a3c
0.44118604 0.1333767 0.44187522 0.13272686 0.44249836 0.13211048 0.44305375 0.13153073
0.44354486 0.13099222 0.44397238 0.13049191 0.44434217 0.13003466 0.44465584 0.12962389
0.44491398 0.12926063 0.44512296 0.12894773 0.44528636 0.12868594 0.44540882 0.12848039
0.44549197 0.12832883 0.4455421 0.12823395 0.44555712 0.12819745 0.4455427 0.12822029
0.44550174 0.12830281 0.44543597 0.1284458 0.44534406 0.12864782 0.44522667 0.12891042
0.44508407 0.12923235 0.44491318 0.12961431 0.4447127 0.13005435 0.44447684 0.13055092
0.44420195 0.13110287 0.44388393 0.13171169 0.44351906 0.1323724 0.4431003 0.13308486
0.44262254 0.13384551 0.44208223 0.1346504 0.44147712 0.13549846 0.44080415 0.13638692
0.44006515 0.13731256 0.4392559 0.13827202 0.4383775 0.1392629 0.43743503 0.14028317
0.43642792 0.14132893 0.43536314 0.1423962 0.43424255 0.14348498 0.43306807 0.14458767
0.4318495 0.14570135 0.43059236 0.14682186 0.42930484 0.14794531 0.42798936 0.14906721
0.42665485 0.15018363 0.42530674 0.15129226 0.42394716 0.15238875 0.4225875 0.15347067
0.4212297 0.1545347 0.4198761 0.15558082 0.41852823 0.15660882 0.4171908 0.157616
0.41586858 0.15860188 0.41455767 0.15956625 0.41326192 0.16051093 0.41197476 0.16143242
0.41070142 0.16233322 0.40943667 0.16321072 0.40818065 0.16406435 0.4069273 0.16489205
0.40567508 0.16569293 0.4044208 0.16646679 0.40316162 0.16721112 0.401898 0.16792437
0.4006244 0.1686067 -0.0024886644 0.0051764427 -0.0025890043 0.0052265604 -0.0026835138 0.0052758763
-0.0027720246 0.0053244107 -0.00285393 0.0053722863 -0.0029290207 0.005419773 -0.0029968822 0.005467008
-0.0030575201 0.0055137565 -0.0031108318 0.0055607543 -0.0031568601 0.0056081796 -0.00319577 0.0056559388
-0.003227784 0.0057044635 -0.0032534883 0.0057542003 -0.0032724882 0.005805532 -0.003284824 0.005858889
-0.0032910788 0.0059143156 -0.0032905424 0.00597235 -0.00328311 0.0060332622 -0.0032693588 0.0060972124
-0.003249282 0.006164361 -0.0032232003 0.0062350417 -0.003191447 0.0063090874 -0.0031543747 0.0063867606
-0.003112751 0.006468286 -0.0030668008 0.006553377 -0.003016951 0.0066425228 -0.002963576 0.006735603
-0.002907545 0.006832349 -0.0028486939 0.0069327857 -0.002787664 0.007036794 -0.002725015 0.0071444213
-0.0026607262 0.00725507 -0.0025960396 0.007368998 -0.002531379 0.0074855224 -0.0024674372 0.007604577
-0.00240485 0.0077263303 -0.002344238 0.007849911 -0.0022859315 0.007975143 -0.0022301124 0.008101863
-0.0021774238 0.008229356 -0.002127539 0.008357618 -0.002080412 0.008485952 -0.0020362162 0.008614323
-0.001995199 0.008742113 -0.0019573695 0.008868929 -0.001922801 0.008994148 -0.0018918137 0.009117434
-0.0018642349 0.00923828 -0.0018398865 0.009356214 -0.0018188804 0.009470301 -0.0018006146 0.009580177
-0.0017849198 0.009685191 -0.0017715481 0.009785052 -0.0017597582 0.00987925 -0.0017492555 0.009967403
-0.0017400215 0.010049153 -0.0017314584 0.010124316 -0.0017240689 0.010192647 -0.001717448 0.010254068
-0.0017120122 0.010308776 -0.0017075298 0.010356741 -0.0017040201 0.010397748 -0.0017020686 0.010432094

momentum_buffer f4 [5]
00000000: 29ef b0be 8846 83bb 0aa6 fd3d 6888 843e
00000010: 59c7 9abd
-0.34557465 -0.0040062107 0.12385185 0.2588532 -0.07557554

momentum_buffer f4 [5]
00000000: 03a3 5b3f 9671 023e a3ae 8dbe 1e2a 23bf
00000010: 335c 003e
0.8579561 0.12738642 -0.276723 -0.6373614 0.12535171

momentum_buffer f4 [3, 460]
00000000: 463d c23e dc84 483d d81f 703e af7b 133f
00000010: 769f 073f d4cb 883e a821 59bd de5e 8ebc
00000020: 5e73 123f 541e 57bd b428 8e3d fd18 c83e
00000030: bae1 023e e51c 293f 847b d93e e4aa 213f
00000040: bf2f ff3e 957e 1a3f cb5d 303e 1a60 293e
00000050: 806f dc3e 639f b63e 60e8 6cbe d6c3 993e
00000060: 5253 be3e d3f1 ed3b afc7 103f 9008 143f
00000070: 8165 fd3e e24d 3abd dc85 1e3e ac22 943e
00000080: c5de 72bd b13c db3e cd32 0d3e bd55 643f
00000090: 2b19 083f 0b5a 483f c180 9f3e aebc 953c
000000a0: 9d71 c33e f005 29bd c0e8 a7bd 9ea6 4a3e
000000b0: 59d8 9b3e f0cf ca3e 480f 693f 0cc9 1e3f
000000c0: 94a2 c03e 91b3 963e 5c83 883e 8b22 d83e
000000d0: 7bb1 dcbd 39a4 283f 3037 d63e e8d3 f33e
000000e0: 3450 ce3e 5d78 b23e 7cb2 d93e 6c85 fd3c
000000f0: 2b10 c73e fb94 073f db31 c33e 19ca d43e
00000100: 854e f93e ba4b 483e 64e9 213f 04e5 00bd
00000110: ea6c f13e 42af 443f c68e 0cbd dd59 4bbd
00000120: cda0 193f f222 983e 5ac4 bc3e 95ad b63e
00000130: 35f3 47be 1a4f 0e3e cc5f 033f 8469 383f
00000140: 6422 2f3e 1fab 033f 1108 723f 8417 743e
00000150: 6da0 6f3e a1a3 243f d72f 023f 7cb0 d43e
00000160: 682d d4bd 0c03 bcbd 1de6 c03e 17f2 423f
00000170: d879 01be 18cb ff3e d4eb 2f3f 5e65 543f
00000180: 028e e43e 54cc 4b3f 16ff 253f 2e39 d63e
00000190: 77db c93e 40a7 ec3e 60a9 9a3e 3e8f 803e
000001a0: 8843 063f 05c8 a03e 618d e53e 8e95 813e
000001b0: 5a7c 2f3f 6825 17be b398 c03e 5f8e cabd
000001c0: 9b9e 97be 0882 463e 5687 133f c777 c63e
000001d0: c0e3 4c3e d7f2 973e e6ca 5e3e c07a d43e
000001e0: 5b02 cc3e bf9e 153f c8ef 79bd 4c74 863e
000001f0: 4050 cd3e bccd 5b3e 9619 9c3e 81fd f93d
00000200: f89c 5b3e ed95 e83e bc31 133f fd3b 863e
00000210: 6d23 4cbe e8db c13e f0ad a53e 37fe a13e
00000220: a4c0 203d df3d d93e 0e1c 4e3e 416c 59be
00000230: a14e 8a3e 003d 52ba c0f9 283e 5042 9e3d
00000240: 4395 c43d bb14 2b3e e885 583e 40df 023f
00000250: 6512 ab3e d2e0 923e cf99 123d d647 193f
00000260: 9096 3ebc 7cd2 923e 846f a73e d2b0 463f
00000270: c6b5 773e 66b0 973e 2e83 0c3f c321 0b3e
00000280: 3869 9e3c 223f 7f3e 2866 35be b89e fe3e
00000290: 40e6 9e3e 36e9 293e c9a6 b63e c7cd 053f
000002a0: 6eb3 983e e310 f9bd f340 06be 12b3 c43d
000002b0: a986 b0be 3624 5f3e 1025 ea3e beb8 2c3f
000002c0: 5fa2 693e 2141 de3e a33f 5d3e dcde 033e
000002d0: 2947 5c3e a1c8 10be a70b d93e a45f ad3e
000002e0: ee92 023f e6c3 523e 674b 033f 4297 2b3e
000002f0: 46ee 273e 3b01 b4bd 4805 643e 3777 9e3e
00000300: 7f5b e33e 4f2b cc3e 9a3d fa3e 75c3 e63e
00000310: ecaf de3e 4f2a 68bd 49d1 223f b4ee 173e
00000320: a6d9 823d e065 cb3c 65f6 233f d164 313e
00000330: d505 143f b6e1 bf3e d06c 333f 503c 183f
00000340: 921f 163e 1326 8f3f f893 fb3d 059f b93e
00000350: 2383 903e 3714 b03e aaf3 cb3e f87e 6f3f
00000360: dd39 f23e 6ffd 1bbe 4a03 90be 923d 273f
00000370: 30f7 5f3e 2446 fd3e 4e2a 143f eae2 9f3e
00000380: c8ec dcbc 98a3 c33d 88e0 073e d49e 1b3f
00000390: 7586 913e 8907 b23e 4401 253f 7240 b73e
000003a0: 7e82 f43d f77e e13e af12 5b3f ed42 383f
000003b0: 100d 263d 1333 0b3f 547c b9bd 3327 b53e
000003c0: ce1b 993d 0808 aebc b65c 463f 39e9 c33e
000003d0: 097e e93e 2eea 833c 5930 06bd bff9 6b3f
000003e0: 7880 bc3e d2b7 333f fdf7 2b3f 42c2 2d3f
000003f0: 6c70 dc3e e778 003f 83f4 8c3e c756 163f
0.37937373 0.04895483 0.23449647 0.576106 0.52977693 0.2671801 -0.053010613 -0.01737922
0.57207286 -0.052519158 0.06941357 0.39081565 0.1278142 0.66059715 0.42477047 0.63151383
0.49841115 0.603494 0.17223279 0.16540566 0.43053818 0.35668477 -0.23135519 0.30032223
0.37172943 0.0072614937 0.56554693 0.57825565 0.49491504 -0.04548443 0.15480751 0.28932703
-0.05929448 0.4281974 0.1378891 0.89193326 0.53163403 0.78262395 0.3115292 0.018278446
0.38172618 -0.041265428 -0.081986904 0.19790122 0.30438498 0.3961177 0.9103894 0.62025523
0.37624037 0.29433873 0.2666272 0.42213854 -0.10776039 0.65875584 0.4183898 0.4762261
0.40295565 0.34857455 0.42518985 0.03094741 0.38879523 0.529617 0.38123974 0.41560438
0.48692718 0.19560137 0.6324675 -0.031468406 0.47153407 0.7682992 -0.034315847 -0.049646247
0.6001099 0.2971416 0.36868554 0.35679308 -0.1952637 0.13897362 0.5131805 0.72036004
0.17102963 0.51432985 0.9454356 0.23837095 0.23401041 0.6431218 0.5085425 0.41540897
-0.10360223 -0.09180269 0.37675563 0.7615065 -0.12644136 0.49959636 0.6871922 0.82967174
0.44639593 0.79608655 0.64842355 0.418405 0.3942525 0.46221352 0.30207348 0.25109285
0.52446795 0.31402603 0.44834426 0.25309414 0.6854912 -0.14760363 0.376165 -0.098904364
-0.29613194 0.1938554 0.5762838 0.38763258 0.20008755 0.2967746 0.21757087 0.414999
0.39845547 0.5844535 -0.06101969 0.26260602 0.40100288 0.214652 0.3048827 0.12206555
0.21446598 0.45426884 0.57497764 0.26217642 -0.19935389 0.37863088 0.32359266 0.31639263
0.039246216 0.42430016 0.2012789 -0.21232702 0.27013114 -0.0008019954 0.16501522 0.07727492
0.09598782 0.16707127 0.21144831 0.511219 0.3341247 0.2868715 0.035791215 0.5987524
-0.011632577 0.28676212 0.32702267 0.77613556 0.24190435 0.2962677 0.54887664 0.13587098
0.019337282 0.24926427 -0.17714751 0.49730468 0.31035042 0.16592869 0.35674122 0.52267116
0.29824394 -0.12161424 -0.13110714 0.096044675 -0.34477738 0.21791157 0.457314 0.67469394
0.22815846 0.43409064 0.21606307 0.12877983 0.2151152 -0.14139034 0.42391703 0.3386203
0.51005447 0.20582542 0.5128693 0.16756919 0.16399488 -0.08789297 0.2226764 0.3095033
0.44405743 0.39876792 0.48875123 0.45070997 0.43493593 -0.056680974 0.63600594 0.14837152
0.063891694 0.024828851 0.64047843 0.17323615 0.578214 0.3747689 0.7008791 0.5946703
0.1466048 1.1183494 0.12284082 0.36254135 0.2822505 0.34390423 0.39834338 0.93553114
0.4730977 -0.15233396 -0.2812751 0.65328324 0.21871638 0.49467576 0.5787705 0.3122781
-0.026968375 0.095526874 0.13269246 0.6078923 0.28422895 0.34771374 0.64455056 0.35791355
0.11938952 0.4404218 0.85575384 0.7197712 0.0405398 0.5437481 -0.09056917 0.3538147
0.074760064 -0.021244064 0.77485216 0.38263872 0.4560397 0.016102877 -0.03276095 0.9217796
0.36816764 0.7020236 0.67175275 0.6787454 0.4305452 0.5018448 0.27530298 0.5872616

momentum_buffer f4 [3]
00000000: 8197 1040 dee7 f3bf 053c 773e
2.259247 -1.9055135 0.2414399

momentum_buffer f4 [5]
00000000: 602c 1835 26ce 2eb3 df14 9a34 b32a 48b3
00000010: 22fc a832
5.6688987e-07 -4.0700023e-08 2.869992e-07 -4.6604963e-08 1.967243e-08

momentum_buffer f4 [1, 5, 1, 1, 1]
00000000: 22b8 973f 44f3 e83c 508e 473f 722e 8bbc
00000010: e827 533f
1.1853068 0.02843631 0.77951527 -0.01698992 0.8248277

conv1.weight f4 [5, 1, 65, 1, 2]
00000000: 5393 57bd a23c 14bd 552f 93bc d747 d1bc
00000010: 6f12 67bd f9f0 72bd 2a74 adbb 08d3 563c
00000020: 4f1c 3fbb 2cfd 39bc ecaf 9abd cc63 363d
00000030: fdda 9dbd 3a1d 393d 5ed2 40bd fa8a 14bd
00000040: 6354 99bc f109 323d a3d8 0c3d 5aa1 90bd
00000050: 611a 17bc cc90 e0bc 8136 b8bd 74d5 483d
00000060: ea00 7b3d 40a2 8a3c 3669 8ebd 1f44 7bbd
00000070: 7b44 bebc 0a42 563c 25d3 afbc 14f2 c83d
00000080: d27f 753c 084e 013d 2b4d 6cbd efa5 bd3d
00000090: 9ae5 bbbd 96c2 0c3d 265e 2fbd db5b 6c3d
000000a0: 2dc5 883d b83a 293c 6727 503d d0c5 db3c
000000b0: 3380 803d 213b 46bd 4010 32bb dec5 3c3d
000000c0: edd7 983d 6c94 7c3d 5197 383d 1cd3 0dbd
000000d0: 7f8c b9bd d333 49bc 8087 973d c5da b73d
000000e0: ad74 823a 9a77 9f3d 8f58 a53c 79d5 c13d
000000f0: 08ef 66bd 92a1 40bb 43bf 47bd 2230 a83c
00000100: 8291 773d 8897 893d a6b0 71bc fb51 58ba
00000110: 5e9c 033b 0e75 1f3d 12cf b6bd 08a9 123d
00000120: 0068 ea3c 9ffa 8d3d a127 173d a787 cd3c
00000130: 31c8 90bb 4403 773d 4219 27bd ba1a c3bc
00000140: e7f0 79bd 39f5 453c d9b7 c4bd 5aa9 233d
00000150: bd3d 943d 98ad 2cbd 3a9d c63c dd4b 6b3d
00000160: a3ab b4bd e21d 603d 5550 623d 9b96 ce3d
00000170: fe4a b0bc 8575 00bc 997c 9d3c 07ad 043d
00000180: 406a 5b3c b71b 45bd 0e50 263d d3dd f73c
00000190: ad96 8d3d b72e 433d 3f05 e13c 6344 e93c
000001a0: 2a1d b13c 803c 9bbb 4372 8c3c def4 453d
000001b0: 013a 48bc 5f05 87bd 965e 043d 2066 9c3d
000001c0: 374a ee3c 315e 4abd 5262 aa3c 5874 6d3d
000001d0: 15a3 513d 569c 6cbd 75de 13bd cbef bf3c
000001e0: d36d c0bd 3446 c53d 27d2 92bd ae54 a23a
000001f0: f14c 413d 153d cebc c4c3 33bd 547f 83bc
00000200: bc93 d9bc 1063 ca3d 1fa8 8bbd 2e24 55bd
00000210: eec7 cfbc 284d 36bd 1a0e d13a b936 2cbd
00000220: 65fc 49bd e693 6f3d 9a5c 25bd b0a0 b73c
00000230: 236b 023d 9422 f03c 5817 583d 7f2e 933d
00000240: af23 acbd 4115 853c e31c 19bd 32e0 1fbb
00000250: 6cb2 633d 2eef a7bd 32c8 c83c 0137 37bc
00000260: 9c93 803d c9e3 52bd 3e55 033d 989e a23b
00000270: b000 91bd 7c12 dc3b 04fa a03c 4e1c 29bd
00000280: de05 53bd d143 8d3d 9eb1 4fbd bf2e 60bd
00000290: 3893 4f3c a05a ab3c 4f9a 3dbd 7622 853a
000002a0: fb5c 99bb fa7c 92bd f5c7 183d 98ac 923d
000002b0: ef92 e7bc 1a22 b4bb b35e 483d 02b3 6b3d
000002c0: b905 bbbc 9c84 89bd 3fae aa3d 446c 53bd
000002d0: 9eca 633d fc44 b03c b742 6a3c 4e48 99bd
000002e0: 3cc5 d03c c1ce 4f3d 3ea6 8cbd 22b6 a9bd
000002f0: a045 a43d 606c 1f3b 7577 98bd 3c2b b63d
00000300: 1d4a 74bc 0b29 a3bd fdb0 c93c 077e 50bd
00000310: 63cc 703d 1e37 833d 319c 58bd 86bf 303d
00000320: ee9b dc3b 331d 9d3d 05c5 63bd 2714 efbb
00000330: ab1f 0fbd 87a3 afbd ae8d 0b3d d834 813d
00000340: 9c4a 703d 7a13 923d 333d 9f3d d23c 16bd
00000350: dab6 383d 59a4 8b3d c8c1 153d 2ab3 743d
00000360: 2c29 14bd 7797 a93d 01c5 263d 6377 a9bd
00000370: 7e59 a7bd 72fe 1abd ccd4 8cbd 8c52 563d
00000380: 7516 27bd bc24 8f3c e89c 9a3d fda9 983d
00000390: d4c7 aabd 6bd0 633d cb0d 8e3d c58d 4b3d
000003a0: c96b 27bd 7aae 8f3d f05a b23d 83ab 9ebd
000003b0: 3175 76bd c5f1 a2bd 0077 2d3d 1853 88bb
000003c0: 34d0 753d 9bf5 783d 12d8 343d 219a df3b
000003d0: 5747 bfbc a19b cb3b d45b 623d a916 71bd
000003e0: 76f5 9cbc a217 cebc 7cdd f23b b7d7 1fbd
000003f0: 2823 d6bb 36e2 c2bc d9dc a43d 4cfe 2cbd
-0.052630734 -0.036190636 -0.017966906 -0.025546951 -0.056414064 -0.05931184 -0.005293389 0.013111837
-0.002916116 -0.011351865 -0.07553086 0.044528767 -0.07707784 0.04519389 -0.04707562 -0.03626535
-0.018716997 0.043466512 0.03438629 -0.07062025 -0.009222598 -0.027412795 -0.08994771 0.04903169
0.06128017 0.01692307 -0.06953661 -0.061344262 -0.023226013 0.013077268 -0.021462986 0.09811798
0.014984088 0.031568557 -0.05769078 0.09260165 -0.091746524 0.03436526 -0.042814396 0.057704788
0.06678233 0.010328941 0.050818827 0.026827723 0.06274452 -0.048396233 -0.002717033 0.04608714
0.074630596 0.061664984 0.04506618 -0.034625158 -0.09060001 -0.012280422 0.073988914 0.08977274
0.0009952985 0.07786484 0.02018383 0.09464545 -0.0563803 -0.0029393178 -0.048766386 0.020530764
0.0604415 0.067183554 -0.014751589 -0.0008251962 0.0020082216 0.03892999 -0.08926214 0.035805732
0.028614044 0.06932568 0.036903027 0.025089098 -0.004418396 0.06030585 -0.040795572 -0.023816455
-0.061020758 0.012082391 -0.09605379 0.039956428 0.07238338 -0.04215774 0.024244893 0.057445396
-0.088217996 0.054716 0.05525239 0.100873195 -0.021520134 -0.007840519 0.019224452 0.032391574
0.013392031 -0.048122134 0.04060369 0.030257141 0.06913505 0.047651973 0.027468322 0.028474992
0.021620352 -0.004737437 0.017144328 0.048329227 -0.01222086 -0.06592821 0.032316767 0.07636666
0.029088123 -0.049406234 0.020798836 0.057972282 0.051180918 -0.05776628 -0.036100823 0.023429772
-0.09395947 0.09632531 -0.0716899 0.0012384856 0.047192518 -0.02517561 -0.04388787 -0.016051926
-0.026559703 0.09882176 -0.06819176 -0.052036457 -0.025363889 -0.044507176 0.0015949637 -0.042044375
-0.049312968 0.058490656 -0.040371515 0.022415489 0.031840455 0.029313363 0.052756637 0.07186603
-0.084052436 0.016245486 -0.037381064 -0.0024395105 0.05559008 -0.08199917 0.024509523 -0.011182548
0.06278154 -0.051486764 0.032063715 0.0049627535 -0.07080209 0.0067160707 0.019650467 -0.04128676
-0.051519267 0.068977006 -0.0507065 -0.05473208 0.012669377 0.020917237 -0.04628974 0.0010157365
-0.0046802736 -0.07152744 0.03730007 0.07161826 -0.028268306 -0.0054972293 0.048918437 0.057543762
-0.022829877 -0.06714746 0.08334016 -0.051616922 0.055613153 0.02151727 0.014298133 -0.07484494
0.025484674 0.050734285 -0.06867646 -0.08286692 0.080210924 0.002432607 -0.074446596 0.08894965
-0.014910248 -0.07966813 0.024620527 -0.05090144 0.05878867 0.06406997 -0.05288333 0.0431514
0.0067324555 0.07671585 -0.055607814 -0.0072961035 -0.03494231 -0.08576112 0.034070663 0.06308907
0.058664903 0.07132621 0.07775345 -0.036679097 0.045096256 0.06818456 0.036561757 0.059741177
-0.036172077 0.08280843 0.04071522 -0.08274724 -0.08171366 -0.037840314 -0.06876525 0.052324817
-0.0407929 0.017473571 0.07549459 0.07454298 -0.083388954 0.055618685 0.069362246 0.04969575
-0.040874276 0.07015701 0.08708751 -0.07747557 -0.060170356 -0.0795627 0.042349815 -0.004160296
0.06001301 0.060781103 0.044151373 0.0068237935 -0.023349447 0.006213621 0.055263355 -0.0588595
-0.019160014 -0.025157753 0.007411657 -0.03902408 -0.0065349527 -0.023789506 0.08049936 -0.042234704

conv1.bias f4 [5]
00000000: 6bb5 e73b 5f80 a23d f65d 6a3d b0f7 d3bc
00000010: 6550 51bd
0.0070711873 0.07934641 0.057218514 -0.025874943 -0.05110206

bn1.weight f4 [5]
00000000: 7b4f 733f dbf1 1f3e 2ce2 263f 2a06 3e3d
00000010: 5d1f ee3e
0.9504315 0.15619604 0.6518886 0.046392597 0.46508303

bn1.bias f4 [5]
00000000: 25c7 11bd 7a4c abbb f2d6 673c 27f3 db3c
00000010: 359a e2bb
-0.03559031 -0.0052276226 0.014150368 0.026849343 -0.0069153556

bn1.running_mean f4 [5]
00000000: fe4d cd3f 136e ba3e 64df 623f bdab 753f
00000010: e066 703f
1.6039426 0.36412105 0.8862212 0.95965177 0.93906975

bn1.running_var f4 [5]
00000000: c6af d440 056e ab3e ba74 c33f dea3 1740
00000010: 5d9a b73f
6.6464567 0.33482376 1.5269997 2.3693767 1.4343983

conv2.weight f4 [1, 5, 1, 1, 1]
00000000: 5e46 9cbe 7556 38bd 3263 c33d f1d7 653e
00000010: ab91 3bbd
-0.30522436 -0.045004327 0.095404044 0.22445656 -0.045793217

fc1.weight f4 [3, 460]
00000000: 3d82 b03b 6404 0d3c 1f09 d8bc d980 3fbc
00000010: 380d bcbc 031d 423c 68be debc 0422 8fbc
00000020: 3a11 64bd 4877 ecbb d49f c23a a05c 353d
00000030: 52b7 75bc 2b7b 7c3d 5b16 8bbd d9a4 90bc
00000040: 3a38 8cbc d60b 79bd 739e 8a3c f00d acbc
00000050: 3e87 cebb 5225 2a3d fd90 1dbd bde7 173d
00000060: 0aa2 cb3c 8a8f 193c ad72 343d b67c d6bc
00000070: 4cb5 3d3d 41e0 b3bc 5496 d3bc 4bc0 82bc
00000080: aa51 b23b 77d7 37bc 24b1 0dbd 7d7d 703c
00000090: e5c3 f6bc 0853 9cbd e5b0 0e3b a330 debc
000000a0: 12ec 0c3b f1ca 4fbd e919 723c eabf 253d
000000b0: b292 1c3c 74de 6d3c 62bb 153c d4c6 203c
000000c0: 3473 5fbd 600b 473d 2215 f73c a919 c0bc
000000d0: 5a0b ff3c 8da7 0abd b798 8cba 38c8 61bb
000000e0: 5b60 093c 4599 b6bc 4fb1 ab3c d91c 96bc
000000f0: abc1 febc 1bc2 c8bc 0da2 8bbb 01bf 003d
00000100: b0c0 953c 5f9d fabc 3733 b73c 7cd1 693d
00000110: c874 753c 75d2 ffbc cbe6 c3bc d8e2 143c
00000120: ad3b 313d 69eb 2f3c deda e53b 39d9 a83c
00000130: 7446 1e3c 107a 7fbd f1a2 bebc 3548 013d
00000140: f811 663d 60ed d33c f3e6 f13c bbe2 febb
00000150: e585 ce3c bdd8 253c 7a08 713c 72f5 cc3c
00000160: b47a b1bb e11f 943b 3a1c 8fbc f554 1b3c
00000170: a9df bcbb 26de 53bc 817f f3bb 41b0 583b
00000180: 4e6d 743c f945 c3bc e375 fe3b 61b1 82bc
00000190: e2e4 77bc 2920 053d 41c5 4fbb ab33 a0bc
000001a0: 3892 043d 05d6 453d a672 223d 8200 7abc
000001b0: 3acd 98bb 2ba5 59bc 9ab1 5f3c fbed 863c
000001c0: ade3 5a3d 04a1 8cbd ccea 31bc 1258 bb3c
000001d0: 6861 18bd 8f65 3bbc 2c93 723c c025 0f3d
000001e0: f719 c4bc 695b 863a 1a05 873c 2b66 d239
000001f0: 3e72 acbc f4b2 56bc f3e7 27bd 9120 963c
00000200: a84b 5bbd 9e9c 3ebd 9ed7 843b 8ad2 3e3c
00000210: 41bf 713b e4d0 893c 4204 3abd c275 22bc
00000220: b85c 163d 933f e4bc 01c8 3cbc 2701 39bd
00000230: 45a7 ee3a 5185 e0bc 92e2 bfbc d1bb 87bc
00000240: acec 09bd f401 b6bb bc6d 5e3d cbfc 0abb
00000250: 03cc 40bd 766f a03c 6b66 f23c 2dbd 293d
00000260: 6f90 84bd 132a 6bbc f0da 0ebd 0acf ddbc
00000270: 6deb e53c a308 8fbc 8d83 d63c 67c2 c4bc
00000280: 1373 5abd 2236 25bc f8a9 c2bc 6e0b 883c
00000290: 5c90 d2bb 10df 17bd 1e2f f63b 968c 003d
000002a0: abf2 4a3b 995d 29bd aa9d e3bc 09fb f73c
000002b0: 3cc9 23bd 3992 263d 151e 3dbd 8cea 00bd
000002c0: 2224 653c 0f8c 1e3c 3e17 3dbd b9be acbc
000002d0: 10e3 a43c 2567 23bc 3df5 0a3c 9419 1ebb
000002e0: 4b56 113d aef4 443d b0f6 87bc d0f7 5b3d
000002f0: 0ece 28bd 9f8c 393d 7d4e 863b 95e2 d0bc
00000300: 5220 7abd a63b cd3c 58ce 93bc e9f8 08bd
00000310: 5c38 29bc 2a85 d93c 9dfd c7bb cf8e 06bd
00000320: 7e1a b2bc 4598 c5bb bbfa c1bb e3ac a1bc
00000330: d94e 1e3d 7161 5ebc f0ba 80bc 8d33 e9bb
00000340: b618 d73c bdcb 71bc 2e0a ff3c 14a7 dbbc
00000350: b019 243d 0f9d 6d3b b369 8e3b ea87 e23c
00000360: ce3c 543c f725 f4bc 2beb 24bd 598c 603d
00000370: e312 103d 3b5e ab3c 0048 bcbc 0274 bbbb
00000380: 8ee8 e63c 06dc 8abd b6ca a7bc b157 77bb
00000390: 3cd3 b5bc aee6 2cbd 97ca a0bb 59ec db3c
000003a0: dbc0 cdbc 1413 1fbd d2dd d3bc 3fb2 78bd
000003b0: 4a9e 423d be7a 033d 6597 13bc 6658 06bd
000003c0: 9b8b 043a 9efc 153d 2979 13bd d1e5 c03c
000003d0: 409b 41bc 4324 cb3b ee16 6d3a 38a8 30bc
000003e0: 8829 9bbc 6981 093d 3024 18bd 6160 78bc
000003f0: 6fe4 113c ea00 053d ed3f 8bbd 4350 193b
0.0053866194 0.008607004 -0.026371537 -0.0116884345 -0.022955522 0.011847737 -0.027190402 -0.017472275
-0.05568049 -0.007216368 0.0014848658 0.044277787 -0.01499732 0.0616409 -0.06791373 -0.01765673
-0.017116655 -0.060802303 0.016921258 -0.02100274 -0.006302743 0.041539498 -0.03846835 0.037086237
0.02485754 0.009372601 0.044054676 -0.026182514 0.046315476 -0.021957519 -0.025828518 -0.015960833
0.005441864 -0.011220804 -0.034592763 0.014678356 -0.030122707 -0.076330245 0.0021772918 -0.027122801
0.0021503014 -0.05073065 0.014776685 0.040466227 0.009556459 0.014518369 0.009138914 0.009813029
-0.054553226 0.048594832 0.030161444 -0.023449736 0.031133343 -0.033851195 -0.0010726665 -0.0034451615
0.008384789 -0.022289881 0.02095857 -0.018324303 -0.031098207 -0.02450662 -0.0042612613 0.031432156
0.018280357 -0.030592619 0.022363288 0.057084545 0.014981456 -0.031228283 -0.023913762 0.009087287
0.043269802 0.0107372785 0.0070146164 0.020611392 0.009660352 -0.062372267 -0.023271056 0.031563003
0.05616948 0.025870025 0.02952907 -0.007778493 0.02521033 0.010122475 0.014711494 0.025019381
-0.0054162387 0.004520402 -0.017469514 0.009480705 -0.005763967 -0.012931382 -0.007430971 0.003306404
0.014918638 -0.023837077 0.007765518 -0.015953721 -0.0151302535 0.032501373 -0.0031703266 -0.019555887
0.032366008 0.048299808 0.03966012 -0.01525891 -0.004663137 -0.013284008 0.013653183 0.0164709
0.053439785 -0.06866649 -0.010859203 0.022869144 -0.03720227 -0.011437788 0.014805596 0.03494811
-0.023938162 0.0010250631 0.016481925 0.00040130442 -0.021050569 -0.013104189 -0.04099269 0.018326076
-0.05353895 -0.04653608 0.004054024 0.011646876 0.0036887678 0.01682324 -0.045414217 -0.009915771
0.036709517 -0.027862346 -0.011522294 -0.045167115 0.0018207809 -0.02740732 -0.023423467 -0.01656905
-0.033672974 -0.005554432 0.05430387 -0.0021207805 -0.04706956 0.019584399 0.029589852 0.041440178
-0.06472861 -0.014353293 -0.034876764 -0.027076263 0.028066361 -0.017460173 0.026185775 -0.02401848
-0.0533324 -0.010083707 -0.023762688 0.016607013 -0.0064259004 -0.037077963 0.007512941 0.031384073
0.0030967395 -0.041349027 -0.027785141 0.03027107 -0.039986834 0.040666793 -0.046171267 -0.03147368
0.0139856655 0.009676947 -0.046164744 -0.021087037 0.020127803 -0.009973322 0.008481321 -0.0024124132
0.035482686 0.048084907 -0.016597122 0.05370313 -0.041212134 0.045300122 0.004098712 -0.025498668
-0.06106598 0.025052857 -0.018042728 -0.033440504 -0.0103283785 0.026552755 -0.006103231 -0.032851037
-0.021741148 -0.006030115 -0.005919782 -0.01973576 0.038649414 -0.0135730365 -0.015714139 -0.007116741
0.0262569 -0.014758048 0.031132784 -0.026813067 0.04006356 0.0036256944 0.0043460964 0.0276527
0.01295395 -0.02980326 -0.040263336 0.054821346 0.03517426 0.020918956 -0.022983551 -0.0057206163
0.028187063 -0.067802474 -0.020482402 -0.0037741477 -0.022195451 -0.04221218 -0.004906963 0.026846098
-0.025116375 -0.038836554 -0.025862608 -0.060716864 0.047514237 0.032099478 -0.009008263 -0.032799147
0.0005056203 0.036617868 -0.03600422 0.023547085 -0.0118168 0.006199391 0.00090442493 -0.010782294
-0.018940702 0.03357068 -0.037143886 -0.015159697 0.0089045605 0.032471575 -0.06799302 0.0023393787

fc1.bias f4 [3]
00000000: f645 84bd 7dc8 05bd b7cf 82be
-0.064586565 -0.032661904 -0.255491
