scripts/python/deep-learning/experiments/convlstm/003/model-convlstm-epoch-20.pth (torch_old, 21520 bytes, 102 tensors)

exp_avg f4 [2]
-0.00083320896 -0.002687408
00000000: b56b 5aba 391f 30bb

exp_avg_sq f4 [2]
1.9406136e-05 2.6982252e-05
00000000: 5cca a237 f257 e237

exp_avg f4 [2, 2, 1, 1]
-0.005037052 -0.00602559 -0.0005403063 -0.00010597906
00000000: db0d a5bb 5072 c5bb 58a3 0dba 1341 deb8

exp_avg_sq f4 [2, 2, 1, 1]
6.582721e-05 9.542308e-05 2.8217376e-06 3.5570585e-07
00000000: b70c 8a38 e01d c838 155d 3d36 d7f7 be34

exp_avg f4 [2, 2, 1, 1]
-0.00022482831 -0.0010446146 0.00027553044 -0.00013394289
00000000: e4bf 6bb9 73eb 88ba 1275 9039 0573 0cb9

exp_avg_sq f4 [2, 2, 1, 1]
2.536921e-07 1.3123598e-06 2.520216e-07 6.3022895e-07
00000000: 2d33 8834 5724 b035 964d 8734 012d 2935

exp_avg f4 [2]
-0.0018223374 -0.0029721705
00000000: 7fdb eeba bfc8 42bb

exp_avg_sq f4 [2]
5.6630273e-05 3.874536e-05
00000000: 4b86 6d38 8382 2238

exp_avg f4 [2, 2, 1, 1]
-0.003001348 -0.009202624 0.001829991 0.0008512642
00000000: 44b2 44bb 9ac6 16bc 4fdc ef3a 6027 5f3a

exp_avg_sq f4 [2, 2, 1, 1]
6.536145e-06 0.000120399985 2.971596e-06 3.275203e-06
00000000: 0f51 db36 407f fc38 a16b 4736 8fcb 5b36

exp_avg f4 [2, 2, 1, 1]
8.398733e-05 -0.0010760801 -0.000941855 -0.0016761267
00000000: 5b22 b038 420b 8dba d2e6 76ba 7bb1 dbba

exp_avg_sq f4 [2, 2, 1, 1]
1.2968727e-06 8.654543e-06 2.137817e-06 1.2216617e-05
00000000: 3510 ae35 fb32 1137 6b77 0f36 f8f5 4c37

exp_avg f4 [2, 2, 1, 1]
-0.00012698301 -1.2523975e-05 -0.0015546065 -0.0008329137
00000000: be26 05b9 101e 52b7 f0c3 cbba e457 5aba

exp_avg_sq f4 [2, 2, 1, 1]
8.310552e-07 1.482319e-07 1.0954043e-05 2.0717519e-06
00000000: ae15 5f35 ad29 1f34 42c7 3737 6d08 0b36

exp_avg f4 [2]
-0.0015957275 1.0363703e-05
00000000: bb27 d1ba c4df 2d37

exp_avg_sq f4 [2]
2.6483112e-06 1.3928254e-06
00000000: a4b9 3136 1ef1 ba35

exp_avg f4 [2, 2, 1, 1]
8.889795e-05 -0.00031875758 -0.00091609906 -0.0016599036
00000000: b96e ba38 eb1e a7b9 5e26 70ba 1f91 d9ba

exp_avg_sq f4 [2, 2, 1, 1]
1.9088813e-07 1.2500391e-06 2.6095775e-06 1.6381442e-05
00000000: eef6 4c34 04c7 a735 3320 2f36 e16a 8937

exp_avg f4 [2]
-0.012603726 0.0034187357
00000000: dc7f 4ebc de0c 603b

exp_avg_sq f4 [2]
0.00020473791 1.8594472e-05
00000000: eaae 5639 53fb 9b37

exp_avg f4 [2]
-0.012603726 0.0034187357
00000000: dc7f 4ebc de0c 603b

exp_avg_sq f4 [2]
0.00020473791 1.8594472e-05
00000000: eaae 5639 53fb 9b37

exp_avg f4 [2, 2, 1, 1]
0.00023655413 -0.0008988251 -0.002230748 -0.001426381
00000000: 840b 7839 229f 6bba be31 12bb 67f5 baba

exp_avg_sq f4 [2, 2, 1, 1]
1.5414452e-06 1.3383385e-05 6.5764793e-06 7.154325e-05
00000000: a7e3 ce35 3389 6037 87ab dc36 7d09 9638

exp_avg f4 [2, 2, 1, 1]
-0.00032312368 -0.0009862266 0.00018093511 -0.0001384388
00000000: ed68 a9b9 4644 81ba 66b9 3d39 e229 11b9

exp_avg_sq f4 [2, 2, 1, 1]
2.8587175e-07 1.2505993e-06 1.6415531e-07 5.5809863e-07
00000000: ea79 9934 44da a735 ab42 3034 3fd0 1535

exp_avg f4 [2]
-0.0015651014 0.00019152225
00000000: 1724 cdba 5dd3 4839

exp_avg_sq f4 [2]
2.5691315e-06 1.8383208e-06
00000000: 5869 2c36 39bc f635

exp_avg f4 [2, 2, 1, 1]
6.0638795e-06 -0.002073615 -0.0010802374 -0.0018344617
00000000: 5478 cb36 7de5 07bb c196 8dba 5272 f0ba

exp_avg_sq f4 [2, 2, 1, 1]
4.2336487e-06 2.6362233e-05 2.87321e-06 1.6885891e-05
00000000: c40e 8e36 7724 dd37 5fd1 4036 2da6 8d37

exp_avg f4 [2]
-0.00047516992 -0.0025842905
00000000: 3a20 f9b9 335d 29bb

exp_avg_sq f4 [2]
3.3328335e-05 0.00015528251
00000000: 07ca 0b38 55d3 2239

exp_avg f4 [2, 2, 1, 1]
-7.212913e-05 -0.00040406204 0.00013488367 3.7441143e-05
00000000: 0844 97b8 4ad8 d3b9 8f6f 0d39 1f0a 1d38

exp_avg_sq f4 [2, 2, 1, 1]
4.569559e-08 2.4457069e-07 3.4847947e-08 7.492651e-08
00000000: d542 4433 8a4d 8334 b9ab 1533 49e7 a033

exp_avg f4 [2]
-0.00083320896 -0.002687408
00000000: b56b 5aba 391f 30bb

exp_avg_sq f4 [2]
1.9406136e-05 2.6982252e-05
00000000: 5cca a237 f257 e237

exp_avg f4 [2, 2, 1, 1]
-8.8969233e-07 -0.0009436734 -0.00042029962 -0.00024269993
00000000: 31d3 6eb5 da60 77ba a95b dcb9 447d 7eb9

exp_avg_sq f4 [2, 2, 1, 1]
6.235453e-07 7.1650135e-07 2.5048465e-07 1.4950001e-07
00000000: b561 2735 9955 4035 597a 8634 4086 2034

exp_avg f4 [2]
-0.00014706056 -0.0026448478
00000000: 4534 1ab9 2f55 2dbb

exp_avg_sq f4 [2]
3.034002e-06 3.6981386e-05
00000000: c29b 4b36 761c 1b38

exp_avg f4 [3]
0.0033778695 0.003374353 -0.006752233
00000000: 3f5f 5d3b 4024 5d3b d641 ddbb

exp_avg_sq f4 [3]
0.0016803999 0.0006551873 0.0011420719
00000000: dd40 dc3a e0c0 2b3a 93b1 953a

exp_avg f4 [2, 2, 1, 1]
-0.00038284576 -4.943993e-05 -0.001618357 -0.001297558
00000000: b0b8 c8b9 b85d 4fb8 0d1f d4ba d212 aaba

exp_avg_sq f4 [2, 2, 1, 1]
8.407347e-06 1.277968e-06 4.2658376e-05 6.3535263e-06
00000000: 480d 0d37 a586 ab35 15ec 3238 6030 d536

exp_avg f4 [2]
-0.00047516992 -0.0025842905
00000000: 3a20 f9b9 335d 29bb

exp_avg_sq f4 [2]
3.3328335e-05 0.00015528251
00000000: 07ca 0b38 55d3 2239

exp_avg f4 [2]
-0.00014706056 -0.0026448478
00000000: 4534 1ab9 2f55 2dbb

exp_avg_sq f4 [2]
3.034002e-06 3.6981386e-05
00000000: c29b 4b36 761c 1b38

exp_avg f4 [2]
-0.0006052229 0.00021134218
00000000: d2a7 1eba bc9b 5d39

exp_avg_sq f4 [2]
5.093166e-07 2.553724e-07
00000000: f8b7 0835 1e1a 8934

exp_avg f4 [2, 2, 1, 1]
-0.00013233775 -0.0008032301 -0.00022907881 -0.00021969267
00000000: 25c4 0ab9 dc8f 52ba e034 70b9 4d5d 66b9

exp_avg_sq f4 [2, 2, 1, 1]
5.600563e-07 5.0075664e-07 1.936386e-07 1.911927e-07
00000000: c756 1635 bc6b 0635 f9ea 4f34 a64a 4d34

exp_avg f4 [2]
-0.0015957275 1.0363703e-05
00000000: bb27 d1ba c4df 2d37

exp_avg_sq f4 [2]
2.6483112e-06 1.3928254e-06
00000000: a4b9 3136 1ef1 ba35

exp_avg f4 [2, 2, 1, 1]
-0.0012296536 -0.00041798406 -0.0017463757 -0.00095100113
00000000: 542c a1ba df24 dbb9 a5e6 e4ba 9b4c 79ba

exp_avg_sq f4 [2, 2, 1, 1]
1.7452017e-05 3.3231518e-06 1.1497895e-05 2.2277463e-06
00000000: ec65 9237 5003 5f36 15e7 4037 6480 1536

exp_avg f4 [2]
-0.0006052229 0.00021134218
00000000: d2a7 1eba bc9b 5d39

exp_avg_sq f4 [2]
5.093166e-07 2.553724e-07
00000000: f8b7 0835 1e1a 8934

exp_avg f4 [3, 110]
0.0016091613 0.0022145673 0.0027747792 0.0038036904 0.002129726 0.0022848772 0.0060333684 0.0012341464
0.0025086247 0.0014081317 0.000902499 0.0011341518 0.0018915565 0.0021423013 0.0017401051 0.0022393167
-0.00055694225 0.00047568238 0.0010015077 0.0017647034 0.0021519258 0.00027905247 0.0016091613 0.0009893576
0.0006421957 0.0017255505 0.0022094036 0.0015668921 0.0015767821 0.00069751136 0.0018131473 0.003740124
0.00092720496 -0.0006084941 -0.0005456835 0.0024518725 0.0011612896 0.0011492929 0.00078443135 -0.00077676546
0.00014208847 0.0020820997 0.0015266022 0.0009810725 0.0016091613 0.00030714535 0.000136046 0.00032489022
0.000778893 0.0009000192 0.0015762099 0.001277733 0.0008569774 0.0015998364 0.0015327154 0.0012210304
0.0021786888 0.00012190153 -0.0003385291 0.0010406534 0.003211883 0.0041650627 0.002009852 0.0034681489
0.003478096 -0.0001996583 0.0020433944 0.0046608653 -0.00042000823 0.00080087944 0.0016805477 0.0055857506
0.0028055762 -0.0006689975 -0.0002676234 0.003355965 -0.001019189 0.0012210304 0.00080931856 0.0023731384
0.00027169217 0.001277868 0.0018041042 0.0015412937 0.0018164777 0.0015114452 0.004418636 0.001057174
0.00037324615 -0.00026585982 0.00052068604 0.0012151039 0.00047034118 0.0034177653 0.0009310305 0.00084109564
0.0034577993 0.0009863203 0.00040571167 0.0012210304 0.0016553535 0.00093998475 0.00059963716 0.0008149153
0.0017776733 0.0025996363 0.00079354754 0.0010502477 0.0023269888 0.001046161 0.0018375407 0.0017293876
0.0017600646 0.0017792048 0.0017890115 0.0018848733 0.001799883 0.0019221761 0.0018644093 0.0019048634
0.0019294274 0.0019347598 0.0018954453 0.0019126514 0.0018898948 0.0018539627 0.0017539656 0.0015946918
0.0017187882 0.0018916175 0.0018321783 0.0018087424 0.0018375407 0.001889356 0.0018558983 0.0018238918
0.0018456641 0.0018369618 0.0018294377 0.0018422409 0.00177745 0.0019695195 0.001873641 0.0018286136
0.0018448046 0.0018584995 0.001823196 0.0018583507 0.0018105514 0.0016829466 0.0017711107 0.0018435036
0.0019166532 0.0018706038 0.0018375407 0.0018125979 0.0017618978 0.0017962808 0.0018257706 0.0018237499
0.0018457357 0.0018216729 0.0018163035 0.0019143701 0.0018703998 0.00074174505 0.000436845 0.00048562355
0.0006172213 0.00036321807 0.000704088 0.001185435 0.0011008439 0.00074151246 0.0007216313 0.0007483907
0.00087048125 0.00085007417 0.00070201606 0.00041263166 0.00038513652 0.0009051006 0.0011715805 0.00039407238
0.00052615255 0.00072791456 0.0006925377 0.00074174505 0.00078331697 0.0007568924 0.0006149304 0.0006359103
0.0006851523 0.0008646435 0.00095559336 0.0007245813 0.0009940899 0.0007691352 0.00078198954 0.00099213
0.00067173416 0.0006960055 0.0008208094 0.00076463365 0.0009502033 0.0007695529 0.0007370761 0.0008790231
0.0008762284 0.00074174505 0.0008568342 0.00069173996 0.00067890895 0.0008719763 0.0008566489 0.0009565464
0.00075901026 0.0008178149 0.0010289071 0.00079678925 -0.003446709 -0.0039439606 -0.00453485 -0.0055829054
-0.003918746 -0.00416976 -0.007833257 -0.0031563323 -0.004373041 -0.0033130047 -0.0028319359 -0.003068922
-0.0037870107 -0.00405496 -0.003630009 -0.0040932884 -0.0011970309 -0.0020703832 -0.0027203064 -0.0036563308
-0.0039841156 -0.0020878008 -0.003446709 -0.0028787195 -0.002498103 -0.0035494512 -0.0040550786 -0.0034038632
-0.0034062297 -0.0025397602 -0.0035906057 -0.0057096523 -0.002800856 -0.0012201259 -0.0012991299 -0.004310379
00000000: 7eea d23a 4622 113b 12d9 353b 5647 793b
00000010: e092 0b3b e1bd 153b 90b3 c53b 15c3 a13a
00000020: bd67 243b 0f91 b83a af95 6c3a d2a7 943a
00000030: 1bee f73a da65 0c3b 3d14 e43a 80c1 123b
00000040: c3ff 11ba 0265 f939 0645 833a 9f4d e73a
00000050: 5307 0d3b ca4d 9239 7eea d23a 55ad 813a
00000060: 0659 283a de2b e23a a4cb 103b 2d60 cd3a
00000070: 07ac ce3a 32d9 363a 21a7 ed3a de1c 753b
00000080: ac0f 733a 5983 1fba 330c 0fba 98af 203b
00000090: 6a36 983a dfa3 963a 4ca2 4d3a d99f 4bba
000000a0: 95fd 1439 d673 083b 4518 c83a 5597 803a
000000b0: 7eea d23a 5a08 a139 92a7 0e39 0756 aa39
000000c0: a02e 4c3a 44ef 6b3a d498 ce3a 9b79 a73a
000000d0: c8a6 603a 9ab1 d13a 65e5 c83a fb0a a03a
000000e0: 55c8 0e3b 63a5 ff38 9b7c b1b9 8966 883a
000000f0: 747e 523b 147b 883b b9b7 033b e249 633b
00000100: c5f0 633b 5e5b 51b9 78ea 053b 2cba 983b
00000110: 8d34 dcb9 1cf2 513a d345 dc3a ac08 b73b
00000120: c2dd 373b aa5f 2fba ce4f 8cb9 c0ef 5b3b
00000130: 4f96 85ba fb0a a03a 7328 543a a886 1b3b
00000140: e871 8e39 237e a73a b177 ec3a 3c05 ca3a
00000150: e116 ee3a af1b c63a 35ca 903b e090 8a3a
00000160: 40b0 c339 1a63 8bb9 a67e 083a 1f44 9f3a
00000170: 2098 f639 96fc 5f3b 6610 743a f97c 5c3a
00000180: 3f9c 623b 6b47 813a b3b5 d439 fb0a a03a
00000190: 72f8 d83a 4f69 763a f830 1d3a 0aa0 553a
000001a0: d100 e93a a95e 2a3b 1306 503a 77a8 893a
000001b0: 6580 183b 571f 893a a2d9 f03a 9eac e23a
000001c0: f8b1 e63a 3534 e93a 447d ea3a da0d f73a
000001d0: 0dea eb3a 87f1 fb3a 325f f43a 9cac f93a
000001e0: d7e4 fc3a c497 fd3a 9770 f83a eeb1 fa3a
000001f0: 59b6 f73a aa00 f33a 52e5 e53a fa04 d13a
00000200: f648 e13a 27f0 f73a b425 f03a 5313 ed3a
00000210: a2d9 f03a 44a4 f73a 9d41 f33a a70f ef3a
00000220: 36ea f13a 36c6 f03a bec9 ef3a 5977 f13a
00000230: 53f9 e83a 0e13 013b f694 f53a 17ae ef3a
00000240: 5fcd f13a e598 f33a 4ef8 ee3a e793 f33a
00000250: 0650 ed3a 5196 dc3a 9d24 e83a b7a1 f13a
00000260: 3638 fb3a 0c2f f53a a2d9 f03a b194 ed3a
00000270: 7bef e63a 2f71 eb3a b24e ef3a e40a ef3a
00000280: 9dec f13a 33c5 ee3a 0811 ee3a 9aeb fa3a
00000290: 3428 f53a ab71 423a 5808 e539 4a9b fe39
000002a0: 05cd 213a 4e6e be39 8c92 383a 9960 9b3a
000002b0: 314a 903a 0f62 423a db2b 3d3a a62f 443a
000002c0: 0231 643a 83d7 5e3a 8007 383a 7c56 d839
000002d0: 26ec c939 4644 6d3a b88f 993a 809b ce39
000002e0: 80ed 093a 85d1 3e3a 6b8b 353a ab71 423a
000002f0: 8357 4d3a 306a 463a 4833 213a 38b3 263a
00000300: cb9b 333a 3ea9 623a c980 7a3a d4f1 3d3a
00000310: 1f4c 823a ca9f 493a 6efe 4c3a 5c0a 823a
00000320: 5117 303a 2374 363a 962b 573a b271 483a
00000330: 1017 793a d2bb 493a 5738 413a 3e6e 663a
00000340: b1b2 653a ab71 423a 2b9d 603a e255 353a
00000350: cff8 313a 5795 643a bc90 603a bec0 7a3a
00000360: 51f8 463a a162 563a 65dc 863a 9fdf 503a
00000370: 2ee2 61bb 573c 81bb 1499 94bb cef0 b6bb
00000380: d368 80bb 7ba2 88bb 1057 00bc 78da 4ebb
00000390: ba4b 8fbb ff1e 59bb 0098 39bb f81f 49bb
000003a0: 7f2f 78bb 78df 84bb 72e5 6dbb fe20 86bb
000003b0: b1e5 9cba 44af 07bb 2b47 32bb 0d9f 6fbb
000003c0: 2f8d 82bb 7cd3 08bb 2ee2 61bb e6a8 3cbb
000003d0: 37b7 23bb e99d 68bb 77e0 84bb 5913 5fbb
000003e0: 0d3b 5fbb 1b72 26bb 5e50 6bbb 0918 bbbb
000003f0: 918e 37bb a2ec 9fba 9147 aaba 143e 8dbb

exp_avg_sq f4 [3, 110]
0.0005066166 0.00049962575 0.00050693913 0.00050064526 0.0005040189 0.0005104419 0.000499103 0.0005048337
0.00050307653 0.00050458015 0.0005058389 0.00050164637 0.0005107564 0.0005077665 0.00049845397 0.00050595397
0.000504809 0.0004940241 0.00049761153 0.0005060999 0.000505633 0.00050531287 0.0005066166 0.00050393195
0.00050726376 0.00050328614 0.00050625467 0.00050512294 0.0005032814 0.0005003179 0.0005038188 0.00050304807
0.0005051713 0.0004995968 0.00050185213 0.000499672 0.00050387275 0.0005042419 0.00050274364 0.0004967137
0.0004994124 0.00050462113 0.00050555763 0.0005060078 0.0005066166 0.00050342694 0.0004994796 0.0005003323
0.00050157035 0.0005032942 0.00050307164 0.00050264393 0.00050256174 0.000504691 0.0005060714 9.841448e-05
8.693531e-05 9.012837e-05 9.436268e-05 8.802477e-05 9.049243e-05 9.625326e-05 0.00010049135 9.4841096e-05
9.881791e-05 9.617816e-05 0.00010187485 9.6077056e-05 9.462854e-05 9.328836e-05 9.119546e-05 9.825238e-05
0.0001039402 8.8639834e-05 9.363749e-05 9.739929e-05 9.560933e-05 9.841448e-05 0.00010219921 0.00010003526
9.8451324e-05 9.7901044e-05 9.8206794e-05 9.795839e-05 0.000101893405 9.815771e-05 0.00010383678 0.00010058194
0.00010258656 0.00010363358 0.00010139341 0.00010098444 0.00010215974 9.8680495e-05 0.000104654406 0.00010070273
9.671399e-05 0.00010215821 0.00010053102 9.841448e-05 0.00010054811 0.00010082596 0.00010174852 0.00010366275
0.00010244651 0.00010378447 0.00010101246 0.00010232798 0.000103200175 0.00010003792 0.00013682821 0.0001367325
0.00013794526 0.00013631686 0.0001377018 0.00013885752 0.00013462127 0.00013628475 0.00013655373 0.00013623215
0.0001368034 0.00013467672 0.00013816405 0.00013773477 0.00013585378 0.00013759332 0.00013589673 0.00013270938
0.00013583148 0.00013735183 0.0001365216 0.00013695474 0.00013682821 0.0001355635 0.00013682556 0.00013620783
0.0001366652 0.000136562 0.00013613187 0.00013442092 0.00013602334 0.0001350655 0.000136288 0.00013444915
0.00013488093 0.00013461788 0.00013553114 0.00013545246 0.00013598427 0.00013310155 0.00013417783 0.0001363117
0.00013585451 0.00013653698 0.00013682821 0.000135283 0.00013443256 0.00013443115 0.00013471767 0.00013521359
0.00013504189 0.00013532171 0.00013501768 0.00013556502 0.0001365294 1.4703562e-05 1.3424148e-05 1.3640794e-05
1.4204145e-05 1.3540656e-05 1.3438079e-05 1.4352342e-05 1.4858781e-05 1.4321729e-05 1.4740448e-05 1.4482742e-05
1.5449443e-05 1.4228554e-05 1.4139084e-05 1.43245e-05 1.3865599e-05 1.4553936e-05 1.5627567e-05 1.3754359e-05
1.4065901e-05 1.4611833e-05 1.4508539e-05 1.4703562e-05 1.5442016e-05 1.4957948e-05 1.4980445e-05 1.4790002e-05
1.46888415e-05 1.4702899e-05 1.530397e-05 1.4779775e-05 1.5441896e-05 1.5046507e-05 1.5523972e-05 1.5532005e-05
1.5461635e-05 1.5306689e-05 1.5456208e-05 1.4791849e-05 1.580994e-05 1.5375734e-05 1.4710318e-05 1.5264535e-05
1.4964046e-05 1.4703562e-05 1.51968325e-05 1.5406527e-05 1.556551e-05 1.5609905e-05 1.5469173e-05 1.5612917e-05
1.526876e-05 1.551035e-05 1.5475382e-05 1.488857e-05 0.0003976193 0.00039204903 0.00039857902 0.00039529943
0.0003951294 0.00039966218 0.00039314412 0.00039609856 0.00039454806 0.00039544122 0.00039695407 0.00039326478
0.00039997336 0.00039893246 0.00039112885 0.0003971578 0.00039396505 0.00038747737 0.00038895136 0.0003969472
0.0003966006 0.0003957707 0.0003976193 0.0003946145 0.00039677616 0.00039559687 0.00039779907 0.00039602988
0.00039466782 0.00039246393 0.0003947396 0.0003962995 0.00039615622 0.00039101817 0.00039225034 0.000393112
00000000: 77ce 043a 51f9 023a 1ce4 043a bc3d 033a
00000010: 2320 043a 2dcf 053a 3cd6 023a d156 043a
00000020: e5e0 033a cd45 043a 469a 043a eb80 033a
00000030: 48e4 053a a21b 053a aeaa 023a ffa1 043a
00000040: 2955 043a 6581 013a 2572 023a caab 043a
00000050: 758c 043a f976 043a 77ce 043a 4d1a 043a
00000060: e5f9 043a f6ee 033a 2db6 043a 3a6a 043a
00000070: a5ee 033a c427 033a b512 043a fcde 033a
00000080: 796d 043a 60f7 023a ba8e 033a 6cfc 023a
00000090: 5416 043a 1a2f 043a 8eca 033a e435 023a
000000a0: 00eb 023a 8d48 043a 6687 043a 9ca5 043a
000000b0: 77ce 043a 69f8 033a 82ef 023a bb28 033a
000000c0: d17b 033a 81ef 033a 91e0 033a ddc3 033a
000000d0: 59be 033a 3d4d 043a e0a9 043a df63 ce38
000000e0: 0a51 b638 4d03 bd38 94e4 c538 f099 b838
000000f0: c1c6 bd38 93db c938 e2be d238 6de5 c638
00000100: 763c cf38 42b3 c938 a5a5 d538 fa7c c938
00000110: 5073 c638 cfa3 c338 3140 bf38 d80c ce38
00000120: 78fa d938 26e4 b938 3f5f c438 d842 cc38
00000130: de81 c838 df63 ce38 c853 d638 05ca d138
00000140: a777 ce38 3950 cd38 5ff4 cd38 036f cd38
00000150: 9baf d538 05da cd38 f2c2 d938 85ef d238
00000160: bd23 d738 db55 d938 2ca3 d438 9cc7 d338
00000170: 983e d638 b0f2 ce38 e879 db38 5e30 d338
00000180: eed2 ca38 c53d d638 2ed4 d238 df63 ce38
00000190: 5bdd d238 8672 d338 d261 d538 8465 d938
000001a0: 8dd8 d638 dda6 d938 a7d6 d338 ea98 d638
000001b0: 2c6d d838 73cb d138 8b79 0f39 da5f 0f39
000001c0: 66a5 1039 47f0 0e39 0c64 1039 489a 1139
000001d0: 1f29 0d39 a9e7 0e39 dd2f 0f39 8ad9 0e39
000001e0: e272 0f39 0238 0d39 21e0 1039 e56c 1039
000001f0: f973 0e39 ed46 1039 807f 0e39 e727 0b39
00000200: fc6d 0e39 1a06 1039 3d27 0f39 829b 0f39
00000210: 8b79 0f39 0d26 0e39 d578 0f39 03d3 0e39
00000220: c94d 0f39 1532 0f39 9fbe 0e39 57f3 0c39
00000230: 7da1 0e39 5ea0 0d39 88e8 0e39 ebfa 0c39
00000240: d36e 0d39 3628 0d39 5d1d 0e39 3e08 0e39
00000250: 0097 0e39 2d91 0b39 16b2 0c39 e5ee 0e39
00000260: 2b74 0e39 5e2b 0f39 8b79 0f39 c1da 0d39
00000270: 77f6 0c39 16f6 0c39 0043 0d39 1fc8 0d39
00000280: 089a 0d39 25e5 0d39 8893 0d39 7526 0e39
00000290: 5529 0f39 51af 7637 4738 6137 c4da 6437
000002a0: 574e 6e37 ad2c 6337 1c74 6137 d7ca 7037
000002b0: fa49 7937 5c47 7037 be4d 7737 e7fa 7237
000002c0: 6d99 8137 2db7 6e37 e736 6d37 4253 7037
000002d0: 4ba0 6837 ae2c 7437 f217 8337 86c2 6637
000002e0: 96fc 6b37 5825 7537 b369 7337 51af 7637
000002f0: 7a89 8137 e6f3 7a37 8554 7b37 9322 7837
00000300: 1870 7637 78ac 7637 0661 8037 a6f6 7737
00000310: 3889 8137 4170 7c37 7a39 8237 ba4a 8237
00000320: 9cb3 8137 dd66 8037 f4a7 8137 822a 7837
00000330: 969f 8437 23fb 8037 56cc 7637 570c 8037
00000340: 170e 7b37 51af 7637 e6f5 7e37 443d 8137
00000350: ae92 8237 04f2 8237 ccc3 8137 7cf8 8237
00000360: 6a15 8037 391c 8237 21d1 8137 ecc9 7937
00000370: 8f77 d039 ee8b cd39 5ff8 d039 3140 cf39
00000380: 5f29 cf39 c089 d139 e91e ce39 73ab cf39
00000390: 58db ce39 3953 cf39 461e d039 1b2f ce39
000003a0: 84b3 d139 cf27 d139 6d10 cd39 9e39 d039
000003b0: 188d ce39 5526 cb39 2bec cb39 5a1d d039
000003c0: d5ee cf39 727f cf39 8f77 d039 43e4 ce39
000003d0: 6506 d039 1d68 cf39 b08f d039 3ba2 cf39
000003e0: 6beb ce39 9ec3 cd39 0df5 ce39 6bc6 cf39
000003f0: 30b3 cf39 9201 cd39 f3a6 cd39 991a ce39

exp_avg f4 [2]
-0.0018223374 -0.0029721705
00000000: 7fdb eeba bfc8 42bb

exp_avg_sq f4 [2]
5.6630273e-05 3.874536e-05
00000000: 4b86 6d38 8382 2238

exp_avg f4 [2]
-0.0015651014 0.00019152225
00000000: 1724 cdba 5dd3 4839

exp_avg_sq f4 [2]
2.5691315e-06 1.8383208e-06
00000000: 5869 2c36 39bc f635

exp_avg f4 [2, 2, 1, 1]
-0.0005849512 -0.00017087847 -0.0015783329 -0.0008491301
00000000: 6957 19ba d72d 33b9 10e0 ceba 2898 5eba

exp_avg_sq f4 [2, 2, 1, 1]
5.666596e-06 1.0249682e-06 8.352877e-06 1.6678973e-06
00000000: b023 be36 a491 8935 5523 0c37 84dc df35

exp_avg f4 [2, 2, 1, 1]
-7.27737e-06 -0.0003710322 -7.8572855e-05 -2.8065326e-05
00000000: 2230 f4b6 1987 c2b9 7bc7 a4b8 d46d ebb7

exp_avg_sq f4 [2, 2, 1, 1]
1.0073244e-07 1.2345672e-07 2.6547353e-08 1.1722939e-08
00000000: 3f52 d833 868f 0434 3f0a e432 0866 4932

convLSTM2d1.conv_xi.weight f4 [2, 2, 1, 1]
0.3935644 0.40597087 0.1595232 0.58787787
00000000: 4681 c93e 6adb cf3e 0d5a 233e 2a7f 163f

convLSTM2d1.conv_xi.bias f4 [2]
0.511601 0.4346781
00000000: 48f8 023f 218e de3e

convLSTM2d1.conv_xf.weight f4 [2, 2, 1, 1]
-0.0077089323 0.13297613 -0.008570372 0.17439234
00000000: 369b fcbb e52a 083e bf6a 0cbc e893 323e

convLSTM2d1.conv_xf.bias f4 [2]
0.8146645 -0.080613196
00000000: da8d 503f 8818 a5bd

convLSTM2d1.conv_xo.weight f4 [2, 2, 1, 1]
-0.20840153 0.42386276 0.3737458 0.669369
00000000: 3667 55be 8a04 d93e 9c5b bf3e c45b 2b3f

convLSTM2d1.conv_xo.bias f4 [2]
-0.028164683 0.6211913
00000000: 9fb9 e6bc 6506 1f3f

convLSTM2d1.conv_xg.weight f4 [2, 2, 1, 1]
-0.14839105 -0.51246256 -0.23784083 0.71113294
00000000: d3f3 17be bf30 03bf 8c8c 73be cf0c 363f

convLSTM2d1.conv_xg.bias f4 [2]
0.430485 0.5652342
00000000: 8868 dc3e 30b3 103f

convLSTM2d1.conv_hi.weight f4 [2, 2, 1, 1]
0.6835038 0.07808523 -0.3125543 0.5343891
00000000: 1bfa 2e3f 26eb 9f3d 1e07 a0be b9cd 083f

convLSTM2d1.conv_hi.bias f4 [2]
-0.117515214 0.63842076
00000000: d1ab f0bd 8b6f 233f

convLSTM2d1.conv_hf.weight f4 [2, 2, 1, 1]
-0.052378323 0.8372742 0.048317652 0.5859461
00000000: a78a 56bd 9a57 563f bbe8 453d 9000 163f

convLSTM2d1.conv_hf.bias f4 [2]
0.060999297 -0.1831974
00000000: 66da 793d 1998 3bbe

convLSTM2d1.conv_ho.weight f4 [2, 2, 1, 1]
0.20048219 0.38573137 0.011706759 0.0058825663
00000000: 344b 4d3e 957e c53e b5cd 3f3c 8bc2 c03b

convLSTM2d1.conv_ho.bias f4 [2]
-0.15426199 0.54874027
00000000: dbf6 1dbe 3e7a 0c3f

convLSTM2d1.conv_hg.weight f4 [2, 2, 1, 1]
0.10905883 -0.25595078 -0.46606314 0.503549
00000000: 3c5a df3d fb0b 83be d49f eebe 96e8 003f

convLSTM2d1.conv_hg.bias f4 [2]
0.18952355 -0.2890497
00000000: 7612 423e 53fe 93be

convLSTM2d2.conv_xi.weight f4 [2, 2, 1, 1]
-0.32588378 0.6768546 -0.45896187 -0.065881014
00000000: 3dda a6be 5846 2d3f 0dfd eabe a0ec 86bd

convLSTM2d2.conv_xi.bias f4 [2]
0.429918 0.23513566
00000000: 361e dc3e 67c7 703e

convLSTM2d2.conv_xf.weight f4 [2, 2, 1, 1]
0.30415642 0.38129878 0.8556748 -0.25925425
00000000: 64ba 9b3e 9839 c33e 810d 5b3f f9bc 84be

convLSTM2d2.conv_xf.bias f4 [2]
-0.13174482 -0.18849096
00000000: 1de8 06be c603 41be

convLSTM2d2.conv_xo.weight f4 [2, 2, 1, 1]
0.12892996 0.68839103 0.27415136 0.79879254
00000000: 3706 043e 653a 303f 915d 8c3e ab7d 4c3f

convLSTM2d2.conv_xo.bias f4 [2]
-0.07487446 -0.2037189
00000000: c857 99bd b09b 50be

convLSTM2d2.conv_xg.weight f4 [2, 2, 1, 1]
0.30688772 0.5074645 0.8380503 -0.5378804
00000000: 6320 9d3e 32e9 013f 778a 563f 88b2 09bf

convLSTM2d2.conv_xg.bias f4 [2]
0.56589264 0.64960146
00000000: 57de 103f 484c 263f

convLSTM2d2.conv_hi.weight f4 [2, 2, 1, 1]
0.22237247 -0.4237089 0.35040775 -0.13889207
00000000: 9cb5 633e 5ff0 d8be a568 b33e b939 0ebe

convLSTM2d2.conv_hi.bias f4 [2]
0.53989744 -0.41102284
00000000: b836 0a3f 9671 d2be

convLSTM2d2.conv_hf.weight f4 [2, 2, 1, 1]
-0.6260892 0.39289054 -0.3068004 -0.020609302
00000000: 6247 20bf f328 c93e f114 9dbe d7d4 a8bc

convLSTM2d2.conv_hf.bias f4 [2]
0.3685105 0.50848925
00000000: 69ad bc3e 5a2c 023f

convLSTM2d2.conv_ho.weight f4 [2, 2, 1, 1]
-0.40327162 0.22644086 0.13821547 -0.036502022
00000000: 9e79 cebe 1de0 673e 5b88 0d3e 2583 15bd

convLSTM2d2.conv_ho.bias f4 [2]
0.42447457 -0.2943168
00000000: bb54 d93e b1b0 96be

convLSTM2d2.conv_hg.weight f4 [2, 2, 1, 1]
-0.016078431 0.12740237 0.17098127 -0.24673937
00000000: eab6 83bc c475 023e b715 2f3e 3fa9 7cbe

convLSTM2d2.conv_hg.bias f4 [2]
-0.016040629 0.19010085
00000000: a367 83bc cca9 423e

fc1.weight f4 [3, 110]
0.052963942 0.070401624 0.009539879 -0.018454347 0.11068609 0.10400976 -0.026093792 0.09194135
-0.04940849 -0.029409181 -0.028249241 0.038604673 -0.03539955 0.003788454 0.052515306 0.071148016
0.08810882 0.06743751 0.023651596 0.034582935 -0.044599604 -0.04933513 0.06728441 0.13784918
0.042107448 0.013335763 0.0027810775 0.11117292 0.11888118 0.13404255 0.13673335 -0.054750904
0.043387953 0.069512345 0.033690657 -0.043307215 0.12785782 0.1303318 0.019589368 -0.04344955
-0.016419197 0.035938807 0.057332885 0.11626791 0.10263739 0.023259178 0.037216943 0.10705315
0.0792579 0.05626177 -0.051714066 0.08206918 -0.046054386 0.124000795 0.067044534 0.07122799
0.068411276 0.09182189 0.031784747 0.130535 0.093185015 0.0015130225 -0.011521361 0.064052105
-0.057115316 0.048879012 0.10531343 0.029361628 0.08439796 0.12356054 0.021097537 -0.018216042
0.06364159 -0.0102689145 0.052285098 0.057885684 0.11322918 0.13768785 -0.04045684 -0.0026306494
0.037661094 0.09451039 0.031515334 0.043336287 0.120377146 0.094480805 -0.00090938876 -0.018434271
0.0102170855 0.019172013 0.016844403 0.10529076 0.034772407 0.062906265 0.026705673 0.08461432
-0.004925662 0.062434297 0.07856078 0.053375605 -0.0059164446 -0.021059103 -0.018764097 -0.03536031
0.030143933 0.07568079 -0.03974956 0.069511406 -0.05034762 0.10717458 -0.10949559 -0.118523516
-0.09204585 -0.03362694 -0.014570781 -0.052255716 -0.1391639 -0.087966174 -0.030120514 -0.032950755
-0.085953556 -0.1497477 -0.043278214 -0.033516753 0.022812974 -0.14317647 -0.03828678 -0.012522045
-0.033980522 0.028588839 0.0028810774 -0.00039896622 0.0053227753 -0.1018589 -0.022557745 -0.033326376
-0.14312991 -0.05715253 -0.08420539 -0.028065477 0.034952067 -0.12039898 0.018875668 -0.13916485
-0.0667623 0.031923782 -0.082786895 -0.04977928 -0.10787633 -0.071058474 0.013132638 -0.015522549
-0.1281865 -0.04801634 -0.09765416 0.021593375 -0.016586447 -0.07233727 0.029236345 -0.02357813
-0.0068186345 -0.12217403 -0.08928634 0.032749005 -0.0048031295 -0.05245694 -0.06069776 -0.1380385
-0.032849044 -0.07834223 -0.0117652165 -0.009374369 -0.013536304 -0.065344475 -0.09148677 -0.07602084
-0.014834679 -0.067144774 -0.078651704 -0.10413574 -0.04243818 -0.15366973 -0.0016598137 -0.11774921
-0.037059065 -0.04911007 -0.1514846 -0.096218556 -0.09848179 -0.13967331 -0.12775765 -0.05975388
-0.041457042 -0.008379117 -0.14428684 -0.094589554 -0.035454575 -0.0035544387 -0.09283803 -0.015881155
-0.1469748 -0.1519809 -0.019517124 -0.0733813 -0.12200828 -0.14995083 -0.14548798 -0.051439077
-0.01647169 0.027840393 -0.15208885 0.026737716 -0.07736087 -0.15069056 -0.14362925 -0.09728764
-0.047251325 -0.066001035 -0.07456855 -0.15538001 0.06774653 0.069613464 -0.055406593 0.13926663
-0.001381682 -0.030794978 -0.017408356 0.0260954 0.0504958 0.08246897 0.08960603 0.022981962
0.008039131 -0.013408324 -0.022579756 0.087788545 0.055192392 0.116079345 -0.037570484 0.11415375
0.031300567 0.007707794 0.030043673 0.040184107 -0.051052995 0.10132241 -0.034138262 -0.022262696
0.022710787 -0.0063457396 0.0052298647 0.020872464 0.07274493 -0.02399049 0.08508417 0.10343173
00000000: b8f0 583d ba2e 903d 274d 1c3c 922d 97bc
00000010: 64af e23d 1203 d53d a6c2 d5bc bf4b bc3d
00000020: 8f60 4abd 86eb f0bc f46a e7bc ef1f 1e3d
00000030: 1eff 10bd b647 783b 4a1a 573d 0db6 913d
00000040: 6672 b43d ad1c 8a3d fec0 c13c d6a6 0d3d
00000050: 13ae 36bd a213 4abd 69cc 893d 5628 0d3e
00000060: dc78 2c3d 3e7e 5a3c bd42 363b a1ae e33d
00000070: fa77 f33d 7342 093e d403 0c3e 7c42 60bd
00000080: 91b7 313d 7d5c 8e3d 37ff 093d e862 31bd
00000090: 29ed 023e b375 053e e279 a03c 28f8 31bd
000000a0: 8d81 86bc 9234 133d e3d5 6a3d df1d ee3d
000000b0: 8d33 d23d 088a be3c cb70 183d af3e db3d
000000c0: f751 a23d be72 663d 21d2 53bd e313 a83d
000000d0: 86a3 3cbd 21f4 fd3d a54e 893d fbdf 913d
000000e0: 361b 8c3d 1d0d bc3d b930 023d f8aa 053e
000000f0: c9d7 be3d 9c50 c63a 17c4 3cbc c02d 833d
00000100: c0f1 69bd 5c35 483d 91ae d73d cc87 f03c
00000110: d6d8 ac3d 4f0d fd3d bed4 ac3c cf39 95bc
00000120: 8656 823d f33e 28bc e628 563d 8a19 6d3d
00000130: b3e4 e73d 0bfe 0c3e 12b6 25bd f966 2cbb
00000140: 8542 1a3d aa8e c13d 3916 013d 6481 313d
00000150: 4b88 f63d 277f c13d 0c64 6eba 7803 97bc
00000160: 9065 273c a00e 9d3c 46fd 893c afa2 d73d
00000170: 836d 0e3d 00d5 803d dbc5 da3c 464a ad3d
00000180: 7367 a1bb 1bbb 7f3d 79e4 a03d 61a0 5a3d
00000190: bcde c1bb 2484 acbc 2ab7 99bc f9d5 10bd
000001a0: 69f0 f63c 88fe 9a3d 6fd0 22bd ff5b 8e3d
000001b0: 4e39 4ebd 597e db3d 393f e0bd 75bc f2bd
000001c0: 8982 bcbd 67bc 09bd 49ba 6ebc 170a 56bd
000001d0: fb80 0ebe 9c27 b4bd 4cbf f6bc 5ff7 06bd
000001e0: 6b08 b0bd 7657 19be 7f44 31bd dd48 09bd
000001f0: 46e2 ba3c da9c 12be 99d2 1cbd 4329 4dbc
00000200: 292f 0bbd 2433 ea3c 75d0 3c3b 572c d1b9
00000210: ad6a ae3b 669b d0bd 05cb b8bc 3d81 08bd
00000220: a690 12be c518 6abd e073 acbd 92e9 e5bc
00000230: e629 0f3d be93 f6bd 25a1 9a3c 3b81 0ebe
00000240: acba 88bd 83c2 023d 2d8c a9bd 5ce5 4bbd
00000250: 44ee dcbd 1b87 91bd 472a 573c 4a52 7ebc
00000260: 5243 03be c8ac 44bd e7fe c7bd 97e4 b03c
00000270: 4de0 87bc 9025 94bd 0f81 ef3c ec26 c1bc
00000280: da6e dfbb 6136 fabd c2db b6bd d223 063d
00000290: 9263 9dbb 17dd 56bd 379e 78bd f759 0dbe
000002a0: b88c 06bd e471 a0bd e5c2 40bc f496 19bc
000002b0: 60c7 5dbc 53d3 85bd 6a5d bbbd d0b0 9bbd
000002c0: 270d 73bc 3383 89bd 2514 a1bd 1e45 d5bd
000002d0: a8d3 2dbd 995b 1dbe 1b8e d9ba 7f26 f1bd
000002e0: 3fcb 17bd a427 49bd c71e 1bbe 3c0e c5bd
000002f0: d2b0 c9bd 8506 0fbe e7d2 02be 7cc0 74bd
00000300: dcce 29bd 9048 09bc eebf 13be 2bb8 c1bd
00000310: d138 11bd 96f1 68bb dd21 bebd 3219 82bc
00000320: 9080 16be e2a0 1bbe 60e2 9fbc ef48 96bd
00000330: 7adf f9bd b68c 19be cdfa 14be c8b1 52bd
00000340: a3ef 86bc 8911 e43c 2ebd 1bbe 0e09 db3c
00000350: 606f 9ebd a04e 1abe 8c13 13be be3e c7bd
00000360: 9b8a 41bd 8d2b 87bd 65b7 98bd f01b 1fbe
00000370: b1be 8a3d 8191 8e3d 06f2 62bd e99b 0e3e
00000380: 8e19 b5ba c045 fcbc f89b 8ebc 05c6 d53c
00000390: afd4 4e3d 7ee5 a83d 5e83 b73d ab44 bc3c
000003a0: 8fb6 033c 96ae 5bbc 2ef9 b8bc 7bca b33d
000003b0: 6b11 623d 02bb ed3d 82e3 19bd 71c9 e93d
000003c0: 0635 003d aa91 fc3b 261e f63c 1798 243d
000003d0: f21c 51bd 2082 cf3d 90d4 0bbd 4260 b6bc
000003e0: f90b ba3c ecef cfbb 495f ab3b bbfc aa3c
000003f0: 4bfb 943d b487 c4bc 9c40 ae3d 04d4 d33d

fc1.bias f4 [3]
-0.0056239 -0.033122405 0.08139234
00000000: b148 b8bb 5cab 07bd 07b1 a63d
