scripts/python/deep-learning/experiments/cnn3d/009/model-cnn3d-epoch-23.pth (torch_old, 19549 bytes, 16 tensors)

conv1.weight f4 [5, 1, 65, 1, 2]
00000000: 17d6 bfbd 0f48 e63c b2e2 223d fdfa adbd
00000010: 7049 b9bc c358 7fbd 89e8 a83c 741f 88bd
00000020: 6bdf 2a3d f499 063d 7bd9 cbbd e208 8fbd
00000030: 3ff3 583d 09a1 99bd 0c3c 283c 5af2 e43b
00000040: e0b1 3a3d 2759 c7bd 8a92 99bc b841 cabd
00000050: 2d3f 92bd 16e7 c1bd daf8 1a3d ebe7 aebd
00000060: 8e08 c2bd d6ef 03bd 02b7 8ebd 5717 4f3d
00000070: e927 413d b706 00bd 67ab 25bd 47dc 833d
00000080: 3873 a9bd a3a1 2d3d 5bc4 3a3d 51b8 643d
00000090: b9c7 4a3d 2121 45bb 4b65 c7bd 9dcd 813d
000000a0: d73e 9fbd 92bd 41bb d6e7 d83c 1cb3 dd3b
000000b0: 513d ffbb b05e 183d 4ee8 c73c bc13 c4bd
000000c0: d410 883b c7c4 88bd ae66 063d 4da2 e63c
000000d0: 8459 6e3d bb8a 4cbd 4777 8b3d e175 8dbb
000000e0: fddc c63c ef03 b63c 4c85 c53c 24f8 4d3d
000000f0: dc91 233b 953a 19bc 807f 2f3d 78ff 473d
00000100: d127 9fbd dc56 c9bc 7879 603c 94d1 5d3d
00000110: 8700 163d bcd1 853d 3bad 883d ddda 813d
00000120: 4af6 acbd 2b91 87bd 103e b4bd 2ce2 79bd
00000130: 8291 17bc 2893 323c de70 4b3d daa9 2f3d
00000140: 3914 47bc 325a 22bd d74c 9bbc 8a69 b33c
00000150: 4f5a 90bd 6a74 cbbd cd27 c3bd 990c a4bc
00000160: cf54 efbc 5987 c33c d570 373d 8715 1ebd
00000170: a323 44bd 4c6f 983c b54d a7bc 34db cebd
00000180: 10a7 fcba 048c 53bb a240 b8bd 815a d8bd
00000190: 594f 8d3d 4cea 21bd 2daf 2bbd fe49 133d
000001a0: 9441 39bd b632 a5bd 60f1 23bd 29c1 9ebd
000001b0: 224a bcbd 4a31 d8bd 9a1c cfbd d93d c4bb
000001c0: e205 723d 5c98 54bd b89d 1cbd 794f 91bd
000001d0: 5345 0c3d 3fab 6fbd 452a 5dbd 3a5e 07bd
000001e0: 0056 c93c 96c3 0b3d eb95 d03c 34d0 37bd
000001f0: be43 753d 4c63 883d feae aa3c e8c4 96bc
00000200: d2c8 873d 28a1 663d d755 abbc 4036 d8bc
00000210: e9bb a8bd 53f0 44bd 270f 0a3c e822 99bd
00000220: f932 803c 3b49 2ebd bd31 cfbc aff1 36bc
00000230: e625 123b 70d3 1fba 5cdb 6abc c16e a83c
00000240: e4d7 a63d c3fc d6bc 8623 d23c 2216 aa3d
00000250: 36bc 803b cdb6 0b3d f514 64bd 9f4c 8e3d
00000260: 3f30 ed3b cadd 9d3d 2db3 31bd 7dd3 e13c
00000270: 8b4c 293d 4f30 a53d 0e51 313c e902 3f3c
00000280: 4197 9a3d 8c56 dd3c 3d05 e13c 382c af3c
00000290: 03fd 083d 191e ac3d 7e6a 4dbd ee09 6c3d
000002a0: 2cac 8e3c 9c21 76bb 4ac9 933d 3aca 6cbc
000002b0: d174 5ebd 1964 91bd 6540 73bc bd6c 603b
000002c0: 61e2 01bc 193d a23b c0f7 abbc 1062 80bd
000002d0: f336 eb3c 16ff 033d 4294 abbc 95ec 94bd
000002e0: 8b67 60bd b8cc f9bc 78fc 5abd cf86 c93c
000002f0: 2d25 873c b127 0ebd 2e5e 343c 381e 81bd
00000300: a6c7 f33c 9110 123b cbe1 6ebd b774 b23c
00000310: f695 2fbc 924f a2bb b290 b8bc 58d7 1d3d
00000320: 5e86 44bc 9c70 4abc 1f37 93bd 17fa 503d
00000330: 979c 84bd 6a43 b5bc b51f 81bd cd9f 3d3d
00000340: d6ba a0bd 350c 3ebd 6733 8ebd 8e08 383d
00000350: 9981 263d 5277 afbd c230 a8bd 00b3 28bd
00000360: f8d0 483d 36de 3e3d b3ea 8a3c 67c6 183d
00000370: 465e b23b 34f3 883d 43a3 49bd bf75 0abd
00000380: 6591 683d fe10 dabc 5345 a9bd e18b 8e3c
00000390: 6c4a 45bd 0c21 ad3c da5e 843b c2f5 9d3c
000003a0: 6999 c63c 1cb1 72bc f3b8 05bd 876c cbbc
000003b0: 802e 3f3c 91f2 29bc 7046 32bd e1df 933d
000003c0: 4ca5 623d 4cf0 36bd 434d 333d 18e8 723d
000003d0: bcc5 dfbc 18c2 a63d 5c58 493d 00fc 333b
000003e0: f8d9 52bd 6c35 3abc 29e3 273d 0965 4b3d
000003f0: 3186 72bd 163d f8bc 36b9 be3c 7414 9dbd
-0.09367006 0.028110532 0.039766975 -0.08495138 -0.022618026 -0.06234051 0.020618694 -0.06646624
0.041716974 0.032861665 -0.099535905 -0.06984116 0.052966353 -0.07501418 0.010268223 0.0069868984
0.04557979 -0.09733801 -0.018746633 -0.09875816 -0.07140956 -0.09467904 0.03783498 -0.085403286
-0.09474288 -0.032211147 -0.069685 0.050559368 0.047157202 -0.031256404 -0.040446665 0.06438499
-0.08273929 0.042390477 0.045597415 0.05583984 0.049506877 -0.003007956 -0.09736117 0.06338046
-0.077756576 -0.0029562456 0.026477735 0.0067657363 -0.007789292 0.037199676 0.024402764 -0.095740765
0.0041523967 -0.06678157 0.032812767 0.028153563 0.058190838 -0.04993699 0.0680986 -0.004317031
0.024275297 0.022218673 0.024111412 0.050285473 0.0024958765 -0.009352346 0.042846203 0.04882762
-0.07771266 -0.02457755 0.013700835 0.054154947 0.036621597 0.06534144 0.06673666 0.06340573
-0.084454134 -0.066194855 -0.088009 -0.06100671 -0.009251 0.010899343 0.049668185 0.042886592
-0.012150818 -0.0396368 -0.018957539 0.02190091 -0.07048475 -0.099343136 -0.09529076 -0.020025538
-0.029215245 0.02386825 0.04478534 -0.03859475 -0.04788555 0.018607758 -0.020422796 -0.101004034
-0.0019275863 -0.00322795 -0.08996703 -0.10564137 0.068999 -0.039530084 -0.041915108 0.035959236
-0.045228556 -0.08066313 -0.040025115 -0.07751686 -0.09193827 -0.10556276 -0.10112877 -0.005988818
0.05908764 -0.051903114 -0.03823635 -0.07095236 0.0342458 -0.058512922 -0.05399539 -0.033048846
0.02457714 0.034122072 0.025462111 -0.044876292 0.059879057 0.066595644 0.020835396 -0.01840444
0.066301 0.056306034 -0.020914955 -0.026393056 -0.08238966 -0.048080754 0.008426464 -0.07477361
0.015649306 -0.042550307 -0.025292272 -0.01116602 0.0022300421 -0.00060968753 -0.014334526 0.020560624
0.081466466 -0.026243573 0.025651705 0.08305003 0.0039286865 0.03410988 -0.05568405 0.06948208
0.0072384174 0.077083185 -0.043383766 0.027566666 0.041332763 0.08065855 0.010822548 0.011658409
0.07548381 0.027018808 0.027468318 0.02138339 0.033444416 0.08404178 -0.050150387 0.057626657
0.017416082 -0.0037556654 0.07216127 -0.014452511 -0.054310624 -0.0709917 -0.014846896 0.00342445
-0.007927508 0.004951131 -0.02099216 -0.06268704 0.028712725 0.03222569 -0.020944718 -0.07271687
-0.054786246 -0.030493125 -0.05346343 0.024600415 0.016497219 -0.03470582 0.011008782 -0.06304592
0.029758286 0.0022287706 -0.0583208 0.02178417 -0.010716906 -0.004953333 -0.022529934 0.038535446
-0.011994926 -0.01235595 -0.07188248 0.051019754 -0.0647518 -0.022126872 -0.06304876 0.046294976
-0.07848136 -0.04639836 -0.06943398 0.044930033 0.040650938 -0.085676804 -0.08212425 -0.041186333
0.049027413 0.046598636 0.016957616 0.037298586 0.005443367 0.06687012 -0.049227964 -0.033803698
0.056779284 -0.02661943 -0.08265176 0.017400684 -0.048166677 0.021133922 0.0040396275 0.019282226
0.024243074 -0.014812734 -0.032647084 -0.024832023 0.011668801 -0.010372774 -0.043524206 0.07220436
0.05533342 -0.04466276 0.043774854 0.059303373 -0.027315967 0.08142489 0.04915653 0.0027463436
-0.051477402 -0.011365276 0.04098812 0.0496569 -0.059210006 -0.030302566 0.023281675 -0.07669917

conv1.bias f4 [5]
00000000: 4823 923d bdc2 9fba 3a4c e73c 313e 90bd
00000010: dac3 443d
0.071356356 -0.0012188774 0.02823459 -0.07043112 0.04803834

bn1.weight f4 [5]
00000000: 3393 173f b639 673d 48e9 1c3f 534b ea3e
00000010: b783 a63e
0.59208983 0.05645152 0.6129346 0.45760593 0.32522365

bn1.bias f4 [5]
00000000: 89d3 ce3c a5ab 4d3c cc5f 2c3c 0729 8ebd
00000010: 0aba 3fbd
0.025247352 0.01255313 0.010520887 -0.06941419 -0.04680828

bn1.running_mean f4 [5]
00000000: f785 143e cefd 193c d34e 023c 3ffd 2abd
00000010: fedc 333d
0.14504229 0.009398891 0.0079533635 -0.04174542 0.043911926

bn1.running_var f4 [5]
00000000: a862 4f40 c51b 063f 2a26 1440 b484 5040
00000010: 3348 4540
3.2403965 0.5238612 2.3148293 3.2580996 3.0825317

conv2.weight f4 [1, 5, 1, 1, 1]
00000000: d5d3 d43d 566f 643d 4319 603d 1cd9 84be
00000010: a742 ffbd
0.10391966 0.05577024 0.05471159 -0.2594689 -0.12463885

fc1.weight f4 [3, 460]
00000000: 972e 53bd 6bf6 823d f3ef b13c dc64 b1bc
00000010: fc02 3f3d e1b5 d83a 45e1 013c 313f 50bd
00000020: 7155 073d 2caa bf3d 36b7 ddbc f40b 9b3d
00000030: 484b 193d cbaa 2b3d 49bd ddbc 11ff 17bd
00000040: 910f 763d b526 f4bb 8d71 ebbc dfe9 eabb
00000050: cce5 46bb 5e1f 08bd 1cca 37bd 451f b43c
00000060: 0dde e83c e8f5 083b cdb8 d23b f6af 4a3d
00000070: 9601 a63c 832d 243d 0565 bbbc 4e79 42bc
00000080: 88ed 133b 54d9 06bd 20a4 b3bb 6073 3d3d
00000090: 67de 033b 6313 b0bd 3bcb 88bd 545b 98bc
000000a0: e06a 0dbd 6c3b 6fbd b425 62ba 3d5f f7bc
000000b0: 8af2 59bc c5fe 14bd 98a4 ea39 6655 113d
000000c0: 068b b73c 9671 abba 84ce 793b 6a11 6bbc
000000d0: 6202 983c 8652 cb3c 684b 403b 5e1a a73c
000000e0: d9e2 723a 00b9 2abd 1d26 d0bb 4b75 383d
000000f0: 0e78 31bd 57be 2dbd f181 53bd c1ba 7bbd
00000100: 1466 a03c c337 7e3d 0439 153d 30e2 31bc
00000110: 38dd b93a 13b5 d2bc 4532 7e3d d17b d6bb
00000120: 6aa2 d63b 9ecf d7bb f593 2e3c 4872 33bd
00000130: fb6a c6bc d7ac 203d 343e 1e3c c423 fd3b
00000140: 9489 3b3c 0fff 13bc 9999 63bd d796 853a
00000150: 6b66 3f3b ffa4 9cbc 2ec2 bf39 0881 d4bc
00000160: 7adc 953d d13b 84bd a0bd 2e3d b5ba 66bd
00000170: 6ec4 91bc 2c07 d33b d319 c8ba 2533 ef3b
00000180: 8434 40bd 0914 793d 7382 f9bc 3d79 9abc
00000190: 7b28 ab3c f806 573c f803 d9bc 4c15 80bd
000001a0: fabb b83c a4ae 16b9 c207 523d 0a25 92bd
000001b0: 2154 323c 6d49 d03b 0683 f2ba 0287 3b3b
000001c0: 98df 28bc e920 99bd 4117 7f3d ffa0 e7bc
000001d0: 7211 6e3d d395 f5bc d55c 00bd 9f7f 4a3d
000001e0: 4062 e2bc 633f 443d 5c18 033d 487c 95bd
000001f0: b94d de3c f021 56bc 6cd5 393a 34e4 8a3b
00000200: a3e6 293d 9061 df3c f725 2abb 77cf f0ba
00000210: 0b04 6e3c b7fa 75bc 3521 24bc 791f 08bb
00000220: a03e 50bd c7f6 263c 5249 a8bb 9847 d2bc
00000230: 6cfe 36bd 3b28 423c 50ed 523d 9fe1 af3c
00000240: 62df b73c a24b 5c3d fe68 c43c 62ee 273d
00000250: e0f6 1a3c 0620 b83b 2f1a 85bc a943 16bd
00000260: 0611 6cbd 044d 43bd ec9f 483d 4870 fabc
00000270: b603 133c d3bc 003d 4f72 4d3d c4b8 6cbc
00000280: 3f8c 81ba 5401 313d bb31 e9bb e9b8 d93c
00000290: e67e 813c dac4 ebbc 8c3b 3dbd d8c3 393b
000002a0: a977 3c3c e8f9 f2bb 2125 853c 3d6a a0bc
000002b0: c812 673c d04e 973d 3111 7ebd 0994 b33c
000002c0: 9b7c 05bd 6aa8 263c 51cd 6a3c a6d4 2a3b
000002d0: 86ea 4fbc e668 77bb bf15 a23b 9061 033d
000002e0: 2441 073d d890 0abd d136 98bc 14cb 943d
000002f0: 45bc ccbb b197 1abc 3473 39bc 8b69 e9bc
00000300: e7ff 743b fb0a 10bd 10b7 50bc 42b6 bd3d
00000310: c13f ff3b 57c6 dabc 1816 643d d587 5fbd
00000320: af48 cbbc 7cd9 a9bc f58a 803c e2cc 54bc
00000330: 20fa cd3d 98d5 0a3d 169c 27bd 2e90 c33b
00000340: 1312 a83c a892 5bba 5de1 653d c7e6 3a3d
00000350: 47d5 c0bc 5879 b93b 31da bc3c 4ec0 0ebb
00000360: de6e bebb bdfb b03c 8a79 2b3d 0ad0 303c
00000370: e05e 423d ee31 e8bc 1054 95bc 080b 7c3d
00000380: 7c82 e9bb 6042 803c 0e55 33bd 3ca3 4a3d
00000390: 679b 813c af9f 98bd b959 7b3c 5fdc 39bd
000003a0: acff 96bd 20f6 e4bc e307 7abd 42b5 8438
000003b0: a491 f3bc 5e12 25bc 37b3 23bc b92f 8d3d
000003c0: 18ca 59bc d967 e73b 2d29 853c 1ebc 35bc
000003d0: ff61 d8bc 7dca 78bd 50f0 0f3c a4fa 40bd
000003e0: c967 a2bc 36c2 5f3d f008 463c 20ee 30bd
000003f0: 79ee 093c abea fe3c cf80 2ebd d14c f33c
-0.051558103 0.06394657 0.021720862 -0.021654539 0.046633705 0.0016533696 0.007927244 -0.050841514
0.033040468 0.093586296 -0.0270649 0.07570639 0.03742531 0.041910928 -0.027067797 -0.037108485
0.06007344 -0.0074509033 -0.028740669 -0.007168993 -0.0030349372 -0.03323304 -0.04487048 0.021987567
0.028426195 0.0020898525 0.0064307214 0.049484216 0.020264428 0.040082466 -0.022875318 -0.011869742
0.0022572 -0.032922104 -0.0054822117 0.04625261 0.0020121576 -0.08597448 -0.06679388 -0.018598236
-0.034525752 -0.05840628 -0.0008626834 -0.03019678 -0.013302455 -0.03637578 0.0004475459 0.035481833
0.022405159 -0.0013080116 0.0038117478 -0.014347414 0.018555824 0.024819624 0.002934182 0.020398315
0.00092653703 -0.041680336 -0.0063521997 0.045033734 -0.043327384 -0.04241785 -0.051637594 -0.0614574
0.019579925 0.062064897 0.036431327 -0.01085715 0.0014180308 -0.025721109 0.06205966 -0.006545522
0.006550123 -0.006586029 0.010655393 -0.04381016 -0.024220934 0.039227333 0.009658385 0.007725211
0.011446375 -0.009032979 -0.055566404 0.0010192049 0.0029205333 -0.019121645 0.00036575034 -0.025940433
0.07317443 -0.064567216 0.04266131 -0.0563304 -0.01779386 0.006440064 -0.0015266485 0.007299798
-0.046925083 0.060810123 -0.03045771 -0.018856639 0.020893326 0.01312422 -0.02649115 -0.06254062
0.022550572 -0.00014370173 0.05127693 -0.07135971 0.010884316 0.0063564093 -0.0018502183 0.0028614406
-0.010307215 -0.0747698 0.062278036 -0.028275011 0.058122106 -0.029978668 -0.03133853 0.049438115
-0.02763474 0.047912013 0.032005653 -0.072990954 0.02713667 -0.013069615 0.0007088992 0.0042386297
0.041479718 0.027268201 -0.002596257 -0.0018372376 0.014527331 -0.015013388 -0.010017683 -0.0020770712
-0.050840974 0.010190672 -0.0051356936 -0.025668904 -0.04467623 0.011850412 0.05149585 0.02146989
0.022445384 0.053783067 0.023975845 0.040998824 0.009458274 0.005619052 -0.016247837 -0.03668562
-0.057633422 -0.04768087 0.04898064 -0.030571118 0.008973053 0.031430077 0.05015784 -0.014448348
-0.0009883716 0.043214157 -0.007116524 0.02657743 0.01580758 -0.02878039 -0.046199366 0.0028345492
0.011503139 -0.007415045 0.016253056 -0.019581908 0.014103599 0.07388079 -0.062028114 0.021921175
-0.032589536 0.010171989 0.014331178 0.002606669 -0.012690192 -0.0037751733 0.00494644 0.032075465
0.033021107 -0.03382954 -0.018580826 0.072652966 -0.0062480294 -0.00943558 -0.0113189705 -0.02849271
0.0037383975 -0.03516672 -0.012738958 0.092632785 0.0077895825 -0.026705904 0.055685133 -0.0545729
-0.024814932 -0.020733587 0.01569126 -0.012988301 0.10057473 0.033895105 -0.04092034 0.0059681153
0.020516431 -0.00083760405 0.056123126 0.045630243 -0.023539199 0.0056602173 0.02305326 -0.0021782103
-0.0058115562 0.021604413 0.041863956 0.010791788 0.04745376 -0.02834412 -0.01822856 0.061533958
-0.0071261507 0.01565665 -0.043782286 0.04947208 0.015821172 -0.07452332 0.015341216 -0.045376178
-0.07372984 -0.027949393 -0.061042678 6.3280124e-05 -0.029732533 -0.01007518 -0.009991459 0.06893868
-0.013292812 0.00706194 0.016254986 -0.011092214 -0.026413916 -0.060739983 0.008785322 -0.04711403
-0.01982488 0.054628573 0.012087092 -0.043195844 0.008418673 0.031117758 -0.04260331 0.029699715

fc1.bias f4 [3]
00000000: 056c 36bd b2bc cd3c f571 46be
-0.04453661 0.025114391 -0.19379409

momentum_buffer f4 [5, 1, 65, 1, 2]
00000000: 6611 f13d ce43 79bd 0c68 f13d eed4 79bd
00000010: 63b6 f13d 024c 7abd 48fd f13d 9ca7 7abd
00000020: ba3d f23d d2e6 7abd 2277 f23d e90a 7bbd
00000030: e2aa f23d b912 7bbd 62d7 f23d 34fd 7abd
00000040: 1aff f23d fdc9 7abd fd21 f33d ba79 7abd
00000050: 9d40 f33d 1607 7abd 175d f33d d177 79bd
00000060: 2678 f33d 87cb 78bd 0893 f33d f9fe 77bd
00000070: dbae f33d 3a1b 77bd 81cd f33d 8b1b 76bd
00000080: 80f0 f33d 310a 75bd 471a f43d a2e8 73bd
00000090: ff4b f43d d5ba 72bd 7186 f43d 4385 71bd
000000a0: 72ca f43d 7a4a 70bd d817 f53d 2b0f 6fbd
000000b0: 526f f53d 21d6 6dbd c1d1 f53d c9a0 6cbd
000000c0: a33d f63d e772 6bbd deb2 f63d 384e 6abd
000000d0: 9430 f73d fa32 69bd 72b5 f73d d025 68bd
000000e0: f23f f83d 2d22 67bd 74cf f83d 942e 66bd
000000f0: 0a62 f93d f147 65bd 0bf7 f93d 5a6e 64bd
00000100: 7c8b fa3d 3fa5 63bd b11e fb3d f8e6 62bd
00000110: ebad fb3d 0235 62bd f037 fc3d 818e 61bd
00000120: 9ebb fc3d 6ff0 60bd 6436 fd3d ba57 60bd
00000130: e5a7 fd3d a5c0 5fbd 290f fe3d fd29 5fbd
00000140: cf68 fe3d a693 5ebd 4ab5 fe3d 68f8 5dbd
00000150: 86f2 fe3d 1654 5dbd b71f ff3d 16a8 5cbd
00000160: fa3d ff3d 56f0 5bbd 9c4b ff3d a22c 5bbd
00000170: 6649 ff3d 8b5b 5abd 5336 ff3d 317d 59bd
00000180: 3812 ff3d 6a8f 58bd a7df fe3d 1b93 57bd
00000190: e79c fe3d c886 56bd 124b fe3d 2467 55bd
000001a0: 8eeb fd3d 1a35 54bd 167d fd3d 06ef 52bd
000001b0: 0901 fd3d e498 51bd 7d77 fc3d fb2d 50bd
000001c0: 9ce0 fb3d 82b2 4ebd ab3c fb3d 4e25 4dbd
000001d0: cc8c fa3d 2785 4bbd 14d1 f93d 35d5 49bd
000001e0: 2a09 f93d db14 48bd 6e36 f83d f044 46bd
000001f0: d956 f73d 0c68 44bd ca6b f63d 7b7e 42bd
00000200: ba75 f53d 898a 40bd 4489 263c f3a2 b93c
00000210: ae53 283c ff00 b93c 1613 2a3c 505e b83c
00000220: 4ec7 2b3c 04bc b73c 946f 2d3c a91b b73c
00000230: bc0a 2f3c 427e b63c 4c97 303c bae4 b53c
00000240: 1d13 323c e34f b53c 107e 333c 7bc0 b43c
00000250: c2d8 343c 6337 b43c 0e20 363c f6b4 b33c
00000260: 7f54 373c 4d39 b33c 2c78 383c 90c4 b23c
00000270: 8589 393c ed56 b23c f389 3a3c 26f0 b13c
00000280: 9c79 3b3c cf8f b13c 7c5b 3c3c be34 b13c
00000290: c730 3d3c b8de b03c 34fb 3d3c be8c b03c
000002a0: 78bc 3e3c 3b3e b03c d476 3f3c 94f2 af3c
000002b0: a92b 403c dba8 af3c b0da 403c 6460 af3c
000002c0: 9487 413c 5d18 af3c d632 423c 8ed0 ae3c
000002d0: acde 423c 5389 ae3c 228b 433c 7f41 ae3c
000002e0: 0938 443c 4cf9 ad3c 20e6 443c a3b0 ad3c
000002f0: b496 453c 8867 ad3c 2a49 463c 981d ad3c
00000300: c4fd 463c edd3 ac3c 04b3 473c c18a ac3c
00000310: c168 483c 6f42 ac3c 291c 493c 4cfc ab3c
00000320: ddcf 493c 89b9 ab3c 2481 4a3c 2e7a ab3c
00000330: 2e2e 4b3c 403f ab3c 1fd8 4b3c c409 ab3c
00000340: 757c 4c3c a4d9 aa3c 2818 4d3c ebae aa3c
00000350: b8ab 4d3c 308a aa3c 9234 4e3c 8f6c aa3c
00000360: acb0 4e3c e555 aa3c df21 4f3c b846 aa3c
00000370: 8585 4f3c 7340 aa3c b8db 4f3c f142 aa3c
00000380: 8223 503c 9c4f aa3c 385b 503c c466 aa3c
00000390: e286 503c eb88 aa3c e4a4 503c 5cb7 aa3c
000003a0: eeb5 503c 28f2 aa3c 9eba 503c fa38 ab3c
000003b0: 97b3 503c 858c ab3c 339f 503c 0fed ab3c
000003c0: f17d 503c c259 ac3c 0650 503c 42d3 ac3c
000003d0: fe13 503c 7459 ad3c b6ca 4f3c 4deb ad3c
000003e0: 2975 4f3c 7c89 ae3c 7211 4f3c b032 af3c
000003f0: 38a0 4e3c aae5 af3c 7620 4e3c 73a1 b03c
0.117708966 -0.06085568 0.117874235 -0.06099408 0.11802366 -0.061107643 0.11815888 -0.061195
0.1182818 -0.061255284 0.11839129 -0.0612897 0.118489996 -0.061297152 0.11857487 -0.06127663
0.11865063 -0.061227787 0.11871717 -0.061151244 0.118775584 -0.061041914 0.1188299 -0.06090528
0.11888151 -0.060740974 0.11893278 -0.060545895 0.118985854 -0.0603287 0.11904431 -0.06008486
0.11911106 -0.059824172 0.119190745 -0.059548028 0.119285576 -0.05926021 0.11939705 -0.05896498
0.11952676 -0.058664776 0.119674385 -0.058364075 0.11984123 -0.058065537 0.12002898 -0.057770524
0.12023475 -0.057482626 0.12045835 -0.0572035 0.120698124 -0.05693338 0.12095155 -0.056676686
0.121215716 -0.056429077 0.121489435 -0.056196764 0.121769026 -0.05597681 0.12205323 -0.055769302
0.12233636 -0.055577513 0.12261713 -0.05539605 0.122890316 -0.055226333 0.12315357 -0.055067543
0.12340473 -0.054916795 0.1236389 -0.054771163 0.12385539 -0.05462708 0.12405235 -0.054483403
0.124223344 -0.054340027 0.12436922 -0.054191977 0.124486014 -0.05403527 0.12457221 -0.053871237
0.12462993 -0.053696 0.12465593 -0.053509362 0.124651715 -0.05330996 0.124615334 -0.053097907
0.12454647 -0.052871145 0.12445002 -0.052630525 0.124322705 -0.05237463 0.12416662 -0.052100316
0.12398444 -0.051808454 0.12377374 -0.05149748 0.12353713 -0.0511712 0.12327478 -0.0508251
0.122987 -0.050463207 0.12267431 -0.050084405 0.12233886 -0.04968753 0.121980816 -0.049275596
0.12159951 -0.048848014 0.12119757 -0.048405588 0.12077112 -0.04795079 0.12032278 -0.047483902
0.11985345 -0.047007117 0.010164563 0.022660708 0.010273857 0.022583483 0.010380527 0.02250591
0.01048453 0.02242852 0.010585684 0.022352057 0.010683712 0.022277001 0.0107782595 0.022203792
0.010868815 0.02213282 0.010955349 0.022064438 0.011038007 0.021999067 0.011116041 0.021936875
0.011189579 0.02187791 0.01125912 0.021822244 0.011324291 0.021769965 0.011385429 0.021720957
0.011442568 0.021675019 0.011496421 0.021631595 0.011547274 0.021590576 0.011595536 0.021551486
0.011641614 0.021514049 0.011686046 0.021477975 0.011729159 0.021442821 0.011770889 0.021408267
0.0118121095 0.021373922 0.011852941 0.021339681 0.011893909 0.021305716 0.011935027 0.021271465
0.01197625 0.021237038 0.012017757 0.021202391 0.012059856 0.021167532 0.012102405 0.021132275
0.012145463 0.021097148 0.012188677 0.021062257 0.0122320065 0.021027772 0.01227478 0.020994328
0.012317625 0.020962493 0.012359891 0.020932283 0.012401147 0.020904183 0.012441664 0.02087868
0.012480845 0.020855732 0.012517966 0.02083536 0.012553148 0.020817846 0.012585776 0.020803718
0.012615364 0.02079291 0.012642353 0.020785674 0.012666111 0.020782685 0.012686662 0.020783873
0.012703778 0.020789914 0.012717061 0.020800956 0.012727471 0.02081724 0.0127346255 0.020839386
0.012738688 0.020867422 0.0127398055 0.020901192 0.01273813 0.020941028 0.012733269 0.020987062
0.012725339 0.021038894 0.012714392 0.02109683 0.012700079 0.021160819 0.012682607 0.021230364
0.0126622105 0.021305792 0.012638437 0.021386474 0.012611441 0.021471817 0.0125809815 0.02156136

momentum_buffer f4 [5]
00000000: 36cf 5bb5 36a1 2733 74e2 a5b4 8251 6b35
00000010: f368 0c35
-8.188539e-07 3.9029338e-08 -3.089841e-07 8.766293e-07 5.2306785e-07

momentum_buffer f4 [5]
00000000: 3451 24be a094 5fbd 85c9 713d 90e9 d3bd
00000010: c8ae 1dbd
-0.16046602 -0.0545851 0.059030075 -0.10347283 -0.038496763

momentum_buffer f4 [5]
00000000: 480c c93e ad01 553e bf0e 5b3e 7aaa 74bf
00000010: df57 e9be
0.39267182 0.2080142 0.21392344 -0.95572627 -0.45574853

momentum_buffer f4 [3]
00000000: 587d 2a3f 11c4 66bf 4c59 303e
0.6659751 -0.90142924 0.17221564

momentum_buffer f4 [1, 5, 1, 1, 1]
00000000: fa51 5dbf 8010 b9bb ddf0 1e3f 20a2 b8bd
00000010: 30ec 8bbd
-0.8645321 -0.005647719 0.6208628 -0.09015298 -0.068321586

momentum_buffer f4 [3, 460]
00000000: 7802 b93d 21d0 80bd db5a f8bd 2ab9 283f
00000010: af03 e03e d6ce 4cbe b123 16bf 7e72 173e
00000020: 2f41 d0be b2eb 1fbe 2a26 e1be b59d 833e
00000030: 8072 8c3c bedf 22bf ef1f a43e 9439 f93d
00000040: ca41 cfbe 1135 9f3e 4984 47bc cac9 4f3e
00000050: e02a 6dbe 49ec 17bf f181 c4be caa5 8ebe
00000060: 9bde df3d 751e d5be 7132 18bf b09d 04be
00000070: 600b 82bc 01fa babd 4805 2abe 6f02 083e
00000080: 696e d6be 6012 cd3e c2c3 fbbe da2f 86be
00000090: 1c4f b93e acf3 b9be 0bda bcbe cd34 b1be
000000a0: be85 11bf d9b5 fd3c 04f9 92be 52d7 e73e
000000b0: a1b2 13be a62c 08be ff63 ffbe 6922 32bf
000000c0: 0894 f43e 561e e1be 4a14 08bf 0612 363d
000000d0: 4091 a5be 994b 54be e9a9 5dbe 4010 13bb
000000e0: 079b 95be af9e d73e e320 fb3d 9047 543e
000000f0: 09c3 b53e d717 8a3d 924b fa3d 265d 1e3e
00000100: 1096 393d a8f6 f93e dcb4 cbbd eaaf 9fbe
00000110: ceb4 9ebe d475 573e 8c58 5a3e 8ae1 81be
00000120: d88b 4d3e 38d6 1dbe ff25 0cbf 112d 9d3d
00000130: 4944 2ebd 5a22 cebd 101a 243e 5c85 8fbe
00000140: a5fd a0be 9b94 8abe e066 9c3c 30b6 293d
00000150: 863d a73e 5458 213d bcca ce3e ec33 febe
00000160: 3983 b4be 8863 c7bd 0212 57bf 30a7 fa3c
00000170: 990d 17be fc76 a23e 551c 9b3e e08c 673d
00000180: 75e3 ce3e 02fc d1bd 4443 26be 8c59 3ebf
00000190: ef50 19be 19e4 97be 52d1 103f 6fde cbbe
000001a0: 221e b1be d082 113d 3ae1 dabe 7509 70be
000001b0: d015 053f 8f4b d0be 4e54 2e3e c010 3e3b
000001c0: 2706 833e 087a 07bf 2e66 f2be d882 68bd
000001d0: 0011 2c3c bd50 8a3e f90e eb3b 4529 5dbd
000001e0: 6b66 9bbe ca01 15be aa36 bc3e 009d 613b
000001f0: 1d7b ddbd 154c 6bbe 4dc1 63be e235 43bd
00000200: 9f3c 2f3e 8b44 583d eed5 6f3e 4852 17bd
00000210: 7537 943d 78a9 cc3e 341d fb3d 79bd b9bd
00000220: 0037 a63e 6430 c3bd fa18 3cbe 4fdf 073f
00000230: 2665 70bf 84ca 84bd 8fb7 c0be 461d 2fbf
00000240: 7439 f3be 1e25 c83e 5c44 f33e 7795 d2be
00000250: ec18 f73d 488c 7c3e b897 a3bd 9045 e7be
00000260: d835 513d a666 0fbf 7755 d63e 4201 26be
00000270: 6832 a5be 4184 3cbd 6e39 08bf c677 f93d
00000280: a811 32bf ef23 b6be 2770 13bd 64de 12bf
00000290: 006b d33e c8a7 a23d 93ff e7bd 0c77 aabe
000002a0: 5e21 20be 9669 05be 909e 8cbe 830b 99be
000002b0: 635c a63e ba5e 27be a83c b0be 3299 3cbe
000002c0: 48f3 cebc ce79 a7be 07c8 91be 3d5e 0c3f
000002d0: 31bc 0bbf aa8b 883d eafa a7be d954 323e
000002e0: 1298 5c3e 5238 353e a6a8 43bf 6a54 553d
000002f0: da95 773e 5693 56be 1a2c 9f3e 81c2 23be
00000300: fe87 623d 0deb 503e a46f 5abd 31de 22be
00000310: 2e46 71be d451 9d3e d02a 053d 6556 893e
00000320: 6994 313e 9297 86be a475 ebbd 5855 75be
00000330: ac57 2fbf 4df2 24be a5c6 69bd 81c8 45be
00000340: ae25 293e b0de 30bd 1e1d 51be 05de a1be
00000350: f4a7 88be 7ead 5dbe 1be7 89be 15e6 633e
00000360: 68aa 65be 87d0 ad3c 28f0 3ebe 2b29 eebd
00000370: 92a6 adbe 4a9d 9e3d ef25 c0bd fc99 e63e
00000380: 7e81 e1bd e654 913e 0063 aebe 5a41 2e3e
00000390: 6697 023e a20e c03e fc6a 21bf 0874 553d
000003a0: 68d7 5abe f31e bfbe 03d9 4bbe de88 93be
000003b0: 0829 44bf af69 843e faa3 223e 3aff 9fbe
000003c0: 3cfa b9be 182e b13e 96a4 97be 46bc 263e
000003d0: 3055 a63e f451 5ebe 0847 0bbd 9fcf 123e
000003e0: 0343 52bd 1ba7 73be 83c9 a63d 3990 033f
000003f0: 8f32 6fbe 5ade 43be c663 7c3e 3007 f4bc
0.09033674 -0.062896974 -0.12126704 0.6590754 0.4375281 -0.20000777 -0.5864821 0.14789769
-0.4067473 -0.15617254 -0.4397443 0.25706258 0.017144442 -0.63622653 0.32055613 0.12169185
-0.4047988 0.31095174 -0.012177535 0.2029182 -0.23160887 -0.5934492 -0.38380387 -0.27860862
0.109311305 -0.416248 -0.5945197 -0.12950778 -0.015874565 -0.09129716 -0.16603577 0.13282178
-0.4188111 0.40053082 -0.4917279 -0.26208383 0.36193168 -0.3631872 -0.36885104 -0.34610596
-0.568447 0.0309705 -0.2870561 0.45281464 -0.1442361 -0.13298282 -0.49880978 -0.69583756
0.4776919 -0.43968457 -0.5315596 0.044450782 -0.3233738 -0.20731963 -0.21646847 -0.0022440106
-0.2921984 0.42113253 0.12262132 0.20730424 0.35500363 0.06742828 0.12221445 0.15465221
0.045309126 0.48820996 -0.099466056 -0.311889 -0.30997318 0.21041042 0.2132284 -0.25367385
0.20072877 -0.15413749 -0.5474548 0.07674611 -0.04254559 -0.10065146 0.16025567 -0.28031433
-0.31443515 -0.27066502 0.019092023 0.041433513 0.32664126 0.039390877 0.4038905 -0.49648988
-0.35256365 -0.09735781 -0.8401185 0.0305973 -0.14751281 0.31731403 0.30295053 0.056530833
0.4040791 -0.10253145 -0.16236597 -0.7435539 -0.1497228 -0.29666212 0.565694 -0.3981814
-0.34593302 0.035525143 -0.4274996 -0.23441108 0.5198641 -0.40682647 0.17024347 0.0029001683
0.2559063 -0.5292058 -0.47343582 -0.056765407 0.0105021 0.27014723 0.0071734157 -0.053994436
-0.30351576 -0.14551464 0.36760455 0.0034425855 -0.108144976 -0.22978242 -0.22241707 -0.04765881
0.17112969 0.052799743 0.23421451 -0.036943704 0.0723714 0.39973044 0.122614294 -0.09069342
0.32463837 -0.09530714 -0.18368903 0.53075117 -0.9390434 -0.06483939 -0.37640044 -0.6840404
-0.4750477 0.39090818 0.47513092 -0.41129658 0.120653 0.24662888 -0.079879224 -0.4517026
0.05107674 -0.56016004 0.4186208 -0.16211417 -0.3226502 -0.046024565 -0.5321263 0.12181048
-0.6955819 -0.3557429 -0.03599563 -0.5737059 0.41292572 0.07942158 -0.11328044 -0.3329395
-0.15637729 -0.13028559 -0.27464724 -0.29891595 0.3249236 -0.16344729 -0.34421277 -0.18417814
-0.02526249 -0.32710117 -0.2847292 0.54831296 -0.5458403 0.06667264 -0.3280862 0.1741518
0.21542385 0.17697266 -0.7642921 0.052082457 0.24178258 -0.20954642 0.31088334 -0.15992166
0.055305474 0.20402165 -0.053329125 -0.15905072 -0.23561928 0.30726492 0.032511532 0.26823726
0.1734177 -0.26287514 -0.114970475 -0.23958337 -0.6849315 -0.16108055 -0.057074208 -0.19314767
0.1651828 -0.04318112 -0.20421264 -0.316147 -0.26690638 -0.21648213 -0.26934132 0.22255738
-0.22428286 0.021217598 -0.186463 -0.11628946 -0.33916146 0.07744844 -0.09382235 0.45039356
-0.11011027 0.28385085 -0.34059906 0.17017117 0.12753066 0.37511164 -0.6305387 0.05211261
-0.21371233 -0.373283 -0.19907002 -0.2881536 -0.7662511 0.2586188 0.15882865 -0.3124941
-0.36323726 0.3460548 -0.29617757 0.16282758 0.32486868 -0.2171095 -0.034003288 0.14337014
-0.05133344 -0.23794214 0.08143904 0.5139194 -0.2335913 -0.19127789 0.24647436 -0.029788584
