scripts/python/deep-learning/experiments/cnn3d/009/model-cnn3d-epoch-44.pth (torch_old, 19549 bytes, 16 tensors)

conv1.weight f4 [5, 1, 65, 1, 2]
00000000: 71e3 c6bd 8e05 cd3c 83af 143d df4c b4bd
00000010: 32c2 d5bc 2dff 85bd 127c 8c3c 6272 8ebd
00000020: 4dbd 1c3d ffea f33c 76d9 d2bd 2659 95bd
00000030: bd22 4b3d 99ed 9fbd 75cc e33b 527d 803b
00000040: c162 2d3d 1399 cdbd 2490 b3bc 2a78 d0bd
00000050: 3392 98bd c711 c8bd 6fb3 0e3d 9a04 b5bd
00000060: 9ff7 c7bd 1508 10bd c26f 94bd ca24 433d
00000070: 9827 363d adce 0bbd 8237 30bd 8d1f 7c3d
00000080: 077e aebd e93b 223d e526 313d d089 593d
00000090: bea2 413d e52d babb 17bc cbbd 89e5 783d
000000a0: a75a a3bd 6387 b4bb 1b60 c93c c123 8c3b
000000b0: 8aec 1cbc d971 0e3d 9419 ba3c ffe6 c8bd
000000c0: 0e20 283b 1b74 8dbd dc47 003d e375 d43c
000000d0: db95 683d 6458 55bd 33bf 883d 2f9c d1bb
000000e0: f094 bc3c 548b a53c 65c5 bb3c ea03 463d
000000f0: c493 b23a 3fee 37bc 430d 2b3d 7998 403d
00000100: 684c a1bd eb9a d7bc 3ed2 4f3c 97f2 563d
00000110: 0cec 113d ae82 823d d0a8 863d 9556 7d3d
00000120: fbf9 aebd a0a2 8abd fa45 b6bd 44cb 7fbd
00000130: ab19 28bc fec8 1b3c 5233 473d 642a 2a3d
00000140: fe9d 58bc dba9 27bd 3d6d a4bc 8022 a93c
00000150: 68bd 92bd ecf1 cdbd 33aa c5bd fcb8 adbc
00000160: 65e9 f9bc ff1c ba3c 44d9 313d 43ad 22bd
00000170: 6c0f 4abd f973 8f3c 33db b3bc 810e d1bd
00000180: aed1 68bb c959 8cbb 6cc8 bbbd ef7a dabd
00000190: db90 893d dd1b 26bd 269f 33bd 7625 0f3d
000001a0: e4a9 41bd 5d3f a7bd f9d6 2cbd d3c8 a0bd
000001b0: e3fd c0bd 8434 dabd 7e13 d4bd 0735 e4bb
000001c0: 978d 673d 1d90 58bd 39a4 27bd 2748 93bd
000001d0: 8fac 003d 7f96 73bd 8358 69bd 8643 0bbd
000001e0: 5dc9 af3c c8e3 073d d2d3 b53c 80aa 3bbd
000001f0: b145 673d ba78 863d 0676 8d3c 8f65 9ebc
00000200: a72a 803d 72d5 623d ed3a b1bc 86d8 dfbc
00000210: d738 aabd 48bf 48bd a124 fc3b 4909 9bbd
00000220: be5b 743c 8713 32bd cc39 d5bc b410 46bc
00000230: bed6 c33a ab89 c8ba c1e1 76bc bdea a03c
00000240: eb58 a53d 887a debc aa31 cc3c 6938 a83d
00000250: 204f 523b 0eff 073d 1300 67bd d272 8c3d
00000260: 331b d63b 2c06 9c3d 858c 34bd 487e da3c
00000270: 3c7d 263d 8b5d a33d f63d 263c 5182 303c
00000280: 523a 993d df21 d63c 8ba7 db3c e103 a83c
00000290: 7259 063d 4957 aa3d 1003 50bd 5983 683d
000002a0: cb90 893c a40a 97bb b187 923d 59a8 7abc
000002b0: 1eee 60bd c91b 93bd 3600 7dbc 8dfb 293b
000002c0: 2f80 0bbc fc49 873b 69b7 b0bc ca0c 82bd
000002d0: 7284 e63c d9b2 003d bd3b b0bc 0e8e 96bd
000002e0: 12b7 62bd d91f 00bd ff48 5dbd fb26 c33c
000002f0: 558f 823c e14d 11bd 2a33 2b3c 7aac 82bd
00000300: 9e2f ef3c 59cb c13a a430 71bd f362 ac3c
00000310: bce2 38bc 3048 babb f542 bdbc 0ce2 1a3d
00000320: bb08 4ebc ee1e 56bc f96b 94bd 2718 4e3d
00000330: b1d6 85bd 42f4 babc e65f 82bd d1d0 3a3d
00000340: b701 a2bd f9d1 40bd bb81 8fbd e04b 353d
00000350: aad4 233d 2fd1 b0bd e18f a9bd 0c5e 2bbd
00000360: 3400 463d 893b 3c3d 3022 853c f42b 163d
00000370: 1e99 9a3b e2a9 873d 34b1 4cbd 9f00 0dbd
00000380: 966d 653d f117 dfbc 7ce2 aabd 1093 893c
00000390: a69b 48bd cb35 a83c c233 523b 5717 993c
000003a0: d898 bf3c 9c55 7cbc 1451 09bd 4133 d0bc
000003b0: 326e 303c 5c6a 33bc 690e 36bd 77b3 923d
000003c0: 84c5 5e3d 4d44 39bd cd55 2f3d 7b98 703d
000003d0: 69e3 e7bc 549c a53d 7932 453d 3e80 0f3b
000003e0: 9916 57bd bd46 43bc 4f90 233d b923 493d
000003f0: d6ee 76bd 44ba fcbc 83bd b53c 9432 9ebd
-0.0971135 0.025027063 0.036300194 -0.088037245 -0.026093576 -0.065428115 0.017149005 -0.069554105
0.03826647 0.02977514 -0.10295384 -0.07292394 0.049593676 -0.0780899 0.0069518634 0.0039211893
0.042330507 -0.10038962 -0.021919318 -0.101791695 -0.0744976 -0.09769016 0.03483909 -0.08838768
-0.09764027 -0.035163958 -0.072478786 0.047642507 0.044471353 -0.03413265 -0.043021686 0.061553527
-0.085201316 0.039607916 0.043249983 0.053109944 0.047274344 -0.0056817406 -0.09947985 0.060765777
-0.07976275 -0.0055093034 0.02458196 0.004276723 -0.00957788 0.034776542 0.022717275 -0.09809684
0.0025653872 -0.06906911 0.03131853 0.025935119 0.05678354 -0.05208625 0.06677093 -0.0063967924
0.023020238 0.020208038 0.022921273 0.048343576 0.001362436 -0.011226236 0.041760694 0.04702041
-0.078759015 -0.026318988 0.012684403 0.052477445 0.035625502 0.063725814 0.06575167 0.06185015
-0.08543774 -0.067692995 -0.08900066 -0.06244971 -0.010260026 0.0095083695 0.048632927 0.041544333
-0.013221262 -0.04093347 -0.02007162 0.020646334 -0.071650326 -0.100559086 -0.096516035 -0.021206371
-0.030506799 0.022718905 0.04342009 -0.039716017 -0.049331114 0.017511355 -0.021955108 -0.102078445
-0.003552537 -0.004283164 -0.09169087 -0.10667979 0.06717082 -0.040553916 -0.043852948 0.034947835
-0.04728116 -0.081663825 -0.0421972 -0.07850804 -0.09423425 -0.10654548 -0.1035528 -0.006964329
0.056531515 -0.052871812 -0.0409281 -0.07191496 0.031414565 -0.059469696 -0.056969177 -0.033999942
0.021458322 0.033176214 0.02219573 -0.0458169 0.056462947 0.065659955 0.017268192 -0.019335536
0.06258135 0.05537934 -0.021634543 -0.027324926 -0.083116226 -0.049010545 0.007694796 -0.075701304
0.014914451 -0.043475654 -0.026028536 -0.012088943 0.0014941317 -0.0015299817 -0.015068472 0.019643182
0.080736004 -0.027158037 0.024926025 0.082138844 0.003209062 0.033202223 -0.056396555 0.06857838
0.006534004 0.07618365 -0.044079322 0.026671544 0.040646777 0.07976826 0.010146609 0.010773257
0.07481827 0.026139198 0.02681329 0.020509662 0.032800145 0.083174296 -0.05078417 0.056765888
0.016792675 -0.0046094228 0.07154787 -0.015298926 -0.054914586 -0.07183034 -0.015441945 0.002593729
-0.008514448 0.0041286927 -0.021571832 -0.063500956 0.028139327 0.031420562 -0.02151286 -0.073513135
-0.05535037 -0.031280372 -0.054024693 0.023822298 0.015937487 -0.03547466 0.01044921 -0.063805535
0.02919751 0.0014785334 -0.058884278 0.021043276 -0.011284526 -0.005684875 -0.023103217 0.03781323
-0.012575324 -0.013068898 -0.07247157 0.050316002 -0.0653509 -0.02282155 -0.063659474 0.0456093
-0.07910483 -0.047075246 -0.07007166 0.044261813 0.039997734 -0.086336486 -0.08279396 -0.041837737
0.048340037 0.045955215 0.016251653 0.03666301 0.00471796 0.066241995 -0.04997368 -0.03442442
0.056012712 -0.027233096 -0.0834398 0.016793758 -0.048976563 0.020533463 0.0032074307 0.018687887
0.023388311 -0.01540127 -0.033524588 -0.025415065 0.01076846 -0.010950651 -0.044447336 0.071631365
0.054387584 -0.045231152 0.042806435 0.058739167 -0.02830668 0.08086458 0.048143838 0.0021896507
-0.052511785 -0.011918721 0.039932545 0.049106333 -0.060286365 -0.030850537 0.022185093 -0.07724491

conv1.bias f4 [5]
00000000: 4a23 923d 8cc2 9fba 0c4c e73c 3c3e 90bd
00000010: d6c3 443d
0.07135637 -0.0012188717 0.028234504 -0.0704312 0.048038326

bn1.weight f4 [5]
00000000: d958 153f 9ce3 523d cc99 173f 5fe8 f33e
00000010: 86d0 9c3e
0.58338696 0.051486596 0.5921905 0.47638223 0.3062784

bn1.bias f4 [5]
00000000: 7eb9 8d3c 68f7 473c 821e edba 2944 a4bd
00000010: 35ac 62bd
0.017300364 0.012204982 -0.0018090757 -0.08020813 -0.05534001

bn1.running_mean f4 [5]
00000000: 8371 0b3e c466 343c 8f92 333c 2afd 5dbd
00000010: c4d0 2a3d
0.1361752 0.011010829 0.010960235 -0.054196514 0.041703

bn1.running_var f4 [5]
00000000: 9882 8640 4797 113f f8e2 1440 d310 7240
00000010: b95e 7340
4.2034416 0.56871456 2.326353 3.7822769 3.8026564

conv2.weight f4 [1, 5, 1, 1, 1]
00000000: 32ab ce3d 3712 493d 456d 8c3d d7d2 90be
00000010: c199 b6bd
0.10091247 0.049089637 0.06856779 -0.28285858 -0.08916045

fc1.weight f4 [3, 460]
00000000: a802 ffbc 8491 753d 18dc df3c b061 35bd
00000010: d757 dd3c bf51 203c 0586 f83c 0688 88bd
00000020: ebb7 303d f570 e23d c416 89bc d540 953d
00000030: f0b0 843b c96f 933d 6be9 28bd 6c3c 6cbd
00000040: b815 643d 0687 63bb f3fe a5bc 0336 22bc
00000050: efa1 2dbc 9361 84bc c5fd 4abd 5168 c23c
00000060: c5c0 a23c fa8f 1dbc 91d0 343c acad 3e3d
00000070: 6c7a bc3c 0e88 073d c3c3 88bc 1d29 9bbc
00000080: 87d4 d8bc ca56 17bd da4a 793b d8b1 e73c
00000090: 4672 513c b1ad c8bd c415 4abd eb2b b7bb
000000a0: 341e 39bc c7c2 31bd 89f4 553b 2c0e 20bd
000000b0: fecb 85bb 6a89 30bd e73e 91bc 3b78 053d
000000c0: e41f 273d 3770 ab3c 5542 893c 8082 51bb
000000d0: 0282 e43b 2aa0 493b e272 db3c 0f62 723c
000000e0: ad78 eabc 65b4 0abd f263 5fbb 8201 3d3d
000000f0: e717 61bd 6d96 1ebd 717e 3abd 5b22 34bd
00000100: ed97 c83c 4d02 193d 157e f33c b2ca 05bd
00000110: 3392 413c bea8 f4bc becf 8a3d 69c4 8bbc
00000120: bc2a f6bb f173 30bd 449d d53b 593d 4ebd
00000130: dae7 bbbc 0bf6 0b3d fccb c23c fd1b fa3b
00000140: 9bfd fe3c ca3d f5bb 3a5d b7bd af85 c13b
00000150: 0289 fb3b 4cee f6bc 2f69 bb3c 4d66 01bd
00000160: a2f9 793d 8261 2fbd 77bf 0e3d f93c 56bd
00000170: e8eb 39bd 38a1 abbb bb57 66bc f854 3eba
00000180: 7aac 3bbd d64d 3a3d 0434 80bc 899c 97bb
00000190: 2187 053d bd2c e43b 9c37 39bd 933d 77bd
000001a0: f68d 8e3b ecfa 5bbc d4dd b73d c65b 81bd
000001b0: b628 403c af93 943c 36f7 89bb 8e26 383c
000001c0: 7346 33bd 8f96 a3bd 8fcf 903d 43c3 2fbd
000001d0: 2001 6b3d d428 cebc 499b 34bd 0caa 7f3d
000001e0: 2e4e 2bba a72b 303d 63f9 2b3d 0eac cdbd
000001f0: 227a 8e3c d212 ddbc e6ec 6fbb f466 413b
00000200: 3c6a 0f3d cca3 013d af61 433a 4cb5 5a3a
00000210: 2f9c 113c 9028 c5bc ea26 493c 30f1 8ebc
00000220: a24b 48bd 1655 81bc 161d d93b 5c3d 51bc
00000230: 69bd a8bc 4e82 1e3d c246 063d bd1d c93c
00000240: e15a 913c 5680 4b3d cc9c 833d 000c 443d
00000250: 423d 6c3c 5504 ea39 2b27 dc3b c43c 2fbd
00000260: 8833 2cbd d268 40bd 06c5 9d3d 12c3 0dbd
00000270: 68ee 953c 5fc6 ee3c be1f 973d 3f1e 7fbc
00000280: 6d07 a13c 0848 943c e110 16bc 8474 383c
00000290: 7efd aa3c 0bef c9bc c452 54bc 5270 81bb
000002a0: 6470 733b bfb2 bb3c a597 643c a65f 4dbc
000002b0: c235 f7bb a28e 673d 2268 3abd fbec 263c
000002c0: 89b4 99bc 6df5 7f3c 7626 453c ad13 6a3b
000002d0: 1503 3f3a 7c57 e5ba 014e f7bc 0ba0 213d
000002e0: f9dc 0a3d fd5a 07bd e588 853c 90f7 8b3d
000002f0: 54eb 66bd 2616 c13b 95ee 04bb ae4e 1fbc
00000300: 2c4d 83bc 7de7 62bd 83ac 22bc ea5c 9e3d
00000310: 6d74 6dbc daa5 403a 27e1 923d 7017 02bd
00000320: 4f0e 253c 5cc8 0f3c 5bad 633c 92ab 18bc
00000330: d6f9 a43d d6f9 153d 3b59 b1bc 8102 193c
00000340: 442d 5f3d bae0 a23b 4d2e 393d a407 263d
00000350: 7b85 b7bc 7c45 cf3c f186 a73c 48d3 00bc
00000360: c68b e5bc bbc3 3f3b 8d9c 3f3d 4971 843c
00000370: baca 2e3d d152 94bc ac18 09bd 965e 1f3d
00000380: 8619 103c 5ffb a2bb 5447 17bd c3f2 4b3d
00000390: 2d86 123c b9cf 85bd 274e 2e3c b078 68bd
000003a0: 2769 51bd 1684 c3bc 2102 3ebd 1bb2 54bc
000003b0: 581e f5bc 5955 2e3c 783a e2bc e86f 613d
000003c0: 9fba 82bc ca24 3d3c d3bd a93c a079 3bbd
000003d0: 30b8 20bc fcd4 a6bd fb9e 2b3d 9f70 20bd
000003e0: c639 ffbc b986 823d de6c da3a 9da9 0bbd
000003f0: 90ee 5fbc 29c8 353c 9b93 46bd 2476 b53c
-0.031129196 0.059953228 0.027326629 -0.044282615 0.027019424 0.009785115 0.030337343 -0.066665694
0.043144148 0.11056701 -0.016734488 0.07287756 0.004049413 0.07199056 -0.04123823 -0.05767481
0.055684775 -0.0034717931 -0.02026317 -0.009900573 -0.01059769 -0.016159808 -0.04955842 0.023731383
0.01986731 -0.009616846 0.011036054 0.046552345 0.023007594 0.033088736 -0.016694909 -0.018940503
-0.026468528 -0.036948003 0.0038039 0.028283045 0.012783593 -0.09798754 -0.049337164 -0.005589952
-0.011298705 -0.043398645 0.0032646975 -0.039076015 -0.0040831557 -0.0430998 -0.01773019 0.032585364
0.040801898 0.020927532 0.016755262 -0.0031968653 0.006973506 0.0030765631 0.026788179 0.014793887
-0.028621996 -0.033863444 -0.0034086672 0.046144016 -0.054954436 -0.038717676 -0.04553074 -0.043978076
0.024486506 0.03735571 0.029723207 -0.03266401 0.011814642 -0.029865619 0.06777905 -0.01706143
-0.0075124186 -0.04307932 0.0065189917 -0.050351474 -0.022937704 0.03417019 0.023778908 0.007632731
0.031126788 -0.0074841725 -0.089533284 0.005905829 0.0076762447 -0.030142926 0.022877304 -0.031591702
0.061029084 -0.0428176 0.034850564 -0.05230424 -0.045390993 -0.0052377246 -0.0140590025 -0.0007260586
-0.045818783 0.045484386 -0.015649803 -0.0046268147 0.032599572 0.006963341 -0.04521905 -0.060361456
0.004350419 -0.013426524 0.08977857 -0.063163325 0.011728456 0.018136827 -0.004210378 0.011239661
-0.043768357 -0.07987701 0.07070839 -0.042910825 0.05737412 -0.025165953 -0.044093404 0.06241803
-0.0006534782 0.04301038 0.04198588 -0.100425825 0.017392222 -0.026986513 -0.0036609708 0.0029510828
0.035013422 0.03165035 0.00074532157 0.00083430554 0.008887335 -0.024067193 0.012277344 -0.017448992
-0.048900254 -0.015787642 0.0066257818 -0.012770977 -0.02059813 0.038698487 0.032782324 0.024550313
0.01774353 0.049682938 0.06426391 0.047863007 0.014418902 0.00044635186 0.0067185364 -0.04278256
-0.04204133 -0.046974964 0.07703595 -0.03460986 0.018302158 0.029147325 0.07379101 -0.015571176
0.019656861 0.018100753 -0.009159298 0.011258248 0.020872828 -0.024650117 -0.012959186 -0.003950157
0.0037145847 0.022912381 0.0139521705 -0.012535011 -0.00754425 0.05653251 -0.045509465 0.0101883365
-0.018762844 0.015622479 0.012033096 0.0035717294 0.0007286531 -0.0017497386 -0.030188562 0.03945927
0.033902142 -0.033045758 0.016300628 0.06834328 -0.05637677 0.005892533 -0.0020283808 -0.009723349
-0.01602801 -0.055396546 -0.009928825 0.07732566 -0.01449309 0.00073489326 0.07171851 -0.031760633
0.010074212 0.008775797 0.013896312 -0.009318249 0.08055465 0.036615215 -0.021648994 0.009338976
0.054486528 0.004970637 0.04521017 0.04053463 -0.022402516 0.025301687 0.020450087 -0.007862873
-0.02802075 0.0029260952 0.046780158 0.0161673 0.042673804 -0.018105896 -0.033470795 0.038908564
0.008795148 -0.0049738134 -0.03693326 0.049792062 0.008943123 -0.065337606 0.01063875 -0.05675572
-0.05112567 -0.023866694 -0.04638875 -0.012981917 -0.029921696 0.010640466 -0.02761577 0.055038363
-0.015958128 0.011544416 0.020720398 -0.045770288 -0.009809539 -0.08146092 0.041899662 -0.039169904
-0.031155478 0.063733526 0.0016664525 -0.034097303 -0.013667718 0.011095085 -0.04848061 0.02215106

fc1.bias f4 [3]
00000000: d3fe 8ebd 9745 2b3c 3d6b 9fbe
-0.069821976 0.010453603 -0.31136504

momentum_buffer f4 [5, 1, 65, 1, 2]
00000000: ba68 343d 4990 75bc ff5a 353d c579 79bc
00000010: be32 363d 9273 7dbc c8ea 363d 38ba 80bc
00000020: 248a 373d 62c0 82bc 530d 383d b0ca 84bc
00000030: f673 383d 82d7 86bc e0c0 383d dae2 88bc
00000040: 59f2 383d f4ec 8abc 4208 393d 51f7 8cbc
00000050: 980b 393d e8fe 8ebc 7cf6 383d e904 91bc
00000060: c6cb 383d 3a03 93bc 4a8e 383d dbfa 94bc
00000070: 7f3a 383d 3def 96bc dcd7 373d 30d9 98bc
00000080: e064 373d 99b5 9abc 8fde 363d c78a 9cbc
00000090: 4f49 363d 9656 9ebc 4fa7 353d 8216 a0bc
000000a0: 3df6 343d decc a1bc aa34 343d dc7d a3bc
000000b0: 166a 333d dc26 a5bc b291 323d 70c6 a6bc
000000c0: 02ad 313d 485c a8bc 9cbc 303d 60ed a9bc
000000d0: 9dc1 2f3d f477 abbc b8bb 2e3d 6cfc acbc
000000e0: c0a7 2d3d 9b7d aebc 6888 2c3d baf7 afbc
000000f0: 8e5f 2b3d 796b b1bc 522b 2a3d 76d6 b2bc
00000100: 14ef 283d b539 b4bc 40a8 273d b58f b5bc
00000110: aa59 263d d5d3 b6bc 7b01 253d 6304 b8bc
00000120: 56a3 233d 8420 b9bc 513f 223d 3e21 babc
00000130: 7ed2 203d 2902 bbbc fc5f 1f3d 65bf bbbc
00000140: f2e5 1d3d ee58 bcbc c963 1c3d 36c6 bcbc
00000150: b0db 1a3d 2307 bdbc 714b 193d 2b1c bdbc
00000160: aaae 173d 73ff bcbc b407 163d d7b0 bcbc
00000170: cb52 143d 7131 bcbc 5b8b 123d 4c82 bbbc
00000180: 14ab 103d 9fa1 babc 05b2 0e3d be95 b9bc
00000190: 0f9f 0c3d 145f b8bc 5e6d 0a3d 5804 b7bc
000001a0: f015 083d 5784 b5bc f398 053d 17e8 b3bc
000001b0: 62f8 023d ab34 b2bc c22e 003d d16f b0bc
000001c0: 5075 fa3c 619e aebc 743b f43c 6ec7 acbc
000001d0: f3b0 ed3c c2ed aabc abcb e63c 5216 a9bc
000001e0: 6797 df3c 2745 a7bc 7711 d83c de7e a5bc
000001f0: 5e3f d03c a6c3 a3bc f52c c83c cf18 a2bc
00000200: bfd1 bf3c 1b83 a0bc 7242 6bbc e011 0bbd
00000210: 421e 6bbc 3a0e 0bbd 0cfb 6abc 780a 0bbd
00000220: 4cd9 6abc 8806 0bbd 3ab6 6abc 5c02 0bbd
00000230: d493 6abc effd 0abd 3d71 6abc 49f9 0abd
00000240: fe4d 6abc 26f4 0abd 852a 6abc aaee 0abd
00000250: 3e07 6abc 8de8 0abd 9ee1 69bc aae1 0abd
00000260: b7bb 69bc efd9 0abd 2a95 69bc 8ed1 0abd
00000270: 7c6d 69bc 26c8 0abd 4345 69bc 24be 0abd
00000280: 381a 69bc 17b3 0abd 88ed 68bc 32a7 0abd
00000290: 54bf 68bc ac9a 0abd 778e 68bc a88d 0abd
000002a0: f85a 68bc 4380 0abd 2824 68bc 5b72 0abd
000002b0: 04eb 67bc ee63 0abd 7aac 67bc 3e55 0abd
000002c0: 436b 67bc 3c46 0abd ec25 67bc 2637 0abd
000002d0: 71dd 66bc b627 0abd f891 66bc b917 0abd
000002e0: a843 66bc 5b07 0abd 94f3 65bc 8af6 09bd
000002f0: 35a2 65bc 03e5 09bd e84e 65bc ead2 09bd
00000300: e7fb 64bc acbf 09bd 56a7 64bc 44ab 09bd
00000310: a254 64bc a695 09bd 2d03 64bc 7e7e 09bd
00000320: 79b4 63bc f265 09bd 0169 63bc 954b 09bd
00000330: c31f 63bc a82f 09bd 7adc 62bc fb11 09bd
00000340: 4c9e 62bc 74f2 08bd ba67 62bc 30d1 08bd
00000350: 1838 62bc 43ae 08bd 5312 62bc 8b89 08bd
00000360: d2f6 61bc 6c63 08bd ffe9 61bc 203c 08bd
00000370: e2ea 61bc dd13 08bd b2fd 61bc d9ea 07bd
00000380: 8725 62bc 39c1 07bd 1f65 62bc a097 07bd
00000390: 0ebf 62bc 266e 07bd dc34 63bc 2245 07bd
000003a0: e3c8 63bc ce1c 07bd fc7f 64bc 44f5 06bd
000003b0: 6c57 65bc d3ce 06bd 0652 66bc a9a9 06bd
000003c0: c870 67bc a285 06bd 9eb3 68bc c862 06bd
000003d0: 061a 6abc 0e41 06bd 6fa4 6bbc 6120 06bd
000003e0: f452 6dbc 5800 06bd ea22 6fbc dbe0 05bd
000003f0: e412 71bc a5c1 05bd 9822 73bc 6fa2 05bd
0.044045188 -0.014988014 0.044276234 -0.015226786 0.044481985 -0.015469449 0.0446575 -0.015713796
0.044809476 -0.015960876 0.044934582 -0.01620993 0.045032464 -0.016460184 0.045105815 -0.016709734
0.045152996 -0.016958691 0.04517389 -0.017207773 0.045177072 -0.017455533 0.04515694 -0.017702537
0.04511621 -0.017945874 0.045057572 -0.018186023 0.04497766 -0.018424625 0.044883594 -0.01865825
0.044773936 -0.01888542 0.044645842 -0.019109143 0.044503506 -0.019328397 0.04434901 -0.019541983
0.044180144 -0.019751009 0.043995537 -0.019957475 0.043802343 -0.020160131 0.043595977 -0.020358294
0.043377884 -0.020551816 0.043148622 -0.020743072 0.042909253 -0.020931222 0.04265949 -0.021116458
0.042396307 -0.021300128 0.042122275 -0.02148043 0.041839175 -0.021657692 0.04154522 -0.021830779
0.041243628 -0.022000173 0.04093194 -0.022163251 0.040612854 -0.022317806 0.040284615 -0.02246303
0.03995069 -0.022598512 0.039611164 -0.02272093 0.03926324 -0.022828178 0.038909897 -0.022918412
0.03854937 -0.022991624 0.0381811 -0.023043733 0.037807167 -0.023074692 0.037425462 -0.02308472
0.037031807 -0.023071026 0.03662844 -0.023033543 0.03621177 -0.022972794 0.03577743 -0.022889279
0.035319403 -0.022782145 0.03483774 -0.02265441 0.034331378 -0.022506274 0.033795707 -0.022340938
0.033224046 -0.022157831 0.032616567 -0.021961255 0.031975158 -0.02175363 0.03129459 -0.021537693
0.030573517 -0.021315755 0.029813506 -0.02109119 0.02901504 -0.020865325 0.028173288 -0.020640526
0.027293874 -0.020418717 0.026375515 -0.020202097 0.02542084 -0.019990753 0.0244355 -0.01978722
0.023415444 -0.019593766 -0.0143591035 -0.033952594 -0.014350476 -0.033949114 -0.014342081 -0.03394553
-0.014334034 -0.033941776 -0.014325673 -0.033937797 -0.0143174715 -0.033933576 -0.014309225 -0.033929143
-0.014300821 -0.033924244 -0.014292364 -0.033919014 -0.014283953 -0.033913184 -0.014274983 -0.033906616
-0.014265946 -0.033899244 -0.014256755 -0.033891253 -0.0142472945 -0.033882283 -0.014237705 -0.03387274
-0.014227442 -0.0338622 -0.014216788 -0.033850856 -0.014205772 -0.033838913 -0.0141941225 -0.0338265
-0.014181845 -0.033813726 -0.014168777 -0.033800464 -0.014155153 -0.033786707 -0.014140243 -0.0337727
-0.014124694 -0.033758387 -0.014108162 -0.033744 -0.014090882 -0.033729278 -0.014072888 -0.03371403
-0.014054216 -0.03369842 -0.014035124 -0.033682384 -0.014015724 -0.03366567 -0.0139958635 -0.03364841
-0.013976074 -0.03363006 -0.013955912 -0.033610597 -0.013936194 -0.03358998 -0.013916773 -0.033567898
-0.0138980085 -0.03354449 -0.013880015 -0.033519346 -0.013862553 -0.033492714 -0.013846511 -0.033464413
-0.013831686 -0.033434346 -0.013818676 -0.03340262 -0.013807319 -0.033369314 -0.013798314 -0.033334296
-0.013791757 -0.03329794 -0.013788699 -0.033260465 -0.013788911 -0.033222068 -0.013793396 -0.033182953
-0.0138028925 -0.033143256 -0.013818054 -0.033103585 -0.013839496 -0.03306403 -0.013867583 -0.033024915
-0.013902876 -0.032986455 -0.0139465295 -0.032948747 -0.013997894 -0.032912087 -0.014057642 -0.032876644
-0.01412601 -0.032842286 -0.01420298 -0.03280905 -0.014288431 -0.032776885 -0.014382466 -0.032745723
-0.01448511 -0.03271517 -0.0145957265 -0.032685142 -0.0147139765 -0.032655377 -0.014839791 -0.032625612

momentum_buffer f4 [5]
00000000: 6242 b234 b01b 1132 d699 edb3 84df 4835
00000010: e087 1435
3.3203384e-07 8.446406e-09 -1.1064155e-07 7.4831064e-07 5.533202e-07

momentum_buffer f4 [5]
00000000: c63a 363e 1453 d6bd 7041 ecbe 2019 5abe
00000010: d057 0e3f
0.17795858 -0.10465065 -0.46143675 -0.21298647 0.5560274

momentum_buffer f4 [5]
00000000: 7cf8 98bc 0259 27bc d091 54bc 26e3 7f3d
00000010: 2423 a73c
-0.018673174 -0.010214092 -0.0129742175 0.062472485 0.020402499

momentum_buffer f4 [3]
00000000: 015a 883f 833b 1ac0 78d9 603e
1.0652467 -2.4098823 0.21957958

momentum_buffer f4 [1, 5, 1, 1, 1]
00000000: f1a1 793f 3d10 e6bd e2ee 8fc0 9c71 c03e
00000010: 089e eabf
0.9751273 -0.11233566 -4.4979105 0.37586677 -1.8329477

momentum_buffer f4 [3, 460]
00000000: df5d e8be 5669 8abe d6c7 4cbe 3297 693d
00000010: dcb6 bdbe 689c 0ebd 489f 3cbe a221 683e
00000020: b8c9 853e 7b93 20be 99cc 5bbe 7674 253e
00000030: 98e0 1bbe d9b0 b8be 6b82 033f b035 ffbc
00000040: 4a2c 593d b2ef ab3e 23de 23be d058 863d
00000050: f428 2cbe 0763 87bd f252 61bd 5aa6 b6be
00000060: 4f28 1ebe 9f3c 613e e8bc 2d3d 5f76 983e
00000070: 145b 7e3e 30fd 20be 786e 44be 0205 90be
00000080: 0e22 213e f785 ee3d 34ce 30bd 83c2 853e
00000090: 504e 94be a84d 373e 1b22 a83e a8c8 ef3e
000000a0: 6e25 1d3e aacf 9d3e 00d0 eb39 4f70 cfbd
000000b0: 1c10 04bf e67d 3abd 8375 47be 79d5 54be
000000c0: 9282 a7be 9f10 023e ad2d 8ebe 9cce 3a3e
000000d0: 025f 123d e0b1 4ebe f63e bebe 7952 f4bd
000000e0: cfbd b13e f599 79be 9446 7cbe 4d3d 733e
000000f0: 9c46 95be ea68 55be 70e6 d03e 285a b1be
00000100: b80f 05bc 004e a4bd cc47 a23d 526b a5bd
00000110: dc77 b83d 90c7 213e 91e4 a23d 2d1b 113e
00000120: 7c06 273e a78f ac3e e3ff 8cbd e8bc db3c
00000130: 80ee b2bd 317d 48be ef3e 163e 59b1 ad3d
00000140: fc6f aebe 2391 9dbe 3e05 2a3d 172a 5cbe
00000150: 04f7 aebd 887a 82be 7045 afbd 9010 7f3c
00000160: 0f03 dfbd 2b3d 1ebe ac31 9abd 890d 5b3e
00000170: cf97 78be be48 a7bd e9b2 75be b209 90bd
00000180: 6939 563e 505d efbd 207f 15be 6b31 06be
00000190: 2fc5 99be 60c1 e3bd 28bb ed3d 9ab8 e53d
000001a0: fc6c b5be 90aa 413d 91e8 49bb 6165 7dbe
000001b0: d992 4abe d23c fc3d a076 97be 78fa b4be
000001c0: 44b2 753e 3fdd 1ebe d292 933e cef1 c1bd
000001d0: d15a 66be 0ce6 9ebd a608 253e f486 d9bd
000001e0: e612 5b3e 17bf 78be 8a41 7a3d 4561 7dbd
000001f0: 8078 62bd 540c 80be c25f 063e 9e3f 6bbe
00000200: 9d44 43be 1ce2 cf3e 900c 383c 3ced 833e
00000210: de67 353e 53bd 14be 17b8 193e 3924 553e
00000220: dad1 de3d ac9a bd3d b655 833e 4fd5 9c3e
00000230: c84f 1abe 819c c43d ef18 053e 1a81 b9be
00000240: 6ce5 43bd 75e3 273e f4c5 91be 0253 34be
00000250: 992f 35bd 6012 be3a 592d 743e b8a0 70be
00000260: 0019 133a 935e 9d3e d513 003e 28cb c73d
00000270: d081 44be ae74 39bd be9b f13e 0a44 31be
00000280: 2354 41be 6f2b 63be da3a 2a3d e1ec 3b3e
00000290: cc97 4fbe a7e7 23be 0027 1cbe 385a d63c
000002a0: 01c0 92be f6a1 6fbe 822b 23be 74e0 9abe
000002b0: c962 a93e e35e 33bd 2aca 7cbe 97a8 b9bd
000002c0: a6cf 0cbe 0072 bbbb 34d0 f93c da29 2cbd
000002d0: dce0 373e e28f 0e3e 25b4 5cbe e68a 88be
000002e0: 5b80 d5bd 5c48 43bd 3c9c aabe 728b d7be
000002f0: 6ea8 3f3e 52a4 fd3d d85b dd3d 2065 e5be
00000300: a813 003e 1208 ee3d 0280 1dbe 2476 08be
00000310: 10ae 7ebe 7824 33be c9ab edbd b273 273e
00000320: e8cd 93be 5840 303d 4811 8d3e 2c6b d4bd
00000330: 3ad4 223e 49eb 8dbe 9f6e 173e 1b1a 93bd
00000340: 8022 f73d ef0b dabd d702 2fbd c4f1 43be
00000350: 73d7 93bd 7190 3cbe da6a 67be 157e c0bd
00000360: 4254 bbbd a998 cdbe 2d62 64bd 110c b0be
00000370: 426f 8b3e 1c0e 723d eec5 87be 1779 76be
00000380: 92e3 083d 52f2 063e 615d 8a3d d855 45be
00000390: 1079 1b3c 9db1 30be aec0 c33d fc81 dabe
000003a0: 0e70 713d 3826 afbe 84e4 a63e 3c28 0bbe
000003b0: 0926 9a3d 3a84 41be 4e13 25be d4d5 d1bc
000003c0: 2f50 963d 5844 15be 00f8 1ebe f8b0 62be
000003d0: c80d c53e bc2e 68bd 28d4 8cbc 3c16 733d
000003e0: 8c3a 88be 1bec 463e 4031 ad3c 7c4c 3bbe
000003f0: 710a 1e3e bda3 be3e 1eb9 29be d116 de3d
-0.45384118 -0.2703349 -0.19998106 0.057028957 -0.37053573 -0.03481713 -0.18420136 0.2266908
0.26130462 -0.1568126 -0.21464767 0.16157708 -0.15222394 -0.36072424 0.5137088 -0.03115353
0.053020753 0.3358131 -0.16002707 0.065599084 -0.16812497 -0.06610685 -0.055010743 -0.3567379
-0.15445064 0.21995781 0.042416483 0.2977781 0.24839431 -0.15721583 -0.19182765 -0.2812882
0.15735647 0.116466455 -0.0431654 0.26124963 -0.28965998 0.17900717 0.3283852 0.46832776
0.1534631 0.30822498 0.00044977665 -0.10128843 -0.5158708 -0.045530222 -0.19478421 -0.20784558
-0.32716805 0.12701653 -0.27769223 0.18242878 0.035735138 -0.20185041 -0.3715741 -0.11929793
0.34715125 -0.24375136 -0.24636298 0.23753853 -0.29155433 -0.20840803 0.4080081 -0.34639096
-0.008121423 -0.0802269 0.079238504 -0.0807711 0.09007236 0.15798783 0.07953752 0.14170523
0.16311067 0.33703348 -0.06884744 0.026823476 -0.087368965 -0.19579007 0.14672445 0.08481092
-0.34069812 -0.30774793 0.041508906 -0.21500431 -0.08543208 -0.2548411 -0.08558166 0.015567914
-0.10889255 -0.15453021 -0.075290054 0.21391882 -0.2427666 -0.08168171 -0.2399403 -0.07033099
0.20920338 -0.1168772 -0.14599276 -0.13104789 -0.30033252 -0.11120868 0.11607963 0.112168506
-0.3543471 0.0472818 -0.0030808786 -0.24745704 -0.1978258 0.12316288 -0.2958269 -0.35347342
0.23993784 -0.15514086 0.28822953 -0.09469949 -0.22495581 -0.07758722 0.1611658 -0.106214434
0.21393928 -0.24291645 0.06109766 -0.06186034 -0.0552907 -0.25009406 0.13122466 -0.22973487
-0.19069143 0.40602195 0.011233464 0.25766933 0.17715403 -0.14525346 0.15011631 0.20814599
0.1087987 0.09258017 0.2565133 0.30631492 -0.15069497 0.09600163 0.12997793 -0.3623131
-0.047826216 0.16395362 -0.2847134 -0.1760979 -0.044234846 0.0014501326 0.23845424 -0.2349881
0.000561133 0.30736217 0.12507565 0.09755546 -0.19190145 -0.04527729 0.47189134 -0.17311111
-0.18879752 -0.22184537 0.04156003 0.18352081 -0.2027275 -0.16006337 -0.15249252 0.026166067
-0.28662112 -0.23401627 -0.15934566 -0.3024937 0.3308318 -0.043791663 -0.24686494 -0.09065359
-0.13751087 -0.005720377 0.030494787 -0.0420321 0.17956871 0.13922074 -0.21553095 -0.2666847
-0.104248725 -0.04767643 -0.33322322 -0.42098576 0.18716595 0.12384857 0.108085334 -0.44803715
0.12507498 0.11622633 -0.15380862 -0.13326317 -0.24871087 -0.1749438 -0.11605031 0.16352728
-0.28868032 0.043030113 0.27552247 -0.10372004 0.1590127 -0.2771857 0.14788292 -0.071827136
0.12067127 -0.106468074 -0.042727318 -0.19135195 -0.07218828 -0.18414475 -0.22599354 -0.09399048
-0.0914693 -0.40155533 -0.05575769 -0.34384206 0.2723332 0.059095487 -0.26518196 -0.2406963
0.033420153 0.13178375 0.06756092 -0.19271028 0.009489313 -0.17255254 0.09558235 -0.42677295
0.058944754 -0.34208846 0.3259622 -0.13589567 0.07526786 -0.18898097 -0.16120645 -0.025614657
0.073395126 -0.14576852 -0.15524292 -0.2213782 0.38487077 -0.056685194 -0.017191008 0.059347376
-0.26607168 0.19426005 0.021141648 -0.18290895 0.1543367 0.37234297 -0.16574523 0.10844196
