scripts/python/deep-learning/experiments/cnn3d/009/model-cnn3d-epoch-29.pth (torch_old, 19549 bytes, 16 tensors)

conv1.weight f4 [5, 1, 65, 1, 2]
00000000: 29cd c2bd 08a8 df3c 4efa 1c3d ada1 afbd
00000010: 0e07 c5bc 5c51 81bd f945 9d3c 50c2 89bd
00000020: 041f 253d 6859 033d 87af cebd 0aa6 90bd
00000030: 855e 533d 5b3a 9bbd 0251 123c 78a3 cb3b
00000040: 6a53 353d f4e8 c8bd e312 a4bc c9cb cbbd
00000050: 5acf 94bd bb6a c3bd a5f9 153d 8264 b0bd
00000060: 2477 c4bd 86d9 06bd 5014 91bd 0d3e 4c3d
00000070: 4290 3c3d 80ce 02bd 4c20 2abd 8481 823d
00000080: 6f9c abbd 36ff 2a3d eb93 363d 6c29 623d
00000090: 62b8 463d 62d1 6cbb 0c5d c9bd 1c9a 803d
000000a0: 5a27 a1bd afef 66bb f27f d13c acb8 cb3b
000000b0: ce01 0ebc d832 163d b7e8 c03c 3520 c5bd
000000c0: ac90 593b 13c8 89bd a711 033d 6ab8 e23c
000000d0: e715 6b3d f06e 4ebd a1dc 893d 2918 9cbb
000000e0: 0589 c03c 5d79 b23c af41 bf3c ec40 4c3d
000000f0: 9983 e33a 91e3 1fbc d963 2c3d f460 463d
00000100: b1b6 a0bd 447e ccbc 2dec 533c 7047 5c3d
00000110: fbd3 123d c510 853d ab10 873d 761d 813d
00000120: e49a aebd 9b4b 88bd 67ec b5bd 3552 7bbd
00000130: 565f 25bc 97e1 2c3c 9ae3 473d e53f 2e3d
00000140: d0bc 55bc b5c2 23bd bfe0 a2bc 5699 b03c
00000150: 7850 92bd b528 ccbd 9630 c5bd 60e0 a6bc
00000160: ecc6 f7bc 37af c03c d60d 333d 6b84 1fbd
00000170: c8b2 48bd f98a 953c 23c9 b0bc 1c96 cfbd
00000180: a538 4dbb 1a28 6bbb 33d1 babd 6519 d9bd
00000190: 4ca4 8a3d 246c 23bd 403c 31bd 10c4 113d
000001a0: a507 3fbd aff7 a5bd 5bf2 29bd fb87 9fbd
000001b0: f768 bfbd d8f9 d8bd a55a d2bd 80e1 d0bb
000001c0: 8949 6b3d c92f 56bd cb9b 23bd a81c 92bd
000001d0: d703 053d 0948 71bd 8cb0 64bd 2bfd 08bd
000001e0: 5fbd b93c 9822 0a3d 0d6f c03c e572 39bd
000001f0: 26e8 6c3d 2991 873d ed65 993c 3810 9abc
00000200: c351 833d 4ffa 643d 9ea1 aebc c44d ddbc
00000210: dd8e a9bd 4d7b 47bd 5779 033c 0e68 9abd
00000220: bed3 793c c7d2 30bd 3978 d2bc 1e15 41bc
00000230: d21a f03a 34f0 a0ba 3859 71bc a95f a33c
00000240: 5209 a63d a80a dcbc 90ee ce3c f4d2 a83d
00000250: 25fe 673b 1831 093d 98a9 65bd 160a 8d3d
00000260: 71a4 e03b 949b 9c3d 7041 33bd d3cb dc3c
00000270: 94c1 273d b6ee a33d 2732 2b3c d8f8 343c
00000280: fad4 993d e452 d83c 7202 de3c 012a aa3c
00000290: a67e 073d eddd aa3d 08e6 4ebd 5c8a 693d
000002a0: 6eba 8b3c 3a06 8fbb 140e 933d 45c1 76bc
000002b0: 1ae9 5fbd 7aa2 92bd da09 79bc 1bb1 383b
000002c0: a8a5 07bc 4468 8e3b 10d7 aebc ca9e 81bd
000002d0: 3159 e83c eb86 013d 4c71 aebc 0528 96bd
000002e0: 29d6 61bd b4b7 febc a16b 5cbd a99e c43c
000002f0: bf44 843c 459a 10bd 1d97 2e3c bb56 82bd
00000300: ffdf f03c 3c34 d63a 3758 70bd 3999 ad3c
00000310: 1d7c 35bc 9aaf b5bb 138b bbbc 216d 1b3d
00000320: c08b 4abc 2b12 54bc 22fa 93bd 9593 4e3d
00000330: 3262 85bd a00c babc 28e8 81bd 273d 3b3d
00000340: 5686 a1bd e86c 40bd 3502 8fbd d7a9 353d
00000350: f3dc 243d aba5 b0bd cf06 a9bd b30d 2bbd
00000360: 0e1d 473d 6385 3c3d 8872 873c 8e6f 163d
00000370: 8d39 a43b b8c8 873d ac70 4bbd d3c8 0cbd
00000380: e0ba 663d 8cb3 debc 4435 aabd b6ec 893c
00000390: e433 47bd 1285 a83c 4d89 693b bc5c 993c
000003a0: e59e c23c b4dd 7bbc 59c0 07bd 5f00 d0bc
000003b0: bee7 363c f615 33bc 8162 34bd ebbb 923d
000003c0: c57e 603d 7637 39bd 341c 313d 8ba1 703d
000003d0: d83c e4bc 0a9f a53d 5012 473d 289f 0f3b
000003e0: 8b2a 55bd 284c 43bc 2e88 253d 4d1f 493d
000003f0: 79eb 74bd e2c8 fcbc 5ada b93c 9537 9ebd
-0.095117874 0.027301803 0.038324647 -0.08575759 -0.024051215 -0.06314346 0.019198405 -0.06726515
0.040312782 0.032067686 -0.10092073 -0.070629194 0.051603813 -0.0757949 0.008930447 0.0062145554
0.044269003 -0.09810057 -0.020028537 -0.09950978 -0.07266112 -0.095418416 0.036615033 -0.0861292
-0.09593037 -0.03292229 -0.070839524 0.049863864 0.046036012 -0.031935215 -0.041534707 0.063723594
-0.08379447 0.041747294 0.04457466 0.055215284 0.048515685 -0.0036135544 -0.098322004 0.06279394
-0.07868834 -0.0035238077 0.025573704 0.006217083 -0.008667422 0.036669582 0.023548467 -0.09625284
0.0033197803 -0.06727614 0.031999256 0.027675826 0.057393935 -0.050398767 0.06731535 -0.0047636223
0.023502836 0.021786386 0.02334675 0.0498666 0.0017357945 -0.009758846 0.04208741 0.048432305
-0.078473456 -0.024962552 0.012934727 0.053779066 0.03584669 0.06497339 0.06594976 0.06304447
-0.08525637 -0.066550456 -0.08882981 -0.061357696 -0.010093531 0.010551832 0.048801042 0.042541403
-0.013045505 -0.03998061 -0.019882558 0.021557491 -0.071442544 -0.09968702 -0.09628408 -0.020370662
-0.03024622 0.023521049 0.043714367 -0.038944643 -0.048998624 0.018254744 -0.021580284 -0.10136053
-0.003131428 -0.0035882057 -0.09121933 -0.10600547 0.067696184 -0.039898053 -0.04327035 0.03558737
-0.04663815 -0.081038825 -0.041490894 -0.07789608 -0.09346192 -0.10594529 -0.10271195 -0.006374538
0.057443175 -0.052291665 -0.039943498 -0.07134372 0.032474365 -0.05890659 -0.05583243 -0.033444565
0.022673307 0.033724397 0.023490453 -0.045275588 0.05783858 0.06619484 0.01872536 -0.018806562
0.06412079 0.055902775 -0.0213173 -0.02701462 -0.08279202 -0.048701573 0.008024535 -0.07539378
0.015248237 -0.043169763 -0.025692092 -0.01178482 0.001831854 -0.0012278617 -0.014730744 0.019943075
0.081072465 -0.02686055 0.02526024 0.08243361 0.0035399285 0.033494085 -0.05606994 0.06886689
0.0068555404 0.07646862 -0.043763578 0.02695266 0.040956095 0.08004515 0.010448969 0.011045657
0.07511325 0.026406713 0.027100775 0.020771982 0.033079766 0.0834311 -0.050512344 0.057016715
0.01705667 -0.004364756 0.071804196 -0.0150607275 -0.054665662 -0.07159896 -0.015200103 0.0028181735
-0.008279242 0.0043459255 -0.021342784 -0.06329115 0.028362842 0.03162281 -0.021294259 -0.07331852
-0.05513588 -0.031093456 -0.05381358 0.024001436 0.016146062 -0.035303373 0.010656145 -0.06364199
0.029403685 0.0016342471 -0.05867788 0.021191226 -0.011076954 -0.005544615 -0.022893464 0.03794587
-0.012362421 -0.012943785 -0.072254434 0.050433714 -0.0651287 -0.022711098 -0.063431084 0.045712616
-0.07886951 -0.04697886 -0.06982843 0.044351425 0.040249776 -0.08625349 -0.08253252 -0.04176111
0.048611693 0.046025645 0.016534105 0.03672748 0.0050117434 0.06630081 -0.049668 -0.03437121
0.05633056 -0.027185224 -0.08310941 0.016836505 -0.04863347 0.020571265 0.0035634816 0.018720977
0.023757407 -0.015372682 -0.03314242 -0.025390802 0.01116365 -0.010930529 -0.044039253 0.07164749
0.054808397 -0.045218907 0.043239787 0.05874781 -0.027861044 0.08086975 0.04860145 0.0021914933
-0.052042525 -0.0119200125 0.040413074 0.049102116 -0.059794877 -0.030857507 0.022687126 -0.07725445

conv1.bias f4 [5]
00000000: 4823 923d d7c2 9fba 244c e73c 413e 90bd
00000010: d4c3 443d
0.071356356 -0.0012188804 0.028234549 -0.07043124 0.04803832

bn1.weight f4 [5]
00000000: 7670 163f 3965 613d d0aa 1a3f 8d0d ed3e
00000010: 4f7e a53e
0.5876535 0.055028174 0.6041689 0.462994 0.32322928

bn1.bias f4 [5]
00000000: f8e8 b53c 2706 563c 83ee d33b bf9f 9fbd
00000010: 1eef 54bd
0.022205815 0.01306299 0.006467642 -0.07794141 -0.051985852

bn1.running_mean f4 [5]
00000000: 2823 f13d 9ec4 023c e33b ea3c 97b6 8abd
00000010: 93a9 203d
0.11774284 0.0079814475 0.02859301 -0.067731075 0.03922422

bn1.running_var f4 [5]
00000000: 8ebe 6f40 0605 123f 3ac6 1e40 b04b 6d40
00000010: 406c 5c40
3.7460055 0.57038915 2.4808488 3.7077446 3.444107

conv2.weight f4 [1, 5, 1, 1, 1]
00000000: 5638 c43d 02ea 5b3d 403b 063d 04e7 87be
00000010: c939 fdbd
0.09581058 0.053689964 0.03277135 -0.26543438 -0.12364537

fc1.weight f4 [3, 460]
00000000: da03 29bd 29e0 893d 2224 ae3c 9460 d9bc
00000010: 34f0 453d 6480 9a3b ec7a 543c 0344 79bd
00000020: 0c5c 143d e12c ca3d a35e b0bc cb68 783d
00000030: 514d 073d 716c 983d a326 fabc 8094 02bd
00000040: b93d 8b3d f9e9 80bb 06c1 9cbc 52d8 5bbb
00000050: 4da4 08bc 8f18 8fbc b4aa 50bd 6f4b c63c
00000060: 2355 063d afe2 febb 1f71 f03b 6644 803d
00000070: abce 793c d4e9 0f3d 59df bdbc a78f 92bc
00000080: 192c 8dbc 7e9e f1bc d1a9 1cbc 97e8 353d
00000090: 6bec 6f3c e26d b3bd 2440 54bd ed95 dfbc
000000a0: e7e5 37bc a1b7 1ebd 5033 44bb 6890 e7bc
000000b0: dfff 91bc c88a 33bd fec0 ff3b 80c9 2e3d
000000c0: ccba 023d 9112 993b 8d56 9f3b e0d4 d439
000000d0: 19e3 693c 5ef6 5f3c 3c86 1c3c db2f 0c3c
000000e0: c0f3 b3bb 4f01 afbc 6a3c 08bc 84b1 2a3d
000000f0: 8ecd 77bd d96a 2bbd b62d 25bd 4d45 59bd
00000100: d9b2 193d 8973 533d 5d25 ec3c 3623 31bc
00000110: 1857 753c 925a c9bc 2c10 893d 05bc 0bbc
00000120: b48e d83a 287f 74bc 7170 623c 87da 0fbd
00000130: b876 6dbc 1f7b e63c f0d5 a73c 9d6e 993c
00000140: 9051 ff3c f89b cbbb f63b 71bd 1521 e0ba
00000150: 0625 9abb 35fe 8abc 2791 a33c 5b3a b7bc
00000160: fbc4 9b3d 2d7f 68bd b814 fa3c 5da6 44bd
00000170: 1857 f9bc 2084 a13b d12a a13b 8276 b33b
00000180: 08e2 3cbd 231f 533d 4f3d 98bc c222 a1bc
00000190: f36c ed3c 740f d93b 6794 b5bc 93bf 61bd
000001a0: d24c d33c 5be7 3ebb 919c 973d 26d0 5bbd
000001b0: 702f bd3b 254d 1b3c 41b0 42bc 86ad 133c
000001c0: 52f1 fdbc 0db7 aebd e47c 7a3d b0f4 00bd
000001d0: 9b4f 5b3d 1c9b c6bc f135 0bbd 8b99 6c3d
000001e0: 2af3 5cbc 45ad 4b3d 8000 143d 34d9 96bd
000001f0: 9c1f c73c 910e eabb cd82 153c 7550 de3b
00000200: 05cd 073d fa4d 7c3c 9908 bebb e354 703c
00000210: 198f 7c3c 2833 8dbc 75f1 8cbc 5094 1abc
00000220: 8186 36bd ba6a 263c 61b2 9cba 5860 a2bc
00000230: 0cf8 c9bc 2a13 e23c a95d 483d 27c3 0b3d
00000240: ede5 9b3c 3ba9 483d d9f4 153d a29c 2f3d
00000250: f3df b53b a358 143c 22d9 703b 40a2 47bd
00000260: 9f81 3ebd 4b51 45bd cef5 7c3d 7bb3 17bd
00000270: 9680 7d3c e6ad fc3c 5963 673d 4093 84bc
00000280: b12c a93b 154a ee3c b534 80bc d7c2 e43c
00000290: 35e4 d23c 3600 00bd 12f8 ddbc dd2d ef3b
000002a0: f9a1 863c a86c ae3b 77e1 a13c 736a adbc
000002b0: 6205 e73b 966d 893d 0c6e 81bd d623 803c
000002c0: 8cac 02bd f36d 863c 67f4 ac3c 00ac 163c
000002d0: 6031 3abc 5d60 2dbc 07ac afb9 af9e 093d
000002e0: 9371 4c3d e0a4 c7bc ec03 df3b d94e 9e3d
000002f0: b663 afbc 22f7 1a3c 2d18 2ebb d4f1 9dbc
00000300: ed8d 76bc 65af 0cbd 55d2 22bc f36c aa3d
00000310: 9097 b93b 5786 f2bc 0914 7f3d bbb3 4cbd
00000320: 9c7e a2bb 0e27 10bc b410 c43c 075c 6dbc
00000330: 7b25 cc3d 9713 e63c 41de f2bc 6e1c 453c
00000340: 2eca 173d 86b4 d23b 5ec8 363d b254 663d
00000350: 6261 d4bc 66b0 3f3c 51b1 373c 911a b0bb
00000360: d135 d0bc 3a01 8c3c c344 443d 109b 3d3c
00000370: 7b16 6e3d 05bc d9bc 7559 9dbc c4a2 683d
00000380: c719 36bc f5da 7b3c 54a6 27bd 6ab6 513d
00000390: 0482 693c 84c7 72bd dec9 963c 5f59 25bd
000003a0: 7f8a 85bd 4751 a4bc 15dc 3abd d659 a53a
000003b0: c8b7 a1bc 24ae 433b eaea c2bc c9f7 953d
000003c0: b135 16bb b22d 1c3c 3650 7c3c cccd b3bc
000003d0: b523 b4bc 5aaf 7cbd 84c0 cb3c deb4 3ebd
000003e0: 2f8b dfbc 3f26 703d f90e b33b e7d7 15bd
000003f0: b85a 4b3c cd01 d93c e129 fcbc dca1 fe3c
-0.04126344 0.06732208 0.021257464 -0.02653531 0.04832478 0.0047150124 0.01296876 -0.060855877
0.036220595 0.09871841 -0.021529501 0.060646813 0.03303272 0.074425586 -0.030536002 -0.031879902
0.06798882 -0.0039341417 -0.01913501 -0.0033545685 -0.008339954 -0.017467765 -0.050944045 0.024205891
0.032796036 -0.0077784876 0.007337704 0.06263046 0.015247027 0.035135105 -0.02317779 -0.017890764
-0.017232941 -0.02949452 -0.009561972 0.044411268 0.014643769 -0.08761193 -0.05181898 -0.02729317
-0.011224247 -0.03874934 -0.0029937811 -0.0282671 -0.017822204 -0.043833524 0.007804989 0.042672634
0.031916425 0.0046714027 0.0048626126 0.00040594395 0.014275336 0.013669578 0.009553488 0.0085563315
-0.0054917037 -0.021362929 -0.008315185 0.0416732 -0.060498767 -0.041849945 -0.040326796 -0.053044606
0.037524078 0.051623855 0.02882641 -0.010811618 0.014974378 -0.02457932 0.06692538 -0.008528714
0.0016522021 -0.014922895 0.013820753 -0.035120513 -0.014493637 0.02813488 0.020487756 0.018729502
0.031166822 -0.0062136613 -0.058895074 -0.0017099703 -0.0047041206 -0.016966918 0.019966675 -0.022366693
0.076059304 -0.05676191 0.030527458 -0.04801022 -0.030437037 0.0049290806 0.004918434 0.0054767737
-0.046113998 0.051543366 -0.018583922 -0.019669894 0.028982615 0.0066241566 -0.02216549 -0.05511434
0.025793467 -0.0029129598 0.074029095 -0.053665303 0.0057734773 0.009478842 -0.0118828425 0.009013539
-0.03099886 -0.08531008 0.06115426 -0.031483352 0.053542715 -0.024243884 -0.03398699 0.057763617
-0.013485709 0.04972579 0.03613329 -0.07365647 0.024307065 -0.0071428497 0.009125424 0.0067844936
0.033154506 0.01539945 -0.0057993648 0.014668676 0.0154149765 -0.017236307 -0.01720498 -0.0094347745
-0.044561867 0.0101572815 -0.0011955017 -0.01982133 -0.02465441 0.027597029 0.048917446 0.03412166
0.019030536 0.048989516 0.036610458 0.042873986 0.0055503785 0.009054336 0.0036750515 -0.048738718
-0.046510335 -0.04817323 0.061757855 -0.0370364 0.015472552 0.03084464 0.05649123 -0.016183496
0.0051627983 0.02908806 -0.015650133 0.027924938 0.025743583 -0.0312502 -0.027095828 0.0072991685
0.016434656 0.0053230114 0.01976083 -0.021168923 0.007050202 0.06710355 -0.06319818 0.015642088
-0.031902835 0.01640985 0.021112634 0.009196281 -0.011364311 -0.010582057 -0.0003350677 0.033598598
0.049913 -0.02437061 0.0068058874 0.07729883 -0.02140985 0.009458335 -0.0026564703 -0.019280352
-0.015048486 -0.034346957 -0.009937842 0.08321562 0.0056638196 -0.029605074 0.062274966 -0.04997609
-0.0049589407 -0.008798374 0.023933746 -0.014487273 0.09968086 0.028085513 -0.029646995 0.012030704
0.037058048 0.0064302115 0.04462468 0.056233115 -0.025925342 0.0116997715 0.011211709 -0.0053742607
-0.025416287 0.017090429 0.04791714 0.011572614 0.058126908 -0.026578913 -0.019207695 0.05679585
-0.011114544 0.015372028 -0.040930107 0.051199354 0.01425219 -0.059272304 0.018406805 -0.040368434
-0.06520557 -0.020058287 -0.045620043 0.0012615274 -0.019740954 0.0029858435 -0.023793656 0.07322652
-0.0022920186 0.009532379 0.015399983 -0.021948718 -0.021989683 -0.061690666 0.024872072 -0.046559207
-0.027288048 0.058630224 0.0054644314 -0.036582854 0.012411766 0.026490116 -0.030781688 0.03108304

fc1.bias f4 [3]
00000000: d1f2 85bd 4efd adbb 164e 7abe
-0.06540454 -0.0053097373 -0.2444385

momentum_buffer f4 [5, 1, 65, 1, 2]
00000000: 32c8 aebd 68cc 6f3d 1ef0 b0bd cc5a 6e3d
00000010: b4f9 b2bd dde7 6c3d 63e5 b4bd 1e6b 6b3d
00000020: 26ae b6bd 12dd 693d 4a52 b8bd b83c 683d
00000030: 60d3 b9bd 3e83 663d fb2b bbbd 9bb2 643d
00000040: 1d5c bcbd 86c6 623d 0665 bdbd d4b8 603d
00000050: 6842 bebd 278b 5e3d 1ff2 bebd be3a 5c3d
00000060: 1175 bfbd 1ac4 593d 1dc7 bfbd 3229 573d
00000070: 07e7 bfbd 1e67 543d 7cd6 bfbd e880 513d
00000080: ce91 bfbd 9071 4e3d f416 bfbd f83e 4b3d
00000090: fb68 bebd 70e8 473d 5483 bdbd 276f 443d
000000a0: d867 bcbd efd8 403d ed17 bbbd 8322 3d3d
000000b0: 8492 b9bd e04f 393d 11d7 b7bd b468 353d
000000c0: 78ea b5bd 506b 313d 40ca b3bd 2858 2d3d
000000d0: 627a b1bd a436 293d 99fc aebd 8906 253d
000000e0: b650 acbd edca 203d 7878 a9bd 2189 1c3d
000000f0: 4578 a6bd e147 183d f34d a3bd b60b 143d
00000100: 1aff 9fbd 3fd5 0f3d 588e 9cbd f8ac 0b3d
00000110: c9fa 98bd c298 073d d649 95bd 4d9c 033d
00000120: 577f 91bd d672 ff3c d19a 8dbd f3e3 f73c
00000130: 18a2 89bd 8697 f03c e199 85bd a08f e93c
00000140: a383 81bd fed1 e23c d4c9 7abd 3863 dc3c
00000150: dd86 72bd 2c43 d63c ca3f 6abd 9079 d03c
00000160: c7ff 61bd 6c03 cb3c 3fd4 59bd 20ed c53c
00000170: 5db9 51bd 7438 c13c 0abd 49bd fce8 bc3c
00000180: 9ee6 41bd cffb b83c a638 3abd de77 b53c
00000190: 49bc 32bd a25f b23c d779 2bbd 8fb7 af3c
000001a0: 8b71 24bd ea7a ad3c b2ad 1dbd 8aa6 ab3c
000001b0: f438 17bd 783c aa3c 400e 11bd 6438 a93c
000001c0: 983b 0bbd 848c a83c bec2 05bd bc3d a83c
000001d0: 18a2 00bd 5540 a83c 05c4 f7bc 7c8d a83c
000001e0: ec0b efbc ba22 a93c 2815 e7bc 3df7 a93c
000001f0: d1ec dfbc ea01 ab3c 4b98 d9bc ff3c ac3c
00000200: c90e d4bc 52a5 ad3c cb93 72bc 1159 05bd
00000210: 116d 75bc ef73 05bd 981d 78bc fe8b 05bd
00000220: 6ca6 7abc f8a0 05bd 0c03 7dbc 0db3 05bd
00000230: 3a33 7fbc 2bc2 05bd df9c 80bc 5ece 05bd
00000240: 8388 81bc 6fd7 05bd 3b5d 82bc 9ddd 05bd
00000250: 221c 83bc b1e0 05bd b3c3 83bc 10e1 05bd
00000260: 0954 84bc bede 05bd 39cd 84bc 9bd9 05bd
00000270: 822e 85bc 8ed1 05bd d677 85bc 5dc6 05bd
00000280: eaa9 85bc fcb7 05bd 5dc4 85bc f1a6 05bd
00000290: c3c6 85bc 0993 05bd 45b2 85bc 587c 05bd
000002a0: 6a85 85bc 1863 05bd f841 85bc 9447 05bd
000002b0: 2de8 84bc 562a 05bd 0878 84bc 0c0b 05bd
000002c0: 50f1 83bc 54ea 04bd ec55 83bc 07c8 04bd
000002d0: dca4 82bc 09a4 04bd 2adf 81bc 7f7e 04bd
000002e0: cb05 81bc 6a57 04bd a417 80bc 8f2e 04bd
000002f0: e42a 7ebc 3a04 04bd 7e00 7cbc 30d8 03bd
00000300: a2ac 79bc bbaa 03bd 5332 77bc e37b 03bd
00000310: ce92 74bc bc4b 03bd 64cb 71bc 581a 03bd
00000320: 49df 6ebc aae7 02bd 18d0 6bbc c1b3 02bd
00000330: d69a 68bc 887e 02bd da44 65bc 1e48 02bd
00000340: 86d0 61bc 9a10 02bd fc3c 5ebc 38d8 01bd
00000350: be8f 5abc d69e 01bd 36cc 56bc cc64 01bd
00000360: 11f3 52bc 852a 01bd ce08 4fbc 2cf0 00bd
00000370: 7514 4bbc 1eb6 00bd 5c13 47bc c47c 00bd
00000380: 520e 43bc cd43 00bd 0e08 3fbc 6e0b 00bd
00000390: 2403 3bbc 8ea7 ffbc 6f05 37bc 9c39 ffbc
000003a0: 4013 33bc e6cd febc 4a2e 2fbc 9364 febc
000003b0: 4c5d 2bbc a2fd fdbc a3a4 27bc 0b9a fdbc
000003c0: 4304 24bc 603a fdbc 7a84 20bc f0de fcbc
000003d0: b226 1dbc ee88 fcbc 25eb 19bc 0c38 fcbc
000003e0: a7d8 16bc b8ec fbbc aaf1 13bc 92a7 fbbc
000003f0: 1437 11bc e467 fbbc aead 0ebc 8a2e fbbc
-0.08534278 0.058544546 -0.08639549 0.05819206 -0.08739033 0.05783831 -0.088328145 0.0574752
-0.08919935 0.057095595 -0.090000704 0.05669853 -0.0907352 0.056277506 -0.09139248 0.055834394
-0.09197257 0.055365108 -0.09247784 0.054863766 -0.0929001 0.054331925 -0.09323525 0.05376696
-0.093485005 0.053165533 -0.0936415 0.05252952 -0.09370237 0.051856153 -0.093670815 0.051148325
-0.09353982 0.05040127 -0.0933055 0.0496206 -0.09297367 0.048805654 -0.092535645 0.047957566
-0.09199494 0.047081884 -0.09135423 0.04617549 -0.09061149 0.04524219 -0.089765675 0.044289306
-0.08882612 0.04331523 -0.087788105 0.0423204 -0.08665921 0.041311875 -0.08544273 0.040289436
-0.08413832 0.039256025 -0.08274931 0.038216714 -0.08128408 0.037177924 -0.07973852 0.03614398
-0.07812329 0.035115477 -0.076443374 0.034100503 -0.074697085 0.033104666 -0.07289474 0.032131482
-0.07104366 0.031182688 -0.069142945 0.030260062 -0.0672037 0.029369127 -0.06523491 0.028510869
-0.06323936 0.027688023 -0.061227635 0.02690278 -0.059210647 0.026155077 -0.05718974 0.02544859
-0.05517557 0.024781905 -0.05318093 0.024160922 -0.051202167 0.02358649 -0.049252547 0.023060314
-0.047339074 0.02258101 -0.04546418 0.022151884 -0.043636594 0.021774117 -0.041864242 0.021449832
-0.040147346 0.021176774 -0.038495727 0.020953435 -0.03691955 0.020780787 -0.03541398 0.020656772
-0.03399238 0.020574816 -0.032656424 0.02053725 -0.031404585 0.020538488 -0.030244837 0.020575278
-0.02918049 0.020646442 -0.02820833 0.020747775 -0.027334603 0.020874936 -0.026561877 0.021025179
-0.025885956 0.021196995 -0.014805744 -0.032555643 -0.014979617 -0.032581266 -0.015143774 -0.03260421
-0.015298467 -0.032624215 -0.015442621 -0.03264146 -0.015576178 -0.032655876 -0.015699802 -0.03266751
-0.015812164 -0.032676157 -0.015913596 -0.03268205 -0.016004626 -0.032684986 -0.016084528 -0.03268534
-0.016153352 -0.032683127 -0.016211139 -0.032678228 -0.016257528 -0.03267055 -0.016292494 -0.032659877
-0.016316373 -0.032646164 -0.016328985 -0.03262991 -0.016330129 -0.032610927 -0.016320357 -0.032589287
-0.016298968 -0.032565206 -0.016266808 -0.032538965 -0.016223991 -0.032511078 -0.016170517 -0.03248124
-0.016106278 -0.032450035 -0.016032182 -0.032417323 -0.015947752 -0.032383 -0.015853483 -0.0323472
-0.015749833 -0.032309927 -0.015636273 -0.032270964 -0.015513156 -0.032230593 -0.015380977 -0.032188594
-0.015238913 -0.032145243 -0.015087682 -0.03210057 -0.014927579 -0.032054648 -0.014757965 -0.032007545
-0.0145796025 -0.031959213 -0.014392875 -0.031909708 -0.014197072 -0.03185895 -0.013993466 -0.031807058
-0.013782626 -0.031754114 -0.0135643445 -0.031700343 -0.013339935 -0.03164562 -0.013110211 -0.031590268
-0.012875334 -0.03153469 -0.012636377 -0.031479046 -0.012395014 -0.03142368 -0.012150612 -0.031368986
-0.01190527 -0.03131466 -0.011659635 -0.0312609 -0.011414323 -0.031207826 -0.011170729 -0.0311554
-0.0109298825 -0.03110404 -0.0106921885 -0.031053817 -0.010459255 -0.03100473 -0.010232124 -0.030957242
-0.010010782 -0.030911624 -0.00979721 -0.030868024 -0.009591745 -0.030827012 -0.009394442 -0.030788444
-0.009206927 -0.030752525 -0.009029785 -0.030719552 -0.008863229 -0.030689187 -0.008708401 -0.03066184

momentum_buffer f4 [5]
00000000: e66c 9f36 3fc6 47b4 303b 62b4 a48e 2836
00000010: dd36 0236
4.7512467e-06 -1.8605441e-07 -2.1069422e-07 2.5116979e-06 1.9403444e-06

momentum_buffer f4 [5]
00000000: 5086 143e 54d8 bf3d eeaf 86bd 9aa0 c73c
00000010: 2e34 cc3e
0.14504361 0.09367433 -0.06576525 0.024368573 0.3988356

momentum_buffer f4 [5]
00000000: 20ab ffbc 2c15 97bc d0ad 19bc 5083 c13d
00000010: acc6 343d
-0.031209528 -0.018442713 -0.009379819 0.09448874 0.04413478

momentum_buffer f4 [3]
00000000: 162d 14bf ee76 32c0 0049 5eba
-0.57881296 -2.788509 -0.0008479506

momentum_buffer f4 [1, 5, 1, 1, 1]
00000000: 475a 5d3f 0a92 bc3d 64e7 b3bf a8b1 96bc
00000010: b226 81bf
0.8646588 0.09207542 -1.405499 -0.01839526 -1.0089934

momentum_buffer f4 [3, 460]
00000000: fb6d 533e d82e cbbd 4b55 483e ed04 303d
00000010: 1ce7 5b3e b144 03bd 9adc 16be d53e 523e
00000020: 3699 5fbe d23c 6bbe 7ee2 733e 8a16 273e
00000030: f921 123f 8a5b 27be ec66 9c3d 70c6 1c3f
00000040: 3347 25be b6c2 123e 0755 323d 8877 8d3d
00000050: 4421 543d e45e 153f 1ab3 603e bb22 8f3e
00000060: 0d81 463d 58c1 f53e 03ef 64be a08b 08bd
00000070: eb76 5ebd 0485 8dbd 09a3 a93e 25a2 56be
00000080: 92cf b93e 0d60 483e a1ed 84bd 5eaf 893e
00000090: 8883 a03e 30b2 28be 2d94 913e f68e e73e
000000a0: 5b19 ee3e 749c 453e d898 913d bda4 573c
000000b0: face a83e 64e0 0e3e d851 573d ce75 a2bd
000000c0: 136a e4bd 4142 e4bd 021c c13d 5dbf fe3d
000000d0: eca2 773e 1cd9 393e 6b9b 6d3e e0df 9e3c
000000e0: ab2e 913e 003f 3e3e 2a22 873e 6563 54be
000000f0: 9e2d 47be 8ab6 5bbd ea68 093d 981e e2bd
00000100: 78d5 323e 4aca 4bbc f10b f4bd f284 0a3e
00000110: d258 8fbe 0014 c83d 1bce 793e a6d0 233e
00000120: 1661 7f3e 66bd 70be 2eee b33e b5f9 57be
00000130: 1913 6dbe 7554 1d3e c0bf 523b 53be 723e
00000140: 9805 133e 0195 f1bd fe6f 5a3e 04e6 a73c
00000150: 6043 21bc 5e36 6cbe 6ed8 5c3e c36f 6d3e
00000160: 0093 41bd 468d 1e3e 4ad2 553e 602b 063d
00000170: 2975 57be 9585 873e 3c74 a5bd aaeb f5bd
00000180: b4cc 7abe fe23 a33d b1b9 a63e 7ead 90bd
00000190: 6fd2 29be 7caf 7c3e f2ef 16be cb53 9bbd
000001a0: 2a78 e33d 5956 933e 741a 57be 5caa 8e3e
000001b0: da65 4dbd ddcb dcbc c899 6cbe db72 a5bb
000001c0: 96e1 5b3e 9113 283e b064 353e 5b32 cf3d
000001d0: 5a09 113e f73f 07be c4b6 4f3d f558 cf3c
000001e0: 9cfd 8c3e 883f 11be bc78 e13e 7e4e e93e
000001f0: ba27 be3d a0c1 a73e 7442 903d 66f4 333e
00000200: 6265 17be 3334 f0bb 7439 5abd 2db2 593e
00000210: 09c3 e53d 8f17 743e cc6e 3a3e 1c9c 963e
00000220: 3a94 973e 2e9c f13e 3360 c3be f42b a43e
00000230: adc1 c7be 4c0a 91be 4019 e03e ac92 863e
00000240: 5abd f8bd 783d 90bd 800b 17be 4797 1dbe
00000250: 5329 cd3e b057 2d3c d0d9 f3bd 4262 a73e
00000260: 40e9 893c 7f79 79bd cad5 793d be50 d13d
00000270: 82ca ac3d cb30 c7be 8563 7fbe d266 953e
00000280: 160c 24be c23d a53d 6455 f23e bec4 7f3e
00000290: fa2a 303f c956 743e c4ef 393e 6ff2 0cbe
000002a0: e4a8 9f3e 1075 4e3e f3d8 16be 66a1 253e
000002b0: 8b20 b83e 0057 843e b87f e83d 16d1 1a3e
000002c0: 4cd8 ebbe 1056 46be b9d9 7dbe 3c6e 173d
000002d0: 748c acbe b615 2b3e 6eaa ee3d 209c ca3d
000002e0: 4d6e d439 00df b0bd 11a8 adbe 0805 ef3d
000002f0: 0807 45be 198c 36be 6adf 433e e085 4b3e
00000300: 4642 dd3d fd3f a1bc 7b62 8abd feb8 7e3d
00000310: 563a b23d a2af 09be d68c 873e 4fe7 94bd
00000320: 5098 26be dee7 06be 1b9c ea3d 6d61 573e
00000330: 54ed 823e a207 87bd 425d 92bd 0828 d53e
00000340: 6fa4 113e 23e0 36be 7819 a9bd 4845 71be
00000350: 8446 4b3e 6763 cabd e6ca 91bd 18dc 313e
00000360: 4fb2 a4bc fe2e 0c3e ae71 ce3e 48e5 9cbc
00000370: bd63 b8bd 8e7f 0c3e 9fd9 f33d 669d 413e
00000380: e3da 833e 8cbb 8d3e 2ac8 733d 5029 8a3e
00000390: 88c9 8e3e ed10 fe3d febc 653e f829 b93d
000003a0: d921 e2bc cb79 6fbe 9cc0 febb 7683 4abe
000003b0: 800b b9bb 97a7 2abe fb11 8a3e 38d1 0dbc
000003c0: c32b c83d 54f8 f53d acb8 373e 3d65 2d3e
000003d0: 0ae1 a73e ca85 f93d 838a b9be 4313 173e
000003e0: 1a4c a83d a970 c03d c73f 843e 2e7f 12be
000003f0: c303 0f3e 0243 45be 0ebc d33e 6eb1 43be
0.20647423 -0.09921044 0.19563787 0.042973448 0.2147488 -0.03204793 -0.1473259 0.20531781
-0.21835789 -0.2297242 0.23816869 0.16317192 0.5708309 -0.16343513 0.07636818 0.6124029
-0.16140442 0.14332089 0.04353812 0.069075644 0.051789537 0.58347917 0.21943322 0.27956185
0.048462916 0.47999072 -0.223568 -0.03333628 -0.054312628 -0.06910136 0.33132198 -0.2096029
0.36291176 0.1956789 -0.064906366 0.26891607 0.3135035 -0.16474223 0.28433362 0.45226258
0.4650372 0.19297963 0.07109231 0.013161835 0.3297041 0.13952786 0.052568287 -0.07932626
-0.111530446 -0.111454494 0.0942917 0.124388434 0.24183244 0.18149227 0.23203819 0.019393861
0.28355917 0.1857872 0.26393253 -0.20741041 -0.19450995 -0.05364088 0.03354732 -0.110409915
0.17464244 -0.012438366 -0.1191634 0.13527277 -0.27997452 0.0976944 0.24395029 0.15997562
0.24939379 -0.2350975 0.35142654 -0.2109135 -0.23151816 0.15364249 0.003215775 0.23705415
0.14357603 -0.11795998 0.21331784 0.020495422 -0.009842724 -0.23067614 0.21566936 0.23187165
-0.04725933 0.15483579 0.20881 0.03275621 -0.21040787 0.26469103 -0.080788106 -0.1200784
-0.2449215 0.07965849 0.32563546 -0.07064341 -0.1658418 0.24676317 -0.1473997 -0.075843416
0.11106904 0.28776816 -0.21006185 0.2786435 -0.05014596 -0.026952678 -0.23105538 -0.005049092
0.21472773 0.16413714 0.1771419 0.101170264 0.14163724 -0.13207994 0.05071141 0.025310973
0.2753724 -0.14184391 0.44037426 0.45567697 0.09284921 0.32764912 0.07043925 0.175737
-0.14784768 -0.0073304414 -0.053277448 0.21259375 0.11218841 0.23837112 0.18206328 0.29415977
0.29605275 0.47189468 -0.38159332 0.32064784 -0.3901495 -0.28328168 0.43769264 0.26283777
-0.12145491 -0.07042974 -0.1475048 -0.15389739 0.4007059 0.010579988 -0.11906779 0.32692152
0.016834855 -0.060906883 0.0609949 0.102204785 0.08437063 -0.38904414 -0.24940307 0.29180008
-0.16020235 0.0806842 0.47330773 0.24977395 0.6881558 0.23861231 0.1815787 -0.13764356
0.3118354 0.20161843 -0.14731197 0.1617485 0.35962328 0.25847626 0.113524854 0.15118822
-0.4606346 -0.19368768 -0.24790086 0.036970362 -0.33700907 0.16707501 0.11653601 0.0989306
0.00040517972 -0.08636284 -0.33917287 0.116708815 -0.19240963 -0.1782688 0.19128194 0.19875288
0.10803656 -0.019683832 -0.06757065 0.06218814 0.08702533 -0.13445905 0.26474637 -0.07270681
-0.1626904 -0.13174388 0.11455556 0.21033259 0.25571692 -0.06593253 -0.07146694 0.41632104
0.14222883 -0.17858939 -0.08256811 -0.23561585 0.19851118 -0.09882241 -0.07118778 0.17369115
-0.020104555 0.13689801 0.40321106 -0.019152299 -0.090033986 0.13720533 0.11906742 0.18907699
0.25752935 0.2768215 0.059517063 0.26984644 0.2788813 0.12405572 0.22435376 0.09041208
-0.02760403 -0.23386304 -0.0077744257 -0.19776711 -0.005647123 -0.16665493 0.26966843 -0.008655839
0.09773972 0.120102555 0.1794154 0.1693315 0.3278888 0.12183721 -0.3623849 0.14753442
0.0821764 0.09396488 0.25829908 -0.14306328 0.13966279 -0.19263843 0.41354412 -0.19110653
