scripts/model-cnn3d-epoch-30.pth (torch_old, 19549 bytes, 16 tensors)

momentum_buffer f4 [5, 1, 65, 1, 2]
000000 32 7d e7 3d 88 29 e2 b9 bc 0a e5 3d 3c 8a 0a ba
       0.11303176 -0.00043137022 0.11183688 -0.0005284881
000010 e2 9a e2 3d f8 13 23 ba d9 2e e0 3d 00 7b 3b ba
       0.11064698 -0.0006220932 0.109464355 -0.00071518123
000020 42 c9 dd 3d fc 02 54 ba fa 6b db 3d e0 44 6d ba
       0.108294025 -0.0008087603 0.10713954 -0.00090510957
000030 23 1a d9 3d c8 07 84 ba 3b d7 d6 3d 80 56 92 ba
       0.10600688 -0.001007312 0.10490271 -0.0011164695
000040 61 a6 d4 3d 3e bf a1 ba 22 8b d2 3d 7a 8e b2 ba
       0.10383297 -0.001234032 0.10280444 -0.0013622784
000050 a0 87 d0 3d 24 fe c4 ba 25 a1 ce 3d e6 5b d9 ba
       0.101821184 -0.0015029353 0.1008933 -0.0016583174
000060 fe d9 cc 3d c4 bb ef ba 36 35 cb 3d cb 35 04 bb
       0.10002516 -0.0018290211 0.099222586 -0.0020173665
000070 8a b6 c9 3d 9c c9 11 bb 0b 61 c8 3d ef b2 20 bb
       0.0984927 -0.0022245413 0.097841345 -0.0024520715
000080 45 38 c7 3d ac 10 31 bb f7 3c c6 3d 84 fa 42 bb
       0.097275294 -0.0027017994 0.09679597 -0.002975137
000090 ea 71 c5 3d 9d 84 56 bb 5b d9 c4 3d 93 d8 6b bb
       0.09640868 -0.0032732852 0.0961177 -0.0035987243
0000a0 cc 74 c4 3d 2e 82 81 bb d1 44 c4 3d 6d 0c 8e bb
       0.0959259 -0.003952286 0.09583438 -0.0043349774
0000b0 2c 4c c4 3d 93 99 9b bb a6 89 c4 3d e1 36 aa bb
       0.09584841 -0.004748532 0.09596567 -0.0051945304
0000c0 d0 fc c4 3d d0 e6 b9 bb 2b a8 c5 3d 48 aa ca bb
       0.09618533 -0.005673267 0.09651216 -0.00618485
0000d0 bb 89 c6 3d f5 80 dc bb f1 9f c7 3d 2a 6d ef bb
       0.09694239 -0.00672924 0.09747303 -0.0073067145
0000e0 df eb c8 3d f5 b2 01 bc 40 6b ca 3d 6a 33 0c bc
       0.09810614 -0.007916202 0.098837376 -0.00855718
0000f0 bb 1d cc 3d d1 2f 17 bc ed ff cd 3d 6a a4 22 bc
       0.09966608 -0.009227709 0.100585796 -0.009926895
000100 6c 11 d0 3d 9a 89 2e bc fd 4f d2 3d 46 d6 3a bc
       0.10159573 -0.010652924 0.10269163 -0.011403626
000110 a0 b9 d4 3d 22 7e 47 bc 61 4a d7 3d 22 76 54 bc
       0.10386968 -0.0121760685 0.105122335 -0.012967618
000120 12 ff d9 3d 2c b3 61 bc 5d d5 dc 3d 70 2b 6f bc
       0.10644354 -0.013775628 0.10782883 -0.014597759
000130 ca c7 df 3d c0 d1 7c bc 67 d2 e2 3d 30 4d 85 bc
       0.109267786 -0.015430868 0.11075287 -0.016272157
000140 6c f1 e5 3d 1c 3d 8c bc 36 20 e9 3d b0 33 93 bc
       0.11227688 -0.017118983 0.11383097 -0.017968982
000150 4b 5b ec 3d eb 2c 9a bc d1 9e ef 3d 6c 23 a1 bc
       0.1154085 -0.018820247 0.11700214 -0.01967021
000160 33 e7 f2 3d 00 14 a8 bc 16 2f f6 3d f1 fa ae bc
       0.11860504 -0.02051735 0.120207 -0.021359893
000170 85 72 f9 3d 00 d5 b5 bc 5d af fc 3d c4 9f bc bc
       0.12180046 -0.022196293 0.123381354 -0.023025401
000180 21 e1 ff 3d a2 59 c3 bc 0d 82 01 3e b1 ff c9 bc
       0.12494112 -0.023846451 0.12647267 -0.024658056
000190 f0 0b 03 3e b2 8e d0 bc fa 8c 04 3e cd 06 d7 bc
       0.12797523 -0.025458667 0.12944403 -0.02624836
0001a0 de 03 06 3e ce 65 dd bc 8d 70 07 3e 52 aa e3 bc
       0.13087413 -0.027026083 0.13226528 -0.027791176
0001b0 2a d3 08 3e 46 d2 e9 bc b0 2a 0a 3e e6 da ef bc
       0.13361803 -0.028542649 0.13492846 -0.029279184
0001c0 ca 77 0b 3e 44 c1 f5 bc e6 b9 0c 3e a3 85 fb bc
       0.13619915 -0.029999383 0.1374279 -0.030703371
0001d0 0a f1 0d 3e 13 93 00 bd 82 1d 0f 3e e8 4f 03 bd
       0.1386148 -0.03139026 0.139761 -0.032058626
0001e0 42 3f 10 3e b8 f8 05 bd 9c 57 11 3e 4b 8c 08 bd
       0.14086631 -0.0327079 0.14193577 -0.03333692
0001f0 11 66 12 3e 3d 0a 0b bd 8c 6a 13 3e 91 72 0d bd
       0.14296748 -0.03394531 0.14396113 -0.034533087
000200 7d 65 14 3e ed c4 0f bd fa f7 13 3b ee a2 22 3c
       0.1449184 -0.035099912 0.0022578225 0.009926541
000210 0d f9 10 3b 2a d6 24 3c 44 a5 0d 3b c6 1c 27 3c
       0.0022121102 0.010060826 0.0021613399 0.010199731
000220 da fd 09 3b d8 75 29 3c d3 fe 05 3b 0b de 2b 3c
       0.0021055848 0.010343038 0.0020446077 0.010489951
000230 a9 a9 01 3b 44 52 2e 3c e2 01 fa 3a b4 cf 30 3c
       0.0019784963 0.010639731 0.0019074047 0.010791708
000240 6a fe ef 3a 3a 55 33 3c ef 47 e5 3a 17 e2 35 3c
       0.0018310074 0.010945613 0.0017492751 0.011101267
000250 f5 e4 d9 3a 7f 73 38 3c a2 d0 cd 3a 9d 05 3b 3c
       0.0016624021 0.011258005 0.0015702436 0.0114149125
000260 21 06 c1 3a 86 9a 3d 3c e5 85 b3 3a 18 31 40 3c
       0.0014726558 0.011572486 0.001369652 0.011730455
000270 06 56 a5 3a 4d c5 42 3c 20 75 96 3a b2 55 45 3c
       0.0012614138 0.0118878605 0.0011478998 0.012044357
000280 59 e8 86 3a d8 e2 47 3c ac 7d 6d 3a cf 6a 4a 3c
       0.0010292634 0.01220008 0.0009059559 0.012354567
000290 e6 ef 4b 3a cc ea 4c 3c 38 50 29 3a 5c 5f 4f 3c
       0.0007779583 0.012507152 0.0006458792 0.012657013
0002a0 b8 a1 05 3a 82 c9 51 3c b2 1c c2 39 09 28 54 3c
       0.00050976453 0.012804391 0.00037023943 0.012948998
0002b0 64 d8 6e 39 52 77 56 3c 48 be ad 38 4e b7 58 3c
       0.0002277806 0.013089972 8.2847255e-05 0.013227297
0002c0 10 39 86 b8 3a e6 5a 3c 90 5a 5e b9 04 02 5d 3c
       -6.400247e-05 0.013360554 -0.00021205307 0.01348925
0002d0 ba 26 bd b9 0a 0b 5f 3c 9d 99 05 ba 9e fe 60 3c
       -0.00036077743 0.013613472 -0.00050964375 0.0137325805
0002e0 69 6b 2c ba 74 db 62 3c 83 e9 52 ba 88 a1 64 3c
       -0.00065772847 0.013846267 -0.000804566 0.013954528
0002f0 7e e1 78 ba 00 4d 66 3c 0a 13 8f ba e6 de 67 3c
       -0.000949405 0.014056444 -0.0010915708 0.014152264
000300 45 4b a1 ba 3e 56 69 3c a8 03 b3 ba 78 b1 6a 3c
       -0.0012305757 0.014241753 -0.0013657706 0.014324538
000310 fc 2c c4 ba 54 ef 6b 3c b9 ba d4 ba e7 10 6d 3c
       -0.001496702 0.014400322 -0.0016229964 0.014469362
000320 c6 95 e4 ba f6 14 6e 3c 8b b7 f3 ba d4 f9 6e 3c
       -0.0017439655 0.014531365 -0.0018594129 0.014585931
000330 d7 09 01 bb dc bf 6f 3c 1f d0 07 bb d8 62 70 3c
       -0.0019689703 0.014633145 -0.0020723415 0.014672004
000340 46 2b 0e bb 4a e4 70 3c e0 15 14 bb 57 41 71 3c
       -0.0021693273 0.014702866 -0.0022596046 0.014725051
000350 7f 8e 19 bb 1d 78 71 3c c6 8e 1e bb 60 86 71 3c
       -0.0023430882 0.01473811 -0.0024193986 0.01474151
000360 6d 14 23 bb 3c 6c 71 3c 04 1a 27 bb 3a 25 71 3c
       -0.0024884 0.014735278 -0.0025497684 0.014718348
000370 9a 9f 2a bb 7a b1 70 3c 16 a6 2d bb 5d 0b 70 3c
       -0.0026035071 0.014690751 -0.00264967 0.014651147
000380 fa 29 30 bb 46 34 6f 3c fd 2e 32 bb 08 2a 6e 3c
       -0.0026880489 0.014599865 -0.0027188652 0.014536388
000390 74 ba 33 bb 52 ea 6c 3c 95 cf 34 bb 26 78 6b 3c
       -0.0027424367 0.014460163 -0.002758955 0.014371907
0003a0 47 6a 35 bb 93 d0 69 3c e2 93 35 bb b4 f3 67 3c
       -0.0027681754 0.014270919 -0.0027706553 0.014157224
0003b0 4c 54 35 bb 1c e5 65 3c 0a a9 34 bb ce a5 63 3c
       -0.0027668653 0.014031675 -0.0027566575 0.013894511
0003c0 64 a3 33 bb 4b 35 61 3c 10 47 32 bb e9 97 5e 3c
       -0.002741062 0.013745616 -0.0027203 0.013586023
0003d0 41 97 30 bb 40 d0 5b 3c fa 9f 2e bb a0 e0 58 3c
       -0.0026945623 0.01341635 -0.0026645646 0.0132371485
0003e0 f1 67 2c bb 10 cd 55 3c f8 f8 29 bb e7 98 52 3c
       -0.002630707 0.013049379 -0.002593575 0.012853838
0003f0 cb 5a 27 bb 8c 49 4f 3c ce 8f 24 bb f3 e1 4b 3c
       -0.0025536295 0.012651812 -0.0025110128 0.012444007

momentum_buffer f4 [5]
000000 86 84 07 3d 0c de f7 bb 16 9e 5b 3d 4d 64 82 3e
       0.03308537 -0.007564312 0.05361756 0.25467148
000010 ff d6 21 bc
       -0.009877919

momentum_buffer f4 [5]
000000 da ed 86 be 5e 78 59 bd a6 60 f7 3d 48 41 93 3e
       -0.2635334 -0.053093307 0.12078981 0.28760743
000010 78 57 1b bc
       -0.009481303

momentum_buffer f4 [3, 460]
000000 54 6c fe 3e a7 1e 44 3e 68 0b de 3e de 64 23 3e
       0.49692023 0.19152318 0.43368077 0.15956447
000010 e0 d3 bf 3e aa 53 0c 3f f5 41 96 3e 45 f2 d7 3e
       0.37466335 0.5481516 0.29347196 0.42177024
000020 44 5c 07 3f 68 71 d0 3e 1a e8 31 3e 30 f2 f8 3d
       0.5287516 0.40711522 0.17373696 0.121555686
000030 ff 14 8f 3e 15 b8 99 3e a6 30 a4 3e 0e 50 f5 3e
       0.27945706 0.30023256 0.32068366 0.4791264
000040 44 dd 72 3f 3d 17 e6 3d e8 04 b5 bd a1 bf 53 3c
       0.94868875 0.11234901 -0.088388264 0.012924106
000050 c2 2a 51 3e 58 18 78 3d f4 7e 72 3d 9e ae 12 3e
       0.20426467 0.06057009 0.059203103 0.14324424
000060 18 87 65 3f b7 37 9f 3e be e9 e3 3e 2e 47 e8 3d
       0.8965926 0.31097195 0.4451427 0.113417014
000070 f1 f6 74 3e 42 65 09 3f 97 f9 3f 3f 63 93 ac 3e
       0.23922326 0.5367013 0.7499022 0.33706197
000080 6f 1d b7 3e 44 51 12 3e 67 b9 04 3f 3c 25 4e 3e
       0.35764644 0.14288813 0.518454 0.20131391
000090 e6 74 94 3e 96 25 ea 3e 33 4b f3 b9 50 5f 43 3e
       0.28995436 0.457318 -0.000464046 0.19079328
0000a0 4e b4 86 3e d8 58 4b be 90 21 cd 3e 0d 42 b6 3e
       0.26309437 -0.1985811 0.4006467 0.35597268
0000b0 8d 2f 5c 3e d1 61 0f 3f 09 a0 b9 3d 3b 4a 81 3e
       0.21502514 0.5600863 0.090637274 0.25251946
0000c0 c9 e7 bc 3e 48 cb 4a 3e bb eb d8 3e d0 89 6d 3e
       0.36895588 0.19804108 0.42367348 0.23197103
0000d0 62 47 6e 3e c5 06 d6 3e 4e 9d 12 be 28 7f af 3d
       0.23269418 0.4180204 -0.1431782 0.08569175
0000e0 3f 5b 97 3e c6 54 e3 3d b3 17 bb 3e 71 97 17 3f
       0.29561803 0.111001536 0.3654152 0.59215456
0000f0 b3 4d 2d 3f 06 9b 24 3e c2 b1 d2 3e 96 5a ff 3e
       0.67696685 0.16074762 0.41151243 0.498738
000100 3f 46 d1 3e c8 50 59 3f fb 79 74 bd 88 56 b8 3e
       0.40873906 0.8488889 -0.059686642 0.36003518
000110 e7 ac 18 3f c1 23 00 3f 68 cb 00 3f da 1f 5f 3f
       0.5963883 0.50054556 0.50310373 0.87157977
000120 4c 66 20 3e da 76 0c 3d fe 64 18 3f c1 28 3e 3f
       0.15664023 0.034293033 0.595291 0.74280936
000130 ac 24 df 3d 3d c1 7f 3e 54 82 57 3e 02 f6 d9 3e
       0.108956665 0.24976058 0.2104581 0.42570502
000140 2a 05 ce 3e 1c f8 e9 3e 62 66 2e 3f e7 aa 4e 3e
       0.40238315 0.45697105 0.68124974 0.20182382
000150 f4 db ae 3e 02 23 83 3e 0a d5 43 3f c1 81 13 3d
       0.34152186 0.25612646 0.76496947 0.036012415
000160 bc 78 f4 3e 7b 69 2d 3e 86 10 4a 3f 62 7c 0c 3f
       0.47748363 0.16934769 0.7893146 0.54877293
000170 11 be cd 3e c0 c2 27 3e e8 8f ce 3e e2 0f 5f 3e
       0.40184072 0.16382885 0.40344167 0.21783403
000180 da 84 a6 bd 16 65 e1 3e 08 73 26 3f de 12 23 3f
       -0.08130808 0.44022435 0.65019274 0.63700664
000190 b8 f3 54 3f a0 ac 34 3f 5e e2 94 3e 3a e3 ea 3e
       0.83184385 0.70575905 0.29078954 0.45876485
0001a0 e7 89 0b 3e 25 6c ab 3e c2 98 30 3f 46 1a 7f 3e
       0.13626824 0.33480945 0.6898309 0.24912366
0001b0 b6 d2 17 3d 63 98 c2 3e 82 7c fd 3e 98 63 2b 3f
       0.037066184 0.38006887 0.49509054 0.66948843
0001c0 c0 d7 fa 3e 5c 98 12 be e0 d1 82 3e ab 18 f2 3e
       0.4899273 -0.14315933 0.25550747 0.47284445
0001d0 a4 2c d8 3e c9 7d 77 3e 9f 7f 60 3e f5 c7 b4 3e
       0.42221558 0.24169077 0.21923684 0.35308805
0001e0 45 40 11 3f ec e3 89 bd 03 15 b6 3e 32 84 25 3d
       0.5673869 -0.06732926 0.35562906 0.040409274
0001f0 67 cb d7 3e eb 80 1a 3f 31 a2 30 3f 2c e3 00 3f
       0.4214737 0.60352963 0.68997484 0.50346637
000200 a2 9c 65 3e 61 cc 86 3d 9e e0 17 3e 77 a1 31 3e
       0.22423032 0.06581951 0.14831778 0.1734675
000210 58 f7 f9 3e b2 ec 8a 3e 18 af 22 3e 7e d6 54 3e
       0.4882152 0.2713371 0.15887105 0.20784947
000220 ff 69 21 3f 30 68 06 3f e9 02 52 3f 89 9d ac 3e
       0.6305236 0.5250273 0.8203569 0.3371394
000230 93 17 22 3e 82 a9 8e 3d 54 d3 84 bc 39 bc 65 3e
       0.15829305 0.06965925 -0.01621405 0.22435082
000240 af b6 04 3f e0 4c 56 3e 82 8e 10 3f b2 68 42 3e
       0.51841253 0.20927763 0.5646745 0.1898525
000250 48 89 df bc 4e f8 26 3e b7 34 5d 3e f8 3e 7c 3e
       -0.02728714 0.16305658 0.2160214 0.24633396
000260 55 3f 7e 3e 69 8c 3a 3e a6 eb ea 3d 0a 61 0d 3f
       0.24828847 0.18217625 0.114707276 0.55226195
000270 c8 d9 07 3f 2d 0b c3 3d 96 e9 db 3e ee ef b3 bd
       0.5306668 0.09523616 0.4295165 -0.08785997
000280 de 09 54 3f 6b c5 2f 3e 45 ff 14 3f 57 e1 9d 3e
       0.82827556 0.17165153 0.5820201 0.30835983
000290 9d da 69 3e dd 81 89 bc 6f 6b dd 3e e0 4a 2b 3d
       0.228373 -0.016785556 0.43246028 0.041819453
0002a0 ae 86 8c 3e 96 40 23 3e 9e 36 4b 3e 03 01 fa 3e
       0.27446502 0.15942606 0.19845054 0.48828897
0002b0 fb 3f 76 be 08 2e fe bd ba 07 59 3e 77 2b bb 3e
       -0.24047844 -0.124111235 0.21194354 0.365566
0002c0 4a 8b 0c 3f d6 30 64 3e 07 10 5e 3e c0 e7 b9 bb
       0.5490004 0.22284254 0.21685801 -0.0056733787
0002d0 ee 17 0b 3f e9 f8 86 3d 7a 06 4c 3d b8 36 b3 3e
       0.5433339 0.065904446 0.049810864 0.35002685
0002e0 cf bf 8e 3d 94 76 60 3f fa 43 d6 3d e8 b4 d5 3d
       0.06970178 0.87680936 0.10462184 0.10434896
0002f0 58 b5 1c 3f 90 32 e5 3e f2 15 fe 3e 2c ce 50 3e
       0.6121421 0.4476514 0.49626118 0.20391148
000300 06 11 e3 3e 17 a0 44 3d 3c c2 d3 3e 66 a4 23 3f
       0.44348925 0.048004236 0.41359127 0.6392273
000310 c4 52 87 3e 59 ae 1a be 92 22 a2 3e e9 a7 d0 3e
       0.26430333 -0.15105571 0.31667 0.40753105
000320 6b 22 bf 3e ce 29 40 3e 20 a8 bd 3d 44 a7 f3 3e
       0.37330946 0.18765947 0.09260583 0.4758855
000330 c6 11 b7 3e 66 d9 71 3e 04 0a 2b 3f 3a a6 b2 3e
       0.35755748 0.23618087 0.6681216 0.34892446
000340 37 4a 97 3e a3 09 ef 3e 18 64 f4 3e 80 96 92 3e
       0.2954881 0.4668704 0.47732615 0.28630447
000350 34 13 82 bc d4 3e c8 3d 29 5c dd 3e f0 71 2b 3d
       -0.015878297 0.097776085 0.43234375 0.041856706
000360 e0 23 ba 3d 62 77 51 3d b9 3a f0 3e 48 00 2d bd
       0.09088874 0.051139243 0.46919802 -0.042236596
000370 fd a4 c1 3d 0f f9 e2 3e 25 9f 35 3e 5c 4e 14 3f
       0.09455297 0.44330642 0.1773649 0.57932067
000380 10 e9 59 3c db 57 d5 3e 08 b9 1f 3f 5d 37 1a 3e
       0.013300195 0.4166859 0.6239171 0.15060182
000390 71 b3 a5 3e c6 0d 16 3f b1 d2 fc 3d d0 ba 39 3d
       0.32363465 0.58614767 0.12344874 0.045344174
0003a0 4f 9e 46 3e af c5 8f be 8a 37 b9 3d 91 cd 0b 3d
       0.19396327 -0.28080508 0.09043796 0.03413159
0003b0 52 53 1b 3f 9d f1 8d 3e 5a 0f e3 3e 8b 34 d4 3e
       0.6067401 0.277234 0.4434765 0.41446337
0003c0 94 04 85 3e b0 86 35 3e a6 e7 e0 3e 96 c1 c1 3d
       0.25980055 0.1772716 0.43926734 0.09460752
0003d0 a3 38 57 3e 78 24 69 3f a6 fc cd 3e 29 2a f4 3e
       0.21017699 0.9107127 0.40231818 0.47688416
0003e0 8c 3f 97 3e c4 ea aa 3e 4d 92 bf 3e 00 23 0f 3e
       0.2954067 0.33382237 0.37416306 0.13978195
0003f0 58 9f b3 3e b3 b8 93 3e bb e3 9e 3e 50 15 39 3e
       0.35082507 0.28851852 0.3103312 0.18074536

momentum_buffer f4 [3]
000000 15 a3 1c 40 02 a0 3f 3f b2 87 19 3d
       2.4474537 0.7485353 0.037482925

momentum_buffer f4 [5]
000000 9b 0a 0a 35 15 53 46 b3 c8 b9 98 b3 1a 5f 88 32
       5.142444e-07 -4.617603e-08 -7.111845e-08 1.5875731e-08
000010 4c 30 e2 b1
       -6.5829564e-09

momentum_buffer f4 [1, 5, 1, 1, 1]
000000 da 5c 34 be ac cc db 3c fe b1 ca 3e bc f7 e1 3d
       -0.17613545 0.026830994 0.39588922 0.1103358
000010 86 e2 94 3f
       1.163163

conv1.weight f4 [5, 1, 65, 1, 2]
000000 5f f2 20 bd a6 46 ea bc 30 9d 96 bb 76 11 92 bc
       -0.039293643 -0.02859814 -0.004596375 -0.017830592
000010 36 35 30 bd 5a d4 52 bd 2e f6 04 3c 38 a3 ac 3c
       -0.043019496 -0.051472045 0.008115334 0.021073923
000020 11 f7 2b 3c b8 53 56 bb 6b 79 7e bd 77 f7 57 3d
       0.010495917 -0.003270371 -0.062127512 0.052726235
000030 e8 72 82 bd e5 25 5b 3d c4 25 0a bd bf 25 e4 bc
       -0.06369573 0.053502936 -0.033727422 -0.02785003
000040 a7 7e b1 bb ae ea 54 3d 35 12 43 3d c5 00 7e bd
       -0.0054167095 0.05198162 0.047624785 -0.062012453
000050 3d 1a 81 3b 1a 5b 99 bc fe 70 9d bd 99 c0 6c 3d
       0.0039398954 -0.018720198 -0.07687567 0.057800863
000060 b8 0e 98 3d fd 05 d3 3c f1 32 68 bd de d4 56 bd
       0.074246824 0.025759691 -0.056689207 -0.0524491
000070 ad 3c 2c bc 7b 65 b4 3c fb c5 11 bc 89 57 db 3d
       -0.010512513 0.022021046 -0.0088973 0.107100554
000080 90 5d e0 3c eb 36 26 3d 99 34 3a bd 07 24 d0 3d
       0.027388364 0.040579718 -0.045460317 0.10163122
000090 39 3b a3 bd 78 c7 31 3d 60 b4 fd bc 6a af 88 3d
       -0.0797028 0.04340312 -0.030969799 0.066740826
0000a0 6e 98 a0 3d 4a 8b 9e 3c d7 e4 7e 3d 41 c3 12 3d
       0.07841574 0.019353528 0.062229957 0.03583074
0000b0 c4 64 97 3d 3b 7b 21 bd ab a4 06 3c 60 5b 61 3d
       0.073922664 -0.039424162 0.008217971 0.055018783
0000c0 7d b8 ae 3d 0b 7b 90 3d 35 46 63 3d bc 5b d3 bc
       0.08531282 0.070547186 0.055486877 -0.025800578
0000d0 7d c2 a4 bd 1b cc 66 bb 71 c0 ab 3d 44 a4 c9 3d
       -0.08044908 -0.0035216871 0.08386315 0.09845784
0000e0 3f 73 2d 3c 6c 16 b1 3d 5a 8e f1 3c 11 46 d3 3d
       0.010586559 0.08646855 0.029486824 0.103160985
0000f0 2f 06 42 bd 8d a1 b3 3b d5 0a 24 bd 72 5a ec 3c
       -0.04736918 0.005481905 -0.040049393 0.028851721
000100 b7 07 8d 3d d4 6a 9a 3d 00 26 d9 bb c7 8f ee 3b
       0.06886237 0.07539907 -0.0066268444 0.007280323
000110 56 2f 21 3c 8b 30 40 3d 96 5f a7 bd a4 e8 32 3d
       0.009837946 0.046921294 -0.081725284 0.043678895
000120 1e e3 12 3d ca da 9d 3d 81 ab 33 3d 26 02 06 3d
       0.035861127 0.07707746 0.04386473 0.032716893
000130 bd 50 14 3b 7c de 8a 3d 5b da 0c bd 59 b4 86 bc
       0.0022631132 0.06780717 -0.034387928 -0.016443418
000140 58 ca 60 bd 53 51 9e 3c d3 ac b8 bd 42 cc 40 3d
       -0.05488047 0.019325888 -0.090173386 0.047069795
000150 6c c4 9f 3d 4b 13 10 bd ce b7 f2 3c 24 af 83 3d
       0.078011364 -0.03517465 0.02962866 0.0642989
000160 df 20 aa bd 51 a9 7b 3d 74 76 76 3d c9 19 dc 3d
       -0.08307051 0.06144077 0.06017156 0.10747106
000170 6d cc 89 bc bd 34 b3 ba 9e 3f c2 3c dc b0 1e 3d
       -0.01682111 -0.0013672333 0.023711976 0.038742885
000180 9d ce 90 3c f5 94 2b bd 82 11 37 3d 03 fc 14 3d
       0.017676646 -0.041890103 0.04469443 0.03637315
000190 6f 96 95 3d b8 c5 5b 3d 29 93 ff 3c f9 c6 0c 3d
       0.073040836 0.053655356 0.031198101 0.034369443
0001a0 82 4e ce 3c ef de 89 3a 69 5a a8 3c cf 40 5d 3d
       0.02518392 0.001051871 0.020550923 0.054016884
0001b0 ab d5 12 bc 05 26 77 bd 8c 26 11 3d a9 a6 a7 3d
       -0.008962075 -0.060338993 0.03543715 0.08186085
0001c0 e8 64 03 3d 63 3d 34 bd d6 e4 c1 3c db 9b 81 3d
       0.032078654 -0.044003855 0.023668688 0.06328555
0001d0 c0 ee 5c 3d d8 33 57 bd 77 ff 08 bd d4 10 ea 3c
       0.053938627 -0.052539676 -0.033446755 0.028572477
0001e0 32 30 bb bd 9d a3 cf 3d 41 c2 8d bd d3 d0 cb 3b
       -0.09140052 0.10138629 -0.069218166 0.006219962
0001f0 f7 18 4b 3d 91 10 a6 bc 3d 44 2a bd 43 e2 37 bc
       0.049584355 -0.020271571 -0.041568983 -0.011223379
000200 b0 1f c7 bc 26 20 d4 3d 0e 11 89 bd 62 d1 52 bd
       -0.024307102 0.10357694 -0.06692706 -0.051469214
000210 14 3c c5 bc 0d 08 34 bd 5b 4b 3e 3b 79 ff 29 bd
       -0.024076499 -0.04395299 0.0029036615 -0.041503403
000220 53 8b 44 bd d1 bc 71 3d 6b d8 1f bd 37 d5 bb 3c
       -0.047984432 0.05901796 -0.03902475 0.022928817
000230 c7 00 08 3d ec 38 f4 3c 9c bc 5d 3d 43 2c 94 3d
       0.033203866 0.029812299 0.05413495 0.07235005
000240 1b 4a a9 bd 03 ec 88 3c 85 5d 13 bd 9f 36 02 bb
       -0.082660876 0.016714102 -0.03597786 -0.0019868982
000250 03 7c 69 3d 9f 0a a7 bd 82 6c d4 3c a5 5b 30 bc
       0.057003032 -0.08156323 0.025930647 -0.010764037
000260 0e 80 83 3d fa 3f 51 bd 2c 33 09 3d 23 1e af 3b
       0.06420909 -0.051086403 0.033496067 0.0053441687
000270 14 10 8e bd c2 eb e7 3b 73 bf ac 3c d5 b6 27 bd
       -0.069366604 0.007077665 0.021087384 -0.040945847
000280 5e 23 4d bd 45 eb 8d 3d 19 d1 49 bd 68 f7 5e bd
       -0.050082557 0.0692964 -0.049271677 -0.054435164
000290 1c 07 67 3c a6 98 ad 3c 88 c2 37 bd f7 df a5 3a
       0.014100816 0.021190953 -0.044863254 0.0012655248
0002a0 cd a9 55 bb fe 06 92 bd bb 90 1e 3d 50 15 93 3d
       -0.003260243 -0.0713024 0.038712244 0.071817994
0002b0 a5 14 dc bc 82 6f ae bb e8 12 4e 3d a2 4d 6c 3d
       -0.026865313 -0.0053233514 0.050311 0.057691224
0002c0 a3 b5 af bc 53 45 89 bd 96 7b ad 3d 2e 0a 53 bd
       -0.021448916 -0.06702676 0.08470838 -0.05152338
0002d0 1f 57 69 3d e8 cf b0 3c fc 1b 80 3c ef 33 99 bd
       0.05696785 0.021583512 0.015638344 -0.07480609
0002e0 d6 9f db 3c d2 da 4f 3d 0d f8 89 bd 5c be a9 bd
       0.026809614 0.050745793 -0.06736765 -0.08288261
0002f0 12 eb a6 3d 9a a2 1c 3b 18 db 95 bd 18 07 b6 3d
       0.08150305 0.002390063 -0.073171794 0.08888072
000300 d9 b1 5f bc c4 5a a3 bd b5 d6 d3 3c 9f fb 50 bd
       -0.013653242 -0.079762965 0.025859216 -0.051021215
000310 90 cb 75 3d 85 eb 82 3d 30 b1 53 bd f8 0f 30 3d
       0.060008585 0.06392578 -0.05168265 0.04298398
000320 71 a7 01 3c c2 b9 9c 3d c9 03 5f bd f6 ff f5 bb
       0.007913456 0.07652618 -0.05444697 -0.0075073196
000330 12 74 0a bd 00 1d b0 bd 0e 23 10 3d 44 b1 80 3d
       -0.0338021 -0.08599281 0.03518968 0.06283811
000340 3a c9 74 3d 22 86 91 3d c4 70 a1 3d e9 69 17 bd
       0.059762217 0.07105662 0.078828365 -0.03696624
000350 fd 05 3d 3d 04 05 8b 3d 35 f8 19 3d b2 63 73 3d
       0.04614829 0.06788066 0.037590224 0.05942125
000360 38 0c 10 bd b6 e7 a8 3d d5 c7 2a 3d d4 2e aa bd
       -0.035167903 0.0824732 0.04169448 -0.08309713
000370 8a 65 a5 bd 3c 7c 1c bd a6 ee 8a bd ab c6 54 3d
       -0.08076008 -0.038204417 -0.067838 0.051947277
000380 ba 66 23 bd 10 f2 8b 3c 30 66 9c 3d e7 d6 97 3d
       -0.03989289 0.017083198 0.07636678 0.07414036
000390 a2 0d a9 bd 31 1e 62 3d a1 b8 8f 3d 08 d0 49 3d
       -0.082545534 0.055204574 0.07017637 0.04927066
0003a0 a3 35 24 bd 3b ca 8e 3d ed e5 b3 3d b8 94 9f bd
       -0.040090214 0.06972166 0.08784089 -0.07792038
0003b0 e4 7f 73 bd 90 df a3 bd f6 4a 30 3d bb 72 97 bb
       -0.059448138 -0.080016255 0.04304024 -0.0046218312
0003c0 73 82 78 3d 21 0a 77 3d 4c 68 37 3d 29 0a d0 3b
       0.06067128 0.060312394 0.0447772 0.0063488674
0003d0 ba 6b ba bc f0 dd bb 3b fc a6 64 3d 29 13 73 bd
       -0.022756446 0.005733244 0.05582331 -0.059344444
0003e0 52 a4 98 bc 92 18 d2 bc 35 86 01 3c 5c db 21 bd
       -0.018633042 -0.025646482 0.007905533 -0.039515838
0003f0 29 09 c7 bb 68 ee c6 bc 2f bd a5 3d 41 06 2f bd
       -0.00607409 -0.024283603 0.080927245 -0.042730574

conv1.bias f4 [5]
000000 88 b5 e7 3b 5f 80 a2 3d f6 5d 6a 3d b0 f7 d3 bc
       0.0070712008 0.07934641 0.057218514 -0.025874943
000010 65 50 51 bd
       -0.05110206

bn1.weight f4 [5]
000000 a7 31 6a 3f ea 6e 1d 3e 28 8b 25 3f 7b 4a 67 3d
       0.91482013 0.15374342 0.6466546 0.056467514
000010 d9 2f ea 3e
       0.4573963

bn1.bias f4 [5]
000000 ef 3d b2 bc be c7 6e bb ae 29 ce 3c 7d fb f7 3c
       -0.021758048 -0.0036434974 0.025166359 0.030271286
000010 4d 8e 40 bb
       -0.0029381693

bn1.running_mean f4 [5]
000000 d6 21 e2 3f 90 90 d6 3e 7e 5c 8f 3f 77 31 7b 3f
       1.7666576 0.41907167 1.1200101 0.9812235
000010 49 c3 7a 3f
       0.9795423

bn1.running_var f4 [5]
000000 84 95 3b 41 e4 3d f1 3e 97 8f 7d 40 df 36 1c 40
       11.724003 0.4711753 3.961889 2.440849
000010 b6 70 c4 3f
       1.5346897

conv2.weight f4 [1, 5, 1, 1, 1]
000000 3e 89 48 be 95 0d 21 bd 59 b2 be 3d e1 b8 5e 3e
       -0.19583604 -0.039319593 0.09311361 0.21750213
000010 7b 8c d2 bb
       -0.006425438

fc1.weight f4 [3, 460]
000000 48 41 80 3c d5 ab b4 3a 81 0e e5 bc 62 4a b6 3c
       0.015656129 0.001378412 -0.027961018 0.022252265
000010 b1 55 ff bb 0d 87 9b bc 3a 9a 0d bd 36 f3 45 bd
       -0.0077921976 -0.018985296 -0.03457091 -0.048327647
000020 9e 8c 72 bd 90 b3 a4 3c 4b 21 4a bc 83 bb 1a 3d
       -0.059216134 0.020105153 -0.012337039 0.03777648
000030 2c d3 5c bc da a0 75 3d 7a 80 82 bd 8f c4 5a bc
       -0.013478082 0.059967853 -0.06372161 -0.013352527
000040 c2 bf 0a bb 6c e5 5e bd 32 f9 25 3b 8c c7 1f bc
       -0.0021171425 -0.054418012 0.0025325534 -0.0097521655
000050 9f a3 66 bb 2f 83 5e 3d 82 09 44 bd b4 b8 f9 3c
       -0.003519274 0.054324325 -0.04786063 0.030483581
000060 b1 7f 9a 3c 07 05 1a 3d 8e 1f af 3c 6d 31 a8 bb
       0.018859716 0.03760245 0.021377351 -0.005132845
000070 da de 94 3c 2a f5 53 bc b2 80 cb bc b2 f4 f5 bc
       0.01817267 -0.01293687 -0.02484164 -0.030023906
000080 e3 dd 09 bc 08 ef 40 bc d0 8f 4b 3b ac c6 83 3b
       -0.008414718 -0.0117757395 0.003106106 0.0040214863
000090 9e f0 1a bc b0 7c 8d bd 1c ef 0f 3d d2 7b cc 3c
       -0.009456782 -0.06908548 0.03514014 0.024961386
0000a0 ee 2c 56 bc c2 2d 13 bd 37 f2 27 3d 84 47 00 3d
       -0.0130722355 -0.03593231 0.04100248 0.031318203
0000b0 e4 96 aa 3c 07 0c 51 3c 63 1f ad 3c 7c af 9f 3c
       0.020823903 0.012759215 0.02113313 0.019492857
0000c0 c7 64 7c bd 8f 2c 19 3d a5 3a 18 3d 5b 6a e7 bc
       -0.061619546 0.03739601 0.037165303 -0.028248956
0000d0 77 df 8a 3d aa 05 46 bd ba 4b 2d bb 66 80 a5 3b
       0.06780904 -0.048345245 -0.0026442842 0.0050507067
0000e0 7b 7c 05 bc 1e b4 cb bc 00 99 2a 3c 86 92 9b 3c
       -0.008147354 -0.02486616 0.010412455 0.018990766
0000f0 82 5d 1c bc 33 ba 40 bd 65 c3 77 bc 0b 22 e1 3c
       -0.009543778 -0.047052573 -0.015122269 0.027482053
000100 67 7a 35 bb 01 0b f4 bc 8a 87 b0 3c 28 b4 2b 3d
       -0.0027691366 -0.029790403 0.021549005 0.041919857
000110 0f 14 28 3d 0f 30 e0 39 2b 7b c6 ba aa ab e1 3c
       0.041034754 0.00042760416 -0.0015142908 0.027547676
000120 dc 98 07 3d b1 6b 60 b9 6e cc 5c bc 97 b0 b1 3b
       0.033104762 -0.00021402423 -0.013476474 0.0054226625
000130 e9 d4 20 3c 1c f9 26 bd c1 5c 8d bc 84 e4 59 3d
       0.009816387 -0.040764913 -0.017256143 0.053196445
000140 cd 27 b4 3d 22 8c 00 3d 30 da 76 3c 86 fa 36 3d
       0.08796654 0.03138364 0.015066668 0.04467251
000150 29 8b 45 3d af 24 df 3c 11 f5 2e bc 26 7d 86 3c
       0.048228417 0.027239172 -0.010678546 0.016417097
000160 32 af eb b8 33 b9 80 3c ed 11 aa bc 8e 9e a0 bb
       -0.00011238306 0.01571331 -0.0207605 -0.0049017137
000170 90 a6 a2 bc 7e 9b 49 bc d3 63 f6 bb 84 c1 2e bb
       -0.019854814 -0.012305139 -0.007519224 -0.0026665637
000180 67 f6 6f 3c db f3 cc bc 8b a1 9d bb fb 7d f2 ba
       0.014646149 -0.025018623 -0.004810517 -0.001850068
000190 93 fc 06 bd 95 ed 9d 3c df 7c 0f bc d0 26 af bc
       -0.032955717 0.019278327 -0.008757799 -0.021380812
0001a0 5b bc 64 3d 9b a1 21 3d 7f dc 68 3d 58 e4 01 bd
       0.055843692 0.03946076 0.056850906 -0.031711906
0001b0 8d ea 09 3d 20 2b 2b 3b e4 89 83 3d d7 45 2e 3d
       0.03367095 0.0026118234 0.06422785 0.042547073
0001c0 b1 14 4d 3d 7b 9f 6f bd ab 1e 95 3b cf 12 59 3d
       0.05006856 -0.0585017 0.004550775 0.052996453
0001d0 88 f8 ce bc 39 9e a6 bc 91 ba 6f bb f5 b2 44 3d
       -0.025264993 -0.020339118 -0.0036579708 0.04802223
0001e0 1b ec 2d bd 17 6b 1a 3d 55 da 1c bb 08 3d fe 3b
       -0.042461496 0.037699785 -0.0023933847 0.0077587403
0001f0 08 bb 8c bc 72 53 95 bc 77 84 7c bd 33 42 08 3d
       -0.017179027 -0.018228266 -0.061649766 0.033266257
000200 c7 f1 50 bd 58 fa a1 bb e3 24 17 bc f1 b1 bb 3a
       -0.051011827 -0.0049431734 -0.009225103 0.0014319998
000210 45 9d 31 3c 9b c3 ad 3c ca e0 07 bd 81 71 87 3c
       0.010840719 0.021211436 -0.03317336 0.016533615
000220 da 1b 17 3a 92 eb 47 bd d5 d4 a0 bb 51 f6 12 bd
       0.0005764343 -0.04880864 -0.004908184 -0.035879437
000230 45 88 44 3d 62 fb 02 bd 31 82 a7 bc a1 df 44 3b
       0.04798152 -0.03197802 -0.020447822 0.003004052
000240 77 c0 93 bc 99 9b e8 3b 7c 8c 0f 3d f8 63 75 3b
       -0.01803611 0.007098627 0.035046086 0.003744362
000250 2f fe 62 bd 54 53 c2 3c c5 e6 54 3c cf b6 9a 3d
       -0.05541819 0.023721375 0.012994473 0.07554399
000260 bd 2b 62 bd 74 e3 7a bc 92 08 dd bc a9 df 9e bc
       -0.055217493 -0.015313018 -0.026981626 -0.019393759
000270 73 af 87 3d e3 84 0a bc cf 28 89 3c 3c 41 b9 bc
       0.06625261 -0.008454534 0.016743092 -0.022614114
000280 27 f1 67 bd 1d 53 3c 3b c1 db 0b bd bb 7e c8 3c
       -0.056626465 0.0028736063 -0.03414512 0.024474492
000290 88 bc 03 bc 61 22 43 bd 56 19 ca 3a 7c 3c 26 3c
       -0.008040555 -0.04764021 0.0015418928 0.010146257
0002a0 f1 26 25 bc db 86 3b bc e6 14 0a bd 21 55 84 3c
       -0.010080085 -0.011445726 -0.033711337 0.016153874
0002b0 52 f7 9e bc d9 9d 0b 3d 52 56 53 bd ef fa d2 bc
       -0.01940504 0.034086082 -0.051595993 -0.02575442
0002c0 12 d8 a0 3c 00 7b 8d bb 2b 91 3b bd fa 4b da 3c
       0.01963428 -0.0043176413 -0.04579274 0.026647557
0002d0 1c 0e 86 bb b9 6e 48 bc 20 8d 9d 3c c7 c5 3f 3c
       -0.0040910374 -0.01223343 0.019232333 0.011704869
0002e0 71 cc 1d 3d 81 4c 40 3d 61 66 57 bc ba 60 49 3a
       0.03852505 0.04694796 -0.013146968 0.0007681955
0002f0 c8 53 bb bc 62 cc 7e 3d 65 4f 0e bc 54 d7 08 bd
       -0.022867098 0.062206633 -0.008685921 -0.033408478
000300 23 0b 1f bd 8f 62 f7 3c 38 a1 dd bc 73 9e f7 bc
       -0.03882898 0.030198364 -0.027054414 -0.030226922
000310 79 90 48 bc 56 f9 7b 3d 4a 81 26 bd 8c 37 51 bd
       -0.012241476 0.061517082 -0.040650643 -0.051078364
000320 20 e9 0f bd 58 db 86 bc 0a a9 e9 bb 04 f4 e2 3b
       -0.035134435 -0.016462013 -0.0071307467 0.0069260616
000330 0f d3 ce 3c 5c 7d 83 bc 8e ba aa bb 4b 85 bb bc
       0.025247125 -0.016050987 -0.0052102273 -0.022890707
000340 ca b7 47 3c c5 88 a9 bc e3 7c bd 3c 25 3c af 3c
       0.012189815 -0.0206951 0.02313084 0.021390984
000350 45 7e 3b 3d f2 31 01 bc 83 c8 22 3c 8a b1 4f 3d
       0.045774717 -0.007885443 0.009935501 0.050706424
000360 3a 4c 1c 3d f0 7d 62 bc cf 69 a6 bc 0f eb 81 3d
       0.038158633 -0.013823971 -0.020314125 0.06343662
000370 de 7b 2f 3d 01 f0 3f 3d cc f6 15 bd 25 ff 0c bc
       0.04284274 0.046859745 -0.036612317 -0.008605753
000380 8e 2b 02 3d fa 1c 58 bd fc 44 55 bd e2 8c 7a 3b
       0.03177982 -0.05276201 -0.05206774 0.0038230945
000390 a6 cb 9b bc b1 4e 83 bb e3 a0 8d bc bb 9c 48 3d
       -0.019018006 -0.0040071835 -0.01728863 0.048977595
0003a0 9b e8 80 3c dc 13 3c bc d2 7c 7d bc 41 64 65 bd
       0.015735915 -0.011479344 -0.015471654 -0.056003813
0003b0 b0 63 4d 3d 9d ee 04 3c bb 64 53 bc a7 cf 15 bd
       0.050143898 0.00811353 -0.012902434 -0.036574986
0003c0 b9 94 c5 bc 7d 14 fc 3c c1 32 75 bd e4 ea 45 3c
       -0.024118768 0.030771488 -0.059862856 0.012079928
0003d0 e6 08 9c 3c 5e 14 0c 3d b3 50 9c bb 45 51 4e bc
       0.019047212 0.03419911 -0.0047703623 -0.012592618
0003e0 9c f5 c3 bc 45 8c 01 3d e0 ea 5b bc 78 15 d5 3b
       -0.023920827 0.031627912 -0.013422698 0.0065028034
0003f0 2b 41 8e 3c 71 75 02 3d 06 27 42 bd 84 4c fa bc
       0.017365059 0.031850282 -0.047400497 -0.030554064

fc1.bias f4 [3]
000000 be 3a 0d be d9 77 e3 bc df aa cd be
       -0.1379194 -0.027767109 -0.40169427
