scripts/model-cnn3d-epoch-40.pth (torch_old, 19549 bytes, 16 tensors)

momentum_buffer f4 [5, 1, 65, 1, 2]
00000000: c6fd 933d 5452 e73a ffdb 933d 60ef dd3a
00000010: 45b7 933d f2d1 d43a f78f 933d c62b cc3a
00000020: b867 933d ec0b c43a 6c3f 933d 458f bc3a
00000030: 3118 933d 2ed0 b53a a4f2 923d f0e7 af3a
00000040: 0fcf 923d 7102 ab3a b4ad 923d 9e1d a73a
00000050: d98d 923d 8258 a43a 746f 923d f8b7 a23a
00000060: 1b52 923d a539 a23a d334 923d 48d8 a23a
00000070: 7215 923d a8a6 a43a 17f3 913d 8c7e a73a
00000080: e8cb 913d 006a ab3a 139f 913d 7650 b03a
00000090: e86a 913d 7e30 b63a 652e 913d e5f4 bc3a
000000a0: c3e8 903d 969d c43a 2398 903d 900f cd3a
000000b0: d53a 903d 4051 d63a 71d0 8f3d 0659 e03a
000000c0: 9557 8f3d 8030 eb3a e2cf 8e3d c2a3 f63a
000000d0: 4e38 8e3d b666 013b 6f90 8d3d 81d1 073b
000000e0: 43d7 8c3d cc87 0e3b 600d 8c3d 8a95 153b
000000f0: 3b34 8b3d 19e6 1c3b b24a 8a3d c769 243b
00000100: 3a52 893d 2a2c 2c3b f54c 883d 2f0c 343b
00000110: 323b 873d aaff 3b3b 251e 863d ad01 443b
00000120: b6f7 843d 1ef0 4b3b 47c8 833d 3bc2 533b
00000130: d491 823d 6b68 5b3b eb55 813d 08d7 623b
00000140: 4a16 803d 3603 6a3b acaa 7d3d 02df 703b
00000150: ac28 7b3d 5d55 773b 1bab 783d fe4e 7d3b
00000160: 2537 763d 756c 813b 00d1 733d d2ec 833b
00000170: 0e7b 713d b621 863b 443a 6f3d d908 883b
00000180: 1911 6d3d 629c 893b d003 6b3d 22d1 8a3b
00000190: d114 693d caa2 8b3b 3845 673d 900a 8c3b
000001a0: e696 653d 2f05 8c3b 910a 643d 478c 8b3b
000001b0: d4a1 623d 829c 8a3b e65f 613d c727 893b
000001c0: 7b42 603d b429 873b a94b 5f3d 12a0 843b
000001d0: 9a7d 5e3d 5986 813b acd5 5d3d bfb0 7b3b
000001e0: 8955 5d3d 4335 733b d4fd 5c3d 9f93 693b
000001f0: 58cc 5c3d 84d9 5e3b b2c2 5c3d 1018 533b
00000200: e0df 5c3d 0457 463b 5c42 59bb 3af0 553c
00000210: 1876 57bb 6856 543c fc87 55bb 33c8 523c
00000220: 2a78 53bb 4f46 513c d449 51bb e6d2 4f3c
00000230: fa01 4fbb 966e 4e3c 9ea2 4cbb ff1a 4d3c
00000240: 3b29 4abb 90d9 4b3c 169b 47bb 43aa 4a3c
00000250: 48f9 44bb c98e 493c 9346 42bb 9387 483c
00000260: 1f8a 3fbb 5695 473c 85c2 3cbb 0cb7 463c
00000270: fcf2 39bb 66ed 453c 411d 37bb eb37 453c
00000280: 4649 34bb b996 443c 1a73 31bb 7c08 443c
00000290: 37a2 2ebb 518d 433c d5d7 2bbb d023 433c
000002a0: 6015 29bb 2bcb 423c af5a 26bb fd82 423c
000002b0: 7eac 23bb e749 423c bb0c 21bb 001f 423c
000002c0: e17d 1ebb 3001 423c dc01 1cbb 18ef 413c
000002d0: d097 19bb ace7 413c 1e3b 17bb 52ea 413c
000002e0: a7e7 14bb 59f4 413c 829d 12bb 6405 423c
000002f0: 1658 10bb 481b 423c 220f 0ebb 3634 423c
00000300: 0cc6 0bbb 464f 423c 1277 09bb ec6a 423c
00000310: f81a 07bb ca85 423c 43af 04bb 3e9e 423c
00000320: 2935 02bb 68b4 423c 5648 ffba d2c5 423c
00000330: 24f8 f9ba 2ad2 423c d67d f4ba f0d8 423c
00000340: 66c6 eeba 36da 423c 3fe7 e8ba b8d3 423c
00000350: cdd4 e2ba 62c6 423c 469b dcba bdb1 423c
00000360: 3837 d6ba 7895 423c 86bf cfba 9e71 423c
00000370: 7439 c9ba 2c47 423c 66ae c2ba 5216 423c
00000380: a02f bcba 36df 413c c2c8 b5ba 64a2 413c
00000390: 0080 afba 0c5f 413c f665 a9ba 3b16 413c
000003a0: 0c92 a3ba 26c8 403c aa0a 9eba 5e73 403c
000003b0: cede 98ba 0d19 403c 722c 94ba 1cb9 3f3c
000003c0: c8f9 8fba f853 3f3c 255e 8cba b4e8 3e3c
000003d0: 076a 89ba 6879 3e3c 3529 87ba f804 3e3c
000003e0: fdac 85ba 6c8c 3d3c 46f0 84ba 3a11 3d3c
000003f0: 7cfd 84ba dc94 3c3c 2dd6 85ba 2a18 3c3c
0.07226138 0.0017648437 0.07219695 0.0016932301 0.0721269 0.0016236885 0.072051935 0.001557701
0.07197517 0.0014957166 0.07189831 0.0014385959 0.071823485 0.0013871246 0.07175186 0.0013420563
0.071683995 0.0013046992 0.071620375 0.0012749915 0.071559615 0.0012538584 0.07150164 0.0012414446
0.071445666 0.0012376799 0.07138982 0.0012424076 0.071329966 0.0012561874 0.07126444 0.0012778803
0.0711897 0.0013077855 0.07110419 0.0013451714 0.07100469 0.001389995 0.07088927 0.0014416246
0.07075646 0.0015000578 0.07060268 0.0015644897 0.07042471 0.0016351119 0.07022179 0.0017116375
0.06999127 0.0017943531 0.06973244 0.0018817114 0.06944333 0.0019745058 0.06912314 0.002072424
0.068769954 0.0021748422 0.068384886 0.0022824728 0.067970715 0.002394086 0.06752528 0.0025087462
0.067051366 0.002627144 0.066553034 0.0027473082 0.066030875 0.0028686323 0.06548718 0.0029908225
0.064925596 0.0031118463 0.06434684 0.0032311815 0.06375471 0.0033478986 0.06315216 0.0034613032
0.06254251 0.003570748 0.061930344 0.0036754017 0.061318085 0.003774009 0.060710054 0.003865182
0.060111184 0.0039496967 0.05952549 0.004026034 0.058955245 0.004093374 0.058405176 0.0041514453
0.057877634 0.0041995505 0.057376683 0.0042363564 0.056904618 0.0042613493 0.056462497 0.00427372
0.05605211 0.004273079 0.05567414 0.0042586657 0.055330113 0.004230083 0.055023097 0.00418565
0.0547509 0.0041248444 0.054515515 0.004047402 0.054319 0.003952783 0.05415885 0.003840491
0.05403665 0.0037110604 0.053953007 0.0035640968 0.053905815 0.003400416 0.053896613 0.0032210387
0.05392444 0.0030264268 -0.0033151126 0.013057763 -0.0032876786 0.012960054 -0.0032582274 0.012865114
-0.0032267668 0.0127731105 -0.0031934874 0.012684559 -0.0031586871 0.012599608 -0.0031224857 0.012518643
-0.003084733 0.012442008 -0.0030457429 0.012369695 -0.003005581 0.012302109 -0.0029644116 0.012239355
-0.0029226614 0.012181601 -0.0028802466 0.012128603 -0.002837359 0.012080526 -0.002794102 0.012037258
-0.0027509495 0.011998826 -0.0027076663 0.011964913 -0.002664698 0.011935548 -0.0026221175 0.011910394
-0.0025800094 0.011889259 -0.0025383641 0.01187205 -0.002497464 0.01185844 -0.0024574238 0.011848211
-0.0024183916 0.011841103 -0.002380482 0.01183679 -0.0023436435 0.01183502 -0.0023076008 0.0118356515
-0.0022721083 0.011838042 -0.0022371714 0.011842106 -0.002202516 0.011847325 -0.00216765 0.011853268
-0.0021327762 0.011859721 -0.0020975512 0.0118663125 -0.002061544 0.011872718 -0.0020246066 0.011878548
-0.0019868112 0.0118838325 -0.0019476514 0.011887984 -0.0019071144 0.011890927 -0.0018653225 0.011892542
-0.0018217086 0.011892846 -0.0017769112 0.011891298 -0.0017305851 0.011888118 -0.0016830943 0.011883196
-0.0016343361 0.011876456 -0.0015849925 0.011867909 -0.0015352205 0.011857789 -0.0014853 0.011846142
-0.0014357455 0.011833003 -0.0013869035 0.011818502 -0.0013389587 0.011802446 -0.0012924063 0.011785085
-0.0012479438 0.011766469 -0.0012057621 0.011746256 -0.0011663081 0.011724723 -0.001130475 0.011701848
-0.0010984475 0.011677735 -0.001070921 0.01165216 -0.0010483869 0.011625625 -0.0010311963 0.011597864
-0.0010198649 0.011569124 -0.0010142408 0.011539752 -0.0010146345 0.0115101 -0.0010210924 0.011480371

momentum_buffer f4 [5]
00000000: 195d e13e a7e8 0c3e 2b35 afbe af50 19bf
00000010: 1f83 903c
0.4401634 0.13760625 -0.3422025 -0.5988874 0.017640648

momentum_buffer f4 [5]
00000000: 5920 86bf b9b2 89be 80b3 453f d27c c13f
00000010: d86a 11be
-1.0478622 -0.26894167 0.7722702 1.5116217 -0.14200914

momentum_buffer f4 [3, 460]
00000000: ad96 b73e be6c 993d 292d 2dbe 6edc f8bd
00000010: 3180 bfbe 715e 3bbe 9bc3 9bbe 311d 49bf
00000020: 17a9 01be ae1b 3e3e 5467 36be f04f 703d
00000030: 3f4b 8ebe 4ade b8be 55e8 a3be a4fb 04be
00000040: c945 e1bd c8c5 a9be 801d b2bb e426 80be
00000050: d911 cbbe f15c d2be 1d17 bebe 6e69 06bf
00000060: 378b a6bd 86c3 70bf a3f3 16be 31c3 a9be
00000070: 70c1 73bd 3135 6a3d faf1 fbbd c27c 25be
00000080: 2feb fc3d 2f37 9bbe 210f 4bbf 8909 14be
00000090: 4257 01be 75c9 bdbd 2587 033e c07f c2be
000000a0: 40e4 8fbe 8e33 f53c aeec 263e d60e bfbb
000000b0: afe7 98be 028b 9cbe 2f7a 0abf 9080 59be
000000c0: f061 a93b 2154 36bf aa1a 4bbe 247a 9dbe
000000d0: d63a e7be c3b2 19bf b3f6 b7be ed83 09bf
000000e0: ff68 1cbf c03a c2bd 7502 a9be 3577 723e
000000f0: ebd0 9fbe c707 0cbe 70d2 06bf af02 5bbc
00000100: 64ba c8be 1612 32bf c9fb 983e bdad b83b
00000110: 268f a9be 7a62 b5bd 79bd 0abf 5590 e4bd
00000120: 9ca9 4ebf 9929 21bf b691 2ebe 5a95 9cbe
00000130: dcd8 9cbe 4732 9f39 bb4b a1be 69e3 98be
00000140: a752 94be 7064 0abf fff0 06bf aea3 a9be
00000150: c627 113e 002a dabe a5e5 54bd 3bfb 3fbe
00000160: 0d40 42bf b720 dcbe d008 f1bd 3833 b6be
00000170: 625b ecbe 7693 8ebe ce62 623e 2814 26bf
00000180: 5675 53be bf20 6bbe 43fc bf3e e825 3abf
00000190: f222 cabd 099e 4ebe 15de 4dbd ee84 00bf
000001a0: 06f7 19bf 55f9 13bf 4218 0ebe d839 9dbd
000001b0: de4c eabe 7f0f 0a3e 3086 09be 3673 64be
000001c0: 4e71 4ebe a002 12be 0899 91be b6b8 54be
000001d0: c782 13bf 7c8b 7bbe 25c7 3d3e be59 7cbe
000001e0: 40b2 ccbc c206 cbbd 0d82 4c3e 7a0b 76be
000001f0: add5 81bf c48d 1ebd ee20 23be ea7f aabe
00000200: e8c2 00be d3f2 7cbe 4f26 f4be 7362 2ebe
00000210: 0822 02bd 92c8 39bf 0112 1c3e 6627 c3bd
00000220: f762 a7be 056f 97be a4ac 01bf f09a 33be
00000230: a050 49be 0e03 57be 9929 5d3d 1093 acbd
00000240: 487f 03bf 6803 7fbe 3ea5 913e cb19 8abe
00000250: a843 93be b393 013e d9a3 343c 75f7 f2bd
00000260: 7755 22bf 272f 773d 3cf8 22bd f19d 18bf
00000270: ba72 23be 8b6d 963e 21a5 1dbe 5ac8 b13d
00000280: c6e6 63be 3790 13be f832 acbe e27a 08bf
00000290: cd47 1ebf 96c7 593c a4be b0be 6a76 44be
000002a0: 9983 c8be 701f 98bd be6a 74be 465f 1a3d
000002b0: bf0f d9be ca61 8bbe 1239 44bf 32db a9be
000002c0: 7f4c 17bf adf8 7bbe 5a92 2dbf 7632 48be
000002d0: a56a 91be be4f 64be 8233 6abe fed7 4cbf
000002e0: 1b4b 8dbe 20b0 f3be 5652 3e3e b81a 443e
000002f0: 9e7b 30be 2ef3 02bf 7886 bfbe a683 1fbf
00000300: 7c26 14bd b101 12bf a9b1 adbe 7cd8 0abe
00000310: 774c d9be 8629 c73d eafe 693e 380a 37be
00000320: ace7 543e a2c0 8e3e 7ff9 79bc 44cb ecbe
00000330: 38dd 04bf 9606 2cbe 2773 8bbe 2e43 15bf
00000340: a88c 47bf 2f13 4fbd 918b 3f3e 1816 603e
00000350: 8640 bfbe 98ff 0abf 5085 353e 089a 33bf
00000360: 4448 b5bb 5c5e 1c3e 00a7 193b c441 07be
00000370: e41a 2cbf cbed 7dbe 8cae 07be 76ed cebc
00000380: 80a6 2dbc 12db 2d3d 4ab1 763d 0ed4 fabe
00000390: c315 6fbf a56f 16bf f02f 66be ca48 81be
000003a0: 1ca4 043e 1aea 22bf 104a 42be 4cd3 8cbd
000003b0: db44 e03d 64b5 1cbf fcbb 39be 5d3d a9be
000003c0: 18d1 ebbe 58ff 82be ee7b 14bf 66e2 26be
000003d0: 0273 18be 2450 fbbd 7187 27be 18d9 d2be
000003e0: 142b 03bf 024d bbbe 304d 5c3c 62c5 a6be
000003f0: 5943 0bbd 18ad 1dbd b54c 81be bda5 d63c
0.35857144 0.07491444 -0.16911758 -0.121514186 -0.3740249 -0.18297745 -0.30422673 -0.7856017
-0.12662159 0.18565246 -0.17812854 0.058669984 -0.27791783 -0.36107093 -0.32013193 -0.12986618
-0.109996386 -0.33158708 -0.0054356456 -0.2502967 -0.39662054 -0.41086534 -0.3712701 -0.5250462
-0.08132022 -0.94048345 -0.14741378 -0.33156732 -0.05951065 0.057179634 -0.12302013 -0.16160873
0.12349545 -0.3031554 -0.7931996 -0.14456762 -0.12630942 -0.092669405 0.12844522 -0.3798809
-0.28103828 0.02993181 0.16301224 -0.005830626 -0.2986426 -0.30574805 -0.5409269 -0.21240449
0.0051691458 -0.7122212 -0.1983439 -0.30757248 -0.45162076 -0.60038394 -0.35930404 -0.5371693
-0.6109771 -0.09483862 -0.33009687 0.23678286 -0.3121408 -0.13674842 -0.5266485 -0.013367339
-0.39204705 -0.69558847 0.29879597 0.0056359456 -0.33117026 -0.088566735 -0.5419536 -0.11160342
-0.80727553 -0.629541 -0.17047772 -0.30582696 -0.306342 0.00030364303 -0.3150309 -0.29861
-0.2896931 -0.54059505 -0.5271148 -0.3313269 0.14175329 -0.42610168 -0.05197682 -0.1874818
-0.75878984 -0.4299371 -0.11769259 -0.35585952 -0.4616347 -0.2784688 0.22108003 -0.64874506
-0.20650229 -0.2296171 0.37497148 -0.7271409 -0.098699465 -0.20177473 -0.050260622 -0.50202835
-0.6014255 -0.57802325 -0.13876441 -0.076770484 -0.4576177 0.13482474 -0.13430095 -0.22309574
-0.2016041 -0.14258814 -0.28437066 -0.20773587 -0.57621425 -0.24564928 0.18532999 -0.24643609
-0.02498734 -0.09913398 0.19971485 -0.24027815 -1.0143334 -0.038709417 -0.1593053 -0.33300716
-0.12574351 -0.24702005 -0.47685477 -0.17029743 -0.031770736 -0.7257167 0.15241243 -0.09528999
-0.32692692 -0.2957689 -0.50654054 -0.17539573 -0.19659662 -0.20997259 0.05399475 -0.084264874
-0.5136609 -0.24903643 0.28446382 -0.26972803 -0.28762555 0.12653999 0.011025392 -0.11863605
-0.6341166 0.060347702 -0.039787516 -0.59616 -0.15961733 0.2938045 -0.15395023 0.08680792
-0.22256002 -0.14410482 -0.33632636 -0.53312504 -0.6182831 0.013292214 -0.34520447 -0.19185796
-0.391629 -0.07427871 -0.23868844 0.037688516 -0.42394826 -0.27223045 -0.7664958 -0.33175045
-0.591011 -0.24606581 -0.6780144 -0.195505 -0.28401676 -0.22296044 -0.22871211 -0.8001708
-0.27596363 -0.4759531 0.18586096 0.19150817 -0.17234656 -0.5115231 -0.3740728 -0.62310255
-0.036169514 -0.5703383 -0.33924606 -0.13559145 -0.4244115 0.09724717 0.22851148 -0.17874992
0.20791501 0.27881342 -0.015257238 -0.4624883 -0.51900053 -0.16799387 -0.27236292 -0.58305633
-0.77949 -0.050555404 0.18705584 0.21883428 -0.37353915 -0.54296255 0.17726636 -0.7015691
-0.0055322964 0.1527037 0.0023445487 -0.13208681 -0.6722853 -0.24797742 -0.13250178 -0.025259715
-0.010598779 0.04244525 0.06022767 -0.4898991 -0.9339258 -0.58764106 -0.22479224 -0.25250846
0.12953228 -0.6363846 -0.18973565 -0.06876239 0.10950633 -0.6121428 -0.18138117 -0.3305463
-0.46057963 -0.25585437 -0.580016 -0.16297302 -0.14887622 -0.12271145 -0.1636026 -0.41181254
-0.51237607 -0.3658219 0.013446137 -0.32572466 -0.033999775 -0.038495153 -0.25253835 0.026202077

momentum_buffer f4 [3]
00000000: 3150 14c0 5e9e 49bf 5e81 67be
-2.3173945 -0.78757274 -0.22607943

momentum_buffer f4 [5]
00000000: 832e c134 cae0 b232 86a8 8433 1176 2433
00000010: 7925 beb3
3.5982893e-07 2.082415e-08 6.177383e-08 3.8291606e-08 -8.854381e-08

momentum_buffer f4 [1, 5, 1, 1, 1]
00000000: 13ae 32c0 07ef 13bf 3ceb e7bf 6e90 a23d
00000010: 83a6 8fbe
-2.7918746 -0.577866 -1.8118663 0.07937704 -0.28056726

conv1.weight f4 [5, 1, 65, 1, 2]
00000000: e905 25bd 0ab0 e3bc 73a6 b6bb 1a23 8bbc
00000010: 2326 34bd 7730 4fbd ccd5 ea3b df45 b43c
00000020: e29a 1c3c 0361 16bb 9923 81bd bd24 5c3d
00000030: 8356 84bd 5081 5f3d 4ae9 0dbd 0a13 dbbc
00000040: ff94 cfbb 5ca1 593d 334d 3f3d 601d 79bd
00000050: 9c8e 453b 043d 8fbc 6e5a 9fbd 17fa 713d
00000060: 751f 963d ecca dd3c 4d20 6cbd 144b 51bd
00000070: 9639 3cbc ffc3 bf3c e617 22bc cc40 de3d
00000080: 3b04 d83c 942a 2c3d 6d7c 3ebd 352d d33d
00000090: 456e a5bd b8f5 373d 8761 03bd 2ad3 8b3d
000000a0: 9e42 9e3d 4046 ab3c 3912 7a3d 8c33 193d
000000b0: 8be6 943d 62fb 1abd 1103 e43b 28e7 673d
000000c0: a30c ac3d 0cc5 933d 00bd 5d3d c52a c6bc
000000d0: d8a0 a7bd 3b78 faba 28c7 a83d 0aef cc3d
000000e0: b0c9 143c 705d b43d 65c6 e43c 4987 d63d
000000f0: 32a5 48bd 2e3a e73b 31e6 2abd 2a1a f93c
00000100: 4a7b 893d 558f 9d3d ffef 09bc 4002 103c
00000110: 55d6 023c 5c41 463d 544a abbd 82d8 383d
00000120: 25ce 0a3d cdc0 a03d 4b57 2b3d 77a7 0b3d
00000130: bef0 3139 949c 8d3d c6ab 15bd 1325 78bc
00000140: 41d9 69bd 9398 a83c 9f52 bdbd c6c0 453d
00000150: af00 9b3d 414f 0bbd ef32 df3c 57f8 853d
00000160: 1f1f afbd 9504 803d 7040 6c3d 4630 de3d
00000170: faa9 9ebc ef0d d0b9 7df1 ac3c 0277 223d
00000180: 5722 763c f401 28bd 81fb 2b3d 425c 183d
00000190: 05f0 8f3d caf3 5e3d 0d8d e83c 9fc3 0f3d
000001a0: 91dc b63c b062 e33a 677d 903c 66dd 5f3d
000001b0: 9164 43bc d8b7 74bd e0cd 043d 12c7 a83d
000001c0: 56af ed3c f728 32bd d061 a83c 6490 823d
000001d0: 07f9 4f3d 0575 55bd 4729 16bd fd3b ed3c
000001e0: 07df c1bd 355a d03d 0a8b 94bd 81fd d53b
000001f0: 4853 3d3d 1ad3 a3bc 6e3e 38bd c2ff 33bc
00000200: dd7d e3bc c989 d43d 8b2b 88bd 9759 52bd
00000210: b49d c1bc d391 33bd ba76 5b3b 938a 29bd
00000220: 9bb5 42bd 7c30 723d 2600 1ebd 63ba bc3c
00000230: 2ddb 093d 1f1c f53c a598 5f3d 8f64 943d
00000240: 7d5b a8bd 4ecb 893c 547f 11bd 0599 f6ba
00000250: c65a 6b3d d9d3 a6bd 9e2a d83c 0eab 2ebc
00000260: 976f 843d 69d5 50bd f611 0b3d c963 b23b
00000270: e920 8dbd 631f eb3b b87a b03c 1853 27bd
00000280: af46 4bbd 911b 8e3d 99f5 47bd 8e9a 5ebd
00000290: 886f 6e3c b049 ae3c 0eea 35bd 2e53 b03a
000002a0: 753f 38bb f9df 91bd 4765 203d 4239 933d
000002b0: 3570 d8bc 2968 acbb 95e2 4f3d 0a87 6c3d
000002c0: f61b acbc b12c 89bd 7160 ae3d b0e1 52bd
000002d0: 851d 6b3d 2b0e b13c 92a1 833c 4f29 99bd
000002e0: 7c1d df3c b9e5 4f3d c91a 89bd 47be a9bd
000002f0: 07c6 a73d 4bf3 1b3b ad02 95bd f5fb b53d
00000300: 4404 59bc b86b a3bd cc21 d73c f728 51bd
00000310: d46a 773d 03cf 823d b618 52bd 6fcb 2f3d
00000320: 4bec 073c ba91 9c3d 507a 5dbd c4da f8bb
00000330: cbf2 08bd 4050 b0bd 8c9b 113d 9278 803d
00000340: 7938 763d 2248 913d 8923 a23d 42f0 17bd
00000350: 4f61 3e3d d1bc 8a3d d748 1b3d 70c9 723d
00000360: c6c6 0ebd d895 a83d b301 2c3d 5485 aabd
00000370: 95ce a4bd 3832 1dbd eb5d 8abd 0b08 543d
00000380: 0652 22bd 0b64 8a3c fee9 9c3d 5d6f 973d
00000390: 9490 a8bd 5047 613d d52e 903d 95f1 483d
000003a0: 3b57 23bd 7457 8e3d 034e b43d f70a a0bd
000003b0: 35be 72bd 3259 a4bd f2fd 303d e63e 9fbb
000003c0: 8626 793d 8a0a 763d 5ffd 373d 78df c73b
000003d0: c15f b9bc 6587 b33b cd1d 653d 3123 74bd
000003e0: 1ed5 97bc 9042 d4bc b6e7 023c 1ff5 22bd
000003f0: b3bf c4bb 2c2b c9bc 3ada a53d 2d29 30bd
-0.04028884 -0.027793903 -0.0055740415 -0.016984511 -0.043981683 -0.05058333 0.0071666 0.022005973
0.009558411 -0.0022946007 -0.06305618 0.053745974 -0.06461813 0.05456668 -0.03464631 -0.026742477
-0.0063349004 0.0531324 0.046704482 -0.06081903 0.0030144816 -0.01748515 -0.0778092 0.059076395
0.07330219 0.0270743 -0.057647992 -0.05109699 -0.011488339 0.023408888 -0.009893393 0.10852203
0.026369205 0.042032793 -0.04650538 0.10311357 -0.08077673 0.04491207 -0.03207543 0.06827386
0.0772755 0.020907521 0.061052535 0.037402675 0.07270535 -0.037837394 0.0069583734 0.056616932
0.08400848 0.07215318 0.054135323 -0.024190316 -0.081849754 -0.0019109318 0.08241111 0.100065306
0.009081289 0.08806884 0.027926633 0.10475022 -0.048985668 0.007056496 -0.041723434 0.030407984
0.06712969 0.07693354 -0.008419036 0.008789599 0.007985671 0.048402175 -0.08363786 0.045128353
0.033888 0.07849274 0.041831296 0.034095254 0.00016969719 0.069146305 -0.03654077 -0.015145558
-0.057091955 0.020580566 -0.09244274 0.048279546 0.0756849 -0.03401113 0.027245967 0.06541508
-0.08550858 0.06250874 0.05767864 0.10849051 -0.01936816 -0.00039683233 0.021111244 0.039664276
0.015022836 -0.041017488 0.0419879 0.03719736 0.07028202 0.054431714 0.02838757 0.03509867
0.022321971 0.0017348137 0.017637921 0.0546545 -0.011925832 -0.05974564 0.0324229 0.08241095
0.02901427 -0.0434961 0.020554453 0.063751966 0.0507746 -0.05211355 -0.03666046 0.028959269
-0.09466367 0.101734556 -0.07253082 0.006530464 0.046222 -0.019998122 -0.044981413 -0.01098627
-0.027769977 0.10377843 -0.0664893 -0.05135497 -0.023634769 -0.04384024 0.0033487515 -0.04139192
-0.047536474 0.05912827 -0.03857436 0.023038095 0.033656288 0.029920636 0.054588933 0.072457425
-0.08220575 0.016820576 -0.03552182 -0.0018813914 0.057459615 -0.081458755 0.026387509 -0.0106609
0.064665966 -0.050984774 0.033952676 0.005444024 -0.06891043 0.0071753724 0.021542892 -0.04085073
-0.049627956 0.069388516 -0.048818205 -0.054346614 0.014552958 0.021275371 -0.044412665 0.0013452524
-0.0028113995 -0.071227975 0.039159086 0.071886554 -0.026420692 -0.0052614403 0.050753195 0.05774597
-0.021009427 -0.06697977 0.085144885 -0.051484764 0.0574012 0.021613201 0.016068254 -0.07478582
0.027235739 0.05075619 -0.06694562 -0.08288246 0.081920676 0.0023796137 -0.07275901 0.088859476
-0.013245646 -0.0797953 0.026261233 -0.051064458 0.060404614 0.063871406 -0.051293097 0.04291862
0.008296083 0.07644983 -0.054071724 -0.0075944383 -0.03343467 -0.086090565 0.03554873 0.06272997
0.06011245 0.07093836 0.07916934 -0.037094362 0.04647952 0.06774295 0.037911262 0.059274137
-0.034857534 0.082317054 0.041993808 -0.083262116 -0.08047215 -0.03837797 -0.06756195 0.051765483
-0.039629005 0.016893407 0.07661818 0.07394288 -0.08230701 0.05499965 0.070401825 0.049058516
-0.03987811 0.06950274 0.08803942 -0.078145914 -0.059263427 -0.08024825 0.04321093 -0.004859793
0.060827754 0.060068645 0.044919368 0.0060996376 -0.022628667 0.005478787 0.055936623 -0.059603874
-0.01853424 -0.025910646 0.0079898145 -0.039784547 -0.0060042976 -0.024556719 0.08098264 -0.04300802

conv1.bias f4 [5]
00000000: 7bb5 e73b 5f80 a23d f65d 6a3d b0f7 d3bc
00000010: 6550 51bd
0.0070711947 0.07934641 0.057218514 -0.025874943 -0.05110206

bn1.weight f4 [5]
00000000: f3e0 663f b799 1c3e a5ca 253f 1f48 6d3d
00000010: be25 e93e
0.90186995 0.15293013 0.64762336 0.05793011 0.45536608

bn1.bias f4 [5]
00000000: c1c2 6fbc 1d75 40bb 03dc fb3c 5200 033d
00000010: 6ede 17b9
-0.014633835 -0.002936668 0.030744558 0.031982727 -0.00014483344

bn1.running_mean f4 [5]
00000000: bd57 fe3f f46c ed3e 7c4f 933f f717 823f
00000010: d3e8 743f
1.9870526 0.46372187 1.1508632 1.0163563 0.9566776

bn1.running_var f4 [5]
00000000: 58df 7041 b275 1f3f 9318 9e40 ce71 4340
00000010: c234 bf3f
15.054527 0.62288964 4.9405 3.053821 1.4937975

conv2.weight f4 [1, 5, 1, 1, 1]
00000000: 82c8 13be dcc3 18bd dcdf e33d f059 5a3e
00000010: aa6b a0bc
-0.14431956 -0.03729616 0.11126682 0.21323371 -0.019582588

fc1.weight f4 [3, 460]
00000000: 016b bb3c ee83 0cbc d020 2abd 6fd8 923c
00000010: dba6 3fbc 635e 82bc f8b5 cbbc e785 2cbd
00000020: 7764 93bd 25a4 0d3d e93f 84bc 4d43 123d
00000030: 8d3c 69bc c606 823d efc3 90bd bb15 84bc
00000040: 1081 273c c8cb 65bd b98a 77ba be70 13bc
00000050: 86fe 32bc 447d 4c3d 0f47 40bd b0e3 eb3c
00000060: ebb3 cc3c 3d8f 2b3d 097e d93c 28c8 5bbc
00000070: 401a 5b3c 288c 06bc 5a50 3abd a1c3 19bd
00000080: 196f 8bbc 6f51 c23a af15 f93b 7a94 0d3b
00000090: 9006 47bc 981c a5bd 1d87 cf3c c961 113d
000000a0: 662d abbc 8544 bebc 89b7 3e3d baf3 223d
000000b0: 9140 823c 2512 063c 6729 ff3c 069a 4d3c
000000c0: 331d 31bd 1fe5 003d 3c25 3c3d 5fee 7ebc
000000d0: d006 963d 8998 46bd a568 923b a518 8f3b
000000e0: 5245 0fbc dc7e 13bd e1d4 2a3c e476 3bbb
000000f0: 897d 45bc 8464 22bd d9bd 54bc c3c5 b43c
00000100: 60d3 30bc 3f9b 99bc 0e06 d33c d249 3a3d
00000110: 7a8f 233d 7b94 2b3c 7bf9 d83b 2c8a d13c
00000120: ce66 b03c 9a90 8a39 050a c3bc 9bb1 bfba
00000130: 4eed 053c 2baf 2bbd 7afd f4bc 1d3a 883d
00000140: c408 ad3d 74ed ac3c 98a6 523c c995 1b3d
00000150: 8b4b 1b3d fecd 183c 0477 e7bb 17c9 c63c
00000160: 28ad 5abb 9903 b83c db3f fbbc 7819 8e39
00000170: a873 fdbc 4ff8 cabb 7add 56bc f4b7 f7b9
00000180: baa8 f2bb 247c 0fbd e941 313b c4f7 ddbb
00000190: 1708 bfbc 696c 853c b19f 9dbb c217 a2bc
000001a0: 9afa 483d 34c1 653c 635b 3e3d 5390 a5bc
000001b0: f9ab 903c f1b0 5fbc 84b7 723d b438 f53c
000001c0: e2ad 263d bf98 5ebd 78ce 89bb e168 533d
000001d0: 8793 19bd f638 b6bc 5df6 f1ba 53a9 5f3d
000001e0: f76c 3dbd ed1f 423d 117d 6fba 897c 783c
000001f0: 3843 3dbc 9404 97bc 47d1 92bd 7fbe 0a3d
00000200: a93a 56bd e1e1 2b3c 2c6e f8bb 3dfc 0b39
00000210: 8b35 183c 3b03 4a3c 96c5 00bd ce47 bd3c
00000220: 5da1 0c3c 5f24 4abd 9049 36bc 9ba3 f8bc
00000230: a484 803d ffeb 00bd 2f02 4cbc 93d1 ea3c
00000240: aeef 11bd 5fa4 9c3b d336 1d3d 7945 2abc
00000250: 1c4e 85bd 23d7 e33c 561b 803c 1aa5 903d
00000260: d949 62bd 52ed 28bc 154c 44bd 677a 0ebd
00000270: dc5d 173d 6cfe e3bc d97c 44ba 93e2 9abc
00000280: 012b 2abd 6ac6 443c d849 29bd fa0a 353d
00000290: 2774 06bc 4f2c 2dbd fb98 d83b 92a8 dbba
000002a0: 86c2 11bc 5720 e7bc 9c8d 14bd 00c2 863c
000002b0: d5c6 89bc 71f3 0c3d 46a0 91bd 18b9 acbc
000002c0: 3d65 983c d851 c239 3748 67bd cef7 da3c
000002d0: 138e 63bc cc59 8fbc cd52 1a3c 3c4a 043c
000002e0: a2ef ec3c 3b40 2e3d 0493 693b 9217 d8bc
000002f0: dbac f1bc 73be 843d 1366 cabc 1956 7cbc
00000300: 6ac3 0ebd 35de e63c 36bf a6bc 9562 ecbc
00000310: 61e6 c4ba e0de 363d 64bf 60bd 8257 4bbd
00000320: 399a c2bc 935c fdbc a0ac 21bc 3264 c13b
00000330: 1ee5 c83c 3099 5cbc 4ff9 0c3c 5c20 01bd
00000340: aa60 cf3c f805 04bd 83eb 6e3c 1e00 a93c
00000350: af69 583d d92f 863a cc46 b6bb 7105 2a3d
00000360: 2c8a 7b3d edab e7bc 48ce 45bd 74e1 8d3d
00000370: bd1e 2b3d 0a15 963d e318 0fbd a9cd c0bc
00000380: 7563 fc3c ecd6 57bd 585d 86bd 67bf 0739
00000390: a830 febc efb9 1abc b921 81bc 65ee 273d
000003a0: aa5a a73c 8442 47bc b81f b8bc e991 82bd
000003b0: 2959 1a3d eb79 863b 942b f6bb 9244 12bd
000003c0: 7fdb 8cbc 4fb3 fc3c 3e89 64bd 8945 c93b
000003d0: cb6c f73c f65e aa3c e503 c7bb 0e2b b7bc
000003e0: 9bb6 b2bc 9968 1c3d 46c6 37bc 8eaa 2e3c
000003f0: 1a3c 703c 3682 023d a5bd 5ebd 0a37 51bd
0.022878172 -0.008576376 -0.0415352 0.01792547 -0.011697496 -0.015914148 -0.024867043 -0.042119887
-0.071968965 0.03458037 -0.016143756 0.035708714 -0.014235628 0.06348948 -0.07068621 -0.016123643
0.010223642 -0.056102544 -0.00094429735 -0.008999048 -0.010924941 0.04992415 -0.046942767 0.028795093
0.024988135 0.04188465 0.026549356 -0.01341442 0.013372958 -0.008212127 -0.045486785 -0.037540082
-0.017020749 0.0014825294 0.007601462 0.0021603392 -0.012147561 -0.080620944 0.025332982 0.035493646
-0.020895671 -0.023226032 0.04656175 0.039783217 0.015899928 0.008183037 0.031147672 0.012548929
-0.043240737 0.031468507 0.045933947 -0.015559762 0.07325518 -0.048485313 0.004468041 0.0043669515
-0.008744555 -0.036009654 0.010426731 -0.00286048 -0.012053856 -0.03964664 -0.012984716 0.022066956
-0.010792583 -0.018750785 0.025759723 0.045480557 0.03993175 0.010472412 0.0066215373 0.02557858
0.021533396 0.00026429148 -0.023808489 -0.0014625074 0.008174254 -0.0419151 -0.029906023 0.06651709
0.084489375 0.02110932 0.012857102 0.037984643 0.03791384 0.009326456 -0.0070637483 0.024265809
-0.003336737 0.022462653 -0.030670097 0.00027103326 -0.030938938 -0.0061941515 -0.013114328 -0.00047248567
-0.0074053677 -0.0350305 0.0027047342 -0.0067739207 -0.023319287 0.016287046 -0.0048102965 -0.01978672
0.049067117 0.014023114 0.046473872 -0.02021042 0.017660128 -0.013653026 0.059257045 0.029934265
0.04069317 -0.05434489 -0.004205521 0.051613692 -0.03749421 -0.022243958 -0.0018460263 0.05460484
-0.046246495 0.047393728 -0.0009135763 0.01516641 -0.011551671 -0.0184348 -0.07168823 0.033873077
-0.052302036 0.010490865 -0.007581493 0.00013350039 0.009290109 0.012329872 -0.031438433 0.023105528
0.008583394 -0.049351092 -0.011125937 -0.03035145 0.06275299 -0.031475063 -0.0124516925 0.028664386
-0.035628967 0.0047803367 0.038382363 -0.01039254 -0.06509039 0.027812546 0.015638035 0.070627406
-0.055246208 -0.010310488 -0.04792412 -0.0347847 0.036954746 -0.027831279 -0.00074954104 -0.018906867
-0.041544918 0.012010196 -0.04133019 0.04419992 -0.008206404 -0.042278584 0.0066100336 -0.0016758612
-0.008896476 -0.028213663 -0.03626786 0.016449928 -0.016818443 0.03441185 -0.07110648 -0.021084353
0.018602962 0.00037063542 -0.056465354 0.02672949 -0.013888854 -0.017498873 0.009419155 0.0080743395
0.02892286 0.042541724 0.0035640607 -0.026378427 -0.02950137 0.06481638 -0.024706876 -0.015401387
-0.03485433 0.028182128 -0.020354848 -0.028855601 -0.0015022272 0.044646144 -0.054870024 -0.049644
-0.02375518 -0.030927932 -0.009867817 0.005901837 0.024523314 -0.013464257 0.008604362 -0.031525
0.025314648 -0.032232255 0.014582518 0.020629939 0.052835163 0.0010237648 -0.005562639 0.041509096
0.061411068 -0.028280223 -0.04829243 0.069277674 0.04177736 0.07328232 -0.034935843 -0.023535566
0.030809144 -0.0526952 -0.06560773 0.00012945906 -0.03102906 -0.009443744 -0.01576315 0.040998835
0.020428974 -0.012161855 -0.022476062 -0.063754864 0.037682686 0.004103889 -0.007512519 -0.035709925
-0.017194508 0.03084722 -0.055794947 0.0061423224 0.030203244 0.020797234 -0.0060734623 -0.022359397
-0.021815589 0.03818569 -0.011216706 0.010660781 0.014662767 0.03186246 -0.054380078 -0.05107788

fc1.bias f4 [3]
00000000: d733 28be c168 c6bc ed44 e7be
-0.16426025 -0.024219872 -0.45169774
