scripts/python/deep-learning/experiments/cnn3d/012/model-cnn3d-epoch-21.pth (torch_old, 19731 bytes, 36 tensors)

conv1.weight f4 [5, 2, 65, 1, 2]
-0.028949438 0.054469287 0.036743857 -0.061606776 -0.027156727 -0.046724845 0.009967241 0.020333877
-0.031663984 -0.050752863 -0.003603006 -0.058085717 0.016374456 0.055632718 0.028449738 -0.00095942634
-0.018149704 0.007755979 -0.006058931 -0.031719588 0.020354433 -0.05288866 0.025518773 -0.029511541
0.021090379 0.010699293 0.050765026 0.044526592 0.013353655 -0.034278248 -0.00019707417 0.04944895
0.027341494 0.022378571 0.038639847 0.051072672 -0.048892073 -0.02071813 -0.054954875 0.0050809667
-0.006391372 0.011171016 0.046291575 0.0094469385 0.016470963 0.06011459 0.01329313 -0.03464807
0.011554966 -0.05125532 0.014074456 0.031306803 0.01508659 0.058221884 0.038957626 0.01074774
-0.056253742 0.047963444 0.050871775 -0.04111943 0.008957291 -0.013900084 -0.055218175 0.013501984
-0.0006835805 -0.056019843 0.0590399 -0.049840793 -0.049245123 0.06083316 0.019037526 -0.044481214
0.032694492 -0.006627776 -0.052124925 -0.012051588 -0.030948067 0.014766973 0.007860139 -0.054902382
0.022888077 -0.052555602 0.050700415 0.03189884 -0.034954652 0.04381761 -0.0010699705 0.004358647
0.048258632 -0.009334223 0.008618635 -0.02505313 0.060652163 -0.040320225 0.04544257 -0.037967846
0.030617425 0.019090014 0.02172457 0.04545582 0.05338126 -0.021978661 -0.040037315 0.029401246
-0.0245571 -0.022461955 0.010477992 -0.03123891 0.028630806 -0.027317971 -0.055228516 -0.0050515677
-0.04411996 0.02412829 0.0037568368 -0.018042814 -0.027241671 -0.021308089 0.058094356 0.0025347185
0.02266306 0.037347488 0.031253245 0.025693726 -0.03897553 0.0041450076 0.0075844834 -0.023141377
-0.008954887 -0.034525212 -0.05655732 -0.025085725 0.017695414 -0.04195613 -0.00941589 0.037289415
0.0134134535 -0.004920933 0.014792939 -0.053444497 0.042255394 -0.0038626443 0.041156705 0.0026670694
0.043896656 0.043160934 0.041706506 0.025013823 0.0059243515 -0.05117667 -0.0148448115 0.056486964
0.058056265 0.045698743 0.024732245 -0.0006602523 0.009452062 0.027836798 -0.0164478 -0.052738883
-0.02798053 -0.009441586 -0.055476297 -0.0043489463 -0.016423142 0.046434607 0.01062829 -0.058739968
0.005509524 0.0025226187 0.06395132 -0.034530014 0.019684656 -0.046877958 -0.026110953 -0.021548118
-0.04978392 -0.04984652 -0.0062283566 0.021147631 0.023286244 0.04918239 -0.026355721 0.050310772
0.019992242 0.01917955 0.022935042 -0.027260656 0.03957132 0.0221034 0.043648925 -0.045527555
0.054581404 -0.04310536 0.012305414 0.027165687 0.00030300362 0.011438446 -0.029057492 -0.042920522
-0.040501673 -0.0631243 0.05141533 -0.0020954136 0.00055893464 -0.048310038 -0.049218092 -0.04904816
-0.049361892 0.050831404 0.02145033 -0.04607286 0.012238493 0.02642036 -0.020303791 0.06308275
0.05385634 -0.050204493 0.057484493 0.061775494 0.010991745 -0.035680454 0.038908914 0.025938973
-0.018475506 0.049475595 -0.037529226 0.013039115 -0.022126839 0.049369525 0.04526329 -0.020898197
-0.013562574 -0.029687975 0.014064755 0.0052191354 0.005908581 -0.05455179 0.033059344 0.0020241411
0.015175404 0.044942673 -0.027098356 0.004767181 0.066841766 -0.020921523 -0.014349397 0.0280933
0.042909417 0.03906632 0.03276357 0.013073717 -0.03196153 -0.018238947 -0.00024901843 -0.020801876
00000000: 5f27 edbc 301b 5f3d ba80 163d 6357 7cbd
00000010: c977 debc 8d62 3fbd a44d 233c 3b93 a63c
00000020: 18b2 01bd 3ce2 4fbd 6920 6cbb 4aeb 6dbd
00000030: b923 863c 22df 633d 6d0f e93c 0382 7bba
00000040: b0ae 94bc de25 fe3b ff89 c6bb 66ec 01bd
00000050: 57be a63c c8a1 58bd bf0c d13c 30c2 f1bc
00000060: bbc5 ac3c 164c 2f3c fdee 4f3d 8461 363d
00000070: 4ac9 5a3c 5967 0cbd b2a5 4eb9 fb8a 4a3d
00000080: 45fb df3c 4453 b73c d144 1e3d 9431 513d
00000090: 0e43 48bd 11b9 a9bc 5d18 61bd 3d7e a63b
000000a0: b76e d1bb a306 373c 3c9c 3d3d 55c7 1a3c
000000b0: 1dee 863c b73a 763d 6ecb 593c 22eb 0dbd
000000c0: 0a51 3d3c 19f1 51bd 8c98 663c 903b 003d
000000d0: bf2d 773c 127a 6e3d 0892 1f3d 4a17 303c
000000e0: 536a 66bd 5175 443d ec5e 503d d96c 28bd
000000f0: 9ac1 123c 2ebd 63bc 742c 62bd 6d37 5d3c
00000100: 5032 33ba 1075 65bd d2d3 713d dc25 4cbd
00000110: 41b5 49bd 312c 793d 96f4 9b3c ef31 36bd
00000120: a9ea 053d d12d d9bb f280 55bd 0674 45bc
00000130: cd86 fdbc 2df1 713c d0c7 003c 52e1 60bd
00000140: c77f bb3c 8b44 57bd 3dab 4f3d 5ca8 023d
00000150: 9c2c 0fbd 187a 333d 413e 8cba fbd2 8e3b
00000160: d8aa 453d 92ee 18bc 2d35 0d3c 393c cdbc
00000170: 676e 783d d226 25bd fd21 3a3d 2c84 1bbd
00000180: 65d1 fa3c a962 9c3c baf7 b13c e22f 3a3d
00000190: 4fa6 5a3d 980c b4bc 2bfe 23bd e2da f03c
000001a0: f92b c9bc 2202 b8bc e2ab 2b3c bee8 ffbc
000001b0: 278b ea3c f0c9 dfbc 4c37 62bd 9f87 a5bb
000001c0: 22b7 34bd b1a8 c53c 4335 763b 86ce 93bc
000001d0: ed29 dfbc 4d8e aebc 59f4 6d3d 851d 263b
000001e0: e2a7 b93c aef9 183d 6703 003d a67b d23c
000001f0: cea4 1fbd d8d2 873b 4287 f83b fc92 bdbc
00000200: 85b7 12bc 4f6a 0dbd a6a8 67bd 9480 cdbc
00000210: f9f5 903c 31da 2bbd 1b45 1abc c9bc 183d
00000220: 1ac4 5b3c c73f a1bb 155e 723c 9ee8 5abd
00000230: fe13 2d3d 6b24 7dbb ef93 283d 00ca 2e3b
00000240: fbcc 333d 85c9 303d 71d4 2a3d cae9 cc3c
00000250: 1021 c23b a19e 51bd a737 73bc e05e 673d
00000260: 68cc 6d3d 9b2e 3b3d 479b ca3c c814 2dba
00000270: d2dc 1a3c ff09 e43c 89bd 86bc ba04 58bd
00000280: 6d37 e5bc e2b0 1abc 1d3b 63bd 9b81 8ebb
00000290: d389 86bc 3732 3e3d 4722 2e3c 5299 70bd
000002a0: 3d89 b43b 8552 253b e9f8 823d 586f 0dbd
000002b0: b741 a13c 1a03 40bd a3e6 d5bc ae85 b0bc
000002c0: 39ea 4bbd dd2b 4cbd 3e17 ccbb cc3d ad3c
000002d0: cbc2 be3c 7973 493d f4e7 d7bc ab12 4e3d
000002e0: c5c6 a33c 6f1e 9d3c 45e2 bb3c bd51 dfbc
000002f0: 8915 223d 3112 b53c 37c9 323d 1a7b 3abd
00000300: c090 5f3d 3f8f 30bd a69c 493c 938a de3c
00000310: 75dc 9e39 5268 3b3c fa09 eebc 6ecd 2fbd
00000320: 15e5 25bd 5047 81bd e298 523d 3553 09bb
00000330: 7885 123a bfe0 45bd e998 49bd b9e6 48bd
00000340: b22f 4abd 9734 503d 9ab8 af3c e5b6 3cbd
00000350: f683 483c 836f d83c 2354 a6bc 8731 813d
00000360: 7798 5c3d 3aa3 4dbd dc74 6b3d 4d08 7d3d
00000370: b816 343c ab25 12bd f45e 1f3d f87d d43c
00000380: f259 97bc eca6 4a3d 3fb8 19bd 03a2 553c
00000390: 5843 b5bc b337 4a3d 0066 393d b232 abbc
000003a0: 8f35 5ebc 3234 f3bc dc6f 663c 4805 ab3b
000003b0: c59c c13b b371 5fbd 3c69 073d 74a7 043b
000003c0: 42a2 783c cf15 383d 5ffd ddbc 0336 9c3b
000003d0: 56e4 883d 9d63 abbc bc19 6bbc ec23 e63c
000003e0: c9c1 2f3d 0104 203d 1833 063d 2533 563c
000003f0: 18ea 02bd d869 95bc b08e 82b9 b268 aabc

conv1.bias f4 [5]
0.012945376 0.036884263 -0.037276417 0.01224976 0.054752484
00000000: d818 543c f413 173d 28af 18bd 38b3 483c
00000010: 2444 603d

bn1.weight f4 [5]
0.24971178 0.785583 0.0629589 0.016090585 0.79212296
00000000: 72b4 7f3e f81b 493f 99f0 803d 67d0 833c
00000010: 92c8 4a3f

bn1.bias f4 [5]
-0.0024451606 -0.0015889427 -0.008465347 -0.028711213 0.0020998274
00000000: fd3e 20bb 1244 d0ba 3db2 0abc c733 ebbc
00000010: 429d 093b

bn1.running_mean f4 [5]
1.4993263 2.8007257 0.82378125 1.231677 2.0979276
00000000: ede9 bf3f 173f 3340 54e3 523f 98a7 9d3f
00000010: 7244 0640

bn1.running_var f4 [5]
4.997977 11.015628 1.4431157 2.8478396 5.7290087
00000000: 6def 9f40 0340 3041 04b8 b83f 0143 3640
00000010: 0a54 b740

conv2.weight f4 [10, 5, 1, 1, 1]
0.029748201 -0.08420627 0.07661639 -0.2029828 0.38354972 0.11692573 0.43272027 0.064035356
-0.06635757 -0.3350841 -0.27963018 0.16231985 0.011298744 -0.40001065 -0.08949865 0.07900843
-0.23426096 -0.028162044 0.36748543 -0.057400845 -0.08304998 0.16695778 0.11179296 0.33148435
-0.30526465 -0.33256778 -0.3558055 0.23251139 0.3230967 0.11504669 0.09117356 -0.35688025
0.22546522 0.14346333 -0.09969182 -0.4280687 0.29292175 -0.29520127 -0.26589257 -0.26999214
-0.36714128 0.14930524 0.12286413 -0.42253694 -0.2529781 0.12216819 -0.008706695 0.13836417
0.025772627 -0.12180933
00000000: 80b2 f33c 5674 acbd 0ee9 9c3d b9da 4fbe
00000010: a160 c43e c276 ef3d 838d dd3e f824 833d
00000020: 7ae6 87bd 2590 abbe b02b 8fbe 2d37 263e
00000030: 5e1e 393c 32ce ccbe 114b b7bd 2ccf a13d
00000040: 1be2 6fbe 16b4 e6bc 0d27 bc3e 261d 6bbd
00000050: 1c16 aabd fbf6 2a3e b5f3 e43d 51b8 a93e
00000060: a64b 9cbe 5346 aabe 232c b6be 7717 6e3e
00000070: ee6c a53e 999d eb3d 34b9 ba3d 02b9 b6be
00000080: 5be0 663e 0de8 123e 3a2b ccbd d22b dbbe
00000090: d7f9 953e 9f24 97be 1223 88be 693c 8abe
000000a0: f1f9 bbbe 79e3 183e 30a0 fb3d c356 d8be
000000b0: 5886 81be 5133 fa3d 87a6 0ebc 56af 0d3e
000000c0: 1e21 d33c 2c77 f9bd

conv2.bias f4 [10]
-0.17023256 0.13238788 -0.25255072 -0.33776334 0.15400165 -0.39499196 0.18253237 -0.07768205
-0.3488782 0.197389
00000000: 7251 2ebe b090 073e 544e 81be 51ef acbe
00000010: 9cb2 1d3e 633c cabe c4e9 3a3e c417 9fbd
00000020: 2aa0 b2be 5820 4a3e

bn2.weight f4 [10]
0.3908162 0.48852566 0.9449229 0.006017461 0.65008825 0.025481377 0.968567 0.20694984
0.38055468 0.24217686
00000000: 1019 c83e 0920 fa3e 78e6 713f 1f2e c53b
00000010: 2f6c 263f 52be d03c 02f4 773f a9ea 533e
00000020: 10d8 c23e 36fd 773e

bn2.bias f4 [10]
0.001347943 0.0008269937 -0.003964767 0.003605511 -0.0014174097 0.002861304 0.0005657662 -0.0018385677
-0.00040799056 -0.0071233837
00000000: 76ad b03a 9cca 583a e0ea 81bb 704a 6c3b
00000010: 61c8 b9ba b784 3b3b ed4f 143a 18fc f0ba
00000020: 91e7 d5b9 466b e9bb

bn2.running_mean f4 [10]
0.36348706 0.8554466 0.03625808 -0.097432084 0.5557708 0.003408622 0.5586214 0.47383398
0.039779183 0.3368991
00000000: fa1a ba3e 8cfe 5a3f 5a83 143d 798a c7bd
00000010: ff46 0e3f 3063 5f3b d001 0f3f 5e9a f23e
00000020: 7fef 223d 0a7e ac3e

bn2.running_var f4 [10]
0.74330145 0.8818658 0.11500401 0.03874663 0.12742046 0.06630836 0.08664311 0.35497272
0.092075124 0.011977533
00000000: 0149 3e3f f5c1 613f 3987 eb3d c9b4 1e3d
00000010: 827a 023e adcc 873d f171 b13d fcbe b53e
00000020: e291 bc3d 6a3d 443c

conv3.weight f4 [5, 10, 1, 1, 1]
0.16562136 0.22487444 -0.22809882 0.13722098 -0.01947823 0.13929263 -0.22566883 0.0040840935
0.27418151 -0.04109672 0.26301232 -0.06502619 -0.11372275 0.10699586 0.08702036 0.14150713
0.1706341 -0.114876576 -0.028805472 0.22306904 -0.23442502 -0.084529094 -0.12116709 0.18200809
-0.19530413 -0.17876266 -0.28499183 0.22301872 -0.16254073 0.1866041 -0.078044675 -0.2662296
0.1232489 -0.10406208 -0.08746177 0.24983433 0.21395338 -0.20072922 0.20189103 0.29925406
0.09269677 0.26243064 0.19104435 -0.100140676 -0.15541793 -0.11767793 0.16507936 -0.18931277
-0.28469148 0.0802075
00000000: a598 293e 7c45 663e bd92 69be a883 0c3e
00000010: cf90 9fbc baa2 0e3e bb15 67be dcd3 853b
00000020: 8561 8c3e 0955 28bd 8da9 863e 732c 85bd
00000030: 79e7 e8bd a520 db3d bb37 b23d 3fe7 103e
00000040: b5ba 2e3e 6944 ebbd 74f9 ebbc 366c 643e
00000050: 1d0d 70be 971d adbd 7426 f8bd 5460 3a3e
00000060: cefd 47be 8f0d 37be 73ea 91be 055f 643e
00000070: 1471 26be 2515 3f3e e3d5 9fbd 3f4f 88be
00000080: eb69 fc3d 801e d5bd 281f b3bd 92d4 7f3e
00000090: 9816 5b3e f68b 4dbe 86bc 4e3e d437 993e
000000a0: ced7 bd3d 4f5d 863e 21a1 433e 8e16 cdbd
000000b0: e125 1fbe 2001 f1bd 900a 293e 35db 41be
000000c0: 15c3 91be d443 a43d

conv3.bias f4 [5]
0.10125038 0.2777907 -0.24105111 0.10838103 0.038396716
00000000: 5c5c cf3d 953a 8e3e 1ad6 76be e0f6 dd3d
00000010: e045 1d3d

bn3.weight f4 [5]
0.90792125 0.72127324 0.41279513 0.797986 0.21515986
00000000: 876d 683f 5da5 383f e259 d33e cf48 4c3f
00000010: de52 5c3e

bn3.bias f4 [5]
0.0032938805 -0.001689418 -0.0037492278 -0.0021040356 0.0006158721
00000000: 25de 573b 766f ddba 9bb5 75bb dce3 09bb
00000010: 7a72 213a

bn3.running_mean f4 [5]
0.52215916 0.6031059 0.21659651 0.5026961 0.4179368
00000000: 39ac 053f 2665 1a3f 7acb 5d3e b1b0 003f
00000010: d0fb d53e

bn3.running_var f4 [5]
0.16063818 0.12341717 0.1007852 0.19547203 0.22217207
00000000: 567e 243e 24c2 fc3d 7968 ce3d d229 483e
00000010: 1381 633e

conv4.weight f4 [1, 5, 1, 1, 1]
0.3416468 -0.43198615 0.3024249 0.41360974 0.11453866
00000000: 54ec ae3e 4a2d ddbe 70d7 9a3e a8c4 d33e
00000010: 3f93 ea3d

fc1.weight f4 [3, 11]
0.2735605 0.09684862 0.088868536 0.03924053 -0.030014586 0.19419397 -0.1236128 -0.0384996
0.1845548 -0.058009855 0.15974723 0.025808938 -0.10883011 0.17537399 0.08040931 0.1332679
0.08427608 0.20317803 0.095002264 0.18415955 -0.14550948 0.07315422 -0.23066072 -0.16805294
-0.20988578 -0.2510303 0.17358623 -0.026936308 -0.03770694 -0.014426361 -0.26160538 -0.27494743
-0.17971063
00000000: 1f10 8c3e 9258 c63d b500 b63d aeba 203d
00000010: 26e1 f5bc c9da 463e b528 fdbd c2b1 1dbd
00000020: effb 3c3e be9b 6dbd c794 233e 446d d33c
00000030: 52e2 debd 3d95 333e a3ad a43d 6177 083e
00000040: f098 ac3d e70d 503e 8c90 c23d 5294 3c3e
00000050: 7000 15be e1d1 953d 5332 6cbe 1216 2cbe
00000060: 4cec 56be 0b87 80be 97c0 313e 88a9 dcbc
00000070: 9872 1abd 8b5c 6cbc 24f1 85be e9c5 8cbe
00000080: 1006 38be

fc1.bias f4 [3]
0.3622745 -0.014823958 -0.25471598
00000000: 0b7c b93e 30e0 72bc 226a 82be

momentum_buffer f4 [5]
0.016439617 0.03613098 0.017440958 -0.0023549024 0.0004901467
00000000: 60ac 863c 14fe 133d 57e0 8e3c b554 1abb
00000010: 307d 003a

momentum_buffer f4 [5]
3.7553194e-10 9.525507e-10 -1.1971232e-10 2.9666516e-11 9.478263e-10
00000000: 6c73 ce2f e6ea 8230 06a0 03af 8779 022e
00000010: ac44 8230

momentum_buffer f4 [5]
-0.010452021 0.0016153606 0.025698287 0.018939314 -0.00051713735
00000000: f43e 2bbc 82ba d33a 3785 d23c 9f26 9b3c
00000010: 8090 07ba

momentum_buffer f4 [5]
0.0018803338 0.0023656646 -0.005970054 -0.0010451355 -0.00054422487
00000000: 8875 f63a 4409 1b3b 71a0 c3bb eefc 88ba
00000010: 50aa 0eba

momentum_buffer f4 [5, 10, 1, 1, 1]
0.013084133 -0.026515827 -0.000713037 -0.00018648998 -0.010364155 0.0022305588 -0.021985382 -0.0041614436
-0.0060269022 0.0037007655 0.0060694134 0.014069181 0.02628835 0.0004485498 0.013438992 -0.0006262951
-0.005023689 -0.0063447184 -0.0024576937 0.0055250945 -0.0039749416 -0.00049708155 -0.011546755 -7.3038784e-05
0.0030991542 -0.00026205526 0.006180866 -0.0005595645 0.00069918134 0.001059955 -0.0014098156 -0.00067334366
-0.061231595 -0.00019791638 -0.0041793855 0.0014794893 -0.014207961 -0.0020295884 0.019904034 0.01706537
-0.0010669385 -0.0001680716 -0.0025555936 2.7920646e-06 -0.0016451973 3.173898e-05 0.0010881213 -0.0006032232
-0.0002919008 3.2287564e-05
00000000: d55e 563c b837 d9bc 1aeb 3aba 868c 43b9
00000010: 6bce 29bc 912e 123b b01a b4bc b85c 88bb
00000020: 527d c5bb 8b88 723b eee1 c63b 6c82 663c
00000030: aa5a d73c 562b eb39 382f 5c3c f42d 24ba
00000040: c29d a4bb 5be7 cfbb 4211 21bb da0b b53b
00000050: 3a40 82bb 944e 02ba 9a2e 3dbc 662c 99b8
00000060: 2e1b 4b3b 7664 89b9 dd88 ca3b bdaf 12ba
00000070: 4449 373a 30ee 8a3a 90c9 b8ba 5483 30ba
00000080: fbcd 7abd c687 4fb9 3af3 88bb 6ceb c13a
00000090: 82c8 68bc d802 05bb c90d a33c adcc 8b3c
000000a0: 84d8 8bba 603c 30b9 bf7b 27bb 4e5f 3b36
000000b0: a9a3 d7ba 781f 0538 4b9f 8e3a a021 1eba
000000c0: 430a 99b9 826c 0738

momentum_buffer f4 [10]
0.0012802806 -0.003913764 0.004049558 0.0057584117 0.0073482133 0.00025180914 -0.0006847647 -0.0025379388
0.0072418167 0.0032812196
00000000: 17cf a73a 083f 80bb 28b2 843b 0fb1 bc3b
00000010: 48c9 f03b 4005 8439 c881 33ba 8c53 26bb
00000020: c34c ed3b bb09 573b

momentum_buffer f4 [10]
0.012040152 -0.013706807 -0.009988478 0.001414613 0.002153741 0.024854248 -0.0005309771 0.005335008
0.0063342005 0.02647012
00000000: 0f44 453c 8492 60bc b7a6 23bc 896a b93a
00000010: c725 0d3b 239b cb3c 4531 0bba 4ad1 ae3b
00000020: 208f cf3b ddd7 d83c

momentum_buffer f4 [10]
4.4755571e-10 -3.4837722e-10 -2.7639768e-09 -3.3425686e-11 -4.1407017e-10 -2.929593e-11 9.66774e-09 -5.4014827e-11
2.705578e-10 1.0699804e-08
00000000: de0b f62f bc85 bfaf 65f0 3db1 fa01 13ae
00000010: 32a3 e3af 49d8 00ae 2c17 2632 4a8f 6dae
00000020: a0bd 942f 3cd2 3732

momentum_buffer f4 [3]
0.12910631 -0.14944677 0.020340485
00000000: 7234 043e 9308 19be 17a1 a63c

momentum_buffer f4 [5]
1.2472188e-09 4.9316e-09 -7.926485e-10 -1.1623589e-09 3.006138e-10
00000000: 9c6a ab30 d072 a931 aee1 59b0 dec0 9fb0
00000010: a243 a52f

momentum_buffer f4 [5]
0.0009457116 0.00033762888 0.0021259296 -0.0043126675 -0.004857676
00000000: a2e9 773a c803 b139 2e53 0b3b 4751 8dbb
00000010: 242d 9fbb

momentum_buffer f4 [1, 5, 1, 1, 1]
0.0050032786 -0.003948099 -0.008175796 -0.0019962504 -0.001048848
00000000: 8bf2 a33b 0e5f 81bb c6f3 05bc 86d3 02bb
00000010: 8079 89ba

momentum_buffer f4 [3, 11]
0.24924809 -0.016075103 -0.070914954 -0.08682959 -0.080592595 0.18338184 0.067275345 0.3333792
0.082648166 -0.25748876 -0.06655611 -0.2825692 0.041907843 -0.004480377 0.16384374 0.09169425
-0.27944008 -0.011786073 -0.4736394 -0.14449815 0.2076402 0.13824192 0.03332109 -0.025832731
0.075395286 -0.07701416 -0.01110168 0.09605818 -0.055489264 0.14026019 0.061849974 0.049848557
-0.07168581
00000000: e43a 7f3e efaf 83bc dc3b 91bd b6d3 b1bd
00000010: bb0d a5bd 73c8 3b3e a8c7 893d aeb0 aa3e
00000020: 7143 a93d 91d5 83be 924e 88bd e9ac 90be
00000030: 8fa7 2b3d 20d0 92bb a7c6 273e 32ca bb3d
00000040: c512 8fbe 601a 41bc dd80 f2be 53f7 13be
00000050: a29f 543e 4a8f 0d3e b27b 083d 2a9f d3bc
00000060: d868 9a3d 9ab9 9dbd d2e3 35bc 27ba c43d
00000070: b648 63bd 5ea0 0f3e 6656 7d3d 002e 4c3d
00000080: 03d0 92bd

momentum_buffer f4 [5, 2, 65, 1, 2]
0.0007617147 0.001041781 -3.90574e-05 0.00010290614 0.00076876726 0.0010444087 -4.327111e-05 9.5088675e-05
0.0007758977 0.0010467693 -4.7699898e-05 8.7323075e-05 0.0007830833 0.0010488383 -5.2303658e-05 7.961469e-05
0.0007902611 0.001050609 -5.7098456e-05 7.197086e-05 0.00079746003 0.0010520576 -6.203493e-05 6.439816e-05
0.0008046114 0.0010531705 -6.7095854e-05 5.6905206e-05 0.0008116954 0.0010539169 -7.2252005e-05 4.949438e-05
0.00081867503 0.0010542985 -7.746619e-05 4.2151893e-05 0.00082551053 0.0010542723 -8.268788e-05 3.490626e-05
0.0008321723 0.0010538264 -8.788222e-05 2.7735718e-05 0.00083862344 0.0010529491 -9.299698e-05 2.0660344e-05
0.00084482506 0.0010516106 -9.794242e-05 1.367298e-05 0.0008507385 0.0010497933 -0.00010271644 6.7699e-06
0.0008563391 0.0010474904 -0.0001072266 -5.7858415e-08 0.0008615877 0.0010446776 -0.00011139474 -6.825081e-06
0.0008664217 0.0010413625 -0.00011518161 -1.3503362e-05 0.0008708593 0.0010375244 -0.00011855061 -2.0114006e-05
0.00087490637 0.0010331746 -0.00012140849 -2.6658527e-05 0.0008784832 0.001028321 -0.00012368296 -3.311457e-05
0.00088159164 0.0010229632 -0.00012533 -3.9482256e-05 0.0008842313 0.0010170804 -0.00012626621 -4.5738416e-05
0.000886402 0.0010107007 -0.00012646633 -5.185732e-05 0.00088811596 0.0010038239 -0.00012584578 -5.7821744e-05
0.00088934303 0.000996466 -0.00012433395 -6.3577085e-05 0.00089009764 0.0009886267 -0.0001218876 -6.911741e-05
0.00089039595 0.0009803493 -0.00011847442 -7.438904e-05 0.00089025963 0.0009716216 -0.000114059134 -7.9373596e-05
0.0008897274 0.0009624917 -0.00010862731 -8.403137e-05 0.0008888202 0.0009529821 -0.0001021871 -8.8331755e-05
0.000887595 0.0009431165 -9.476498e-05 -9.22489e-05 0.0008861257 0.0009329366 -8.6199434e-05 -9.573088e-05
0.00088435755 0.0009224985 0.00093382626 0.0013235827 0.00013851139 0.00097343785 0.0009264994 0.0013187764
0.00014154948 0.0009702154 0.0009191282 0.0013136187 0.00014458131 0.0009657474 0.00091172004 0.0013081464
0.00014757129 0.0009600211 0.00090427545 0.0013024276 0.00015052134 0.00095306564 0.0008967938 0.0012964568
0.00015338996 0.0009448747 0.0008892522 0.0012903009 0.00015612252 0.00093545543 0.0008816633 0.0012839631
0.00015874277 0.00092481705 0.000874012 0.0012774988 0.00016119491 0.00091297535 0.0008663167 0.0012709135
0.00016350363 0.000899972 0.0008585475 0.0012642508 0.00016560801 0.0008858338 0.00085071963 0.001257513
0.00016750139 0.0008706057 0.0008428319 0.0012507336 0.0001691984 0.0008543348 0.0008348591 0.0012439335
0.00017068806 0.00083706016 0.00082680286 0.0012371396 0.00017194182 0.00081889564 0.00081868214 0.0012303204
0.00017291267 0.0007998669 0.0008104888 0.0012235435 0.00017373095 0.0007800448 0.0008021831 0.0012167846
0.00017417531 0.00075954536 0.000793833 0.001210046 0.00017435348 0.00073842506 0.0007854091 0.001203329
0.00017420357 0.000716781 0.000776945 0.0011966152 0.00017373884 0.0006946904 0.0007684114 0.0011899055
0.00017297312 0.0006722721 0.0007598236 0.0011831757 0.00017189197 0.00064957625 0.0007511734 0.0011764264
0.00017049536 0.0006267224 0.0007424822 0.001169625 0.00016883868 0.00060376263 0.0007337283 0.0011627742
0.00016690823 0.00058079633 0.0007249272 0.0011558513 0.00016475498 0.0005579096 0.0007160598 0.0011488457
0.00016240228 0.00053514476 0.0007071127 0.0011417825 0.0001598931 0.0005125951 0.00069811393 0.0011346317
0.00015732567 0.00049028755 0.00068900065 0.0011274187 0.00015473543 0.00046828797 0.00067980547 0.001120151
00000000: cfad 473a 5f8c 883a 90d1 23b8 50cf d738
00000010: 1987 493a 8ae4 883a 007e 35b8 586a c738
00000020: 9d65 4b3a c033 893a 6011 48b8 3821 b738
00000030: d547 4d3a 2c79 893a a060 5bb8 d0f6 a638
00000040: 8629 4f3a 97b4 893a 007d 6fb8 10ef 9638
00000050: a30c 513a 32e5 893a c018 82b8 800d 8738
00000060: 8fec 523a 8a0a 8a3a d0b5 8cb8 80ad 6e38
00000070: f5c7 543a 9523 8a3a 0086 97b8 3098 4f38
00000080: 5a9c 563a 6330 8a3a 5875 a2b8 40cc 3038
00000090: 1367 583a 822f 8a3a b868 adb8 5068 1238
000000a0: 2326 5a3a 8c20 8a3a 684d b8b8 00aa e837
000000b0: 11d7 5b3a 1c03 8a3a 6007 c3b8 c04f ad37
000000c0: 4077 5d3a 32d6 893a 7066 cdb8 0065 6537
000000d0: 1804 5f3a 3899 893a 7869 d7b8 0029 e336
000000e0: f27b 603a f24b 893a d8de e0b8 0080 78b3
000000f0: 2cdc 613a 90ed 883a 989c e9b8 0003 e5b6
00000100: 9320 633a 547e 883a a88d f1b8 808c 62b7
00000110: 614a 643a 8bfd 873a 609e f8b8 80ba a8b7
00000120: f959 653a 966b 873a b09c feb8 c0a0 dfb7
00000130: 024a 663a bac8 863a e4b0 01b9 80e4 0ab8
00000140: 9d1a 673a f314 863a 046b 03b9 c099 25b8
00000150: c2cb 673a 8e4f 853a 5466 04b9 40d7 3fb8
00000160: 6e5d 683a 7d79 843a 0c9c 04b9 6081 59b8
00000170: 74d0 683a be92 833a 78f5 03b9 a085 72b8
00000180: cd22 693a da9b 823a a45f 02b9 b054 85b8
00000190: 7155 693a cf94 813a e89d ffb8 20f3 90b8
000001a0: 7669 693a 107f 803a 7875 f8b8 5001 9cb8
000001b0: 5060 693a 6cb4 7e3a 0833 efb8 6075 a6b8
000001c0: 983c 693a b94f 7c3a d8ce e3b8 003a b0b8
000001d0: b7ff 683a 8cd1 793a 484d d6b8 c03e b9b8
000001e0: 7ead 683a 7a3b 773a 90bc c6b8 c075 c1b8
000001f0: e44a 683a 5190 743a f8c5 b4b8 20c3 c8b8
00000200: 3bd4 673a d4d3 713a 05cc 743a 117c ad3a
00000210: 5e3d 1139 4f2e 7f3a 52e0 723a cbda ac3a
00000220: e66c 1439 0e56 7e3a a6f1 703a bb2d ac3a
00000230: c09a 1739 362a 7d3a 7f00 6f3a 1c76 ab3a
00000240: 5ebd 1a39 eda9 7b3a e60c 6d3a 38b6 aa3a
00000250: 44d5 1d39 27d7 793a d016 6b3a dfed a93a
00000260: 4ed7 2039 78b1 773a b41c 693a 501f a93a
00000270: d2b4 2339 5a39 753a 6c1f 673a a74a a83a
00000280: 3074 2639 6c6f 723a f41d 653a bf71 a73a
00000290: 6e06 2939 bd54 6f3a 8819 633a c894 a63a
000002a0: 2c72 2b39 19ec 6b3a 2610 613a 38b5 a53a
000002b0: 10a7 2d39 4d37 683a d402 5f3a 22d3 a43a
000002c0: 50a3 2f39 5c39 643a 7ef1 5c3a a8ef a33a
000002d0: da6a 3139 70f5 5f3a 72da 5a3a 7b0b a33a
000002e0: bafa 3239 286e 5b3a cdbd 583a 8427 a23a
000002f0: 484b 3439 28ab 563a d49c 563a b442 a13a
00000300: e44f 3539 29ae 513a fc76 543a 4f5f a03a
00000310: 8c2b 3639 ec7b 4c3a 9949 523a 847c 9f3a
00000320: d4a2 3639 3a1c 473a 3b19 503a 689a 9e3a
00000330: a8d2 3639 de92 413a eae3 4d3a 05b9 9d3a
00000340: 6aaa 3639 5ce6 3b3a e5ab 4b3a bed7 9c3a
00000350: aa2d 3639 e21b 363a 376f 493a 9af6 9b3a
00000360: 1e60 3539 6b3b 303a e62e 473a ca14 9b3a
00000370: e63d 3439 5348 2a3a 65ea 443a 5232 9a3a
00000380: 00c7 3239 a14a 243a 23a3 423a 1a4e 993a
00000390: 4a0a 3139 d345 1e3a ac57 403a 3a68 983a
000003a0: 1604 2f39 9540 183a 0a09 3e3a ef7f 973a
000003b0: 14c2 2c39 ae40 123a f6b5 3b3a dd94 963a
000003c0: 884a 2a39 f548 0c3a 885d 393a dda7 953a
000003d0: faa8 2739 ad5f 063a a201 373a ecb7 943a
000003e0: caf7 2439 a486 003a 0d9e 343a e5c5 933a
000003f0: 7a40 2239 8c84 f539 f934 323a 08d2 923a

momentum_buffer f4 [10, 5, 1, 1, 1]
-0.0019185238 -2.1221e-05 -0.00047104544 1.8171922e-05 0.00024678366 -0.00045199573 0.0033259145 -0.00041384937
-2.048623e-05 0.004062851 0.004332288 0.015256649 0.0020431418 -0.0005556353 0.01689922 -6.68523e-05
-3.984377e-05 8.553066e-06 2.259077e-05 0.00021097796 0.0014826156 -0.0050927117 -1.961601e-05 -0.00013529116
-0.0033425093 -0.0001357341 0.0005265258 6.945588e-05 2.3892992e-05 0.001029311 0.0047022724 0.015433036
0.0009436865 -0.0009849207 -0.050184723 -0.0004924359 0.00090166996 -0.00030932622 0.00028524274 0.0018164805
-0.0013307834 0.022459399 0.0055017085 -0.0008406325 0.019274384 -0.019427883 -0.02403008 0.003751742
0.0017501104 -0.013149362
00000000: fa76 fbba c003 b2b7 a6f6 f6b9 e86f 9837
00000010: be62 8139 d7f9 ecb9 96f7 593b ecf9 d8b9
00000020: d8d9 abb7 aa21 853b def5 8d3b 06f7 793c
00000030: 3be6 053b 0ea8 11ba 3c70 8a3c 0e33 8cb8
00000040: ec1d 27b8 247f 0f37 4f81 bd37 f739 5d39
00000050: 5354 c23a c3e0 a6bb 108d a4b7 f2dc 0db9
00000060: 000e 5bbb d853 0eb9 8c06 0a3a d7a8 9138
00000070: cf6d c837 f2e9 863a 8515 9a3b d8da 7c3c
00000080: bb61 773a 7418 81ba 7f8e 4dbd d016 01ba
00000090: 0c5e 6c3a 102d a2b9 a28c 9539 f916 ee3a
000000a0: ae6d aeba c6fc b73c ad47 b43b e45d 5cba
000000b0: 50e5 9d3c 3927 9fbc bbda c4bc c9df 753b
000000c0: f663 e53a 6c70 57bc
