scripts/python/deep-learning/experiments/cnn3d/012/model-cnn3d-epoch-18.pth (torch_old, 19731 bytes, 36 tensors)

conv1.weight f4 [5, 2, 65, 1, 2]
00000000: af77 e8bc 1982 5f3d d703 173d 8ab0 78bd
00000010: 90c9 d9bc 44fc 3ebd 805a 253c fce4 ad3c
00000020: 8fb7 febc 9c7c 4fbd 7bea 63bb 6640 6abd
00000030: 8dce 8a3c 0c44 643d 9f16 ea3c 085c 82b8
00000040: b705 90bc b9a3 003c ff6a c2bb 487b fcbc
00000050: 5265 ab3c 503e 58bd 3315 d23c 1461 eabc
00000060: a26a b13c edd6 303c 9e73 503d cd13 3a3d
00000070: b40e 643c 6105 0cbd f419 93b8 e63e 4e3d
00000080: b69b e43c b415 b83c 76ca 1e3d f7e6 543d
00000090: fff3 45bd 13f8 a8bc 2f92 60bd 6534 c43b
000000a0: c8ff bebb d285 383c 1a23 3e3d 5ba7 293c
000000b0: 6987 8b3c d599 763d a5e9 5b3c 0932 0abd
000000c0: b07e 463c 9b92 51bd c3b9 683c 99f5 033d
000000d0: 382b 803c f1d7 6e3d 211b 203d a302 3f3c
000000e0: 6b21 64bd a4d2 443d dce8 503d 5eb1 24bd
000000f0: 2ae0 1b3c 0a4a 62bc 99a1 61bd 7527 6c3c
00000100: 5667 06b9 c218 65bd a15f 723d 7769 48bd
00000110: 2170 47bd 0488 793d 240e 9d3c 4a75 32bd
00000120: 8b2e 083d 8c52 d6bb 25f3 54bd ea80 36bc
00000130: 8f01 f9bc 3a5d 733c 3003 033c 8424 5dbd
00000140: 8402 c03c e3e9 56bd 2b3b 503d 1265 063d
00000150: 7bec 0cbd 64d4 333d a539 74ba 60b7 ac3b
00000160: bfe9 473d c286 17bc df7d 0f3c adc3 c5bc
00000170: 15ac 7a3d 2fcd 24bd 50b5 3a3d 40c8 17bd
00000180: 4f4a ff3c 3d15 9d3c c020 b33c 62eb 3d3d
00000190: 8ee1 5c3d ae5a b3bc 7168 23bd ee50 f83c
000001a0: e3b7 c4bc ec50 b7bc 8307 2e3c c973 f8bc
000001b0: d4fc ee3c 6b19 dfbc 379f 61bd 86b8 87bb
000001c0: 807f 32bd 6c58 c63c 24ca 7f3b 045c 8cbc
000001d0: 0dbd dabc 65df adbc db8e 6e3d 15a7 613b
000001e0: 5712 be3c af50 193d 179f 003d 7aeb d93c
000001f0: c970 1dbd e986 8a3b 266e fd3b 8d24 b6bc
00000200: 2aec 09bc 5614 0dbd 589b 65bd 4d62 ccbc
00000210: bda1 913c 2624 28bd d412 12bc 8d4b 193d
00000220: 5318 5d3c 3c89 83bb 838d 7a3c 335a 5abd
00000230: 3f68 2d3d c9ab 41bb 159f 2a3d f9aa 373b
00000240: 7420 343d c381 343d d7de 2c3d 2b05 ce3c
00000250: 9eb6 c43b c4e5 4dbd 0311 6bbc 32ec 673d
00000260: 581e 6e3d 13e8 3e3d 1dad ce3c 6bd8 09ba
00000270: b421 1c3c 0a7e eb3c 30ad 82bc 2b78 57bd
00000280: 6196 e4bc b7c6 0bbc b233 61bd 5220 8abb
00000290: 2bea 85bc 43ed 413d de3c 363c 950d 70bd
000002a0: 7902 b73b 650a 613b dcfb 833d 04e4 0cbd
000002b0: b9de a13c 2c47 3cbd 66dc d1bc e76f afbc
000002c0: 579c 4bbd 846f 48bd 88f4 bbbb b152 ae3c
000002d0: 585d bf3c 3230 4d3d d4e0 d3bc a99c 4e3d
000002e0: 2a60 a43c a998 a43c e0e7 bf3c bb3e debc
000002f0: a961 223d 228d bc3c 43cb 343d 19f2 39bd
00000300: 56dc 5f3d 6bd1 2cbd d5a1 513c 949b df3c
00000310: 3364 c439 1161 4a3c da08 eabc 7545 2fbd
00000320: 819a 25bd 1ad0 7ebd c198 543d c1db 00bb
00000330: 7a0a 253a d121 42bd bc99 47bd c85f 48bd
00000340: 1ae6 49bd e0f3 533d afb5 b33c 7b30 3cbd
00000350: aaa8 493c d8ee df3c 4d58 a2bc 7d74 813d
00000360: 3de1 5c3d 2be3 49bd 3072 6d3d 9f8d 7d3d
00000370: 3638 353c 3c65 0ebd c15b 213d 8d87 d53c
00000380: f7c9 96bc bf67 4e3d fbbb 17bd fdb2 573c
00000390: fbb3 b4bc fdf8 4d3d c561 3b3d 502b aabc
000003a0: 0d18 5dbc c0b0 ebbc 1f5d 6e3c 551e af3b
000003b0: b5d5 c33b 85af 5bbd 1d64 093d c1d0 0c3b
000003c0: d6bd 793c 6fd8 3b3d 6a08 dabc 5746 a03b
000003d0: b007 893d 61dd a3bc 6831 63bc f726 e73c
000003e0: 6008 303d 9ac7 233d ce2c 083d 4437 583c
000003f0: 93a3 02bd a1e1 8dbc 813a 7439 9667 a9bc
-0.028377382 0.05456743 0.036868896 -0.060715236 -0.02658537 -0.046627298 0.010092378 0.021227352
-0.031093387 -0.050655946 -0.0034777212 -0.05719032 0.016944194 0.055728957 0.02857524 -6.216025e-05
-0.01758085 0.0078515345 -0.005933165 -0.030820504 0.020922337 -0.0527938 0.025644874 -0.028610744
0.021657292 0.01079343 0.05089151 0.04542904 0.013919521 -0.034184817 -7.0143404e-05 0.050352953
0.02790628 0.022471286 0.0387673 0.051978078 -0.048328396 -0.020626104 -0.05482691 0.005987691
-0.0058288313 0.011262374 0.046420194 0.010354842 0.017032342 0.0602053 0.013422404 -0.033739123
0.012115166 -0.051165204 0.014204445 0.032216642 0.015645608 0.058311407 0.039088372 0.0116583435
-0.055695932 0.048052445 0.051003322 -0.040208213 0.009513894 -0.013811598 -0.055085752 0.014413704
-0.00012817731 -0.055931814 0.05917323 -0.048928704 -0.04869092 0.06092073 0.019171782 -0.043568887
0.03324751 -0.006540602 -0.051989693 -0.011139134 -0.030396251 0.01485377 0.007996365 -0.053989902
0.0234387 -0.052469146 0.050837677 0.032811232 -0.034405213 0.043903723 -0.0009316451 0.0052708834
0.048806902 -0.009248437 0.008758037 -0.024141157 0.061199266 -0.04023474 0.04558307 -0.037056208
0.031163363 0.019175166 0.021866202 0.046367057 0.053926043 -0.021893825 -0.039894525 0.030312028
-0.024013465 -0.022377454 0.010621908 -0.030328648 0.029173292 -0.0272338 -0.05508348 -0.00414187
-0.043578625 0.024212085 0.0039030397 -0.01713372 -0.026701475 -0.021224687 0.058241706 0.0034431864
0.023202104 0.03743046 0.03140172 0.026601542 -0.03843764 0.0042275083 0.007734078 -0.022234226
-0.008418122 -0.034443222 -0.05605635 -0.024949217 0.017777318 -0.0410501 -0.008915622 0.037425566
0.013494569 -0.0040141623 0.015292528 -0.053308677 0.042335745 -0.0029551855 0.04165562 0.0028025492
0.043976262 0.044069063 0.042204704 0.025148949 0.006003215 -0.05026795 -0.014347318 0.056621738
0.058134407 0.046608042 0.025229031 -0.0005258384 0.00952952 0.028746624 -0.015951723 -0.052604835
-0.027903738 -0.008531264 -0.05498094 -0.0042152787 -0.016347012 0.04734541 0.01112291 -0.058606703
0.0055850116 0.003433847 0.06444523 -0.03439714 0.019759523 -0.045966312 -0.02561779 -0.021415664
-0.049709644 -0.048934475 -0.0057359375 0.021279665 0.02335994 0.05009479 -0.025864042 0.05044237
0.020065386 0.020092325 0.023425996 -0.027129522 0.039643917 0.023016516 0.044139158 -0.045396898
0.054653488 -0.042191904 0.012794931 0.027295865 0.00037458687 0.012352244 -0.028568674 -0.04279085
-0.04043055 -0.06221018 0.05190349 -0.0019662234 0.00062958116 -0.04739553 -0.048730597 -0.04891947
-0.049291708 0.05174625 0.02193722 -0.045944672 0.012308279 0.02733557 -0.019817496 0.063210465
0.05392574 -0.04928891 0.057970226 0.06190264 0.011060765 -0.034764513 0.039394144 0.026065612
-0.018406851 0.05039191 -0.037044507 0.013165233 -0.022058478 0.05028628 0.045747537 -0.020772606
-0.013494504 -0.028770804 0.014548569 0.005344192 0.0059764036 -0.053634185 0.03354274 0.0021486732
0.015243014 0.045860704 -0.02661534 0.0048911977 0.066909194 -0.020003023 -0.01386676 0.028216822
0.042976737 0.039985277 0.033245854 0.01319677 -0.031894278 -0.017319502 0.00023291448 -0.020679276

conv1.bias f4 [5]
00000000: d818 543c f413 173d 28af 18bd 38b3 483c
00000010: 2444 603d
0.012945376 0.036884263 -0.037276417 0.01224976 0.054752484

bn1.weight f4 [5]
00000000: 144a 803e 8709 493f 4357 803d 80e2 7e3c
00000010: 6bcb 4a3f
0.25056517 0.7853016 0.06266644 0.0155569315 0.7921664

bn1.bias f4 [5]
00000000: 7e98 ebba d306 e9ba 4d2d 00bc 83e2 ebbc
00000010: 01b2 223b
-0.0017974523 -0.0017778523 -0.007823301 -0.028794533 0.0024825337

bn1.running_mean f4 [5]
00000000: 29ca c73f 46dd 2540 37fb 363f 7de3 9a3f
00000010: b963 f53f
1.5608569 2.5916305 0.71477073 1.2100674 1.9171058

bn1.running_var f4 [5]
00000000: c556 a340 8b28 1241 9e19 683f 2d9f 2240
00000010: b012 8e40
5.104342 9.134898 0.9066409 2.5409653 4.439781

conv2.weight f4 [10, 5, 1, 1, 1]
00000000: e551 f43c 9e09 adbd cfef 9c3d 77d9 4fbe
00000010: a257 c43e 4685 ef3d 1076 dd3e 0d37 833d
00000020: 7cde 87bd a6ac abbe f958 8fbe 5d86 253e
00000030: ed6c 383c fad0 ccbe 2d5e b7bd e5cd a13d
00000040: 64e2 6fbe 9cb5 e6bc 0427 bc3e 7e1c 6bbd
00000050: 345d aabd b2ce 2a3e 4ddb e43d dab3 a93e
00000060: c758 9cbe c845 aabe 1f2a b6be 9c16 6e3e
00000070: f56c a53e 21c0 eb3d 2ab7 bb3d 70b8 b6be
00000080: 38da 663e 9ae8 123e 825e cbbd 642d dbbe
00000090: 6fe6 953e fa23 97be 0c23 88be b24f 8abe
000000a0: b6e9 bbbe af01 193e 29b8 fb3d 1e57 d8be
000000b0: 3c91 81be 02cf fb3d 6673 0dbc 698c 0d3e
000000c0: d38a d23c 372e f8bd
0.029824207 -0.084491 0.07662927 -0.202978 0.3834811 0.11695342 0.43254137 0.064069845
-0.066342324 -0.33530158 -0.27997568 0.16164537 0.011256439 -0.40003186 -0.089535095 0.079005994
-0.23426205 -0.02816277 0.36748517 -0.05740022 -0.08318558 0.1668041 0.11174641 0.33145028
-0.30536482 -0.33256364 -0.3557901 0.23250812 0.3230969 0.11511255 0.09165795 -0.3568759
0.22544181 0.14346543 -0.09930135 -0.42808068 0.2927737 -0.29519635 -0.2658924 -0.27013928
-0.36701745 0.14942048 0.12290985 -0.42253965 -0.25306118 0.12295343 -0.00863347 0.13823093
0.025700962 -0.1211819

conv2.bias f4 [10]
00000000: 7251 2ebe b090 073e 544e 81be 51ef acbe
00000010: 9cb2 1d3e 633c cabe c4e9 3a3e c417 9fbd
00000020: 2aa0 b2be 5820 4a3e
-0.17023256 0.13238788 -0.25255072 -0.33776334 0.15400165 -0.39499196 0.18253237 -0.07768205
-0.3488782 0.197389

bn2.weight f4 [10]
00000000: 4227 c83e eded f93e 34dc 713f 0cd3 cb3b
00000010: cd76 263f 8a6c d13c 2117 783f 5757 543e
00000020: 3d65 c23e a697 773e
0.3909245 0.48814335 0.9447663 0.006220227 0.65025026 0.02556445 0.9691029 0.20736443
0.37967864 0.24178943

bn2.bias f4 [10]
00000000: 0d94 c93a 9649 3c3a f8c4 8ebb dbc3 6d3b
00000010: 50b6 a5ba f3d0 553b 5059 4338 47e3 e6ba
00000020: 1e62 efb9 48cf f0bb
0.0015379206 0.0007182596 -0.0043569766 0.003628007 -0.0012642834 0.0032625764 4.65748e-05 -0.0017615341
-0.00045658735 -0.0073489286

bn2.running_mean f4 [10]
00000000: b3da bb3e cb59 5f3f bbc7 183d acf7 9ebd
00000010: 568b 133f 20cc 8b3c bebf 163f 7b96 f83e
00000020: 1e0c 603d e2de b23e
0.36690292 0.8724639 0.037299853 -0.077620834 0.57634485 0.017065108 0.58886325 0.48552307
0.054699056 0.3493567

bn2.running_var f4 [10]
00000000: 005d 2a3f 9911 583f 0c4f dd3d bf6f 453d
00000010: 0fd2 093e 54c6 993d cf4a dd3d 04c3 ae3e
00000020: f607 c13d c327 7f3c
0.66548157 0.8440185 0.108060926 0.048202273 0.13459037 0.07508531 0.10805284 0.3413316
0.094253466 0.015573445

conv3.weight f4 [5, 10, 1, 1, 1]
00000000: b1c6 283e 4e6d 653e 3365 6abe 1384 0c3e
00000010: 654d a7bc 169a 0e3e 3a55 68be dec2 753b
00000020: 8515 8c3e 978b 28bd ec0f 873e 7a5e 85bd
00000030: 1984 e8bd 5221 db3d c729 b13d 11e8 103e
00000040: 82f1 2d3e 4121 ebbd 2b63 e9bc 776c 643e
00000050: 02dc 6fbe e32a adbd efee f7bd 9d60 3a3e
00000060: 3437 48be a60e 37be 87ff 91be b179 643e
00000070: fe70 26be f1c3 3e3e 233d a0bd e045 88be
00000080: e385 f73d b022 d5bd 7b45 b5bd 94db 7f3e
00000090: 0aa6 5c3e 03e6 4dbe a3e2 4d3e 0a28 993e
000000a0: fec9 bd3d b661 863e 3a99 433e 8916 cdbd
000000b0: 281d 1fbe c901 f1bd 580a 293e 64df 41be
000000c0: 1ac4 91be 733f a43d
0.16482045 0.22404978 -0.22890167 0.13722257 -0.020422647 0.13925967 -0.22688761 0.0037500183
0.27360168 -0.04114875 0.26379335 -0.065121606 -0.11353321 0.10699715 0.086505465 0.14151026
0.16986659 -0.11480952 -0.02848967 0.22307001 -0.2342377 -0.084554456 -0.1210612 0.18200918
-0.19552308 -0.17876682 -0.28515264 0.22312047 -0.1625404 0.18629433 -0.07824161 -0.2661581
0.12086084 -0.10407007 -0.08851143 0.24986106 0.21547714 -0.20107274 0.20105986 0.2991336
0.092670426 0.26246423 0.1910142 -0.10014064 -0.15538466 -0.117679186 0.16507852 -0.18932873
-0.28469926 0.080199145

conv3.bias f4 [5]
00000000: 5c5c cf3d 953a 8e3e 1ad6 76be e0f6 dd3d
00000010: e045 1d3d
0.10125038 0.2777907 -0.24105111 0.10838103 0.038396716

bn3.weight f4 [5]
00000000: 8772 683f 7dbc 383f f833 d33e 743a 4c3f
00000010: 9d2b 5c3e
0.90799755 0.7216261 0.41250587 0.7977669 0.21501012

bn3.bias f4 [5]
00000000: 6a5c 723b 722b 0ebb 4655 6fbb 3506 0ebb
00000010: 21f6 283a
0.0036981353 -0.0021693376 -0.0036519333 -0.002167118 0.00064453675

bn3.running_mean f4 [5]
00000000: d10f 063f 404e 1f3f 3db2 5b3e 4631 043f
00000010: 4a1d e03e
0.52367884 0.62228775 0.21454711 0.51637685 0.43772346

bn3.running_var f4 [5]
00000000: 9ae8 223e e7eb 0c3e 3f01 cd3d a4f3 5a3e
00000010: 582d 703e
0.15909043 0.13761865 0.10010003 0.21382004 0.23454797

conv4.weight f4 [1, 5, 1, 1, 1]
00000000: 6707 af3e c87a ddbe 7fa3 9a3e 2a8d d33e
00000010: a4ff e93d
0.34185335 -0.43257737 0.30202863 0.41318637 0.11425713

fc1.weight f4 [3, 11]
00000000: 1283 8b3e ef98 be3d f3b0 a23d 9027 033d
00000010: 0d35 2ebd 9e24 433e d2a2 07be 4ba6 43bd
00000020: a700 3c3e c4d9 88bd d5c5 1f3e b1b0 c43c
00000030: 78a4 dbbd 4dfd 383e 7833 ae3d 0e1e 0d3e
00000040: 6f23 a73d 56b1 533e 3c9f c63d 12e6 3b3e
00000050: e3d5 0ebe 289f 9a3d 9940 69be 30d5 29be
00000060: 73ac 52be 3a6c 7ebe 0ceb 393e 4022 a9bc
00000070: 6ec6 04bd a1ff e9bb 601c 85be 3858 8bbe
00000080: c29d 36be
0.27248436 0.093065135 0.07943907 0.03202015 -0.042531062 0.19056937 -0.13245705 -0.04776601
0.18359624 -0.066821605 0.1560281 0.024010034 -0.10724729 0.18065377 0.08505911 0.13780996
0.08161055 0.20673117 0.0969834 0.18349484 -0.13948779 0.07549888 -0.22778548 -0.16585231
-0.20573597 -0.24845973 0.1815607 -0.020646214 -0.0324158 -0.007141069 -0.2599821 -0.27215743
-0.17833617

fc1.bias f4 [3]
00000000: 5d32 a83e 1fc3 24bc b722 67be
0.32850924 -0.010056286 -0.22571836

momentum_buffer f4 [5]
00000000: 9e08 91bc 6ba2 3b3d 9242 c33a aeda b9bd
00000010: 6471 97bb
-0.017704304 0.04580919 0.0014897159 -0.09074913 -0.0046216715

momentum_buffer f4 [5]
00000000: 80ee fb30 c4c5 4632 b282 1a30 ac4e b0af
00000010: f876 c3b0
1.8330439e-09 1.1570084e-08 5.6210603e-10 -3.2070113e-10 -1.422193e-09

momentum_buffer f4 [5]
00000000: fe35 983c 9063 73bc 1971 8d3d b85a cb3d
00000010: 10ae f1ba
0.018580433 -0.0148552805 0.06906337 0.099294126 -0.0018438715

momentum_buffer f4 [5]
00000000: 4167 763c 726a b13c 3732 6abd f70e 8ebb
00000010: 6893 3dbc
0.015039266 0.021657202 -0.057176795 -0.00433528 -0.011570789

momentum_buffer f4 [5, 10, 1, 1, 1]
00000000: e94f ea3c 80dd 823a e06c cfbd ac7b 403a
00000010: 8827 5fbd 62ed 4ab9 9320 4f3d f56b 893b
00000020: 9425 8dbd ce55 b7bc 7e8f 1e3d 9f44 96bb
00000030: 7cd9 1fbc 5e87 20b9 a698 08bc 7a9c 27ba
00000040: 80ab 6cbd 6b71 a1bc dae5 3dbd 6f22 a8bc
00000050: 6910 7dbb aa2c bdbb 14e8 c03c 9505 ac39
00000060: 27b3 25bc aaca 983a 8794 973b 0e2d ef3a
00000070: e6b3 2cbb d0be 143a 73db 5dbd 363c 43bb
00000080: 963e d9bd 5dd9 f139 6c55 75bc 82ee fb3a
00000090: 7c50 573d 3aad 5fbc f062 373c 0e71 0dbd
000000a0: 0abd 7dbb a01a cc3b 6459 c1bb 493b 04b8
000000b0: 25a6 64bb 99be f338 e4a7 bfbb acce 5cba
000000c0: f4cb 48ba 2868 98ba
0.028602557 0.0009984225 -0.10128188 0.00073426473 -0.05448106 -0.00019352653 0.050568175 0.0041937777
-0.06891933 -0.022379782 0.038711064 -0.004585817 -0.009756442 -0.00015309217 -0.0083371755 -0.0006393861
-0.057780743 -0.019707402 -0.04636178 -0.020524232 -0.0038614518 -0.0057731466 0.023548163 0.00032810555
-0.010113514 0.0011657078 0.00462586 0.001824768 -0.0026352345 0.0005674185 -0.05416436 -0.0029790527
-0.106076404 0.0004612905 -0.014973979 0.0019220861 0.05256699 -0.01365214 0.011193022 -0.034531645
-0.0038717412 0.00622876 -0.005900549 -3.1526466e-05 -0.003488907 0.000116226445 -0.0058488715 -0.00084231305
-0.0007659786 -0.0011627721

momentum_buffer f4 [10]
00000000: bc32 47bb f8fe bdbc e08f 0cbd f478 19bc
00000010: 971c 2fbc 5731 d93c 37b2 febc 04f6 1e3c
00000020: d6a4 2fbd bd60 25bc
-0.003039523 -0.023192868 -0.034316897 -0.009367216 -0.010687969 0.026512785 -0.031090839 0.009702209
-0.04288181 -0.010093865

momentum_buffer f4 [10]
00000000: 84a0 4e3d a859 e93b 32f8 ff3b 289b ab3c
00000010: 2232 d53b 1755 083b 9469 4ebc 68bf dd3c
00000020: 0012 1ebd c002 6ebd
0.05044605 0.0071212836 0.0078115696 0.020948008 0.0065062204 0.002080267 -0.012598414 0.027068809
-0.038591385 -0.05810809

momentum_buffer f4 [10]
00000000: 0485 9ab0 c0e3 48b1 9a3f e132 98f6 deae
00000010: 0c6a aab1 2902 af2f f731 19b2 69f9 0131
00000020: 07e8 33b1 e2cd e5b2
-1.124278e-09 -2.9233291e-09 2.622237e-08 -1.0139195e-10 -4.9597073e-09 3.183385e-10 -8.917133e-09 1.8913744e-09
-2.617982e-09 -2.6752733e-08

momentum_buffer f4 [3]
00000000: 0c95 1fbe 5155 b4bd b3bf 793e
-0.155842 -0.08805335 0.24389534

momentum_buffer f4 [5]
00000000: d99b 2bb2 258d 9bb1 bffa 47b2 83ce ee30
00000010: 0834 892e
-9.988946e-09 -4.52714e-09 -1.1640338e-08 1.7375473e-09 6.239281e-11

momentum_buffer f4 [5]
00000000: 3eac 963c 1292 36bc 6093 67ba 95b2 77bd
00000010: bb94 123c
0.018392678 -0.011143224 -0.0008833911 -0.060473043 0.008946593

momentum_buffer f4 [1, 5, 1, 1, 1]
00000000: b65d 243d bb37 14bd 62ed 9fbd dfca 03bc
00000010: eef7 b1bc
0.040128432 -0.03618596 -0.07808949 -0.008043974 -0.021724667

momentum_buffer f4 [3, 11]
00000000: be68 6f3e 5ee4 13be c043 3abe 5962 953d
00000010: 088f adbe e204 383d 504d 6cbc 1db8 28be
00000020: c2b7 4a3d f0a5 18bd 0c5a e63d 3658 b4be
00000030: 1af0 273e d21d 013e e161 69bb 191e 3e3e
00000040: 9b20 7cbd c4a1 e6bd 8820 313c bf27 1d3e
00000050: c51e c1bd 6f3b 23be 568f f23d de5d a0bc
00000060: b997 643d 4b17 8ebd f3ff 1c3e 6537 883c
00000070: b515 023e 15a6 1d3e aed5 4fbe dcb8 063e
00000080: a639 403d
0.233798 -0.14442584 -0.18189907 0.07294149 -0.33898187 0.04492653 -0.01442273 -0.16476484
0.04949165 -0.037267625 0.11247644 -0.3522355 0.16400185 0.12609032 -0.003561132 0.18566169
-0.061554532 -0.11261323 0.010810979 0.15347193 -0.09429697 -0.15940641 0.118437454 -0.01957601
0.055808757 -0.069380365 0.15332012 0.016627977 0.12703593 0.15395387 -0.20296356 0.13156456
0.046929978

momentum_buffer f4 [5, 2, 65, 1, 2]
00000000: 6222 33bc 8be1 cfbc 90ec 943a b8f5 7eba
00000010: aa94 33bc 2a53 d0bc 38b6 9d3a e034 7aba
00000020: 770b 34bc 6dc7 d0bc ca61 a63a 9037 76ba
00000030: 1c86 34bc 733b d1bc 84eb ae3a 68fb 72ba
00000040: 8f02 35bc 6aae d1bc 2434 b73a 78b6 70ba
00000050: d57e 35bc ff1e d2bc 983b bf3a 884f 6fba
00000060: 2cf9 35bc 9f8b d2bc 40f9 c63a 0802 6fba
00000070: 6c71 36bc 7af2 d2bc 6a66 ce3a c0d3 6fba
00000080: 23e5 36bc 3052 d3bc 0a76 d53a 78c5 71ba
00000090: aa52 37bc f2a8 d3bc 6c2d dc3a b8e4 74ba
000000a0: 1eba 37bc f4f5 d3bc fa87 e23a 1051 79ba
000000b0: 0d1b 38bc 5037 d4bc 126f e83a 900b 7fba
000000c0: 7e73 38bc 2a6c d4bc d2f0 ed3a e013 83ba
000000d0: 09c3 38bc 0193 d4bc fcfd f23a 3853 87ba
000000e0: df0a 39bc 0eab d4bc 7c9e f73a 644b 8cba
000000f0: 004b 39bc a3b3 d4bc 02c9 fb3a 48f6 91ba
00000100: ff81 39bc 81ac d4bc 9477 ff3a 6462 98ba
00000110: fcb0 39bc 8994 d4bc 1257 013b c091 9fba
00000120: fed7 39bc 416b d4bc 52b1 023b 408a a7ba
00000130: 3bf7 39bc e130 d4bc decd 033b 403c b0ba
00000140: a30f 3abc 4ae5 d3bc b4a9 043b 4cab b9ba
00000150: 4d20 3abc fd88 d3bc 0b48 053b f4cc c3ba
00000160: 992b 3abc 5c1c d3bc e5aa 053b 749d ceba
00000170: 3a30 3abc f29f d2bc 64d8 053b a004 daba
00000180: 8531 3abc 5115 d2bc 1bd1 053b e0ef e5ba
00000190: e52e 3abc 767d d1bc c8a0 053b d45b f2ba
000001a0: b32a 3abc fed8 d0bc 5546 053b 0438 ffba
000001b0: 9d24 3abc d129 d0bc d3c9 043b fe30 06bb
000001c0: 981e 3abc 0471 cfbc b32d 043b f0e9 0cbb
000001d0: 8819 3abc 7baf cebc 7f7c 033b 6fac 13bb
000001e0: cc15 3abc 1ee8 cdbc e4c0 023b 6772 1abb
000001f0: 9115 3abc c31b cdbc ccfb 013b b32a 21bb
00000200: bb17 3abc a94c ccbc 52be 3bbc 06af bebc
00000210: 191b 1cbb 8028 51ba 89c3 3bbc 9950 bfbc
00000220: cffe 1ebb 401b 2dba 1ac2 3bbc f0fc bfbc
00000230: 6aa3 21bb 503f 08ba 46b7 3bbc 2bb6 c0bc
00000240: ef08 24bb 2091 c5b9 37a2 3bbc 5b7c c1bc
00000250: e232 26bb 00c5 71b9 7381 3bbc 0051 c2bc
00000260: 811e 28bb 401c acb8 6055 3bbc 3534 c3bc
00000270: 2dd4 29bb 801f 9238 141c 3bbc b726 c4bc
00000280: df4f 2bbb 4081 6b39 74d6 3abc b728 c5bc
00000290: 6e8a 2cbb 90e7 c839 3186 3abc 663b c6bc
000002a0: 3f89 2dbb 0016 0f3a 0b2b 3abc be5e c7bc
000002b0: f447 2ebb e8a5 3a3a 81c6 39bc 5392 c8bc
000002c0: 58bf 2ebb a05b 673a 4b5b 39bc 6bd6 c9bc
000002d0: ecf1 2ebb 409c 8a3a 5cea 38bc ec2a cbbc
000002e0: f3d4 2ebb 1c20 a23a c675 38bc b08e ccbc
000002f0: d764 2ebb a445 ba3a 4f01 38bc 3802 cebc
00000300: 11a2 2dbb 40f1 d23a 068d 37bc dd82 cfbc
00000310: d184 2cbb 201f ec3a ab1c 37bc e90f d1bc
00000320: b30a 2bbb 64e0 023b 8eb1 36bc eba7 d2bc
00000330: e131 29bb 06df 0f3b 5f4d 36bc f648 d4bc
00000340: 06fb 26bb a604 1d3b 89f1 35bc 84f1 d5bc
00000350: c266 24bb 5241 2a3b 619f 35bc 3f9f d7bc
00000360: 2870 21bb ee8e 373b 5c58 35bc df50 d9bc
00000370: c515 1ebb 46da 443b e41c 35bc 2604 dbbc
00000380: 9e52 1abb 5c1f 523b e1ef 34bc 5bb8 dcbc
00000390: 0e35 16bb 2e57 5f3b bdcd 34bc 126c debc
000003a0: bdb4 11bb 7c70 6c3b fcb8 34bc 2a1c e0bc
000003b0: 08d0 0cbb ce5e 793b 7eb1 34bc a5c8 e1bc
000003c0: dd88 07bb 9e0c 833b 87b7 34bc b66f e3bc
000003d0: dedc 01bb 324f 893b 7bc9 34bc 2211 e5bc
000003e0: e29b f7ba ba70 8f3b e8e7 34bc a4aa e6bc
000003f0: 4bbc eaba 266b 953b e211 35bc 8e3b e8bc
-0.0109334905 -0.025376102 0.0011362005 -0.0009725946 -0.010960737 -0.02543028 0.0012032455 -0.0009544622
-0.010989062 -0.025485719 0.0012693938 -0.0009392435 -0.011018302 -0.025541043 0.0013345336 -0.000926903
-0.011047973 -0.025595862 0.0013977331 -0.00091824634 -0.011077602 -0.025649546 0.0014589904 -0.00091289775
-0.0111067705 -0.025701342 0.0015180483 -0.0009117429 -0.01113544 -0.025750387 0.0015747075 -0.00091486797
-0.011163029 -0.025796026 0.0016285789 -0.00092228455 -0.011189142 -0.025837395 0.0016798205 -0.0009341943
-0.011213807 -0.025874116 0.0017282956 -0.00095106754 -0.011236918 -0.025905281 0.0017733297 -0.0009729201
-0.011258004 -0.025930483 0.0018153435 -0.001000043 -0.011276969 -0.025949003 0.0018538828 -0.0010324484
-0.011294096 -0.025960471 0.0018891837 -0.001070362 -0.011309385 -0.025964564 0.0019209685 -0.001113602
-0.011322497 -0.025961163 0.0019490593 -0.0011626002 -0.0113337 -0.025949733 0.0019735736 -0.0012174174
-0.011343 -0.025930049 0.0019942117 -0.001278229 -0.011350448 -0.025902214 0.002011172 -0.001344569
-0.011356267 -0.02586617 0.0020242753 -0.001416543 -0.01136024 -0.025822157 0.002033713 -0.00149384
-0.011362934 -0.025770359 0.002039605 -0.0015763477 -0.011364037 -0.025711033 0.0020423168 -0.0016633458
-0.011364345 -0.02564493 0.0020418826 -0.0017542802 -0.01136372 -0.02557252 0.0020390023 -0.0018490502
-0.011362719 -0.025494095 0.002033611 -0.001947165 -0.011361268 -0.025410565 0.0020261898 -0.002047598
-0.011359833 -0.025322445 0.002016884 -0.0021501742 -0.011358626 -0.02523016 0.002006322 -0.0022533198
-0.011357736 -0.025135096 0.0019951398 -0.0023566724 -0.011357681 -0.025037652 0.001983392 -0.00245921
-0.011358197 -0.024938898 -0.01145895 -0.023276817 -0.0023819862 -0.0007978752 -0.011460193 -0.023353862
-0.0024260764 -0.0006603487 -0.011459852 -0.02343604 -0.0024664053 -0.00051974226 -0.01145727 -0.023524364
-0.002502974 -0.00037682895 -0.011452249 -0.023618868 -0.0025359918 -0.00023056939 -0.011444437 -0.023720264
-0.0025652947 -8.206861e-05 -0.011433929 -0.023828605 -0.002591382 6.96769e-05 -0.011420269 -0.023944242
-0.0026140136 0.00022459496 -0.011403669 -0.024067266 -0.0026327628 0.000383195 -0.011384533 -0.024198245
-0.002647951 0.00054582953 -0.011362801 -0.024337169 -0.002659318 0.0007120059 -0.011338831 -0.024483835
-0.0026664343 0.0008825604 -0.01131327 -0.024638375 -0.002669449 0.001057513 -0.011286344 -0.02480074
-0.002667722 0.0012369188 -0.011258548 -0.024970382 -0.0026610398 0.0014211428 -0.011230781 -0.025147542
-0.0026494304 0.0016093627 -0.011203056 -0.025330955 -0.0026324282 0.0018014647 -0.011176269 -0.025520282
-0.0026098907 0.0019970173 -0.011150731 -0.025714835 -0.0025817084 0.0021953 -0.011126845 -0.025913697
-0.0025479211 0.002395907 -0.01110495 -0.02611614 -0.0025085662 0.0025978875 -0.011085362 -0.026321052
-0.00246335 0.0028008777 -0.01106843 -0.02652782 -0.0024121862 0.0030037328 -0.011054251 -0.026735377
-0.002354778 0.0032062149 -0.01104352 -0.026943376 -0.0022919807 0.0034079063 -0.01103538 -0.027151141
-0.0022232973 0.0036077788 -0.011030432 -0.02735718 -0.00214863 0.0038050893 -0.011028646 -0.027561495
-0.0020680942 0.003999307 -0.011030084 -0.027763229 -0.0019815485 0.004190349 -0.011034365 -0.027962271
-0.0018891061 0.0043774517 -0.011041619 -0.02815754 -0.0017908899 0.004559892 -0.011051627 -0.02834871

momentum_buffer f4 [10, 5, 1, 1, 1]
00000000: 80f5 1838 6893 d33c f03d 033a 64b5 07b9
00000010: 8591 b43b d997 7dbb 700a 5f3c 8995 dcba
00000020: f816 293a 1c25 813c aa47 043c cbd6 bbbc
00000030: 93ca 36bc 04c7 23bc 9a00 bebc f810 7439
00000040: 40c4 0639 8e9e 61b8 0001 8335 2a5d 34b9
00000050: f8bd 0dbc 6fd2 2d3d 6e28 c63a c931 8b3a
00000060: 9261 df3c c86a 6d3a 830d 96ba 9854 81b9
00000070: e46a 9cb6 6440 d7b9 2b26 6cbd 7ae3 b13c
00000080: a0b7 f73c 0815 723a 06bf 79bd af0d 413a
00000090: 3579 bd3b db39 2e3b 9c41 2839 f17f 053b
000000a0: c780 9abc 7b19 b7bd da51 c4bb 157c f739
000000b0: b007 eebc b2ce 3b3d 7568 aebc 2467 d3bb
000000c0: 5e97 b7ba 9afd 253d
3.6468264e-05 0.025827125 0.0005006483 -0.00012942177 0.0055105113 -0.0038695245 0.013613328 -0.0016829233
0.0006450261 0.015764765 0.008073727 -0.02292957 -0.011156696 -0.0099961795 -0.023193646 0.00023275975
0.00012852345 -5.3791846e-05 9.760552e-07 -0.00017200844 -0.008651249 0.042437013 0.001511825 0.0010619696
0.027268205 0.0009056744 -0.0011448119 -0.00024667825 -4.661606e-06 -0.0004105597 -0.057653587 0.021714915
0.030238926 0.0009234701 -0.06097319 0.0007364405 0.0057822713 0.0026584778 0.0001604617 0.0020370448
-0.018860234 -0.08940407 -0.005991203 0.0004720396 -0.0290564 0.045851417 -0.021290043 -0.0064515043
-0.0014006903 0.040525056
