scripts/python/deep-learning/experiments/cnn3d/006/model-cnn3d-epoch-14.pth (torch_old, 5767 bytes, 9 tensors)

conv1.weight f4 [1, 100, 1, 1, 1]
0	0x3c03ca9d	0.008043912
1	0x3d3cc4be	0.046086065
2	0xbc32deae	-0.010917349
3	0x3e05ea64	0.13077694
4	0x3e11ac6a	0.14225927
5	0x3d67805b	0.056518894
6	0x3e1ccfdf	0.15313672
7	0x3e1a54ef	0.15071462
8	0x3c9c1625	0.019053528
9	0x3d16a137	0.03677484
10	0x3e018f06	0.12652215
11	0x3df6a425	0.12043027
12	0x3dee4bf9	0.116355844
13	0x3e0da878	0.13833797
14	0x3c647832	0.013944672
15	0x3d1bbb7e	0.038020603
16	0x3e2dae9e	0.16961142
17	0x3c174986	0.009233838
18	0x3e16515f	0.14679478
19	0x3ceccdc4	0.02890671
20	0x3b367063	0.0027837984
21	0x3e19a13b	0.15002911
22	0x3dc3a498	0.09552878
23	0x3dcd07a7	0.10011225
24	0x3e042bda	0.12907353
25	0x3c565970	0.013082847
26	0x3db24a3a	0.08705564
27	0xbcfa59c7	-0.030560387
28	0x3e015044	0.12628275
29	0xbd333ff6	-0.04376217
30	0x3bcb4669	0.006203462
31	0xbcacfad0	-0.02111569
32	0x3dc1bf85	0.094603576
33	0x3d95f90e	0.07322894
34	0x3de82547	0.11335235
35	0x3cafc5b2	0.021456573
36	0x3d8e2ce4	0.06942156
37	0x3c4be69d	0.012445119
38	0xbd8b1040	-0.06790209
39	0x3d52a9be	0.05143141
40	0xbb1a0f87	-0.002350779
41	0xbd59c971	-0.053170625
42	0xbd9beb85	-0.07613281
43	0x3c97880f	0.018497495
44	0xbddcb203	-0.107761405
45	0xbe03850d	-0.12843724
46	0xbd8a786a	-0.067612484
47	0x3c92022c	0.017823301
48	0xbd429d77	-0.04751345
49	0xbe296db0	-0.16545749
50	0xbde3f1a8	-0.11130077
51	0xbe2a8fbf	-0.16656397
52	0xbd214de9	-0.03938094
53	0xbe1c48d9	-0.15262164
54	0xbdfd1544	-0.12357572
55	0xbd26ec82	-0.040752895
56	0xbe0eb7e0	-0.1393733
57	0xbd93733d	-0.07199714
58	0xbde8b9fa	-0.11363597
59	0xbe38127b	-0.179758
60	0xbd93f26a	-0.07223971
61	0xbd826b9a	-0.063681796
62	0xbe48385d	-0.19552751
63	0xbe1e83a0	-0.15479898
64	0xbd02fe09	-0.031980548
65	0xbe164502	-0.14674762
66	0xbddfe80c	-0.10932931
67	0xbddcdfff	-0.10784911
68	0xbdb6957e	-0.08915232
69	0xbd1e93f0	-0.038715303
70	0xbe2a2780	-0.1661663
71	0xbe30a5aa	-0.17250696
72	0xbd7785b0	-0.06043023
73	0xbcb20c17	-0.02173428
74	0xbdf18f85	-0.11794952
75	0xbe11da2d	-0.14243384
76	0xbd585423	-0.052814614
77	0xbe05f1fd	-0.13080592
78	0xbe35f2ce	-0.17768404
79	0xbe60c4f5	-0.21950133
80	0xbe2ebe83	-0.17064862
81	0xbce3440b	-0.027742406
82	0xbce798e7	-0.028271152
83	0xbde0d69e	-0.10978435
84	0xbe344913	-0.17606
85	0xbe38fefd	-0.1806602
86	0xbe055fb1	-0.13024785
87	0xbdd0dbfa	-0.10198207
88	0xbe256460	-0.16151571
89	0xbd603026	-0.054733418
90	0xbdf4a201	-0.11944962
91	0xbdb4aa36	-0.08821528
92	0xbd17e789	-0.037086044
93	0xbe0b6f36	-0.13616642
94	0xbe04a3f2	-0.12953165
95	0xbd566d3b	-0.052350264
96	0xbd971b52	-0.07378258
97	0xbd98cb43	-0.07460644
98	0xbe227ae7	-0.15867196
99	0xbe52a5bb	-0.20571034

fc1.weight f4 [9, 22]
0	0xbddcdf0e	-0.10784732
1	0x3e1e3690	0.15450501
2	0x3e3f787d	0.18698306
3	0xbcee3d50	-0.02908197
4	0xbc5e53be	-0.01356977
5	0xbbf6afa5	-0.0075282627
6	0xbc2822eb	-0.010262231
7	0x3c8e5bea	0.017377812
8	0x3c0579c0	0.008146703
9	0x3dc0d710	0.0941602
10	0x3e9cdb75	0.30636182
11	0xb93ff7b0	-0.0001830745
12	0xbcc2cd33	-0.023779487
13	0x3c8bd6af	0.017070143
14	0xbd945e97	-0.07244604
15	0x3e070b0d	0.1318781
16	0x3e7443cb	0.23853986
17	0x3e155205	0.14582069
18	0x3e130c9c	0.14360279
19	0xbe156b73	-0.1459177
20	0xbdb63705	-0.08897213
21	0xbd3b3a22	-0.045709737
22	0xbd31b5fb	-0.04338644
23	0xbebdfb43	-0.3710576
24	0xbece0286	-0.402363
25	0xbeae1936	-0.3400361
26	0xbe2d9bf7	-0.16954027
27	0xbf0ca04f	-0.5493211
28	0xbe5c21b5	-0.21497233
29	0xbe116b45	-0.14201076
30	0xbda6e8fb	-0.08149906
31	0xbe7555e7	-0.2395855
32	0xbee7465e	-0.45170873
33	0xbe965027	-0.29358026
34	0xbeb1d536	-0.3473298
35	0xbe96bc43	-0.29440507
36	0xbe4a4108	-0.1975137
37	0xbee250c9	-0.4420226
38	0xbf0235f7	-0.50863594
39	0xbecedee1	-0.40404418
40	0xbd1ce351	-0.038302723
41	0xbefe1e6d	-0.49632588
42	0xbebb9adc	-0.36641586
43	0xbe2c4df9	-0.16826619
44	0xbeda999c	-0.4269532
45	0x3d5eb6c8	0.054373533
46	0xbf04d577	-0.5188822
47	0xbf0904d4	-0.5352299
48	0xbee356ec	-0.44402254
49	0xbebb5382	-0.3658715
50	0xbede0aa8	-0.43367505
51	0xbe660fd9	-0.22466983
52	0xbecc5f52	-0.39916474
53	0xbec90a57	-0.392657
54	0xbf0bd928	-0.5462823
55	0xbd35bc55	-0.04436906
56	0xbeddf808	-0.43353295
57	0xbeb7916f	-0.35853145
58	0xbeed8071	-0.46387056
59	0xbebde115	-0.37085786
60	0xbddf5d47	-0.10906463
61	0xbdf1c73d	-0.1180558
62	0xbdff0cd9	-0.12453622
63	0xbef11efa	-0.47093946
64	0xbe0a9df9	-0.13536824
65	0xbe73f3a9	-0.23823418
66	0x3cafe574	0.021471716
67	0x3e545b51	0.2073796
68	0x3daf1586	0.08549027
69	0x3e252b85	0.16129883
70	0x3e35dce4	0.17760044
71	0x3d610ffb	0.05494688
72	0x3d50f709	0.05101684
73	0x3c5c23d9	0.013436281
74	0x3e6b496e	0.2297723
75	0x3e9d7cd2	0.30759293
76	0x3e6d82ef	0.23194478
77	0x3c03c319	0.00804212
78	0x3d78f2c5	0.060778398
79	0x3d18b962	0.03728617
80	0xbc191471	-0.0093432525
81	0xbd9b1ba2	-0.0757363
82	0x3e542754	0.20718127
83	0x3e1ab2a1	0.15107204
84	0x3d422671	0.04739994
85	0x3d91add7	0.071132354
86	0x3e8153f1	0.25259355
87	0x3da98b3a	0.082785085
88	0xbeced0ec	-0.4039377
89	0xbe8f6df7	-0.28013584
90	0xbf18e814	-0.59729123
91	0xbef9c635	-0.48784032
92	0xbdf9d0c5	-0.12198023
93	0xbf04349e	-0.5164279
94	0xbe5e0f56	-0.21685538
95	0xbe7c9dc8	-0.24669564
96	0xbeb2417b	-0.34815583
97	0xbe706b81	-0.2347851
98	0xbe8b011e	-0.2714929
99	0xbe996c63	-0.29965505
100	0xbedb7386	-0.42861575
101	0xbee3f46e	-0.44522423
102	0xbeb556c3	-0.35417756
103	0xbd8e84c0	-0.06958914
104	0xbe9b9141	-0.30384257
105	0xbe4531b3	-0.1925724
106	0x3d6d355d	0.05791222
107	0xbe959a80	-0.29219437
108	0xbe94aca5	-0.29037967
109	0xbecfa5d8	-0.40556216
110	0xbefa2017	-0.48852608
111	0xbd84bb6a	-0.06481059
112	0xbd4bb626	-0.049734257
113	0xbee003ff	-0.4375305
114	0xbe7a971b	-0.24471705
115	0xbea2217f	-0.3166618
116	0xbe04fd0f	-0.12987159
117	0xbe07619d	-0.1322083
118	0xbe4316ed	-0.19051714
119	0xbf091658	-0.5354972
120	0xbe337244	-0.17524058
121	0xbf198375	-0.5996621
122	0xbebcba8b	-0.3686107
123	0xbf0d6db8	-0.5524554
124	0xbf066f64	-0.5251372
125	0xbeba5b05	-0.36397567
126	0xbee6844c	-0.4502281
127	0xbe9956dc	-0.2994908
128	0xbe561520	-0.20906496
129	0xbe58c4f4	-0.21168882
130	0xbebe6651	-0.37187436
131	0xbe65c365	-0.22437818
132	0x3d16b878	0.036797017
133	0x3e07460c	0.13210315
134	0x3e87ebaf	0.26547
135	0x3e19722a	0.14984956
136	0x3e49ccd0	0.19707036
137	0x3ee61804	0.44940197
138	0x3e961c74	0.29318583
139	0x3dbbf86b	0.09178241
140	0x3eb85f53	0.36010227
141	0x3e7b1022	0.24517873
142	0x3ea0c19b	0.3139771
143	0x3e7535e6	0.23946342
144	0x3efe60b8	0.49683166
145	0x3eb46b38	0.3523805
146	0x3e9314fe	0.28726953
147	0x3e14873c	0.14504713
148	0x3e8cd9d3	0.27509937
149	0x3e8530c0	0.26013756
150	0xbc94e964	-0.018177696
151	0x3c8db04a	0.017295975
152	0x3ea738fb	0.3266066
153	0x3e7ea362	0.24867013
154	0xbec26c86	-0.37973422
155	0xbd6180c2	-0.055054434
156	0xbdb27260	-0.087132215
157	0xbe1c411c	-0.15259212
158	0xbe5e2e7b	-0.21697418
159	0xbf371653	-0.7151844
160	0xbe5edb3d	-0.2176332
161	0xbd8655a2	-0.06559302
162	0xbe485975	-0.19565375
163	0xbe78b414	-0.24287444
164	0xbe17246d	-0.14759989
165	0xbf1c8c1b	-0.61151284
166	0xbf0e8995	-0.55678684
167	0xbe6f5e57	-0.23375832
168	0xbee88c4d	-0.4541954
169	0xbf04b8ff	-0.5184478
170	0xbf1b4772	-0.6065589
171	0xbe9396b4	-0.28825915
172	0xbe271ec9	-0.16320337
173	0xbe5e754f	-0.21724437
174	0xbd821ba7	-0.063529305
175	0xbecfc48d	-0.40579644
176	0xbf2b9fed	-0.670409
177	0xbefa3487	-0.488682
178	0xbef2e661	-0.4744139
179	0xbebe52c3	-0.37172517
180	0xbe1b8fb0	-0.15191531
181	0xbf4800f9	-0.78126484
182	0xbe9a4fe4	-0.30139077
183	0xbec200ba	-0.3789118
184	0xbebe4f56	-0.37169904
185	0xbe522f7f	-0.20525931
186	0xbedebe04	-0.43504345
187	0xbea7d1bf	-0.3277721
188	0xbed841c2	-0.4223767
189	0xbeedf61d	-0.46476832
190	0xbefceb12	-0.49398094
191	0xbdba4b47	-0.09096389
192	0xbe8c99b8	-0.27461028
193	0xbe2e3221	-0.1701131
194	0x3c81e5c1	0.015856626
195	0xbdbdd60c	-0.09269342
196	0xbeff770d	-0.49895516
197	0xbdb8510d	-0.08999834

fc1.bias f4 [9]
0	0x3db0642f	0.086128585
1	0xbf1c7ee9	-0.6113115
2	0xbef5c865	-0.4800445
3	0x3e870aeb	0.26375517
4	0xbeed1f18	-0.46312785
5	0xbef87445	-0.48526207
6	0x3ec3bf41	0.38231853
7	0xbf33ace8	-0.7018571
8	0xbf36ccbb	-0.71406144

exp_avg f4 [1, 100, 1, 1, 1]
0	0x35b73dea	1.3652582e-06
1	0x359abeed	1.1529461e-06
2	0x3576b38d	9.190342e-07
3	0x3532373a	6.639053e-07
4	0x34d010c1	3.875521e-07
5	0x33c40303	9.127509e-08
6	0xb4735118	-2.266064e-07
7	0xb517432c	-5.634963e-07
8	0xb5767380	-9.1810216e-07
9	0xb5ad1496	-1.2895496e-06
10	0xb5e0ebc0	-1.6757913e-06
11	0xb60b14f5	-2.0724813e-06
12	0xb626618e	-2.4792712e-06
13	0xb6422c7d	-2.8934148e-06
14	0xb65e2ae6	-3.3105548e-06
15	0xb67a24b9	-3.7274278e-06
16	0xb68b0ae2	-4.1437897e-06
17	0xb698db0a	-4.5554525e-06
18	0xb6a67d4a	-4.961771e-06
19	0xb6b3dd87	-5.360405e-06
20	0xb6c10687	-5.752608e-06
21	0xb6cdeade	-6.1368182e-06
22	0xb6da765c	-6.510685e-06
23	0xb6e6b780	-6.8758964e-06
24	0xb6f29caa	-7.2304e-06
25	0xb6fe1722	-7.572483e-06
26	0xb7047869	-7.895848e-06
27	0xb709a9d4	-8.2053775e-06
28	0xb70e8576	-8.494933e-06
29	0xb71307c1	-8.763688e-06
30	0xb7172531	-9.008961e-06
31	0xb71ad69c	-9.229083e-06
32	0xb71e113d	-9.4215475e-06
33	0xb720d076	-9.585279e-06
34	0xb72306bb	-9.717124e-06
35	0xb724b242	-9.816666e-06
36	0xb725d5dc	-9.884559e-06
37	0xb7266610	-9.918134e-06
38	0xb726650f	-9.917901e-06
39	0xb725d2c9	-9.883844e-06
40	0xb724b450	-9.817144e-06
41	0xb7230294	-9.716157e-06
42	0xb720d06c	-9.58527e-06
43	0xb71e15bf	-9.422597e-06
44	0xb71ae4a4	-9.23235e-06
45	0xb7174480	-9.01625e-06
46	0xb7133c9f	-8.775997e-06
47	0xb70ed375	-8.513093e-06
48	0xb70a1671	-8.230666e-06
49	0xb7047bdd	-7.896652e-06
50	0xb6fe4e8f	-7.5789353e-06
51	0xb6f33382	-7.2479606e-06
52	0xb6e7a91a	-6.9040225e-06
53	0xb6dbbe89	-6.54889e-06
54	0xb6cf8896	-6.1849814e-06
55	0xb6c319cf	-5.8144574e-06
56	0xb6b67aca	-5.438317e-06
57	0xb6a9b44e	-5.0575827e-06
58	0xb69cd091	-4.6734426e-06
59	0xb68fd1a5	-4.286138e-06
60	0xb682c4a1	-3.8971925e-06
61	0xb66b5862	-3.5069174e-06
62	0xb650fdeb	-3.1142215e-06
63	0xb636b0d3	-2.7223039e-06
64	0xb61c73ad	-2.3313144e-06
65	0xb6024982	-1.9414297e-06
66	0xb5d05a2a	-1.5523449e-06
67	0xb59c7a60	-1.1658522e-06
68	0xb551ffad	-7.8230624e-07
69	0xb4d7d0e7	-4.0198867e-07
70	0xb2d0480a	-2.4247147e-08
71	0x34bb164c	3.4847687e-07
72	0x3540756c	7.1696445e-07
73	0x3590b7f9	1.0782379e-06
74	0x35c03b46	1.4322366e-06
75	0x35eec0f9	1.7788544e-06
76	0x360e1a40	2.1174928e-06
77	0x362434a1	2.4468538e-06
78	0x3639b7b1	2.767407e-06
79	0x364ea53d	3.0792573e-06
80	0x3662fd33	3.3824006e-06
81	0x3676a790	3.675439e-06
82	0x3684e38f	3.960398e-06
83	0x368e183f	4.2347524e-06
84	0x369702af	4.500463e-06
85	0x369f95c6	4.756005e-06
86	0x36a7cd02	5.000854e-06
87	0x36af9752	5.2330224e-06
88	0x36b6ee3c	5.451757e-06
89	0x36bdd7b4	5.65775e-06
90	0x36c4504f	5.8506043e-06
91	0x36ca3fc9	6.0274947e-06
92	0x36cfabe1	6.18909e-06
93	0x36d496c4	6.335644e-06
94	0x36d8fd37	6.4667797e-06
95	0x36dcddbd	6.5823247e-06
96	0x36e0454a	6.6837865e-06
97	0x36e32e87	6.7705437e-06
98	0x36e5b825	6.846169e-06
99	0x36e7e2a5	6.9107214e-06

exp_avg_sq f4 [1, 100, 1, 1, 1]
0	0x351ef546	5.9216507e-07
1	0x351ed05f	5.9162807e-07
2	0x351eb588	5.912375e-07
3	0x351ea488	5.909901e-07
4	0x351e9dbc	5.908912e-07
5	0x351ea06f	5.909305e-07
6	0x351eac0c	5.910995e-07
7	0x351ec153	5.914091e-07
8	0x351edeba	5.9183697e-07
9	0x351f03d8	5.923771e-07
10	0x351f3046	5.9302363e-07
11	0x351f629f	5.937563e-07
12	0x351f9ac5	5.9457335e-07
13	0x351fd7c0	5.9546073e-07
14	0x352018f0	5.9640934e-07
15	0x35205d41	5.9740347e-07
16	0x3520a488	5.984407e-07
17	0x3520ee05	5.995101e-07
18	0x3521394a	6.006054e-07
19	0x3521855b	6.017123e-07
20	0x3521d21e	6.0282935e-07
21	0x35221f75	6.039548e-07
22	0x35226cf5	6.0508256e-07
23	0x3522ba81	6.06211e-07
24	0x35230829	6.0734106e-07
25	0x35235582	6.084666e-07
26	0x3523a2d1	6.095916e-07
27	0x3523ef37	6.1070335e-07
28	0x35243ae0	6.1180435e-07
29	0x352485c0	6.128939e-07
30	0x3524cf6e	6.139661e-07
31	0x352516f4	6.150069e-07
32	0x35255c4c	6.16016e-07
33	0x35259e64	6.169778e-07
34	0x3525dd44	6.1789274e-07
35	0x3526186d	6.1875363e-07
36	0x35264f8e	6.1955586e-07
37	0x35268215	6.2029113e-07
38	0x3526b098	6.2096797e-07
39	0x3526dadd	6.2158307e-07
40	0x352700c4	6.221346e-07
41	0x35272264	6.2262393e-07
42	0x3527403c	6.230582e-07
43	0x35275a4a	6.2343736e-07
44	0x352770e7	6.237664e-07
45	0x352784d9	6.2405667e-07
46	0x35279624	6.243083e-07
47	0x3527a54a	6.2452875e-07
48	0x3527b2d7	6.2472594e-07
49	0x3526becc	6.2117465e-07
50	0x3526cb12	6.2135325e-07
51	0x3526d77f	6.2153407e-07
52	0x3526e54a	6.217348e-07
53	0x3526f450	6.219534e-07
54	0x35270596	6.2220477e-07
55	0x352719f1	6.22501e-07
56	0x3527313c	6.2283993e-07
57	0x35274c5a	6.2323454e-07
58	0x35276bac	6.236903e-07
59	0x35278f51	6.24209e-07
60	0x3527b7dd	6.2479904e-07
61	0x3527e55c	6.254611e-07
62	0x35281735	6.261865e-07
63	0x35284e00	6.269838e-07
64	0x352888f1	6.2784153e-07
65	0x3528c81d	6.287608e-07
66	0x35290b05	6.297344e-07
67	0x35295188	6.307605e-07
68	0x35299b84	6.318371e-07
69	0x3529e7be	6.3294635e-07
70	0x352a3643	6.3408896e-07
71	0x352a8694	6.352577e-07
72	0x352ad874	6.3644916e-07
73	0x352b2bfa	6.376646e-07
74	0x352b80f9	6.3890144e-07
75	0x352bd6cd	6.401504e-07
76	0x352c2e08	6.414198e-07
77	0x352c86c6	6.4271114e-07
78	0x352ce10d	6.4402485e-07
79	0x352d3da6	6.453723e-07
80	0x352d9c45	6.4674924e-07
81	0x352dfdcf	6.481686e-07
82	0x352e626a	6.496326e-07
83	0x352ecaa4	6.511493e-07
84	0x352f3670	6.52718e-07
85	0x352fa660	6.543469e-07
86	0x35301a61	6.5603496e-07
87	0x35309295	6.5778414e-07
88	0x35310e92	6.595884e-07
89	0x35318e3d	6.614462e-07
90	0x35321074	6.633411e-07
91	0x35329575	6.6527656e-07
92	0x35331c89	6.672422e-07
93	0x3533a3e7	6.6921206e-07
94	0x35342bb5	6.711883e-07
95	0x3534b35b	6.731622e-07
96	0x35353984	6.751145e-07
97	0x3535bd13	6.7702894e-07
98	0x35363e0a	6.789056e-07
99	0x3536bb5a	6.8072916e-07

exp_avg f4 [9, 22]
0	0x3acf64d0	0.0015822891
1	0x3a81daaa	0.0009907086
2	0x3aa3b8ea	0.0012491022
3	0x3a955acd	0.0011394859
4	0x3ab1b658	0.0013558371
5	0x38004bc2	3.0588133e-05
6	0x3a94c27c	0.0011349465
7	0x3a8b00a0	0.0010605045
8	0x3a8e9e8a	0.0010880989
9	0x3a8e7207	0.0010867723
10	0x3a9bef15	0.0011896814
11	0x3a425020	0.0007412452
12	0x3a87ca8a	0.0010360044
13	0x3a9a98c2	0.0011794793
14	0x3a8730d4	0.0010314235
15	0x3a999eb6	0.0011720273
16	0x3ac09a8e	0.0014694498
17	0x3a8a1621	0.0010535159
18	0x3a86a5df	0.0010272822
19	0x3a965a95	0.0011471087
20	0x3a8d8a87	0.0010798731
21	0x3aa5b0d9	0.0012641206
22	0x3666e050	3.4403238e-06
23	0x3666e050	3.4403238e-06
24	0x3666e052	3.4403242e-06
25	0x3666e052	3.4403242e-06
26	0x3666e050	3.4403238e-06
27	0x3666e050	3.4403238e-06
28	0x3666e050	3.4403238e-06
29	0x3666e050	3.4403238e-06
30	0x3666e052	3.4403242e-06
31	0x3666e050	3.4403238e-06
32	0x3666e050	3.4403238e-06
33	0x3666e050	3.4403238e-06
34	0x3666e050	3.4403238e-06
35	0x3666e050	3.4403238e-06
36	0x3666e050	3.4403238e-06
37	0x3666e050	3.4403238e-06
38	0x3666e050	3.4403238e-06
39	0x3666e050	3.4403238e-06
40	0x3666e050	3.4403238e-06
41	0x3666e050	3.4403238e-06
42	0x3666e050	3.4403238e-06
43	0x3666e050	3.4403238e-06
44	0xb5d2925f	-1.5688819e-06
45	0xb5d29284	-1.5688861e-06
46	0xb5d2925d	-1.5688817e-06
47	0xb5d29265	-1.5688826e-06
48	0xb5d2925f	-1.5688819e-06
49	0xb5d29277	-1.5688846e-06
50	0xb5d2925f	-1.5688819e-06
51	0xb5d29262	-1.5688822e-06
52	0xb5d2925b	-1.5688814e-06
53	0xb5d29262	-1.5688822e-06
54	0xb5d29263	-1.5688823e-06
55	0xb5d292b3	-1.5688914e-06
56	0xb5d29261	-1.5688821e-06
57	0xb5d29262	-1.5688822e-06
58	0xb5d2925f	-1.5688819e-06
59	0xb5d29262	-1.5688822e-06
60	0xb5d29265	-1.5688826e-06
61	0xb5d2925f	-1.5688819e-06
62	0xb5d29263	-1.5688823e-06
63	0xb5d29267	-1.5688828e-06
64	0xb5d2925f	-1.5688819e-06
65	0xb5d29265	-1.5688826e-06
66	0x3818b84a	3.6411257e-05
67	0x3814ae59	3.5448324e-05
68	0x38185fab	3.632872e-05
69	0x38182338	3.6272424e-05
70	0x3818624d	3.6331174e-05
71	0x3811ef53	3.4793582e-05
72	0x3817ce56	3.619337e-05
73	0x3817d60a	3.6200545e-05
74	0x3818d221	3.643532e-05
75	0x3817a08c	3.6150726e-05
76	0x381839fc	3.6293626e-05
77	0x380efc64	3.4090495e-05
78	0x3817fd44	3.6237077e-05
79	0x38182c8c	3.628111e-05
80	0x3817f466	3.622882e-05
81	0x3817fb97	3.6235517e-05
82	0x381859d7	3.6323294e-05
83	0x3817904a	3.6135585e-05
84	0x381795e7	3.6140813e-05
85	0x3817ece0	3.6221812e-05
86	0x3817edb8	3.62226e-05
87	0x38171fc6	3.6030797e-05
88	0x358eef51	1.0649475e-06
89	0x358eef51	1.0649475e-06
90	0x358eef51	1.0649475e-06
91	0x358eef51	1.0649475e-06
92	0x358eef51	1.0649475e-06
93	0x358eef51	1.0649475e-06
94	0x358eef51	1.0649475e-06
95	0x358eef51	1.0649475e-06
96	0x358eef51	1.0649475e-06
97	0x358eef51	1.0649475e-06
98	0x358eef51	1.0649475e-06
99	0x358eef51	1.0649475e-06
100	0x358eef51	1.0649475e-06
101	0x358eef51	1.0649475e-06
102	0x358eef51	1.0649475e-06
103	0x358eef51	1.0649475e-06
104	0x358eef51	1.0649475e-06
105	0x358eef51	1.0649475e-06
106	0x358eef51	1.0649475e-06
107	0x358eef51	1.0649475e-06
108	0x358eef51	1.0649475e-06
109	0x358eef51	1.0649475e-06
110	0x363035f3	2.6257446e-06
111	0x363035f3	2.6257446e-06
112	0x363035f3	2.6257446e-06
113	0x363035f3	2.6257446e-06
114	0x363035f3	2.6257446e-06
115	0x363035f3	2.6257446e-06
116	0x363035f3	2.6257446e-06
117	0x363035f3	2.6257446e-06
118	0x363035f3	2.6257446e-06
119	0x363035f3	2.6257446e-06
120	0x363035f3	2.6257446e-06
121	0x363035f3	2.6257446e-06
122	0x363035f3	2.6257446e-06
123	0x363035f3	2.6257446e-06
124	0x363035f3	2.6257446e-06
125	0x363035f3	2.6257446e-06
126	0x363035f3	2.6257446e-06
127	0x363035f3	2.6257446e-06
128	0x363035f3	2.6257446e-06
129	0x363035f3	2.6257446e-06
130	0x363035f3	2.6257446e-06
131	0x363035f3	2.6257446e-06
132	0x37171b99	9.006727e-06
133	0x37171b99	9.006727e-06
134	0x37171b99	9.006727e-06
135	0x37171b99	9.006727e-06
136	0x37171b99	9.006727e-06
137	0x37171b99	9.006727e-06
138	0x37171b99	9.006727e-06
139	0x37171b99	9.006727e-06
140	0x37171b99	9.006727e-06
141	0x37171b99	9.006727e-06
142	0x37171b99	9.006727e-06
143	0x37171b99	9.006727e-06
144	0x37171b99	9.006727e-06
145	0x37171b99	9.006727e-06
146	0x37171b99	9.006727e-06
147	0x37171b99	9.006727e-06
148	0x37171b99	9.006727e-06
149	0x37171b99	9.006727e-06
150	0x37171b99	9.006727e-06
151	0x37171b99	9.006727e-06
152	0x37171b99	9.006727e-06
153	0x37171b99	9.006727e-06
154	0xb3da9bd7	-1.0179763e-07
155	0xb3da9bd7	-1.0179763e-07
156	0xb3da9bd7	-1.0179763e-07
157	0xb3da9bd7	-1.0179763e-07
158	0xb3da9bd7	-1.0179763e-07
159	0xb3da9bd7	-1.0179763e-07
160	0xb3da9bd7	-1.0179763e-07
161	0xb3da9bd7	-1.0179763e-07
162	0xb3da9bd7	-1.0179763e-07
163	0xb3da9bd7	-1.0179763e-07
164	0xb3da9bd7	-1.0179763e-07
165	0xb3da9bd7	-1.0179763e-07
166	0xb3da9bd7	-1.0179763e-07
167	0xb3da9bd7	-1.0179763e-07
168	0xb3da9bd7	-1.0179763e-07
169	0xb3da9bd7	-1.0179763e-07
170	0xb3da9bd7	-1.0179763e-07
171	0xb3da9bd7	-1.0179763e-07
172	0xb3da9bd7	-1.0179763e-07
173	0xb3da9bd7	-1.0179763e-07
174	0xb3da9bd7	-1.0179763e-07
175	0xb3da9bd7	-1.0179763e-07
176	0x3595dc3a	1.116546e-06
177	0x3595dc3a	1.116546e-06
178	0x3595dc3a	1.116546e-06
179	0x3595dc3a	1.116546e-06
180	0x3595dc3a	1.116546e-06
181	0x3595dc3a	1.116546e-06
182	0x3595dc3a	1.116546e-06
183	0x3595dc3a	1.116546e-06
184	0x3595dc3a	1.116546e-06
185	0x3595dc3a	1.116546e-06
186	0x3595dc3a	1.116546e-06
187	0x3595dc3a	1.116546e-06
188	0x3595dc3a	1.116546e-06
189	0x3595dc3a	1.116546e-06
190	0x3595dc3a	1.116546e-06
191	0x3595dc3a	1.116546e-06
192	0x3595dc3a	1.116546e-06
193	0x3595dc3a	1.116546e-06
194	0x3595dc3a	1.116546e-06
195	0x3595dc3a	1.116546e-06
196	0x3595dc3a	1.116546e-06
197	0x3595dc3a	1.116546e-06

exp_avg_sq f4 [9, 22]
0	0x3963336e	0.00021667566
1	0x391395a5	0.0001407476
2	0x380eb1e4	3.402111e-05
3	0x389ebe2c	7.5694494e-05
4	0x38b4211c	8.589236e-05
5	0x39e3a93b	0.000434229
6	0x3880e86d	6.146808e-05
7	0x3833270a	4.2713284e-05
8	0x38be8fc9	9.086688e-05
9	0x38483647	4.7734266e-05
10	0x381f9bac	3.8053535e-05
11	0x3959b265	0.0002076119
12	0x3836d779	4.3592856e-05
13	0x37b51f37	2.1591417e-05
14	0x37e6eb1e	2.7527622e-05
15	0x37f3218b	2.8983477e-05
16	0x37ed94ae	2.8321836e-05
17	0x37b20021	2.1219314e-05
18	0x37afd0f2	2.0958923e-05
19	0x37c6be38	2.3692017e-05
20	0x380cbd96	3.3555167e-05
21	0x37f4dbf3	2.9189488e-05
22	0x3564c555	8.5223775e-07
23	0x33244f85	3.8256548e-08
24	0x33439ca0	4.5544425e-08
25	0x33c35134	9.095166e-08
26	0x342e100a	1.6210848e-07
27	0x320b2db2	8.101255e-09
28	0x347a8f0e	2.3335107e-07
29	0x33832b9d	6.108096e-08
30	0x344e7d8f	1.9230923e-07
31	0x3380402a	5.972136e-08
32	0x3354bc60	4.9531423e-08
33	0x32a478df	1.9147079e-08
34	0x32c5acb5	2.3012356e-08
35	0x328c83fa	1.6358161e-08
36	0x3307c5d0	3.1612046e-08
37	0x3338ce69	4.3028567e-08
38	0x32a92ea6	1.9695403e-08
39	0x32d9f1e9	2.5372133e-08
40	0x32737e8d	1.4173236e-08
41	0x3293b795	1.7196536e-08
42	0x32eb38c5	2.7383416e-08
43	0x3242feb9	1.1350203e-08
44	0x31b90e9f	5.385871e-09
45	0x32ca4398	2.3546633e-08
46	0x318009df	3.7264125e-09
47	0x31414b4b	2.8127995e-09
48	0x31af8264	5.107994e-09
49	0x30f123d1	1.7545237e-09
50	0x320f371d	8.336227e-09
51	0x31f78163	7.2033557e-09
52	0x318cecf3	4.1014743e-09
53	0x3144eca3	2.8656266e-09
54	0x31667112	3.3533678e-09
55	0x332225ae	3.7752834e-08
56	0x312531d9	2.4038995e-09
57	0x3107e172	1.9773236e-09
58	0x311e289d	2.3015112e-09
59	0x3240e719	1.1228416e-08
60	0x32299f5e	9.873331e-09
61	0x3140bf19	2.8048304e-09
62	0x3127420d	2.4339244e-09
63	0x311ad6b7	2.2532e-09
64	0x3184e5bc	3.8678234e-09
65	0x314d0b7a	2.983795e-09
66	0x38863019	6.398577e-05
67	0x362c774c	2.5699437e-06
68	0x3627bced	2.4994908e-06
69	0x360c82d3	2.0937775e-06
70	0x3693b68f	4.402194e-06
71	0x3639a0f5	2.7660838e-06
72	0x37daab87	2.6067499e-05
73	0x370f7f1c	8.553059e-06
74	0x362a2b30	2.5357112e-06
75	0x3607bdb7	2.0226996e-06
76	0x362c35a8	2.566123e-06
77	0x362841d7	2.5072275e-06
78	0x364621f9	2.9524074e-06
79	0x3604991f	1.975866e-06
80	0x3618ab14	2.2749346e-06
81	0x37101839	8.588709e-06
82	0x3628da95	2.5161182e-06
83	0x36478b39	2.973435e-06
84	0x360aa512	2.0659686e-06
85	0x3620f933	2.398691e-06
86	0x362a80c1	2.5406919e-06
87	0x361ff818	2.3837256e-06
88	0x32a5c738	1.9299122e-08
89	0x3283e9d4	1.535674e-08
90	0x322e410c	1.0142923e-08
91	0x325c2643	1.2814385e-08
92	0x342e6349	1.6241133e-07
93	0x31de0e40	6.4626704e-09
94	0x33f5553f	1.1424208e-07
95	0x3380f22c	6.004515e-08
96	0x32ea45e6	2.7272971e-08
97	0x3235ab00	1.05744675e-08
98	0x3337cd77	4.2794877e-08
99	0x3230f94b	1.0301231e-08
100	0x323ff4c6	1.1173318e-08
101	0x31e53357	6.670614e-09
102	0x321ec165	9.240783e-09
103	0x3388b113	6.365203e-08
104	0x32fb27e5	2.9238388e-08
105	0x32899e5f	1.6020918e-08
106	0x325f06db	1.2981867e-08
107	0x32189eec	8.883699e-09
108	0x32ed3161	2.7612886e-08
109	0x3259eac7	1.2684445e-08
110	0x32832dc1	1.5271214e-08
111	0x32e2814c	2.636866e-08
112	0x332a8290	3.9699955e-08
113	0x330d79cb	3.293989e-08
114	0x343db071	1.7666186e-07
115	0x32521dad	1.2230356e-08
116	0x344af0b8	1.8900289e-07
117	0x3408a8fc	1.2727463e-07
118	0x337fd53f	5.956576e-08
119	0x323e6dd7	1.108443e-08
120	0x3359f6c1	5.074867e-08
121	0x320852c9	7.935065e-09
122	0x32871c49	1.5728931e-08
123	0x31f5458e	7.138346e-09
124	0x321df152	9.193473e-09
125	0x33535a03	4.920913e-08
126	0x324774a7	1.1609848e-08
127	0x3280019a	1.490189e-08
128	0x326a9910	1.3655395e-08
129	0x326c7fb1	1.3766042e-08
130	0x3304ac4d	3.089035e-08
131	0x322a257b	9.903824e-09
132	0x34bcd09c	3.5169512e-07
133	0x33878eef	6.312427e-08
134	0x3373af38	5.6737207e-08
135	0x33bc67f6	8.7733426e-08
136	0x33f80d57	1.15508264e-07
137	0x32c2a88f	2.2661224e-08
138	0x34502d65	1.9388024e-07
139	0x33ba3156	8.670274e-08
140	0x33c36df3	9.100395e-08
141	0x332006bf	3.725904e-08
142	0x3372c740	5.6526233e-08
143	0x336e0087	5.5414173e-08
144	0x32f644e9	2.8669506e-08
145	0x32fb4b9c	2.9254629e-08
146	0x33144ddb	3.4529744e-08
147	0x33dc50b4	1.0259228e-07
148	0x33910ed3	6.754785e-08
149	0x330d5232	3.2903877e-08
150	0x331cb780	3.6488473e-08
151	0x335e4ca9	5.1758125e-08
152	0x33216ab2	3.7582772e-08
153	0x32f0c596	2.8029529e-08
154	0x327d44f3	1.47422154e-08
155	0x32a76b44	1.9490138e-08
156	0x3317a82f	3.531039e-08
157	0x339278d5	6.820634e-08
158	0x3402a919	1.2168711e-07
159	0x31704b33	3.4967342e-09
160	0x342568ed	1.5404994e-07
161	0x33d95b0d	1.0121412e-07
162	0x3362a72b	5.2771764e-08
163	0x32b87ba0	2.1476637e-08
164	0x3327e9ee	3.9095475e-08
165	0x31dff91b	6.518474e-09
166	0x32361a3f	1.0599762e-08
167	0x322f1356	1.0190737e-08
168	0x32366f9f	1.0619174e-08
169	0x3295a225	1.7419618e-08
170	0x3205b1d1	7.78205e-09
171	0x324b7337	1.1842352e-08
172	0x32051242	7.74577e-09
173	0x3232b06d	1.0401078e-08
174	0x3310c760	3.3708943e-08
175	0x31e98631	6.7964483e-09
176	0x314035d1	2.7970268e-09
177	0x316ba602	3.4291365e-09
178	0x314ebb71	3.0083493e-09
179	0x31d29340	6.128545e-09
180	0x331d03a3	3.655772e-08
181	0x30a7da15	1.2212832e-09
182	0x3249f830	1.1756171e-08
183	0x3217303e	8.800326e-09
184	0x31fb1623	7.307578e-09
185	0x3210eb82	8.4354514e-09
186	0x328ad54a	1.6162307e-08
187	0x31758feb	3.5734e-09
188	0x3168ef62	3.3896517e-09
189	0x3167940c	3.369908e-09
190	0x319365f5	4.2898542e-09
191	0x33446dce	4.5734673e-08
192	0x3238b0e9	1.0750434e-08
193	0x31ef5ba3	6.9662334e-09
194	0x3226a920	9.700926e-09
195	0x31993148	4.4584887e-09
196	0x3159705d	3.1641527e-09
197	0x31b2c493	5.2028297e-09

exp_avg f4 [9]
0	0x3a93f2cf	0.0011287573
1	0x365d260c	3.2953712e-06
2	0xb5c9998e	-1.5020357e-06
3	0x3811751b	3.4679757e-05
4	0x35892865	1.0219052e-06
5	0x3628c951	2.5151132e-06
6	0x3710cf2c	8.631305e-06
7	0xb3d2d7c4	-9.8181346e-08
8	0x358f8bd4	1.0695026e-06

exp_avg_sq f4 [9]
0	0x375411d0	1.2640332e-05
1	0x3293e550	1.7217332e-08
2	0x321934b6	8.917757e-09
3	0x35d02557	1.5508075e-06
4	0x32739003	1.4177206e-08
5	0x327c8469	1.4698437e-08
6	0x32ecf2d8	2.7584449e-08
7	0x324ef477	1.2046363e-08
8	0x32062463	7.8081e-09
