scripts/python/deep-learning/experiments/convlstm/002/model-convlstm-epoch-29.pth (torch_old, 21817 bytes, 102 tensors)

convLSTM2d1.conv_xi.weight f4 [2, 2, 1, 1]
000000 ba 59 e6 3e 08 c2 9d be cc 5e 61 be e1 20 2d bf
       0.4499033 -0.30812097 -0.22008818 -0.67628294

convLSTM2d1.conv_xi.bias f4 [2]
000000 08 94 66 3f ad 51 f5 3e
       0.9006963 0.47913876

convLSTM2d1.conv_xf.weight f4 [2, 2, 1, 1]
000000 04 9b fe 3d ea 1c 17 3f 37 91 b1 3e a3 f1 2e bf
       0.12431911 0.59028494 0.34681103 -0.6833746

convLSTM2d1.conv_xf.bias f4 [2]
000000 f7 d5 5c 3f 48 75 66 3f
       0.86263984 0.90022707

convLSTM2d1.conv_xo.weight f4 [2, 2, 1, 1]
000000 1b 69 00 3f b5 ce c6 be b5 25 43 bf 80 0e f9 bd
       0.5016038 -0.3882958 -0.7622941 -0.12160969

convLSTM2d1.conv_xo.bias f4 [2]
000000 06 03 a1 be fc 25 28 3f
       -0.3144762 0.6568296

convLSTM2d1.conv_xg.weight f4 [2, 2, 1, 1]
000000 cd 91 14 3f f7 a9 07 3f fb 28 14 3f 46 38 81 be
       0.58034974 0.5299372 0.5787503 -0.25238246

convLSTM2d1.conv_xg.bias f4 [2]
000000 01 72 36 bf 4a 98 16 bf
       -0.71267706 -0.58826125

convLSTM2d1.conv_hi.weight f4 [2, 2, 1, 1]
000000 3e 9a 27 3d 81 26 05 3f 96 b5 bf 3e 04 fd f9 3e
       0.04091858 0.5201188 0.37443227 0.48825848

convLSTM2d1.conv_hi.bias f4 [2]
000000 82 9e 86 3f 12 5a d2 be
       1.0517123 -0.41084343

convLSTM2d1.conv_hf.weight f4 [2, 2, 1, 1]
000000 ee 4e 9e bd 1f d8 42 be 2a e9 1f bf ce 8a da 3e
       -0.077298984 -0.19027756 -0.62465155 0.42684025

convLSTM2d1.conv_hf.bias f4 [2]
000000 5d 8b 8b 3e 54 ec 57 3f
       0.27254763 0.84344983

convLSTM2d1.conv_ho.weight f4 [2, 2, 1, 1]
000000 de f2 47 3f ef d9 ad 3e 7d 4f 2b 3e 14 1c 4d 3e
       0.7810496 0.33955333 0.16729541 0.20030242

convLSTM2d1.conv_ho.bias f4 [2]
000000 2e 1a 34 3f 5a 45 1f 3e
       0.7035245 0.155538

convLSTM2d1.conv_hg.weight f4 [2, 2, 1, 1]
000000 1e 42 13 3e 4e 67 6b 3e 91 25 6f 3e 65 d0 f6 bd
       0.1438069 0.22988626 0.23354174 -0.12051467

convLSTM2d1.conv_hg.bias f4 [2]
000000 6e 72 ef 3e e6 41 2c 3f
       0.4676699 0.67288053

convLSTM2d2.conv_xi.weight f4 [2, 2, 1, 1]
000000 33 da 5f bf 48 ef 80 3e 0b 50 3c 3f b4 59 66 bf
       -0.8744232 0.25182557 0.73559636 -0.89980626

convLSTM2d2.conv_xi.bias f4 [2]
000000 88 51 cc be 43 31 ae 3e
       -0.39905953 0.3402196

convLSTM2d2.conv_xf.weight f4 [2, 2, 1, 1]
000000 9d 55 82 be 99 53 47 bf 6a ac 46 3f 3c 52 c4 bd
       -0.25455943 -0.77861935 0.77606833 -0.095859975

convLSTM2d2.conv_xf.bias f4 [2]
000000 ff cc 36 3f e6 c5 03 bf
       0.7140655 -0.51473844

convLSTM2d2.conv_xo.weight f4 [2, 2, 1, 1]
000000 75 66 94 3e 29 9a 2e bf d7 8a 85 bd fb 17 a3 be
       0.2898442 -0.6820398 -0.06520622 -0.31854233

convLSTM2d2.conv_xo.bias f4 [2]
000000 e0 41 90 be 7b c1 45 3f
       -0.2817526 0.7724835

convLSTM2d2.conv_xg.weight f4 [2, 2, 1, 1]
000000 65 22 62 bf 78 8a 60 bd e8 30 c0 be e1 7c 41 3f
       -0.8833373 -0.054819554 -0.37537313 0.75581175

convLSTM2d2.conv_xg.bias f4 [2]
000000 ac 7c 3c 3f fa 8b 2f bf
       0.73627734 -0.6857296

convLSTM2d2.conv_hi.weight f4 [2, 2, 1, 1]
000000 1d bd 00 be c7 e2 af 3d de f3 e5 3d 10 c2 30 bf
       -0.12572141 0.08588176 0.112281546 -0.69046116

convLSTM2d2.conv_hi.bias f4 [2]
000000 13 64 42 3f 28 1a a8 be
       0.7593395 -0.32832456

convLSTM2d2.conv_hf.weight f4 [2, 2, 1, 1]
000000 5a 6a 75 3e 53 24 f7 be 9b b3 1b 3f 79 1c 21 bf
       0.23966351 -0.482699 0.6082093 -0.6293407

convLSTM2d2.conv_hf.bias f4 [2]
000000 75 da 71 be d2 a5 a4 3e
       -0.23618491 0.3215776

convLSTM2d2.conv_ho.weight f4 [2, 2, 1, 1]
000000 01 b6 02 3f 8b 6f 21 3e 54 a4 4a 3f 66 8d 2f be
       0.51058966 0.15765207 0.79156995 -0.17143783

convLSTM2d2.conv_ho.bias f4 [2]
000000 ca ed 82 3e 91 42 f6 3d
       0.25572044 0.12024415

convLSTM2d2.conv_hg.weight f4 [2, 2, 1, 1]
000000 7d 77 2b be 9c 65 73 be ef 18 14 bf d5 9b 8d 3e
       -0.167448 -0.2376923 -0.57850546 0.27657953

convLSTM2d2.conv_hg.bias f4 [2]
000000 ba b6 01 bf c9 c9 bd 3e
       -0.50669444 0.37068012

fc1.weight f4 [3, 110]
000000 cd 4f 5f 3c 0f 66 75 3d 99 76 2c 3e af 25 cd 3e
       0.013629866 0.059911784 0.16842116 0.40067813
000010 ee 52 10 3e 9b 89 1d be e4 a5 53 be 14 e5 c9 3c
       0.14094135 -0.15384524 -0.20668751 0.024645366
000020 20 fe 03 3e d9 ea eb bc 80 fe 7a 3a 1a 33 04 3e
       0.1288991 -0.028798508 0.00095746666 0.12910119
000030 e1 0d 09 bd 04 41 50 3e 17 14 e6 3a 1c 72 d8 3c
       -0.0334605 0.20337301 0.0017553595 0.0264216
000040 c8 6c 88 3a 11 52 17 3e 41 c8 73 3c 5e fb df bd
       0.0010408396 0.147774 0.014879287 -0.10936616
000050 e0 68 d3 3d ec 47 b8 3d 55 d9 0e bc 45 46 2b 3c
       0.10322738 0.08998093 -0.008718808 0.010453765
000060 40 f2 f0 bc 3a 66 51 3e 04 de 0c bd a3 dd d9 3c
       -0.029412389 0.20449153 -0.034391418 0.026594942
000070 5c ca ed 3c 0e 40 f2 3d 45 d1 3c bc 02 32 bf 3d
       0.029027157 0.11828624 -0.011524503 0.0933571
000080 3e fe 34 bd 09 1c 78 3d e9 a3 4e 3d 33 e8 ce 3d
       -0.044187777 0.06057361 0.050449286 0.10102882
000090 42 85 2f bc a1 ea 33 3d c6 b4 d3 3d 43 7c 19 3d
       -0.0107129235 0.04392493 0.10337214 0.03747202
0000a0 f0 5f da 3d 69 6f fd bc 51 14 84 bd 66 df 4f 3d
       0.1066283 -0.030936914 -0.064491875 0.05075016
0000b0 9f 8b c4 3d 5f a2 98 bc db 3d e7 3d 01 81 7d bc
       0.09596943 -0.018632112 0.11291095 -0.015472651
0000c0 cc ae 51 3c 10 c1 11 3e 5a 2b f5 bc f1 4e d0 3d
       0.0127980225 0.14233804 -0.029927898 0.10171307
0000d0 4f ca 1d 3e 18 4b be 3b 62 c1 33 3e d6 7d 07 be
       0.15409206 0.0058072917 0.17554238 -0.13231596
0000e0 c2 7f a1 3d 11 52 05 be 0d 77 4b be dd f5 12 be
       0.07885696 -0.13019587 -0.19869633 -0.14351602
0000f0 a6 96 e1 bd 03 26 10 be ae 23 8d bd f8 20 90 bd
       -0.11015062 -0.14077 -0.06891571 -0.07037538
000100 1f d2 eb bc b9 19 c7 bd 3b bf 40 be 80 70 02 be
       -0.028786717 -0.09721703 -0.18822949 -0.12738228
000110 01 89 fd bd 92 96 8e be 19 6b b9 bb 0a 92 92 bd
       -0.12379647 -0.2784925 -0.005658519 -0.07156761
000120 97 fc 87 bd c8 bb a9 bd 19 15 4f be 48 13 c5 bd
       -0.066399746 -0.082877696 -0.20222892 -0.09622818
000130 25 88 cd bd a4 7f 92 bd 9f f4 39 be 23 97 24 be
       -0.10035733 -0.07153252 -0.18159722 -0.16073279
000140 1d 34 7c be 53 d5 ce bd 23 23 a8 3d 8a ac c6 bd
       -0.24629255 -0.10099282 0.08209827 -0.09700878
000150 68 f8 7d bc d7 06 a5 3d ea e9 19 3d 11 4b 2a 3d
       -0.015501119 0.08057945 0.037576593 0.041575495
000160 30 a0 e1 bc 18 1b 1a be 82 b9 ea bd 63 a3 12 3c
       -0.027542204 -0.15049398 -0.11461164 0.008950087
000170 e3 76 ee bb 16 6f 17 be ed 40 1d bc 3d ee fb bd
       -0.007277356 -0.1478847 -0.009597999 -0.123013
000180 14 e3 dd bc 9f b6 aa 3d 72 e9 6c bd d9 65 d5 bc
       -0.027085818 0.083356135 -0.05783982 -0.026049541
000190 6f 46 dc bd f4 27 52 3d 75 c5 df bd 64 c3 11 be
       -0.10755622 0.051307634 -0.10926334 -0.14234692
0001a0 14 ef 6e be c4 d8 cc ba 30 5d c9 bd 42 7c 86 3b
       -0.23333389 -0.0015628566 -0.09832227 0.004104168
0001b0 13 0d 2a bd 7b b8 f8 3c 80 b9 53 bd a3 ed 97 bd
       -0.041516375 0.030361405 -0.05169058 -0.074183725
0001c0 79 58 52 3e 05 39 c3 3c 28 a9 3b bd ed e7 30 bc
       0.20541562 0.0238309 -0.045815617 -0.010797483
0001d0 37 98 89 be 18 8f f7 bd cb db fe 3d 9f 45 23 be
       -0.26873943 -0.1208784 0.12444266 -0.15944527
0001e0 64 bd 0d 3e 40 d8 3b bd 13 1c 82 3d 75 20 2e 3d
       0.13841778 -0.04586053 0.06353011 0.042511422
0001f0 fd f0 41 3d c2 de af 3c d2 0c 8d be 49 ff d2 bd
       0.047348965 0.021468524 -0.27548844 -0.10302598
000200 d4 6e d2 bd 1c 05 ea 3c 50 6d 13 3d 09 fc d8 3d
       -0.10275045 0.02856689 0.03599292 0.10594947
000210 f0 8b a9 bd a9 b4 7c 3d 85 ce c6 bc ae 8c 79 3d
       -0.08278644 0.06169573 -0.024268398 0.06092518
000220 c4 5e cf 3d 26 1c 91 bd b4 97 52 be e2 79 57 be
       0.10125497 -0.07085447 -0.20565683 -0.21042588
000230 ff 8c 49 bd 24 5f 02 be 7d 93 4d bc 53 25 40 bb
       -0.04920673 -0.12731606 -0.012547371 -0.0029319122
000240 e1 3e 5b 3d 6f bc 08 3c ba b5 1c bd 5b 02 95 bd
       0.053526763 0.008345707 -0.038259245 -0.0727584
000250 0a e8 12 be 93 ef 67 b9 1d a1 22 be 93 31 28 bd
       -0.14346328 -0.00022119125 -0.15881772 -0.041062903
000260 29 7b ce bd 2d b6 9c 3d 3f 99 d3 bd 68 46 4a bd
       -0.10082085 0.07651935 -0.10331964 -0.04938355
000270 b3 c3 35 be eb b7 4e 3d 89 f0 1b be 93 c4 55 bd
       -0.17750435 0.050468367 -0.15228476 -0.05218942
000280 06 5d cf bd 04 c2 99 3c 8b 74 74 bd 5f 9a 9b bc
       -0.10125165 0.018769272 -0.059681457 -0.018994508
000290 65 2c 5b bc 3a dc 10 3e 28 6d 81 3d 4e f8 cd 3d
       -0.013377284 0.1414651 0.06319648 0.10057126
0002a0 f0 72 d6 bd 55 fc 94 bd c3 03 7f 3c 2a 6e 6b 3d
       -0.10471141 -0.07274691 0.015564862 0.057478108
0002b0 54 79 b4 bb 2c 44 72 bd 29 99 d8 3d b4 12 36 bd
       -0.0055076275 -0.059147045 0.10576088 -0.04445143
0002c0 07 47 16 3e 35 c9 85 bd 9b 4c c7 bb e2 f1 fb 3d
       0.14675532 -0.06532518 -0.00608213 0.12301995
0002d0 ef 8f 3e bc 81 f9 1c 3e a6 c6 63 3d d5 f7 0b 3e
       -0.011630996 0.15329553 0.055609368 0.13668759
0002e0 f1 3d ad 3d b5 a9 05 3c 03 b3 54 bd 4e af 61 3b
       0.0845908 0.008158137 -0.05192853 0.0034436765
0002f0 1f ca 4e bd b3 ae a8 3d 24 04 8d 3c 3b cb 98 3d
       -0.050485726 0.08236446 0.017213888 0.07460638
000300 78 d4 05 3e f0 3e 28 3e 7b f6 64 3e 9f 9d ab 3c
       0.13069332 0.16430259 0.2235965 0.020949183
000310 e0 69 2f 3e e1 72 21 3e 91 5a 45 3c 91 07 26 bd
       0.17130232 0.15766479 0.0120455185 -0.04053456
000320 78 be 1a 3e e8 ef e1 3d 5d 11 23 3d 10 53 49 3e
       0.1511172 0.110320866 0.03981148 0.19660592
000330 9f 6b 33 3e f9 ce 33 3e f9 bc a7 3d c7 9a 38 3e
       0.17521523 0.17559423 0.081903405 0.18027793
000340 c6 00 b8 ba cb bd 42 bc 4c d2 0c bd 5f 6e 06 3e
       -0.0014038316 -0.0118860705 -0.034380242 0.1312804
000350 60 0c 3d 3d 83 3d bc 3d 53 a9 9d 3d c7 37 08 3d
       0.04615438 0.0919142 0.07698312 0.03325632
000360 99 4b 59 3d 69 90 f3 3d e9 44 14 3d 12 6d ca bd
       0.05305061 0.118927784 0.03619853 -0.09884085
000370 c0 b3 02 3e 31 0a 8a bc 62 6a 79 bd 72 86 f1 be
       0.12763882 -0.016850563 -0.06089247 -0.47172886
000380 fd 07 f4 3d 32 03 62 3e 14 db ca 3e 3e c3 13 3e
       0.11915586 0.22071531 0.39620268 0.14429948
000390 45 d5 33 be 1f 09 ce 3d a9 87 e5 3d 8c 22 14 3e
       -0.17561825 0.100603335 0.11207516 0.14466304
0003a0 2c 32 e0 3d 51 88 82 be c8 2c 9d 3d c0 7e e8 bd
       0.109470695 -0.25494626 0.07674557 -0.11352301
0003b0 ee fb 3a 3e 12 e1 d9 bd 53 10 31 3e 55 5f 15 3e
       0.18260166 -0.10638632 0.17291383 0.14587148
0003c0 5a dd b9 3d 2a 76 bd bc b6 3c 1d 3d df 00 99 bd
       0.090754226 -0.023127634 0.038387977 -0.07470869
0003d0 cd 4e f3 3d 37 be 57 be 74 2f 19 3e 18 9e 75 3d
       0.118802644 -0.21068655 0.14959508 0.059965223
0003e0 02 c8 53 3e 92 6f 89 3d 8f 79 38 3d cf 79 46 3d
       0.20681766 0.067107335 0.045037802 0.04845601
0003f0 02 14 5a 3e 11 dd 2f 3c f6 68 98 3d c1 16 72 bb
       0.21296695 0.010733859 0.07441895 -0.0036939832

fc1.bias f4 [3]
000000 d3 5f 12 3e 39 01 53 bd 3d 4c ec 3d
       0.14294367 -0.051514838 0.11537979

exp_avg_sq f4 [2, 2, 1, 1]
000000 44 30 17 37 0f ed 4d 37 12 ba dc 39 48 b2 1d 38
       9.011539e-06 1.2274147e-05 0.00042100303 3.7597754e-05

exp_avg f4 [2, 2, 1, 1]
000000 f0 7b bf bb 5c 84 02 bb 5b 7b cc bb ec cb 5e 3a
       -0.005843632 -0.0019915318 -0.006240291 0.00084990147

exp_avg_sq f4 [2]
000000 73 81 8a 38 cb ac 9b 39
       6.6044646e-05 0.00029692645

exp_avg f4 [2]
000000 df a3 66 ba 09 c4 35 bc
       -0.00087982224 -0.011094102

exp_avg_sq f4 [2]
000000 9f 87 89 36 54 ad 95 37
       4.0987065e-06 1.7842896e-05

exp_avg f4 [2]
000000 df 71 46 ba 02 f7 73 3a
       -0.00075700687 0.00093065214

exp_avg_sq f4 [2, 2, 1, 1]
000000 16 a9 7d 37 e5 09 11 38 9d a1 e0 36 6b 3d 0d 38
       1.51193435e-05 3.457991e-05 6.6945345e-06 3.367422e-05

exp_avg f4 [2, 2, 1, 1]
000000 40 bd 7f ba d8 b5 1c b9 c2 59 cf ba a8 85 9e 3b
       -0.00097556785 -0.00014945061 -0.0015819597 0.0048377104

exp_avg_sq f4 [2, 2, 1, 1]
000000 45 0d 1a 36 2a 32 8c 35 5e 2c 53 37 3e c8 31 37
       2.2955512e-06 1.0445412e-06 1.258691e-05 1.0596645e-05

exp_avg f4 [2, 2, 1, 1]
000000 d5 a0 70 ba 0a 5b ee b9 92 db 61 3a 3e ce 12 3b
       -0.0009179239 -0.00045462727 0.00086157874 0.0022400762

exp_avg_sq f4 [2, 2, 1, 1]
000000 cd d2 98 36 c1 f6 56 37 16 af 6a 37 97 2b 63 38
       4.5544934e-06 1.2812846e-05 1.3988252e-05 5.4161614e-05

exp_avg f4 [2, 2, 1, 1]
000000 2b e9 1d ba ee 8a 0c ba 3f 93 18 bb 24 94 b3 3b
       -0.00060238194 -0.00053612783 -0.0023281125 0.005480306

exp_avg_sq f4 [2]
000000 1d 9d d3 3a 03 42 80 3b
       0.0016144846 0.003914119

exp_avg f4 [2]
000000 42 be d8 bb 45 4a e4 3c
       -0.0066144774 0.027867446

exp_avg_sq f4 [2]
000000 13 fd 19 38 4f b1 59 39
       3.6713736e-05 0.00020760785

exp_avg f4 [2]
000000 f8 1f a3 b8 56 82 f3 bb
       -7.7784e-05 -0.0074313087

exp_avg_sq f4 [2, 2, 1, 1]
000000 4d b5 73 38 e5 a8 70 38 6c bb 24 39 a2 ab 6d 3a
       5.8104564e-05 5.7377754e-05 0.00015710079 0.0009066408

exp_avg f4 [2, 2, 1, 1]
000000 9b 77 b5 39 5c 5d 90 bb 5f 6a bd 3b 94 f2 81 3c
       0.00034612123 -0.0044056606 0.0057805027 0.01586274

exp_avg_sq f4 [2, 2, 1, 1]
000000 9a a3 8a 36 1c 2f ef 36 c7 7f 02 38 77 68 0a 37
       4.131766e-06 7.1282393e-06 3.1113417e-05 8.249764e-06

exp_avg f4 [2, 2, 1, 1]
000000 31 2b c8 3a ee 65 6f ba 16 61 b5 ba 8a 6c a0 3a
       0.0015271661 -0.0009132315 -0.0013838138 0.0012239378

exp_avg_sq f4 [2, 2, 1, 1]
000000 c0 b1 21 35 97 70 a2 34 b8 d6 7d 36 55 17 02 36
       6.0235834e-07 3.025677e-07 3.782492e-06 1.938509e-06

exp_avg f4 [2, 2, 1, 1]
000000 00 f3 64 b8 0d 67 c6 b9 c2 36 8a 3a b0 ba e0 39
       -5.4585747e-05 -0.00037842282 0.0010544884 0.00042863702

exp_avg_sq f4 [2, 2, 1, 1]
000000 35 80 95 37 7f 07 8b 37 73 b1 41 38 ee 6b ef 37
       1.7821885e-05 1.6573582e-05 4.618005e-05 2.8541279e-05

exp_avg f4 [2, 2, 1, 1]
000000 51 ad 20 bb 68 ad 02 bb a5 cb 33 3b a4 cd 8b b9
       -0.0024517367 -0.0019939784 0.0027434614 -0.0002666536

exp_avg_sq f4 [2]
000000 38 b7 18 39 3a d1 80 3b
       0.00014564104 0.0039311917

exp_avg f4 [2]
000000 88 62 20 ba f8 3a 22 3d
       -0.0006118198 0.03960702

exp_avg_sq f4 [2, 2, 1, 1]
000000 da 89 24 38 4b 0b c8 38 39 5c e5 38 dd 74 a9 39
       3.922903e-05 9.538847e-05 0.00010936749 0.00032321262

exp_avg f4 [2, 2, 1, 1]
000000 cd 58 85 b9 01 eb e2 3a 29 de 8a 3b b4 ac 32 bc
       -0.000254339 0.0017312468 0.0042379093 -0.010905433

exp_avg_sq f4 [2, 2, 1, 1]
000000 49 7e d4 35 6f 4b c6 36 c9 2d 2d 37 92 25 e3 37
       1.5831985e-06 5.9096415e-06 1.0322264e-05 2.7078004e-05

exp_avg f4 [2, 2, 1, 1]
000000 28 43 b0 b9 eb 32 0c ba e0 83 f0 ba e8 18 4f 3b
       -0.0003361937 -0.00053481635 -0.0018349849 0.0031600539

exp_avg_sq f4 [2, 2, 1, 1]
000000 1a 89 1b 37 d2 05 cc 37 27 98 b2 37 4e 29 ce 36
       9.270641e-06 2.4321405e-05 2.1290105e-05 6.144087e-06

exp_avg f4 [2, 2, 1, 1]
000000 cd e3 f4 3a 1a 9a 88 ba 98 ac 00 bb 12 ee ac 3a
       0.0018683613 -0.0010421902 -0.0019634124 0.0013193509

exp_avg_sq f4 [2]
000000 d4 6c a8 33 8b 41 d4 36
       7.842905e-08 6.3257226e-06

exp_avg f4 [2]
000000 9f 8d 92 b9 88 fe c9 3a
       -0.00027952806 0.0015410939

exp_avg_sq f4 [3]
000000 b7 a3 0b 3b fd 8a 8f 3a 7b 6c a1 3a
       0.0021307298 0.0010951456 0.0012315655

exp_avg f4 [3]
000000 a0 ee 96 bc 8d 52 c7 3a 6e 79 8a 3c
       -0.018424332 0.0015207097 0.016903605

exp_avg_sq f4 [3, 110]
000000 33 db d2 38 ff ea dd 38 00 03 90 38 d4 cd b0 38
       0.00010054409 0.000105818726 6.867014e-05 8.4306725e-05
000010 85 ab 9d 38 a6 62 82 38 42 d8 08 39 5f 94 24 39
       7.5182914e-05 6.217258e-05 0.00013050533 0.00015695531
000020 62 76 d8 38 c0 cc 42 39 0b 69 0a 39 e9 46 36 39
       0.00010321733 0.00018577557 0.00013199837 0.00017383289
000030 74 4a 21 39 45 1b b6 38 f7 75 d5 38 85 9d a0 38
       0.00015381892 8.6835156e-05 0.00010178604 7.658735e-05
000040 cd 6a 15 39 5e 5e da 38 09 55 03 39 db 03 b8 38
       0.00014249534 0.00010412627 0.00012524812 8.774522e-05
000050 3e 2f 09 39 4b 33 f4 38 33 db d2 38 82 67 13 39
       0.00013082937 0.00011644381 0.00010054409 0.00014057572
000060 23 06 01 39 bd 8e bd 38 ad c9 e5 38 4f 2f 19 39
       0.00012304685 9.0388094e-05 0.00010957136 0.00014608841
000070 c7 11 0d 39 c4 ce 0c 39 b2 61 e8 38 26 8b 1c 39
       0.0001345343 0.00013428467 0.00011080819 0.00014929156
000080 47 2d 1a 39 1e 74 17 39 15 85 14 39 f2 8a 2b 39
       0.00014703452 0.00014443739 0.00014163957 0.00016359592
000090 1b f4 4c 39 36 11 43 39 09 94 05 39 b9 ce 06 39
       0.00019545892 0.00018603061 0.00012739016 0.00012856246
0000a0 bb 01 20 39 e9 ab ff 38 31 e8 2b 39 52 93 17 39
       0.00015259434 0.00012191368 0.00016394329 0.00014455363
0000b0 33 db d2 38 4e 7c 1e 39 58 13 36 39 36 8f 18 39
       0.00010054409 0.00015114361 0.00017364079 0.000145492
0000c0 3b 88 37 39 fc a7 1d 39 48 0c 20 39 86 bb 0f 39
       0.0001750299 0.00015035266 0.00015263364 0.000137074
0000d0 5e 19 25 39 df e3 1f 39 13 9c e4 38 49 10 0b 39
       0.00015745076 0.0001524831 0.00010900958 0.0001326214
0000e0 2d e9 90 39 ac ec 88 39 68 3b 7e 39 ff d6 73 39
       0.0002763955 0.00026116276 0.00024245458 0.00023254378
0000f0 89 77 85 39 b9 e4 9a 39 1c ad bb 39 7a 52 7c 39
       0.00025456797 0.0002954358 0.00035796396 0.00024063318
000100 60 90 bc 39 80 41 8d 39 7f 18 b2 39 5c 50 b4 39
       0.00035965722 0.00026942417 0.00033969057 0.00034392148
000110 ba eb 80 39 84 5d 79 39 6d ab 67 39 33 8b b0 39
       0.00024589692 0.00023781328 0.00022093738 0.00033673047
000120 8a 50 74 39 ba 81 ae 39 2b fd 5d 39 ca 9e 90 39
       0.00023299656 0.0003328452 0.00021170515 0.00027584127
000130 75 ad 86 39 49 10 0b 39 e1 9d 82 39 e2 b8 74 39
       0.00025687707 0.0001326214 0.0002491316 0.00023338528
000140 a0 ef 3a 39 da 3d 78 39 10 65 9c 39 65 57 97 39
       0.0001782761 0.00023674165 0.00029829936 0.00028866078
000150 f6 b2 a7 39 12 3a 82 39 5c 4d a1 39 e1 1f 9b 39
       0.00031986058 0.00024838798 0.0003076595 0.00029587655
000160 8c 2e 92 39 a9 6e 97 39 64 7f a3 39 54 42 d2 39
       0.0002788197 0.00028883413 0.00031184696 0.0004010374
000170 26 c6 a6 39 d9 f1 81 39 cb e7 b1 39 5a bf 99 39
       0.0003180962 0.00024784988 0.0003393277 0.00029325002
000180 c3 e7 86 39 2d 0d a5 39 b8 94 99 39 49 10 0b 39
       0.00025731148 0.0003148107 0.00029293238 0.0001326214
000190 09 db 8a 39 b7 f0 a2 39 e5 32 84 39 ac 7b 9a 39
       0.00026484605 0.00031078394 0.0002521492 0.00029465312
0001a0 d0 1f 87 39 d1 96 7f 39 ca aa 82 39 68 59 86 39
       0.0002577291 0.00024374879 0.0002492278 0.00025625085
0001b0 cb 54 83 39 bd 80 5c 39 e9 3b bb 36 d9 42 cb 36
       0.00025049443 0.00021028794 5.5800087e-06 6.0576535e-06
0001c0 d9 c9 b9 36 3f 75 02 37 37 47 dc 36 95 1d 8a 36
       5.536928e-06 7.775902e-06 6.5648014e-06 4.1161643e-06
0001d0 23 4f a1 36 30 96 c7 36 52 e3 ec 36 f4 a5 f7 36
       4.8073866e-06 5.9481463e-06 7.0598117e-06 7.380493e-06
0001e0 2a 74 11 37 55 7e f5 36 61 1b f7 36 61 b6 ea 36
       8.66972e-06 7.316276e-06 7.364361e-06 6.994975e-06
0001f0 d2 87 e5 36 25 ff ff 36 39 52 ad 36 73 ea e3 36
       6.8405434e-06 7.629295e-06 5.1653738e-06 6.7924207e-06
000200 ea 4a c6 36 e3 83 d0 36 01 8b 02 37 e9 f2 12 37
       5.909581e-06 6.2142367e-06 7.780968e-06 8.758835e-06
000210 e9 3b bb 36 f0 fa 1d 37 df 5e e5 36 bc 6a 0d 37
       5.5800087e-06 9.416355e-06 6.8357763e-06 8.429106e-06
000220 ec 52 fc 36 ce 23 ba 36 a7 44 a2 36 23 da b5 36
       7.5198386e-06 5.5474e-06 4.8359684e-06 5.419615e-06
000230 c8 6a cb 36 26 1d f6 36 66 9d c2 36 e7 e7 27 37
       6.0623024e-06 7.3347646e-06 5.799974e-06 1.000797e-05
000240 8c 5e 0a 37 76 56 ee 36 de 0e fa 36 76 ee 02 37
       8.247454e-06 7.103018e-06 7.4523114e-06 7.804125e-06
000250 90 15 b2 36 c0 83 b1 36 eb f5 ce 36 a0 9e e5 36
       5.3073236e-06 5.290349e-06 6.167907e-06 6.843198e-06
000260 71 cb d4 36 fd d9 ff 36 e9 3b bb 36 32 02 13 37
       6.341776e-06 7.6249694e-06 5.5800087e-06 8.762394e-06
000270 c7 8d f2 36 c6 d1 09 37 b2 fb fb 36 ea 07 03 37
       7.228667e-06 8.214678e-06 7.509684e-06 7.810051e-06
000280 3a 5b 01 37 81 82 05 37 34 3d 10 37 66 53 1c 37
       7.7102395e-06 7.957803e-06 8.597319e-06 9.317742e-06
000290 91 da 0c 37 5d 36 9e 37 24 7b bb 37 ed 5f ea 37
       8.395539e-06 1.8860383e-05 2.2349479e-05 2.7939643e-05
0002a0 47 5d f8 37 f1 79 d7 37 b4 dc ec 37 ab fd b6 37
       2.960734e-05 2.568678e-05 2.8236165e-05 2.1814214e-05
0002b0 20 9f d6 37 00 18 d1 37 b5 72 b4 37 20 dc e5 37
       2.5584886e-05 2.4925917e-05 2.1511087e-05 2.7401431e-05
0002c0 a1 c9 b9 37 9d 23 e6 37 51 a9 d9 37 ed e4 c2 37
       2.214761e-05 2.743472e-05 2.594726e-05 2.3233204e-05
0002d0 c7 b3 d6 37 67 12 d4 37 0d 80 a7 37 51 c1 be 37
       2.5594503e-05 2.5280939e-05 1.996758e-05 2.2739785e-05
0002e0 ae 58 b9 37 cc d0 c5 37 66 30 f7 37 5d 36 9e 37
       2.2095013e-05 2.3581459e-05 2.9467232e-05 1.8860383e-05
0002f0 7e 9f d1 37 11 f1 b5 37 51 c9 b3 37 4e 5f b9 37
       2.498901e-05 2.1689137e-05 2.1432208e-05 2.2098098e-05
000300 4d a5 b3 37 ac bf a1 37 60 9c ac 37 80 af bd 37
       2.1415437e-05 1.928195e-05 2.0576816e-05 2.261228e-05
000310 c1 29 a9 37 a1 c7 a7 37 b3 9e d1 37 73 6a bd 37
       2.0165813e-05 2.000091e-05 2.4988642e-05 2.2580125e-05
000320 65 1f 9e 37 9b b6 ba 37 0c ac 9d 37 7d 26 95 37
       1.8849687e-05 2.225796e-05 1.8795974e-05 1.7780107e-05
000330 4a 1d d0 37 92 25 96 37 a1 8d b3 37 b3 78 a9 37
       2.4809171e-05 1.7898888e-05 2.1404414e-05 2.0202575e-05
000340 75 3b d2 37 5d 36 9e 37 ae 07 c6 37 c5 e6 98 37
       2.5061638e-05 1.8860383e-05 2.3607015e-05 1.8227272e-05
000350 aa ac 96 37 2d d7 8c 37 70 55 8d 37 57 82 82 37
       1.7961796e-05 1.67895e-05 1.6848295e-05 1.5557902e-05
000360 5c 34 a6 37 34 4d a5 37 f7 da bb 37 3f 21 be 37
       1.9813124e-05 1.9705483e-05 2.23941e-05 2.2665246e-05
000370 30 d5 c6 38 35 e4 d2 38 9b 67 87 38 e8 d5 a5 38
       9.481085e-05 0.00010056087 6.4566e-05 7.907656e-05
000380 e2 6e 97 38 6b 8e 76 38 3a a4 08 39 4d f3 1b 39
       7.2208946e-05 5.8783608e-05 0.0001303115 0.00014872589
000390 1c a4 d1 38 29 5d 3c 39 30 d1 03 39 6b ab 31 39
       9.996464e-05 0.00017963782 0.00012571062 0.00016943894
0003a0 0e 05 1a 39 33 40 ab 38 0e 23 cb 38 91 d4 93 38
       0.00014688467 8.1658734e-05 9.686324e-05 7.0491e-05
0003b0 97 57 12 39 7e 6f d1 38 2a 7e fd 38 ed 65 af 38
       0.00013956275 9.986664e-05 0.0001208748 8.3636354e-05
0003c0 a4 4b 01 39 fe 4f e1 38 30 d5 c6 38 f3 af 0c 39
       0.00012330577 0.00010743736 9.481085e-05 0.00013416987
0003d0 ca de f5 38 6f 63 b2 38 7e 7b d9 38 d2 59 15 39
       0.00011724008 8.5062224e-05 0.000103703685 0.00014243208
0003e0 b2 7d 09 39 d4 5a 06 39 a9 ca e0 38 8d c2 15 39
       0.00013112163 0.00012813072 0.00010718901 0.00014282223
0003f0 c1 9c 13 39 c0 aa 0d 39 46 18 0d 39 f8 df 25 39
       0.00014077408 0.00013510417 0.0001345585 0.00015819061

exp_avg f4 [3, 110]
000000 34 7b fb bb 6f 6f 2e bb 52 a8 20 bb c8 d7 02 bc
       -0.007674599 -0.0026616713 -0.002451439 -0.007986017
000010 35 ba 15 bb ba a6 06 bb d7 8a d7 bb 66 da a3 bb
       -0.0022846584 -0.0020546154 -0.0065778303 -0.0050004004
000020 3a 5a 0b bb 5b a3 01 bc d5 41 dd bb ed 34 57 bc
       -0.0021263496 -0.007912482 -0.0067522326 -0.013135177
000030 3c 43 42 bc a5 fa 05 bc 05 23 df ba ed d7 92 bb
       -0.01185685 -0.008177434 -0.0017023986 -0.0044813068
000040 16 00 3e bc 65 82 82 bb 2d a1 aa b9 9a 17 a0 ba
       -0.0115967 -0.0039828294 -0.00032545012 -0.0012214065
000050 24 60 ae bb 96 08 34 bb 34 7b fb bb b9 d3 d1 bb
       -0.0053215194 -0.0027470938 -0.007674599 -0.006403413
000060 b1 68 d7 bb ea 09 9e bb 6e b7 a1 bb 7a 86 65 bc
       -0.0065737595 -0.004822959 -0.0049351966 -0.0140091125
000070 9c 07 ee bb 7a 4d c7 bb 85 1a 85 bb bd 9b 90 bb
       -0.0072640907 -0.006082234 -0.0040619993 -0.0044130967
000080 d2 7a dc bb 08 f9 1a bc d9 83 17 bc 4c 4c ec bb
       -0.0067285085 -0.009458788 -0.0092477435 -0.0072112437
000090 bf 9c 66 bb 3b cc 1b bc bb f0 23 bc 2e 39 a1 bb
       -0.0035188643 -0.009509142 -0.010006125 -0.0049201464
0000a0 fe f8 0b bc 45 02 d3 bb e0 97 d8 bb 63 39 ff bb
       -0.008543251 -0.0064394795 -0.006609902 -0.0077888235
0000b0 34 7b fb bb 35 cc ee bb 63 a2 11 bc 34 52 60 bb
       -0.007674599 -0.007287527 -0.008888814 -0.0034228684
0000c0 7a 68 cf bb 02 3c 1f bc 04 14 ea bb 41 44 93 bb
       -0.0063295932 -0.009718897 -0.0071434993 -0.0044942205
0000d0 e2 d3 b5 bb 6c 95 05 bc d3 fa 64 bb 82 7a c8 3b
       -0.00554894 -0.008153301 -0.0034939542 0.0061181197
0000e0 e8 5f 05 3c 7a e2 3f 3c 2e 5c 3e 3c 4d 71 93 3b
       0.008140542 0.011711711 0.011618657 0.0044995905
0000f0 4a d5 a3 3b ca dc 59 3c 0a 66 2a 3c 16 33 e5 3b
       0.0049997913 0.013297269 0.010400305 0.0069946153
000100 0a 87 06 3c a0 de bf 3b af f1 64 3c 93 d4 78 3c
       0.008210907 0.0058553964 0.0139736375 0.0151874
000110 1e 0b 34 3c ce 5e 3d 3c 0d 09 c3 3b 3c 0e 4b 3c
       0.010988979 0.011558248 0.0059520067 0.01239353
000120 c5 c7 0b 3a de ab 55 3c 27 bf ce 3b f2 6d 1a 3c
       0.0005332197 0.013041465 0.006309408 0.009425627
000130 bb bc 72 3b 82 7a c8 3b 15 03 ae 3b d8 1b cc 3b
       0.0037038762 0.0061181197 0.005310426 0.006228905
000140 6e 9a f5 3b 07 8d 11 3c c0 51 3e 3c 4c f2 35 3c
       0.007495216 0.008883721 0.01161617 0.011105131
000150 0e 80 0b 3c b8 12 a9 3b bf 9b 21 3c ec 61 bb 3b
       0.008514417 0.005159702 0.009863793 0.0057184603
000160 0a 60 f6 3b 71 f2 5b 3c c3 c2 38 3c 39 8c 4c 3c
       0.007518773 0.013424502 0.011276904 0.012484604
000170 2f 25 13 3c d5 3c 0e 3c 84 24 73 3c 3e ff ea 3b
       0.008981033 0.008681496 0.014840249 0.0071715405
000180 4a aa 17 3c df 21 05 3c 27 b6 e3 3b 82 7a c8 3b
       0.009256909 0.008125751 0.0069492045 0.0061181197
000190 c5 4b a6 3b 3b bb 48 3c b5 a6 c6 3b da 39 1f 3c
       0.0050749504 0.0122516705 0.0060623535 0.009718383
0001a0 03 96 30 3c 3b bb bd 3b fd d5 88 3b d2 93 7c 3b
       0.010777953 0.005790142 0.0041759 0.0038540256
0001b0 c4 ec fb 3b 8c 01 ac 3a f7 78 26 3a 52 f4 0d b9
       0.007688137 0.001312302 0.00063504226 -0.00013537824
0001c0 e1 18 e5 b9 fe 17 13 b9 52 37 bf b7 67 1a c9 b9
       -0.0004369682 -0.0001402795 -2.2794735e-05 -0.0003835738
0001d0 a9 1d 58 3a d3 b8 94 39 e6 ee 55 39 f0 ea 0e 3a
       0.0008244166 0.00028366465 0.0002040226 0.00054518785
0001e0 9b 3f c2 b8 f6 c4 23 3a 95 46 ce b9 2a 25 f9 b8
       -9.262488e-05 0.0006247306 -0.0003934397 -0.000118801676
0001f0 2f 43 da 39 20 9d c8 b9 82 5f 92 3a df 16 c8 39
       0.00041630256 -0.0003826404 0.001116738 0.00038164013
000200 6c fc b9 39 9c 25 9e b5 a2 59 41 38 69 62 54 b9
       0.0003547402 -1.1782863e-06 4.6098263e-05 -0.00020254556
000210 f7 78 26 3a 35 66 eb 38 c2 54 f8 36 ff 85 51 b8
       0.00063504226 0.00011224711 7.400843e-06 -4.9954277e-05
000220 8c ce f1 36 7e d7 37 3a 98 1f 79 3a 73 b9 19 3a
       7.206405e-06 0.0007013007 0.0009503304 0.0005864121
000230 de da 56 39 7c 4d a9 39 27 fa 17 3a a0 23 8f 38
       0.00020490165 0.00032291922 0.00057974685 6.825407e-05
000240 6d dd f7 37 12 4c 2c 3a 2f 1f f8 39 09 88 05 3a
       2.9547804e-05 0.00065726147 0.0004732548 0.0005093818
000250 7a 32 04 3a f1 36 e8 b8 cd cc 42 3a 72 13 9a b8
       0.0005042922 -0.00011072856 0.00074310304 -7.346914e-05
000260 28 06 13 3a 2d 52 15 39 f7 78 26 3a ab 53 fa 38
       0.00056085223 0.0001424036 0.00063504226 0.00011936513
000270 13 44 58 3a 17 a1 dd 39 08 b1 21 3a ae cd e8 39
       0.000824989 0.00042272426 0.00061680423 0.00044403732
000280 68 46 e0 39 e5 e1 09 39 74 a0 24 3a 4e 8d 6c 38
       0.00042777066 0.0001314949 0.0006280013 5.6398385e-05
000290 49 b1 cf b8 9c e9 03 ba 1c 8d 9a b8 ec e8 17 ba
       -9.903551e-05 -0.0005032064 -7.369576e-05 -0.0005794901
0002a0 c0 e3 e2 38 18 ef e6 b8 a0 dd 0d ba fa 8e 2f ba
       0.000108189415 -0.00011011789 -0.0005411748 -0.00066970254
0002b0 a9 e1 4a ba 5a 0b 3c b9 c9 a0 57 ba 8a 45 38 ba
       -0.00077393145 -0.00017933306 -0.0008225558 -0.0007029405
0002c0 5f d9 48 ba f8 88 4d b9 72 98 5d ba 8c 08 93 ba
       -0.00076617853 -0.00019601348 -0.0008453197 -0.0011217757
0002d0 b1 62 13 b9 ce e3 3d ba 13 da 22 ba 43 6e 80 ba
       -0.00014055778 -0.00072437234 -0.0006212305 -0.0009798486
0002e0 74 46 8b b9 98 47 e1 b8 89 0f 17 37 9c e9 03 ba
       -0.00026564638 -0.000107421714 9.003918e-06 -0.0005032064
0002f0 a9 36 21 b9 3b f7 06 b9 61 56 71 b9 80 28 8f b9
       -0.00015374519 -0.00012871336 -0.0002301573 -0.0002730526
000300 c6 d1 82 ba 15 80 7a ba 9b f7 97 ba 7b 73 b4 b9
       -0.000998073 -0.0009555829 -0.0011594178 -0.00034418315
000310 76 43 80 ba a6 a6 8c ba 50 4a 82 b9 0d 15 bf b9
       -0.000978573 -0.0010730817 -0.000248509 -0.00036446043
000320 59 5e 8c ba 80 76 47 ba 98 da 30 ba 88 d7 51 ba
       -0.001070927 -0.00076089054 -0.000674644 -0.0008004834
000330 3b a3 4c ba 8e 39 bf ba 8b 19 50 ba 94 7e 7e ba
       -0.00078063057 -0.0014589296 -0.00079383765 -0.00097081927
000340 f4 bb 84 b7 9c e9 03 ba bf 4d e9 b8 02 e8 87 ba
       -1.5823149e-05 -0.0005032064 -0.00011124787 -0.0010368826
000350 94 67 08 ba 3b 9a 3d ba 80 ec 35 ba 9f 3f 04 ba
       -0.00052034226 -0.000723276 -0.00069398433 -0.00050448807
000360 1f 07 6c b9 54 d4 f6 b9 80 64 b2 39 ed 62 54 39
       -0.00022509367 -0.00047078973 0.00034025684 0.00020254748
000370 07 ac e6 3b a4 4e 37 3b 60 4b 3d 3b 24 24 05 3c
       0.00703955 0.0027970457 0.0028884038 0.008126292
000380 96 38 17 3b fb c9 1f 3b 16 87 bc 3b ce 8e 9a 3b
       0.00230745 0.0024381864 0.005753408 0.0047167307
000390 5a f6 fb 3a 47 69 f1 3b cc 4a e0 3b 94 f8 4c 3c
       0.0019223199 0.0073672864 0.006844854 0.0125104375
0003a0 6c b5 48 3c ed ec 07 3c 16 92 a8 3a b4 61 9f 3b
       0.012250286 0.008296234 0.001286092 0.004863942
0003b0 1e b4 2b 3c d4 01 6c 3b d4 bd f5 b7 06 3f a0 3a
       0.010479955 0.0036011832 -2.9294672e-05 0.0012225814
0003c0 65 dd ac 3b 9c 4e 41 3b 07 ac e6 3b 16 26 ce 3b
       0.0052754157 0.0029496318 0.00703955 0.0062911613
0003d0 8c 2a d7 3b ed ac 9f 3b ec 7a a1 3b fe 08 5a 3c
       0.0065663513 0.0048729093 0.0049279835 0.013307808
0003e0 9e e3 ce 3b 3c 16 b4 3b 49 c7 7c 3b d8 06 86 3b
       0.006313755 0.0054958146 0.0038570932 0.0040901713
0003f0 83 7b c9 3b b8 da 19 3c e5 07 17 3c bd c2 d6 3b
       0.006148757 0.0093905255 0.009218191 0.0065539763

exp_avg_sq f4 [2, 2, 1, 1]
000000 e6 47 51 34 59 63 b5 33 74 43 90 37 10 bb 37 37
       1.9490798e-07 8.4465405e-08 1.7197548e-05 1.0951204e-05

exp_avg f4 [2, 2, 1, 1]
000000 e0 09 95 b9 e1 ae 6a b9 37 c7 27 b9 dc 0f 51 3b
       -0.00028426852 -0.00022381126 -0.00016000574 0.0031900322

exp_avg_sq f4 [2]
000000 19 9f f0 35 c6 e8 2b 37
       1.7927697e-06 1.0246591e-05

exp_avg f4 [2]
000000 85 d7 f1 ba 57 74 cb 3a
       -0.0018451071 0.0015522343

exp_avg_sq f4 [2]
000000 73 81 8a 38 cb ac 9b 39
       6.6044646e-05 0.00029692645

exp_avg f4 [2]
000000 df a3 66 ba 09 c4 35 bc
       -0.00087982224 -0.011094102

exp_avg_sq f4 [2]
000000 72 4c 11 39 af f9 32 39
       0.00013856756 0.00017068417

exp_avg f4 [2]
000000 83 10 0a bb b5 b6 11 bc
       -0.002106697 -0.008893658

exp_avg_sq f4 [2, 2, 1, 1]
000000 12 d1 15 39 e4 3d 97 38 6b ac b5 39 44 cb bd 38
       0.00014287632 7.211769e-05 0.00034651472 9.0500835e-05

exp_avg f4 [2, 2, 1, 1]
000000 5f c4 54 ba 77 c5 1c bb 71 09 83 3b 38 2c c6 3a
       -0.000811642 -0.002392141 0.0039989282 0.0015119379

exp_avg_sq f4 [2, 2, 1, 1]
000000 83 42 e0 32 66 e5 97 32 6c 05 29 36 69 59 73 35
       2.6107278e-08 1.7683032e-08 2.5186118e-06 9.0654663e-07

exp_avg f4 [2, 2, 1, 1]
000000 12 6e 12 b8 48 42 ce b8 c8 42 88 3a 91 d6 93 39
       -3.4911624e-05 -9.835191e-05 0.0010395879 0.0002819789

exp_avg_sq f4 [2]
000000 d4 6c a8 33 8b 41 d4 36
       7.842905e-08 6.3257226e-06

exp_avg f4 [2]
000000 9f 8d 92 b9 88 fe c9 3a
       -0.00027952806 0.0015410939

exp_avg_sq f4 [2, 2, 1, 1]
000000 7f 2c 51 36 86 3a 2a 36 49 f6 6c 37 01 fb 67 36
       3.1169327e-06 2.536604e-06 1.4124039e-05 3.4567786e-06

exp_avg f4 [2, 2, 1, 1]
000000 85 54 88 3a d7 27 06 ba 4c ee 43 b8 1f 7c c1 39
       0.0010401165 -0.0005117631 -4.6713554e-05 0.00036904306

exp_avg_sq f4 [2]
000000 13 fd 19 38 4f b1 59 39
       3.6713736e-05 0.00020760785

exp_avg f4 [2]
000000 f8 1f a3 b8 56 82 f3 bb
       -7.7784e-05 -0.0074313087

exp_avg_sq f4 [2, 2, 1, 1]
000000 ef d9 48 36 6f d0 92 35 fc 98 dd 36 bd 81 38 36
       2.9929176e-06 1.093851e-06 6.604123e-06 2.7493654e-06

exp_avg f4 [2, 2, 1, 1]
000000 76 fe 9b ba 73 2d 3d ba c8 33 47 3a 5d 22 bf 39
       -0.0011901397 -0.00072165503 0.00075989636 0.00036455962

exp_avg_sq f4 [2]
000000 9f 87 89 36 54 ad 95 37
       4.0987065e-06 1.7842896e-05

exp_avg f4 [2]
000000 df 71 46 ba 02 f7 73 3a
       -0.00075700687 0.00093065214

exp_avg_sq f4 [2]
000000 1d 9d d3 3a 03 42 80 3b
       0.0016144846 0.003914119

exp_avg f4 [2]
000000 42 be d8 bb 45 4a e4 3c
       -0.0066144774 0.027867446

exp_avg_sq f4 [2]
000000 19 9f f0 35 c6 e8 2b 37
       1.7927697e-06 1.0246591e-05

exp_avg f4 [2]
000000 85 d7 f1 ba 57 74 cb 3a
       -0.0018451071 0.0015522343

exp_avg_sq f4 [2]
000000 38 b7 18 39 3a d1 80 3b
       0.00014564104 0.0039311917

exp_avg f4 [2]
000000 88 62 20 ba f8 3a 22 3d
       -0.0006118198 0.03960702

exp_avg_sq f4 [2]
000000 72 4c 11 39 af f9 32 39
       0.00013856756 0.00017068417

exp_avg f4 [2]
000000 83 10 0a bb b5 b6 11 bc
       -0.002106697 -0.008893658
