scripts/python/deep-learning/experiments/convlstm/002/model-convlstm-epoch-16.pth (torch_old, 21817 bytes, 102 tensors)

convLSTM2d1.conv_xi.weight f4 [2, 2, 1, 1]
00000000: d3c1 b53e 717a febe 4251 8bbe f2ab 03bf
0.3549944 -0.4970279 -0.27210432 -0.5143424

convLSTM2d1.conv_xi.bias f4 [2]
00000000: 394c 363f f36b 013f
0.71210057 0.5055534

convLSTM2d1.conv_xf.weight f4 [2, 2, 1, 1]
00000000: ff7c 25bd b9f8 0c3f 7ca4 993e 8656 16bf
-0.04040241 0.5506702 0.30008304 -0.58725774

convLSTM2d1.conv_xf.bias f4 [2]
00000000: 6934 243f e526 5e3f
0.6414247 0.867781

convLSTM2d1.conv_xo.weight f4 [2, 2, 1, 1]
00000000: 662e cd3e bf3e e0be 9111 35bf 7943 d4bd
0.40074462 -0.4379787 -0.7072993 -0.10364432

convLSTM2d1.conv_xo.bias f4 [2]
00000000: 3f1e c4be 4dd1 133f
-0.38304326 0.5774124

convLSTM2d1.conv_xg.weight f4 [2, 2, 1, 1]
00000000: 5084 073f d1f7 f53e ef87 103f 01b0 51be
0.5293627 0.4804063 0.5645742 -0.20477296

convLSTM2d1.conv_xg.bias f4 [2]
00000000: 3ea1 2fbf b5b3 17bf
-0.6860541 -0.59258586

convLSTM2d1.conv_hi.weight f4 [2, 2, 1, 1]
00000000: 12fe 7d3d 9d4e f43e 269c ce3e f9e8 c83e
0.06200988 0.47716227 0.40353507 0.39240244

convLSTM2d1.conv_hi.bias f4 [2]
00000000: 30f5 5c3f d8d3 c4be
0.86311626 -0.38442874

convLSTM2d1.conv_hf.weight f4 [2, 2, 1, 1]
00000000: 9cf4 0dbd a796 20be b3e0 21bf 6e8d a33e
-0.034657106 -0.1568247 -0.6323349 0.3194384

convLSTM2d1.conv_hf.bias f4 [2]
00000000: 6d42 523d f19d 4f3f
0.05133288 0.81100374

convLSTM2d1.conv_ho.weight f4 [2, 2, 1, 1]
00000000: 70ff 2f3f 7a2b 843e b96e 3d3e cb3e 043e
0.6874914 0.2581442 0.18499269 0.12914579

convLSTM2d1.conv_ho.bias f4 [2]
00000000: 9c8c 223f 47e5 9b3d
0.634958 0.076120906

convLSTM2d1.conv_hg.weight f4 [2, 2, 1, 1]
00000000: bf49 0abe 9c22 b83d 04a2 843e 6d14 23be
-0.13504694 0.08990976 0.25904858 -0.1592576

convLSTM2d1.conv_hg.bias f4 [2]
00000000: f213 fd3e 7b26 2b3f
0.4942928 0.6685559

convLSTM2d2.conv_xi.weight f4 [2, 2, 1, 1]
00000000: 15e7 64bf 727a 5a3e 8e41 3a3f 9284 66bf
-0.89415103 0.21335772 0.7275628 -0.90046036

convLSTM2d2.conv_xi.bias f4 [2]
00000000: 19b0 e6be 7b8b a13e
-0.45056227 0.31551728

convLSTM2d2.conv_xf.weight f4 [2, 2, 1, 1]
00000000: 58b5 54be e38c 4dbf 368d 3c3f bb58 63bd
-0.20772302 -0.802931 0.7365297 -0.05550454

convLSTM2d2.conv_xf.bias f4 [2]
00000000: 92d1 273f 9471 0cbf
0.65554154 -0.54860806

convLSTM2d2.conv_xo.weight f4 [2, 2, 1, 1]
00000000: 0f6c c33e 1a39 21bf 9866 11be 0241 95be
0.3816838 -0.62977755 -0.14199293 -0.2915116

convLSTM2d2.conv_xo.bias f4 [2]
00000000: a268 bcbe d515 3a3f
-0.36798579 0.72689563

convLSTM2d2.conv_xg.weight f4 [2, 2, 1, 1]
00000000: 7486 45bf 8f92 a7bc cf07 b0be c5d0 1e3f
-0.77158284 -0.020455627 -0.34380957 0.6203731

convLSTM2d2.conv_xg.bias f4 [2]
00000000: aec0 403f 8994 32bf
0.75294006 -0.69757897

convLSTM2d2.conv_hi.weight f4 [2, 2, 1, 1]
00000000: f9c2 2cbe ee9b 043e 9356 b43d 61c7 2abf
-0.16871251 0.12950107 0.08805575 -0.6671048

convLSTM2d2.conv_hi.bias f4 [2]
00000000: c634 353f f0bf b4be
0.7078365 -0.35302687

convLSTM2d2.conv_hf.weight f4 [2, 2, 1, 1]
00000000: a201 363e 6dbd e1be c558 153f 80d0 15bf
0.1777406 -0.44089833 0.58338577 -0.5852127

convLSTM2d2.conv_hf.bias f4 [2]
00000000: 14e4 96be 6b4e 933e
-0.29470885 0.28770766

convLSTM2d2.conv_ho.weight f4 [2, 2, 1, 1]
00000000: fbb6 cd3e 21d3 7d3e f6fd 463f 62af e2bd
0.40178666 0.2478757 0.77731264 -0.11068608

convLSTM2d2.conv_ho.bias f4 [2]
00000000: 0a8e 2d3e 67e5 983d
0.16948715 0.0746563

convLSTM2d2.conv_hg.weight f4 [2, 2, 1, 1]
00000000: 4285 57be facf 89be 47f9 16bf 4058 803e
-0.21046928 -0.26916486 -0.5897412 0.2506733

convLSTM2d2.conv_hg.bias f4 [2]
00000000: 78e5 fabe aeb8 b73e
-0.49003196 0.35883087

fc1.weight f4 [3, 110]
00000000: 25d8 a53c 8b0c 8b3d 314f 4e3e f041 9a3e
00000010: e478 253e 5f6a d1bd d1ef 13be aed0 863d
00000020: 6d03 493d 6846 e6bb f0e2 903c e343 943d
00000030: 5f88 05bd aaf3 223e f2c2 713d 6899 c73d
00000040: 242c 1bbd f82c a73d 0711 f33c 3269 39bd
00000050: 25c6 153e af3b 0f3e 3ce3 09bb 7d54 a7bc
00000060: 9d18 32bd fae6 573e 8ed9 973c 612e fcbc
00000070: 2e07 a03c e97d af3d c58f f6bc 986e 033e
00000080: 62db b33a 3d17 903d d3d9 793c 39f5 763d
00000090: 56a4 383d 0d2b a13d 0d28 773d 0aa9 7a3d
000000a0: 83e0 5a3d 590f ec3b b71f a4bc cd08 083d
000000b0: b817 d23d 8b0f de3c e9ca f53d 3cfa d93b
000000c0: b003 143d f3d0 e03d 38ed f2ba 1d23 e93d
000000d0: 8fe0 1c3e f0e0 a13c a6d9 283e 96dd 0dbe
000000e0: 67ca 8c3d 6f65 cbbd d96b 3bbe 3e1f 2dbe
000000f0: 3254 e4bd f64d c5bd b34d 93bd ca67 63bd
00000100: 3f6f 83bd 2b4d 07be a450 25be 344f b1bd
00000110: 8e6f d9bd 79b8 66be ce82 e9bc 13a2 f7bc
00000120: e850 2bbd 899e 07bc 3e38 38be 54fb cebd
00000130: e402 13be 153f 9fbd cdc4 19be 52f4 16be
00000140: 7009 6cbe 312b e8bd 8c42 803d 5717 c2bd
00000150: 0225 3dbd f2cb 0b3d 00af 033d a311 023c
00000160: aed3 cdbd 498a cbbd 23be a2bd 0886 b43c
00000170: bc36 f6bc 08e8 f7bd 6025 193d aba8 dcbd
00000180: 248a b9bc c61d 443d d987 87bd e731 04bd
00000190: e924 1dbe 816d 7d3d 4004 a2bd f164 f6bd
000001a0: 7a08 34be 6f82 9ebc 4d0e f0bd 37b0 cbbc
000001b0: 780f 59bd 69fb 6cbd 4828 4cbd b1fd b4bd
000001c0: d283 943d ea4b a9bd 3545 e9bd 750b babd
000001d0: f2bb 2bbe c0ac 05be 5159 2a3d e75c 1dbe
000001e0: e993 e03c 4dcb 81bc 98e6 c0bc 9fc6 4fbd
000001f0: 3bb6 313c 65d4 cebd b546 3fbe c032 c0bd
00000200: a97e 10be 58af 0dbd bec4 82bb 5759 57bc
00000210: 59c3 a5bd b9cb 8ebb 964d 3cbd 3e64 abbc
00000220: 5fac e23c e37f 6abd 2f9b b1bd 6fcb 3bbe
00000230: c03c 95bd 5d76 1ebe 27b4 cfbb af24 a5bd
00000240: db52 4abc dfe4 793c 5595 48bd 2440 a4bd
00000250: e951 01be d596 adbd 8b98 d5bd 9437 f6bd
00000260: 40d4 73bd bb6e 5f3c a8d0 cfbd fc41 d9bd
00000270: 4a8f 17be b975 d93c 6a30 f5bd 9f7b 5ebd
00000280: b1aa c5bd 50fc 1ebd 7283 77bd 8abb a7bd
00000290: 90e5 bcbd 1c92 103e fea3 b53d c9c4 e03d
000002a0: ff50 01bd b649 efbc 598a e13c d5b1 4d3d
000002b0: 1f7f 0cbc cbe3 01bb 4712 9e3d 58e1 ab3b
000002c0: 25f8 033e ae58 f6bc c3fd 023c 567d e83d
000002d0: 2206 d43c 9078 213e b137 4b3d 326f fd3d
000002e0: 0167 d43d fde3 313d 2191 e43c 7628 4f3b
000002f0: c265 a738 c9e2 c73d 601c 7f3d 2886 e73d
00000300: ec42 e23d d09f f73d 21b6 343e 540f 543d
00000310: 40a0 2b3e c16f 013e 31a7 923d 34a7 1bbc
00000320: eeb1 e33d f428 cf3d bafe ab3c e56b 2d3e
00000330: da6f 1f3e 71f2 c83d f953 c13d 465f 0f3e
00000340: 68f0 583d 7d5f 47bc f88b 5a3c a433 c13d
00000350: 56f7 333d 2398 5c3d abee 443d 9da3 2c3c
00000360: 79dc 953d 4ecc 0b3e 4f08 dd3d be5e 0fbd
00000370: babd f63d c3b6 a8bc 3bce 45bd 62bb a9be
00000380: 26bd fa3d 1b50 453e 11db 9e3e e60f d63d
00000390: a58d 8abd c025 9e3d 528a 043e c87f 473e
000003a0: a524 063e 1d4e 36be 5aaa f53c a3ee 0fbe
000003b0: 40e7 4d3e 922d 29bd 0584 2c3e 1b3b ce3d
000003c0: eb85 6f3d 84d6 0ebd 74d2 ff3c 57c1 b5bc
000003d0: 22fc 0e3e 9ddf 3fbe 4a14 f33d e899 eb3d
000003e0: 94d1 403e a22d c03d 2605 913d 3ecf a63c
000003f0: 4a97 283e ca23 cd3c 5b84 043e 0557 143d
0.020244667 0.06789502 0.20147397 0.3012843 0.16159397 -0.10225367 -0.14446951 0.06582771
0.049075533 -0.007027436 0.017686337 0.07239511 -0.032600757 0.15913263 0.059023805 0.09746057
-0.037883893 0.08162874 0.029671205 -0.045266338 0.14626367 0.13987611 -0.0021039983 -0.02042603
-0.043480504 0.21084204 0.018536355 -0.030783834 0.019534674 0.08568937 -0.030097852 0.12835157
0.0013721997 0.07035682 0.015249687 0.060292456 0.045078598 0.078695394 0.06034093 0.061196364
0.053436767 0.007203978 -0.020034654 0.033211518 0.1025843 0.02710702 0.12001593 0.0066521447
0.03613633 0.10977354 -0.0018533831 0.113836505 0.15320037 0.019760579 0.16489276 -0.1385406
0.06874543 -0.09931456 -0.1830286 -0.16906449 -0.111488715 -0.096340105 -0.07192554 -0.055518903
-0.06417703 -0.13213031 -0.16144043 -0.08657685 -0.106169805 -0.22531308 -0.028504755 -0.03022865
-0.041825205 -0.008277544 -0.17990205 -0.10106531 -0.14356571 -0.07775704 -0.1501648 -0.14741638
-0.23050475 -0.11336363 0.06262693 -0.09477108 -0.04617787 0.034130044 0.032149315 0.007938775
-0.1005014 -0.09938485 -0.07946422 0.022036567 -0.030055396 -0.12104803 0.03738916 -0.10774358
-0.022648878 0.047879957 -0.06617708 -0.032274153 -0.15346111 0.06187201 -0.07910967 -0.12030972
-0.17581359 -0.019349305 -0.11721478 -0.0248643 -0.052993268 -0.05785695 -0.049843103 -0.0883745
0.07251705 -0.082664326 -0.11390153 -0.090842165 -0.16770914 -0.1305418 0.041589085 -0.1536747
0.027414279 -0.015844012 -0.023547456 -0.05072653 0.01084667 -0.10099105 -0.18679316 -0.0938468
-0.14110817 -0.03459105 -0.0039907387 -0.013143859 -0.080939 -0.0043577817 -0.04597243 -0.020921823
0.027670084 -0.05725087 -0.08672177 -0.18339323 -0.07286978 -0.1547484 -0.0063386145 -0.080636375
-0.012348856 0.015252321 -0.04897054 -0.08020046 -0.12628902 -0.084760346 -0.10429486 -0.120223194
-0.05952859 0.01363724 -0.1014722 -0.10608289 -0.14800754 0.026545392 -0.11972125 -0.054317113
-0.096516974 -0.038814843 -0.06042809 -0.08190067 -0.09223473 0.14118236 0.0886917 0.10975034
-0.031571385 -0.029209953 0.02753179 0.050218422 -0.00857523 -0.0019819613 0.0771833 0.005245369
0.12887628 -0.030071583 0.007995072 0.11352031 0.02588183 0.15768647 0.04961366 0.123747244
0.10371209 0.043430317 0.027901234 0.003160981 7.9821344e-05 0.09760053 0.06228292 0.11304885
0.110479206 0.12091029 0.17647602 0.05177243 0.1676035 0.12640287 0.071607955 -0.009500314
0.11117922 0.10115233 0.020995487 0.1693569 0.15570012 0.09811867 0.09439845 0.14001188
0.052963644 -0.012168762 0.013339035 0.09433678 0.04393705 0.053856026 0.048079174 0.010537055
0.073174424 0.13652155 0.107926 -0.035002463 0.12047906 -0.02059496 -0.04829238 -0.33150774
0.122431085 0.19268839 0.3102651 0.10452251 -0.06765298 0.07722044 0.1294339 0.19482338
0.13099916 -0.17803235 0.029988457 -0.14055876 0.20107746 -0.041303225 0.16847236 0.10069867
0.058477324 -0.034872547 0.031228282 -0.022186918 0.13963369 -0.18737645 0.11869104 0.11503965
0.18829948 0.09383704 0.0708106 0.020362493 0.16463962 0.02504148 0.12941115 0.0362158

fc1.bias f4 [3]
00000000: fdbb 153e 2d1c 51bd 66f1 e13d
0.14622493 -0.05105226 0.11032371

exp_avg_sq f4 [2, 2, 1, 1]
00000000: 2a1c 8a35 70e0 5e35 3e67 1038 bd92 0537
1.0289998e-06 8.3028044e-07 3.4428427e-05 7.961583e-06

exp_avg f4 [2, 2, 1, 1]
00000000: a0d6 9bba 6b1c 4db9 755a b43a 94d3 0eb9
-0.0011889525 -0.0001956091 0.0013759868 -0.00013620994

exp_avg_sq f4 [2]
00000000: 06b3 6738 bb99 3e39
5.524142e-05 0.00018177081

exp_avg f4 [2]
00000000: df54 aeb9 baba 15bb
-0.000332511 -0.0022846893

exp_avg_sq f4 [2]
00000000: 5874 ca35 bde8 b136
1.5084033e-06 5.3021054e-06

exp_avg f4 [2]
00000000: 504b d9b8 5481 3d39
-0.000103613944 0.00018072623

exp_avg_sq f4 [2, 2, 1, 1]
00000000: ef14 d636 2ef9 7b37 41ac 5336 b294 6537
6.380134e-06 1.50187825e-05 3.1541715e-06 1.36840845e-05

exp_avg f4 [2, 2, 1, 1]
00000000: 35b1 acb9 a761 9f38 891d 58b9 e312 c53a
-0.00032938426 7.5999e-05 -0.00020610368 0.0015035536

exp_avg_sq f4 [2, 2, 1, 1]
00000000: fabd b435 d3e2 eb34 6f07 b636 41f2 2c36
1.3466336e-06 4.3937197e-07 5.424888e-06 2.5771008e-06

exp_avg f4 [2, 2, 1, 1]
00000000: 465c b1ba fc6a 83b8 688e d4ba 348c 4e3a
-0.0013531528 -6.266494e-05 -0.0016216757 0.0007879168

exp_avg_sq f4 [2, 2, 1, 1]
00000000: 3240 2736 c336 de36 0b3d c236 53cb c037
2.4922306e-06 6.6224907e-06 5.788757e-06 2.2982864e-05

exp_avg f4 [2, 2, 1, 1]
00000000: a85e a239 85e2 3bba 6e9f a4b9 b7d0 d33a
0.00030969572 -0.0007167238 -0.00031399302 0.0016160224

exp_avg_sq f4 [2]
00000000: ef3b 103b e886 5b3b
0.002200838 0.0033497158

exp_avg f4 [2]
00000000: a7e2 233b 61fc eb3a
0.0025006921 0.0018004292

exp_avg_sq f4 [2]
00000000: d5aa 0b38 bb0c 3739
3.3299282e-05 0.00017456982

exp_avg f4 [2]
00000000: 9ebe d8b9 9a8d 33ba
-0.0004134075 -0.00068494084

exp_avg_sq f4 [2, 2, 1, 1]
00000000: 3ef1 0837 d3e1 d836 ffb0 f637 97ca 1539
8.1624e-06 6.463591e-06 2.9407905e-05 0.00014285218

exp_avg f4 [2, 2, 1, 1]
00000000: c56e fa3a 3e2f 35bb 9d9f bbba 1350 acba
0.0019106498 -0.0027646567 -0.0014314536 -0.0013146423

exp_avg_sq f4 [2, 2, 1, 1]
00000000: e978 ff35 88d6 a336 940d cf36 242b a936
1.903417e-06 4.8827533e-06 6.1706614e-06 5.0416147e-06

exp_avg f4 [2, 2, 1, 1]
00000000: ebca 9738 a43d c3ba a26e 80ba 83e4 873a
7.2380375e-05 -0.001489569 -0.0009798596 0.0010367784

exp_avg_sq f4 [2, 2, 1, 1]
00000000: 312e 1e34 75a8 bb33 0544 2135 870d 3535
1.4731701e-07 8.738508e-08 6.0076155e-07 6.744744e-07

exp_avg f4 [2, 2, 1, 1]
00000000: 373b f7b8 6f30 0ab9 95c9 8bb9 5b33 21ba
-0.000117889074 -0.00013178748 -0.00026662336 -0.0006149315

exp_avg_sq f4 [2, 2, 1, 1]
00000000: e860 0637 0ab6 a236 c668 4f37 5ba0 0837
8.009585e-06 4.8491684e-06 1.2362556e-05 8.143567e-06

exp_avg f4 [2, 2, 1, 1]
00000000: cd43 30bb b889 50ba 32cd 4d3b dff2 19bb
-0.0026895881 -0.0007955092 0.0031402824 -0.002349071

exp_avg_sq f4 [2]
00000000: eba8 2c38 f7a6 523a
4.1165313e-05 0.0008035744

exp_avg f4 [2]
00000000: c071 773b bbec 98bb
0.003775701 -0.0046668923

exp_avg_sq f4 [2, 2, 1, 1]
00000000: e5c3 e937 9ac3 cd38 ba3c 6038 8c99 4e39
2.7866985e-05 9.8115954e-05 5.3462318e-05 0.00019702892

exp_avg f4 [2, 2, 1, 1]
00000000: bac9 d439 539a 1bbb f2d1 3539 c635 cfba
0.0004058609 -0.0023743107 0.00017339716 -0.0015808872

exp_avg_sq f4 [2, 2, 1, 1]
00000000: 90c4 8e35 29b1 4e36 d393 9e36 7cdf 8837
1.0637032e-06 3.0799513e-06 4.725976e-06 1.6316531e-05

exp_avg f4 [2, 2, 1, 1]
00000000: ca5c 6739 43eb cbb9 a091 54b8 2ef2 373a
0.00022064443 -0.0003889446 -5.0680363e-05 0.00070169836

exp_avg_sq f4 [2, 2, 1, 1]
00000000: afef bb36 2b41 6c37 cdf7 8336 969f 6236
5.600937e-06 1.4081869e-05 3.932952e-06 3.3769516e-06

exp_avg f4 [2, 2, 1, 1]
00000000: d718 3f3a 8897 35ba 8b70 92ba 1baf 333a
0.0007289773 -0.0006927182 -0.0011172456 0.0006854401

exp_avg_sq f4 [2]
00000000: 406a 3c33 2e6f cf35
4.3868795e-08 1.5455059e-06

exp_avg f4 [2]
00000000: 6b29 2fb8 284b 8d39
-4.1761825e-05 0.00026949611

exp_avg_sq f4 [3]
00000000: f81e 163b ffa0 d93a c702 773a
0.0022906642 0.0016603767 0.0009422716

exp_avg f4 [3]
00000000: c71b e4bb 2f70 c0b5 b627 e43b
-0.006961319 -1.4337764e-06 0.0069627417

exp_avg_sq f4 [3, 110]
00000000: 8c0d 3338 6add 6438 1b0b fb37 a0b8 4f38
00000010: 6083 1e38 a32a fb37 3afb 9038 ec74 9538
00000020: cf70 3e38 8fb9 ba38 109d 7638 c3ae a238
00000030: 54d2 8f38 751e 4338 4de1 4338 b209 1938
00000040: 4353 8538 6230 5238 2550 5f38 1049 1e38
00000050: dc53 6e38 5ff7 5d38 8c0d 3338 3962 8c38
00000060: 174c 7d38 0e2d 4d38 242c 5038 4122 8d38
00000070: a33c 8938 caee 9038 e871 5138 9116 9338
00000080: e650 9338 8ae0 a138 b764 9938 e32e 9638
00000090: d58a ab38 1ab9 a838 e649 7738 8a18 7638
000000a0: 0449 9238 55a9 6838 4988 9d38 6a3c 9138
000000b0: 8c0d 3338 0821 9b38 7cd9 a738 91a4 8f38
000000c0: ea98 a338 fd23 9238 e1ac 9b38 8a1a 8238
000000d0: 5a1a 8f38 9212 a338 c39d 5338 6547 f138
000000e0: 7a61 3539 063d 3639 4682 2e39 ddfd 1b39
000000f0: a8e2 3839 4e79 4939 47ea 6239 5231 2539
00000100: e0e8 6b39 dc05 3839 311d 5039 b31e 5d39
00000110: 0f0b 3639 ef17 2239 3b88 1a39 c06b 5639
00000120: 2598 1a39 29ba 5039 ee8d 1239 0647 2739
00000130: 01b3 2d39 6547 f138 5d06 3039 6af6 2139
00000140: 2b49 0139 a83a 1839 5526 4839 bff5 4439
00000150: 8565 5b39 637a 2a39 34de 3539 9498 4039
00000160: c7ee 4239 bcab 4639 257c 3139 be3f 6239
00000170: 0b30 3739 72d3 2a39 d1ed 5c39 7833 3a39
00000180: 68e5 2639 8231 4839 e2f1 4739 6547 f138
00000190: dc73 3439 57f0 4539 2bd4 2239 8984 2f39
000001a0: 484e 1c39 bae3 1b39 4b1f 1839 195f 1739
000001b0: 85ef 2d39 82e7 0e39 d218 cd36 6276 dd36
000001c0: b96b 9636 6882 e636 ba62 cc36 aa3f 7836
000001d0: 5e79 c536 0c4e c636 b7f4 d736 8550 0b37
000001e0: a936 0037 4f62 0b37 f048 d836 536b d236
000001f0: 0b3b e036 bb70 d536 ced6 bb36 bef1 fc36
00000200: 026e c836 cfb9 cf36 fecb fe36 edf7 0037
00000210: d218 cd36 523a 1437 bac7 f236 cdc4 0637
00000220: ef4b f136 8fa1 ca36 f72b cb36 4f95 dc36
00000230: de0a d336 6bfd 0c37 944f e636 8bac 2537
00000240: 5dd2 0e37 04e1 0a37 cf90 0537 590d 1537
00000250: 4e75 dc36 ad44 a236 1289 0437 7e32 f136
00000260: 7e54 fc36 fd8f f636 d218 cd36 74d4 1937
00000270: 9ef4 1137 0a48 1e37 6784 1a37 d207 1b37
00000280: 92e9 2037 cc87 0a37 3f45 1f37 b14b 2037
00000290: ed35 0537 105c e237 977d ed37 f31c 1538
000002a0: a64a 0a38 ed4a 0138 13a1 1d38 7d71 f637
000002b0: 205e 0b38 e4d9 f937 f253 e837 e83f 0338
000002c0: 0ba6 ed37 b7b0 0a38 9aa2 0538 2278 f737
000002d0: 9035 0338 5efe 0b38 e407 d237 3764 f937
000002e0: a064 ed37 1e9b ed37 cbf1 0738 105c e237
000002f0: 45ea f337 975e e337 d266 d337 e169 e937
00000300: 235d fb37 3dd2 ea37 7c2b f137 58c1 ef37
00000310: d7d3 d437 b2c9 e637 27c7 e537 68d9 dd37
00000320: 0080 d537 6b9a f637 256d d337 110d d537
00000330: db90 1138 1c79 d337 5566 e537 c291 e037
00000340: 5ed1 fb37 105c e237 ab8f e337 46b6 d237
00000350: 76b3 c837 b85e bf37 aa5c be37 9d74 b437
00000360: b454 d337 9512 c837 021c d337 43ef db37
00000370: c308 2138 7cd9 4b38 a0ff ea37 6769 3b38
00000380: 0158 0e38 257d e937 9a30 9038 c37b 8d38
00000390: 4759 3438 b3ef ae38 99f7 6238 faef 9938
000003a0: 1c55 8838 1819 2e38 5b25 3338 1984 0a38
000003b0: 8397 8338 2f4c 4338 8e78 5238 4d3e 1038
000003c0: 6cfa 5b38 ea5c 4d38 c308 2138 d244 8238
000003d0: 55a7 6b38 7a15 3d38 da14 3e38 d2c8 8438
000003e0: a100 8138 446d 8838 b4ac 4038 3747 8738
000003f0: 6b53 8a38 9c40 9238 ac12 8f38 17b1 8b38
4.2689542e-05 5.4565644e-05 2.9926703e-05 4.952459e-05 3.7792488e-05 2.9941386e-05 6.91325e-05 7.126652e-05
4.540459e-05 8.903734e-05 5.8797246e-05 7.757314e-05 6.857948e-05 4.651999e-05 4.670145e-05 3.6487072e-05
6.357443e-05 5.011296e-05 5.3241984e-05 3.773818e-05 5.6821722e-05 5.292089e-05 4.2689542e-05 6.6940156e-05
6.0390765e-05 4.891777e-05 4.9632174e-05 6.729784e-05 6.5439635e-05 6.910933e-05 4.9935566e-05 7.0137095e-05
7.024575e-05 7.718902e-05 7.314368e-05 7.161291e-05 8.179775e-05 8.045342e-05 5.8958212e-05 5.8673824e-05
6.975423e-05 5.5470813e-05 7.5117285e-05 6.925392e-05 4.2689542e-05 7.3971285e-05 8.00369e-05 6.849424e-05
7.800928e-05 6.968526e-05 7.423177e-05 6.203826e-05 6.82368e-05 7.775905e-05 5.0453247e-05 0.00011505074
0.00017297818 0.00017379606 0.00016642464 0.00014876523 0.00017632043 0.00019214043 0.00021640315 0.00015754
0.00022498099 0.0001754979 0.000198473 0.00021087639 0.00017360992 0.0001545844 0.00014737334 0.0002044877
0.00014743263 0.00019905776 0.00013976518 0.0001595282 0.0001656525 0.00011505074 0.00016787038 0.00015445953
0.00012329656 0.00014517701 0.00019087766 0.00018783564 0.00020923287 0.00016258056 0.00017344282 0.00018367387
0.00018590233 0.00018946728 0.00016926283 0.00021576785 0.00017470137 0.00016291233 0.00021069428 0.00017757516
0.00015916454 0.0001909193 0.00019068227 0.00011505074 0.00017209299 0.00018876918 0.00015528563 0.00016738674
0.00014906481 0.00014866787 0.00014507507 0.00014435909 0.00016587794 0.00013628419 6.1123656e-06 6.600095e-06
4.482889e-06 6.8697154e-06 6.091167e-06 3.6991937e-06 5.8851865e-06 5.9099457e-06 6.435988e-06 8.303793e-06
7.642121e-06 8.307935e-06 6.4457927e-06 6.270982e-06 6.6825937e-06 6.361018e-06 5.598041e-06 7.5383277e-06
5.973271e-06 6.1907117e-06 7.5935377e-06 7.687119e-06 6.1123656e-06 8.835066e-06 7.2354132e-06 8.032844e-06
7.1911995e-06 6.038877e-06 6.0549896e-06 6.5738927e-06 6.289555e-06 8.403654e-06 6.8637983e-06 9.87494e-06
8.512839e-06 8.2778315e-06 7.961134e-06 8.8842e-06 6.570167e-06 4.835971e-06 7.899727e-06 7.1882378e-06
7.5200214e-06 7.3481337e-06 6.1123656e-06 9.168976e-06 8.699628e-06 9.434307e-06 9.209943e-06 9.240541e-06
9.5911255e-06 8.257059e-06 9.493261e-06 9.554366e-06 7.939973e-06 2.698417e-05 2.8311084e-05 3.555133e-05
3.2971286e-05 3.0825777e-05 3.758173e-05 2.9378332e-05 3.3227843e-05 2.9784576e-05 2.7695645e-05 3.129235e-05
2.8329921e-05 3.3066342e-05 3.1861106e-05 2.9500636e-05 3.1282718e-05 3.337708e-05 2.5037625e-05 2.972978e-05
2.8299459e-05 2.8324834e-05 3.2411695e-05 2.698417e-05 2.9076948e-05 2.7104556e-05 2.520104e-05 2.7825068e-05
2.9964902e-05 2.7992874e-05 2.8749688e-05 2.8581053e-05 2.5371015e-05 2.7512058e-05 2.7391665e-05 2.644649e-05
2.5451183e-05 2.9397392e-05 2.5203984e-05 2.5397663e-05 3.47056e-05 2.5209556e-05 2.734658e-05 2.6770755e-05
3.0019026e-05 2.698417e-05 2.712741e-05 2.5118828e-05 2.3925426e-05 2.2813081e-05 2.2692915e-05 2.1511974e-05
2.5192603e-05 2.385051e-05 2.5166202e-05 2.621825e-05 3.839355e-05 4.860152e-05 2.8014008e-05 4.4682438e-05
3.39374e-05 2.783404e-05 6.875508e-05 6.746456e-05 4.299849e-05 8.341614e-05 5.4113192e-05 7.340308e-05
6.500838e-05 4.1508203e-05 4.2711716e-05 3.302479e-05 6.274788e-05 4.6562574e-05 5.0180177e-05 3.4390298e-05
5.2446892e-05 4.896234e-05 3.839355e-05 6.211702e-05 5.6184206e-05 4.5081113e-05 4.531895e-05 6.331656e-05
6.1513165e-05 6.505338e-05 4.593721e-05 6.4505664e-05 6.5958906e-05 6.973857e-05 6.822249e-05 6.661022e-05

exp_avg f4 [3, 110]
00000000: 2f27 e5ba dc23 b9bb b9e1 50bb d90d afbb
00000010: d8b8 f738 439c a839 0397 803a 68ca 46bb
00000020: cbaa 67bb 51df b3bb 5b7e 99bb b4fe 87bb
00000030: e597 86bb 028a 1139 b5e1 44b9 fec2 de3a
00000040: 084a 0bbb b0a8 06bb f311 ab37 23d0 e33a
00000050: b5f8 2cbb e107 163a 2f27 e5ba 7069 9abb
00000060: b666 1ebb 7689 5bbb bc36 1b3b 31a7 97bb
00000070: 3593 7bbb 2620 cfba b993 153a abaf fbb9
00000080: e9be 3d3a fe7e 5aba bd96 8bbb c419 5bbb
00000090: b187 02bb 18ad bbba f565 85bb bcda de3a
000000a0: 5716 46bb 1032 1139 b877 ef3a 06ae 36bb
000000b0: 2f27 e5ba 3e30 c1b9 02e9 29bb 8263 fa39
000000c0: 5c23 faba 339d 05bb 61fb dbb9 60d4 1c3a
000000d0: 2b83 3ebb 2c51 6ebb e29e 27ba 1377 013b
000000e0: ac9f 993b 0014 f63b c855 ba3b 243f c039
000000f0: d25b f23b 00b8 e13b 56e0 5a3b fd10 9e3a
00000100: f907 833b 5770 8f3b 386b af3b beec 2a3c
00000110: 1886 c73b 5264 893b 9995 9eb9 de10 653b
00000120: 87f8 6b3b 9c57 1b3c e4ba b63a 4e7c a73a
00000130: 971d 3bba 1377 013b 5add fb3b d528 973b
00000140: 6b9c 3d3b 8e8e 56bb d8a0 b33b a62d d33b
00000150: f6a5 6d3b dcdd 2f3a 9fc4 f33a 309d 36ba
00000160: 03ae 0e3a c2a7 243c c2a4 793b 5071 bd3b
00000170: af10 ca3a 799d e43b b5c8 b23b eeac ba3b
00000180: d77e 6c3a b832 4bba 00d2 bb3b 1377 013b
00000190: 27fc 8eb9 011d 9f3b 9e4d d3b9 538a bd3b
000001a0: 70ba 293b e285 46ba 4aca afba 3884 b73a
000001b0: b083 b33b f7b8 b6ba 268e 96b6 0392 91b8
000001c0: fbb3 69ba f3c3 7fba f2e2 e8b9 5df6 ceb9
000001d0: 3e7c 6e3a 56f8 ebb8 85d6 51ba a3c4 2038
000001e0: 19f8 88ba 2337 7139 2b52 45ba 4198 77ba
000001f0: 8a79 abb9 f8a6 86ba 1db8 373a 6b8a fd37
00000200: 332f 13ba 7fc3 1cba 13f0 a1b9 d0d0 8fba
00000210: 268e 96b6 7cf4 e2b9 c88c 47b9 5526 27ba
00000220: 43ac 0eba aa33 8839 2b45 303a a1e5 9239
00000230: eba7 0cba 2ced bdb9 1646 be36 f2f9 6aba
00000240: 1fad 0fb9 6170 a639 d0df 31b9 ac33 ed38
00000250: 6068 5139 4f1c d4b9 7988 0a3a 8a6e 12ba
00000260: 3319 b539 e393 1bba 268e 96b6 31d5 23ba
00000270: cb67 d239 91e2 40b7 152b cf39 dad2 7d37
00000280: 32bf 3938 0347 09ba 8b15 20b9 5e18 44ba
00000290: 44a5 2cba bcb0 e336 ab4b 043a 136a 8e39
000002a0: 2c25 ae3a 7225 373a 981c 5839 260e 09b9
000002b0: 52b9 b4b8 25b0 8b3a 1df1 a3b9 70a9 873a
000002c0: 7f0d 8a38 12b6 5a3a 8540 363a f076 6d37
000002d0: 262a 043a 9db7 bc37 ab7b c6b9 6b95 b937
000002e0: 91d0 c739 9e03 183a c396 993a bcb0 e336
000002f0: a882 5d3a f544 0939 bbae 243a f813 0e3a
00000300: 4556 bab9 593c 12ba 7cfd 76ba 4213 373a
00000310: 679c 01b9 c90c c6b9 e298 9b3a 8eb8 97b9
00000320: 4463 89ba 41df 4ab9 0f8c 2fba 1a4d 91b9
00000330: a3e3 02ba e2bc bdba 391b e539 8698 0aba
00000340: e557 323a bcb0 e336 c4cd 843a f2de 37ba
00000350: feb2 12ba bdb2 0bba 64d0 10ba 74c5 b0b9
00000360: 9fda 3c39 a809 003a 0b50 a83a b980 483a
00000370: a6bd e53a 1f6a bb3b 5ca7 853b 5206 cf3b
00000380: 7af4 aa39 3967 9938 3fd5 f7ba 212a 4e3b
00000390: 3110 8e3b bc9d b23b 5cbc bb3b f174 803b
000003a0: 2342 9f3b 9f35 533a 15f5 063a 2238 30ba
000003b0: d8b7 ba3a 92ad 043b 56d6 0d3a 836e 95ba
000003c0: a836 413b 8f99 093a a6bd e53a af98 a83b
000003d0: 77df 2a3b 86a9 823b 7817 efba ef23 8f3b
000003e0: dd81 4f3b a766 aa3a 06c0 0eb8 3ace 5c3a
000003f0: b03b 3fba 56bc e23a 1f14 903b a44b 463b
-0.0017482991 -0.0056500267 -0.0031872822 -0.005342227 0.00011812308 0.0003215988 0.000981063 -0.0030333046
-0.0035349603 -0.005489268 -0.004684252 -0.004150236 -0.0041074627 0.0001387969 -0.00018776099 0.0016995368
-0.0021253843 -0.0020547323 2.0393147e-05 0.0017380755 -0.0026393358 0.000572322 -0.0017482991 -0.004712276
-0.0024170107 -0.003349868 0.0023683747 -0.004628085 -0.0038387303 -0.0015802428 0.00057059113 -0.00048005334
0.00072382257 -0.00083349633 -0.0042599128 -0.0033432106 -0.0019917304 -0.0014318554 -0.004070992 0.0017002444
-0.0030225718 0.00013846927 0.0018269932 -0.0027874722 -0.0017482991 -0.00036847772 -0.0025926237 0.00047757855
-0.0019084024 -0.0020387887 -0.00041958227 0.0005982574 -0.0029069881 -0.00363643 -0.000639422 0.0019754812
0.004688224 0.0075097084 0.0056864955 0.00036668137 0.0073961997 0.0068883896 0.0033397875 0.0012059506
0.003998753 0.0043774056 0.0053533576 0.01043242 0.0060889833 0.0041928673 -0.00030247567 0.003495268
0.0036006288 0.009481337 0.0013941196 0.0012778135 -0.0007137893 0.0019754812 0.0076862993 0.004613022
0.0028932344 -0.0032738778 0.0054818206 0.0064446507 0.003626225 0.000670878 0.0018598026 -0.0006966172
0.00054428 0.010049762 0.0038092588 0.00578133 0.0015416349 0.00697678 0.005456055 0.0056968844
0.0009021586 -0.0007751393 0.005731821 0.0019754812 -0.0002727222 0.0048557525 -0.00040302885 0.005784312
0.002589848 -0.00075730507 -0.0013411727 0.0014001196 0.005478345 -0.0013940622 -4.4868966e-06 -6.9413356e-05
-0.0008915064 -0.0009756677 -0.00044419576 -0.00039474937 0.0009097493 -0.000112519294 -0.0008004683 3.8330105e-05
-0.0010449915 0.00023004091 -0.00075271976 -0.000944499 -0.00032706215 -0.0010273149 0.0007008331 3.0224406e-05
-0.0005614638 -0.0005980059 -0.00030887182 -0.0010972265 -4.4868966e-06 -0.00043288234 -0.00019030564 -0.00063762564
-0.0005442539 0.00025978434 0.0006724174 0.00028018377 -0.0005365598 -0.00036225596 5.6706003e-06 -0.00089636364
-0.00013702035 0.00031745716 -0.00016963412 0.00011310665 0.00019970676 -0.00040456883 0.0005284618 -0.00055859296
0.00034541785 -0.00059348176 -4.4868966e-06 -0.00062497245 0.00040131653 -1.1496843e-05 0.00039514215 1.5129068e-05
4.42855e-05 -0.0005236717 -0.00015266814 -0.00074804376 -0.0006585906 6.7857018e-06 0.0005046676 0.00027163382
0.0013286225 0.0006986476 0.00020610017 -0.00013070609 -8.6175874e-05 0.0010657354 -0.00031269426 0.0010350179
6.5828666e-05 0.00083431706 0.0006952363 1.4153993e-05 0.0005041681 2.2496848e-05 -0.00037857643 2.2123297e-05
0.00038111632 0.0005798879 0.0011717904 6.7857018e-06 0.000844995 0.00013091027 0.00062821404 0.00054198457
-0.0003554096 -0.00055784505 -0.00094219274 0.00069837656 -0.00012360663 -0.0003777503 0.0011871124 -0.00028938468
-0.0010481854 -0.0001934739 -0.00066965906 -0.00027714 -0.0004993027 -0.0014475847 0.00043698566 -0.000528701
0.00068032584 6.7857018e-06 0.0010132124 -0.00070141174 -0.000559613 -0.0005329063 -0.00055242167 -0.0003371645
0.0001801052 0.00048842514 0.0012841237 0.00076485757 0.0017527833 0.0057194377 0.0040787887 0.006317892
0.00032607076 7.314835e-05 -0.0018908157 0.0031458216 0.0043354263 0.0054509323 0.0057292413 0.0039201905
0.004860179 0.00080570014 0.00051482144 -0.00067222316 0.0014245464 0.0020245058 0.00054106617 -0.0011400733
0.002948204 0.0005249017 0.0017527833 0.0051451544 0.0026073137 0.003987494 -0.0018241247 0.0043682973
0.0031663098 0.0013000563 -3.4034274e-05 0.0008423064 -0.0007294966 0.001729856 0.00439693 0.0030257488

exp_avg_sq f4 [2, 2, 1, 1]
00000000: a0fb 3034 6a4d 8333 da53 b436 4526 2c36
1.6482818e-07 6.1142444e-08 5.3741796e-06 2.5652273e-06

exp_avg f4 [2, 2, 1, 1]
00000000: 2c12 ccb9 a756 a9b8 106e 06bb 6490 ca3a
-0.0003892345 -8.074688e-05 -0.002051238 0.0015454409

exp_avg_sq f4 [2]
00000000: 67c4 0235 6d17 3d36
4.8714577e-07 2.817683e-06

exp_avg f4 [2]
00000000: 76ba dbb9 7ea4 80b9
-0.0004190986 -0.0002453662

exp_avg_sq f4 [2]
00000000: 06b3 6738 bb99 3e39
5.524142e-05 0.00018177081

exp_avg f4 [2]
00000000: df54 aeb9 baba 15bb
-0.000332511 -0.0022846893

exp_avg_sq f4 [2]
00000000: f42d cf38 d516 e938
9.8790886e-05 0.000111145586

exp_avg f4 [2]
00000000: e322 efba 7811 19bb
-0.001824465 -0.002335636

exp_avg_sq f4 [2, 2, 1, 1]
00000000: 09f2 4138 111c 3438 e428 8538 7529 0638
4.62402e-05 4.2941483e-05 6.349551e-05 3.19867e-05

exp_avg f4 [2, 2, 1, 1]
00000000: e5d5 4b3b d0b9 e5ba 01e6 0b39 4750 97ba
0.0031102833 -0.001752669 0.00013341756 -0.001154431

exp_avg_sq f4 [2, 2, 1, 1]
00000000: d4c2 4e32 7bc6 1832 d8b5 bc34 3dea 9534
1.2035077e-08 8.892694e-09 3.5150038e-07 2.7923844e-07

exp_avg f4 [2, 2, 1, 1]
00000000: 23bb 09b8 5fe4 a6b8 912a d1b8 61b6 f5b9
-3.283763e-05 -7.958034e-05 -9.973825e-05 -0.00046865924

exp_avg_sq f4 [2]
00000000: 406a 3c33 2e6f cf35
4.3868795e-08 1.5455059e-06

exp_avg f4 [2]
00000000: 6b29 2fb8 284b 8d39
-4.1761825e-05 0.00026949611

exp_avg_sq f4 [2, 2, 1, 1]
00000000: f65a 5535 30d2 f935 48bb 7936 8c62 3036
7.948105e-07 1.8613118e-06 3.7212903e-06 2.6283406e-06

exp_avg f4 [2, 2, 1, 1]
00000000: 5c9e 05b9 8b8a 86ba d919 1dba effc 283a
-0.00012742862 -0.0010264678 -0.00059929263 0.00064463814

exp_avg_sq f4 [2]
00000000: d5aa 0b38 bb0c 3739
3.3299282e-05 0.00017456982

exp_avg f4 [2]
00000000: 9ebe d8b9 9a8d 33ba
-0.0004134075 -0.00068494084

exp_avg_sq f4 [2, 2, 1, 1]
00000000: a8ba 1435 422d ca34 7191 8a35 294d 6b35
5.5405917e-07 3.765836e-07 1.032413e-06 8.7656605e-07

exp_avg f4 [2, 2, 1, 1]
00000000: 847d 24ba a834 24ba 5a0e b3b9 ff89 2239
-0.0006274807 -0.000626395 -0.00034152233 0.00015500931

exp_avg_sq f4 [2]
00000000: 5874 ca35 bde8 b136
1.5084033e-06 5.3021054e-06

exp_avg f4 [2]
00000000: 504b d9b8 5481 3d39
-0.000103613944 0.00018072623

exp_avg_sq f4 [2]
00000000: ef3b 103b e886 5b3b
0.002200838 0.0033497158

exp_avg f4 [2]
00000000: a7e2 233b 61fc eb3a
0.0025006921 0.0018004292

exp_avg_sq f4 [2]
00000000: 67c4 0235 6d17 3d36
4.8714577e-07 2.817683e-06

exp_avg f4 [2]
00000000: 76ba dbb9 7ea4 80b9
-0.0004190986 -0.0002453662

exp_avg_sq f4 [2]
00000000: eba8 2c38 f7a6 523a
4.1165313e-05 0.0008035744

exp_avg f4 [2]
00000000: c071 773b bbec 98bb
0.003775701 -0.0046668923

exp_avg_sq f4 [2]
00000000: f42d cf38 d516 e938
9.8790886e-05 0.000111145586

exp_avg f4 [2]
00000000: e322 efba 7811 19bb
-0.001824465 -0.002335636
